models/adv_submodel_2.pth (torch, 251802 bytes, 10 tensors)

conv1.weight f4 [6, 3, 5, 5]
0	0xbd09b7b7	-0.03362247
1	0xbd370ddc	-0.04469095
2	0x3d2758df	0.04085624
3	0xbb5c56d8	-0.00336211
4	0xbcec1f6b	-0.028823575
5	0xbddd1479	-0.107949205
6	0x3d0a9297	0.033831205
7	0x3d0784b1	0.03308553
8	0xbdc02e87	-0.093838744
9	0xbda983d0	-0.08277094
10	0xbda1f417	-0.079078846
11	0x3daaf2df	0.08347105
12	0xbd265fd8	-0.040618747
13	0xbd09c7fd	-0.03363799
14	0xbcf783be	-0.030214187
15	0x3d3a8cb4	0.04554434
16	0xbd198fde	-0.037490718
17	0xbd3e9fe3	-0.0465392
18	0xbceb4a3d	-0.028721923
19	0xbd72b5c7	-0.059255388
20	0x3d4f428a	0.050600566
21	0x3d94c971	0.072649844
22	0x3db55a3b	0.08855101
23	0x3c8603fe	0.016359325
24	0xbce08652	-0.027407799
25	0x3c99899a	0.018742371
26	0x3da6d023	0.08145168
27	0x3db71234	0.08939019
28	0xbdc33704	-0.09531978
29	0x3dd74e92	0.10513033
30	0x3d846751	0.064650185
31	0xbdaca6af	-0.0843023
32	0xbd559087	-0.052139785
33	0xbd46ca61	-0.048532847
34	0x3d7a808c	0.061157748
35	0x3dc9bb56	0.098501846
36	0x3dd539ba	0.10411401
37	0xbd0ebd68	-0.0348486
38	0xbdd1d248	-0.10245186
39	0xbd12d847	-0.03585079
40	0xbd913837	-0.070908
41	0xbd430e6c	-0.047621176
42	0xbd37bca6	-0.044857644
43	0xbda70323	-0.08154895
44	0x3d90df55	0.07073847
45	0xbddd704a	-0.10812433
46	0xbdaad29f	-0.08340954
47	0xbd879b41	-0.06621409
48	0xbde1abbb	-0.11019083
49	0x3cbd050d	0.023073697
50	0xbc52eb26	-0.012873447
51	0xbdb5791e	-0.08860992
52	0xbcfc2fdf	-0.030784545
53	0xbde8157f	-0.11332225
54	0x3c2dcaf9	0.0106074745
55	0xbcfd6f10	-0.030936748
56	0x3d16006d	0.0366215
57	0x3dc2da12	0.0951425
58	0x3d406de8	0.046979815
59	0x3de1821a	0.11011143
60	0xbce5b765	-0.02804155
61	0xbd9e56ba	-0.077313855
62	0xbd6adfa3	-0.057342183
63	0xbc8b8cd6	-0.01703493
64	0xbb37536e	-0.0027973312
65	0x3ce8f341	0.028436305
66	0x3d8a7f51	0.06762565
67	0xbd4bab55	-0.04972394
68	0xbdbfc07b	-0.093628846
69	0xbdb878f6	-0.090074465
70	0x3bf85115	0.007578025
71	0x3d2c4788	0.042060405
72	0x3da1c4a2	0.07898833
73	0xbdb80594	-0.08985439
74	0x3d87f079	0.066376634
75	0x3cfcfe30	0.030882925
76	0x3d0be74c	0.03415613
77	0x3d694a0a	0.056955375
78	0x3d27de7c	0.040983662
79	0x3ca2fccd	0.019895935
80	0xbc0eda22	-0.008718999
81	0xbcd16d4a	-0.025564808
82	0x3d5a2b09	0.053263698
83	0x3db75d21	0.0895331
84	0x3d70ffbd	0.05883764
85	0xbd8c6138	-0.068544805
86	0xbe282ce9	-0.16423382
87	0x3a44a26a	0.0007501008
88	0x3df51c52	0.11968292
89	0x3dd7c247	0.10535102
90	0xbe25cdda	-0.16191807
91	0xbebdec77	-0.3709447
92	0xbdf9f41b	-0.122047625
93	0x3d4c2bbe	0.049846403
94	0x3d918637	0.071056776
95	0xbdb001e0	-0.08594108
96	0xbe84a2f1	-0.25905564
97	0xbd9fa8a9	-0.07795841
98	0x3cf1955b	0.029490164
99	0x3d6a9293	0.05726869
100	0x3b565fb9	0.0032710864
101	0x3b24a334	0.002512169
102	0x3bceb976	0.0063087298
103	0x3b81b97d	0.0039588795
104	0x3ac2406b	0.0014820223
105	0xbc382bf2	-0.011240946
106	0xbc74ea93	-0.014948505
107	0x3b997ee9	0.0046843183
108	0x3c1cf093	0.009578842
109	0x3b57bd15	0.0032919098
110	0xbcef4c57	-0.029211206
111	0xbd6ca56a	-0.05777494
112	0xbbd71bc7	-0.0065645906
113	0x3c3caca1	0.011515767
114	0x3c10de2b	0.0088420315
115	0xbd5be16a	-0.05368177
116	0xbe02ec5e	-0.1278548
117	0xbd1d9286	-0.038469814
118	0xbbb7796b	-0.005599191
119	0xb7921734	-1.7415361e-05
120	0xbcd8a6e2	-0.026446763
121	0xbda45821	-0.08024622
122	0xbcdcf35c	-0.026971512
123	0xbc07fbb1	-0.008299754
124	0xbb109a1b	-0.002206451
125	0x3cd4afd1	0.025962742
126	0x3ca3ae8d	0.019980693
127	0x3d1bc2c6	0.038027547
128	0x3cccc20a	0.024994869
129	0x3bc9f301	0.0061630015
130	0xbc2a6dab	-0.010402123
131	0xbd436622	-0.047704823
132	0x3d37b246	0.04484775
133	0x3db4965a	0.0881774
134	0x3d340260	0.043947577
135	0xbdcc9162	-0.09988667
136	0xbe7cdda8	-0.2469393
137	0xbd2a5451	-0.041584317
138	0x3dfb8c39	0.12282605
139	0x3dbefe6a	0.093258694
140	0xbe676bd2	-0.22599724
141	0xbef8071a	-0.48442918
142	0xbe4cc17a	-0.1999568
143	0x3d4d7520	0.050160527
144	0x3d923335	0.07138673
145	0xbe11bb93	-0.1423171
146	0xbea68d2f	-0.3252959
147	0xbe06f857	-0.13180672
148	0x3d19459f	0.03741991
149	0x3d8ced06	0.06881146
150	0xbcfdce90	-0.030982286
151	0xbd0728c5	-0.032997865
152	0xba124b63	-0.00055806915
153	0x3db12009	0.08648688
154	0x3ddbeaa0	0.107381105
155	0xbd728ac1	-0.059214357
156	0xbeb3a146	-0.3508398
157	0xbdaeaa1e	-0.08528541
158	0x3ea41e58	0.320544
159	0x3ea1e717	0.3162162
160	0xbdef709c	-0.116914004
161	0xbf3e772e	-0.74400604
162	0xbe1c8fa3	-0.15289168
163	0x3f06e73b	0.5269658
164	0x3f0269f5	0.5094293
165	0xbe254bb1	-0.16142155
166	0xbf219fdf	-0.6313457
167	0xbe0b3d03	-0.13597493
168	0x3ee597d5	0.448424
169	0x3ef76548	0.4831946
170	0xbde1ac50	-0.11019194
171	0xbe6d1c78	-0.23155391
172	0xbd84422c	-0.06457934
173	0x3e33c68c	0.17556208
174	0x3e838b91	0.25692418
175	0xbca4e119	-0.020126866
176	0xbc8c898a	-0.017155427
177	0xbc38a405	-0.011269574
178	0x3b360f47	0.0027780102
179	0x3b96d135	0.004602576
180	0xbd0767df	-0.033058044
181	0xbdfd8cb3	-0.12380352
182	0xbcc04035	-0.023468116
183	0x3d27b445	0.040943403
184	0x3d118549	0.0355275
185	0xbd535f1e	-0.051604383
186	0xbe955eb3	-0.29173812
187	0xbd0f3698	-0.034964174
188	0x3d9ed0a8	0.07754642
189	0x3d8dbb76	0.06920521
190	0xbd32d2f3	-0.043658208
191	0xbe468654	-0.1938718
192	0xbcdd69c3	-0.02702797
193	0x3d89077a	0.06690879
194	0x3d8aac16	0.06771104
195	0xbc903452	-0.017603073
196	0xbd35f55c	-0.044423446
197	0xbc3fc505	-0.011704688
198	0x3cb8bd50	0.022551209
199	0x3d0b058e	0.033940844
200	0xbd974213	-0.073856495
201	0xbdb77832	-0.08958472
202	0xbcfb9875	-0.030712346
203	0x3db3ea85	0.087849654
204	0x3db3f296	0.08786504
205	0xbdbec7d7	-0.0931546
206	0xbeeab5a6	-0.45841712
207	0xbdefd963	-0.11711385
208	0x3ebceb04	0.36898053
209	0x3eafd090	0.34338808
210	0xbdeb3061	-0.11483837
211	0xbf530d10	-0.82441807
212	0xbe2fc188	-0.1716367
213	0x3f170f8e	0.5900811
214	0x3f109217	0.56472915
215	0xbe1c4954	-0.15262347
216	0xbf265db8	-0.64986753
217	0xbe172c55	-0.14763005
218	0x3ef080be	0.46973222
219	0x3effe015	0.4997565
220	0xbdd00e75	-0.101590075
221	0xbe5e7057	-0.21722542
222	0xbd880407	-0.06641393
223	0x3e2b9512	0.16756085
224	0x3e6cc640	0.23122501
225	0xba7a67a1	-0.0009552185
226	0xbb6cdedb	-0.0036143574
227	0x3b60f168	0.0034323577
228	0x3bcfeeff	0.006345629
229	0x3b36da6b	0.0027901183
230	0xbc5410d9	-0.01294347
231	0xbcca0afd	-0.024663443
232	0xbc6f08e6	-0.014589524
233	0xbc07c86e	-0.008287532
234	0xbb939ac9	-0.004504536
235	0xbcc2ad2f	-0.023764221
236	0xbd3f17bb	-0.04665349
237	0xbd297149	-0.041367803
238	0xbce61ead	-0.0280908
239	0xbc55be0c	-0.013045799
240	0xbced5e30	-0.028975576
241	0xbd5aff8a	-0.053466357
242	0xbd57c8b8	-0.052681655
243	0xbd21a07c	-0.03945969
244	0xbca6484a	-0.020298142
245	0xbc9cf2b4	-0.019158699
246	0xbd0ecf0f	-0.034865435
247	0xbd0dcdea	-0.034620203
248	0xbce45ed2	-0.027877245
249	0xbc811912	-0.015759025
250	0x3b893080	0.00418669
251	0x3bbbcca2	0.0057311812
252	0x3be43f57	0.0069655585
253	0x3bd4c5c6	0.006493303
254	0x3ba87a10	0.005141504
255	0x3bd4867a	0.0064857574

conv1.bias f4 [6]
0	0xbd9ea93e	-0.07747124
1	0x3e032119	0.12805595
2	0xbdfe2516	-0.12409417
3	0xbf06e788	-0.5269704
4	0x3ecc5959	0.39911917
5	0xbebe6b3e	-0.37191194

conv2.weight f4 [16, 6, 5, 5]
0	0xbd85c24f	-0.06531202
1	0x3c063a1b	0.008192564
2	0x3da25ce7	0.07927876
3	0x3d119f6e	0.035552435
4	0xbd9736b9	-0.073834844
5	0xbd956f0a	-0.0729657
6	0x3d303496	0.0430189
7	0x3d5a13e4	0.053241625
8	0x3c31e765	0.010858391
9	0x3d0bc569	0.034123812
10	0xbd8d9530	-0.06913221
11	0xbcfa17ef	-0.03052899
12	0xbd4b9469	-0.04970208
13	0x3ac016fe	0.001465529
14	0xbb8d0f1b	-0.004304779
15	0x3d19f601	0.037588123
16	0x3c2a2edd	0.01038715
17	0x3cafb2ab	0.0214475
18	0xbda24042	-0.079224125
19	0x3d4be4a9	0.049778614
20	0xbd5169f9	-0.051126454
21	0xbda53be2	-0.08068062
22	0xbc265b34	-0.01015358
23	0x3d82c464	0.06385115
24	0x3cde58f6	0.02714203
25	0x3c9eb41a	0.019372988
26	0x3d3441b5	0.044007976
27	0x3ce215c6	0.027598273
28	0xbb93e88a	-0.004513805
29	0xbb02ff66	-0.0019988655
30	0x3c98ed1b	0.018667748
31	0x3d35ad49	0.04435471
32	0x3d436a87	0.047709014
33	0x3d6fd43c	0.05855201
34	0x3ce9cfe7	0.028541518
35	0x3cd03fc1	0.025421025
36	0x3cadcc0f	0.021215467
37	0x3d0ad507	0.033894565
38	0x3cc22539	0.02369939
39	0x3d2ac9f8	0.04169652
40	0x3d5bfc76	0.053707562
41	0x3cc244f3	0.023714518
42	0x3ca93283	0.020653969
43	0x3cf38989	0.029728668
44	0x3c8659b6	0.0164002
45	0x3ca47b81	0.020078423
46	0x3cc412e9	0.023934798
47	0x3bbbd980	0.005732715
48	0xbc48a115	-0.012245436
49	0xbc93d898	-0.018047616
50	0xbce0595f	-0.027386365
51	0xbc3efdc5	-0.011657183
52	0xbb9fb7fd	-0.004874228
53	0xbc45c4c4	-0.012070838
54	0xbc6b4cae	-0.014361544
55	0xbd166ee8	-0.036726862
56	0xbd0f3677	-0.03496405
57	0xbcd776d7	-0.026301784
58	0xbc599630	-0.013280436
59	0xbc78fb76	-0.015196672
60	0xbd01d5c6	-0.03169801
61	0xbd241ea4	-0.040068284
62	0xbd271b65	-0.04079761
63	0xbce09822	-0.027416293
64	0xbc8592cd	-0.016305352
65	0xbd0c9e5e	-0.03433072
66	0xbd147e56	-0.036253296
67	0xbd1e2459	-0.038608883
68	0xbceaa607	-0.028643621
69	0xbc9a276b	-0.018817624
70	0xbd0d7b92	-0.034541674
71	0xbd0e55cd	-0.034749795
72	0xbd003b6e	-0.031306677
73	0xbcd57e3f	-0.026061175
74	0xbc8da929	-0.017292576
75	0xbabf80d1	-0.0014610534
76	0xbc9f07ed	-0.019412959
77	0xbcc12edb	-0.023581913
78	0xbc9a01a7	-0.018799616
79	0xbc0627a5	-0.008188163
80	0x3ceb73f8	0.028741822
81	0xbb82d17f	-0.003992259
82	0xbd9ef154	-0.077608734
83	0x3b8b50fb	0.004251597
84	0x3d1720f7	0.036896672
85	0xbc05b7d3	-0.008161503
86	0xbcff3237	-0.031151874
87	0x39f147e6	0.0004602067
88	0xbcc75bb0	-0.024335712
89	0xbd65e638	-0.056127757
90	0xbcd31a2f	-0.025769321
91	0x3bc314be	0.0059534004
92	0x3bfefcfd	0.0077816234
93	0xbcbd31fe	-0.023095127
94	0xbcd0e3ab	-0.025499186
95	0xbda19ffb	-0.07891842
96	0xbced7c79	-0.028990017
97	0xbd8231f4	-0.06357184
98	0x3b3d44c0	0.002888009
99	0xbd0dc8a7	-0.034615185
100	0xbd1229bf	-0.035684343
101	0xbce8281d	-0.02833944
102	0xbc74b4ff	-0.014935731
103	0xbcb41e0c	-0.021986984
104	0xbcdcb8a7	-0.026943518
105	0xbd3b6413	-0.045749735
106	0xbd355d75	-0.04427858
107	0xbd3b47f7	-0.045722928
108	0xbd1587b4	-0.03650637
109	0xbcf87c12	-0.030332599
110	0xbd0f9b80	-0.035060406
111	0xbd2978b9	-0.041374896
112	0xbd39aaf7	-0.04532906
113	0xbd1c92a2	-0.038225777
114	0xbcfb6ce5	-0.030691573
115	0xbd3461a6	-0.044038437
116	0xbcf8b9a6	-0.030361962
117	0xbd291c09	-0.041286502
118	0xbd0fd2d6	-0.03511318
119	0xbd0cb0ea	-0.034348406
120	0xbcfe74b5	-0.03106151
121	0xbcc6ae60	-0.02425307
122	0xbcfb00df	-0.030640064
123	0xbc83045b	-0.015993288
124	0xbc43f61e	-0.011960534
125	0x3dd97ef9	0.10619921
126	0x3dc8f964	0.098131925
127	0x3dd7068f	0.10499298
128	0x3d920fc5	0.07131914
129	0x3df4cddc	0.11953327
130	0x3ddc59aa	0.107592896
131	0x3cffe6f2	0.031238053
132	0x3d14fb08	0.036372215
133	0x3da96891	0.082718976
134	0x3e15b6ba	0.14620486
135	0x3daff76f	0.08592116
136	0x3dbe9872	0.093064204
137	0x3e2c9114	0.16852218
138	0x3d955439	0.07291455
139	0x3da82e60	0.0821197
140	0x3cee4e4f	0.029090075
141	0x3d133c2b	0.035946053
142	0x3de0fdf9	0.109859414
143	0x3d2c6404	0.04208757
144	0x3db2d934	0.087328345
145	0x3d367865	0.04454841
146	0x3d6ac19d	0.05731355
147	0x3d59ca46	0.05317142
148	0x3dd77c02	0.105216995
149	0x3e1444ad	0.14479323
150	0x3cc7e779	0.024402367
151	0x3d04a624	0.032385007
152	0xbd124ea8	-0.035719544
153	0xbd4f0ff9	-0.050552342
154	0xbc6655a2	-0.014058502
155	0xbcc77511	-0.024347814
156	0xbbe6392e	-0.0070258593
157	0x3b25c23d	0.0025292777
158	0xbd13dc44	-0.036098734
159	0x3d8545d4	0.06507459
160	0xbd9a636b	-0.07538494
161	0xbd0c9693	-0.034323286
162	0x3d80b621	0.06284738
163	0x3cc30a81	0.02380872
164	0x3c43e6dc	0.011956897
165	0xbd02400b	-0.031799357
166	0x3d538c24	0.05164732
167	0x3d274bfe	0.040843956
168	0xbd8073b3	-0.06272068
169	0x3d1fda36	0.03902646
170	0xbd47d91a	-0.04879103
171	0xbd80f655	-0.06296984
172	0xbc414d92	-0.011798279
173	0x3bcf1b5f	0.0063204016
174	0xbcc989ab	-0.024601778
175	0xbd4cd7f8	-0.05001065
176	0xbc2bb2ec	-0.01047967
177	0x3d4d47e0	0.050117373
178	0xbbaf728a	-0.0053542303
179	0xbd4c923f	-0.04994416
180	0xbc2e46be	-0.010636983
181	0xbd82347b	-0.06357666
182	0x3d0f75d7	0.03502449
183	0xbc814fa4	-0.015785046
184	0xbc3d2c1e	-0.011546163
185	0xbc4809e5	-0.01220939
186	0x3d42fb54	0.047602966
187	0x3bbabf96	0.0056991084
188	0x3c8fb95c	0.01754444
189	0xbcf54bc4	-0.029943354
190	0xbb153e9f	-0.002277292
191	0x3ba4bed3	0.005027631
192	0x3bf29645	0.0074031674
193	0xbc4e4688	-0.012590058
194	0x3bf81975	0.007571394
195	0x3bd5e071	0.0065269996
196	0xbd02c662	-0.031927474
197	0xbd075424	-0.033039227
198	0x3cde1e0b	0.027113935
199	0x3c284e38	0.010272555
200	0x3e0bf477	0.13667475
201	0x3d825709	0.06364257
202	0xbcd6ac48	-0.026205197
203	0xbd588bab	-0.052867573
204	0x3d04ae84	0.032392994
205	0xbc04d7c8	-0.008108087
206	0x3d97f0f4	0.07419005
207	0xbd904eef	-0.070463054
208	0xbccbfe5e	-0.024901565
209	0xbc22e3f2	-0.009942042
210	0xbbd6f53c	-0.006559996
211	0xbd912e98	-0.07088965
212	0xbc6753c6	-0.014119094
213	0xbd258b4c	-0.040416047
214	0xbd1659e1	-0.03670681
215	0xb9fe793a	-0.00048536976
216	0xbcfc5617	-0.03080277
217	0xbd5ffc61	-0.054684047
218	0xbce378d6	-0.02776758
219	0x3b4776eb	0.003043587
220	0xbcf1c5a9	-0.029513197
221	0xbd24ff69	-0.04028264
222	0xbd42d5cd	-0.047567178
223	0xbd4ada2d	-0.049524475
224	0xbd287269	-0.041124735
225	0x3deba306	0.11505704
226	0x3e3eaa0e	0.18619558
227	0x3e267d4b	0.16258733
228	0x3d6c09c9	0.05762652
229	0xbd223dc3	-0.03960968
230	0x3d768eaa	0.06019465
231	0x3e40f129	0.18841995
232	0x3d675587	0.05647805
233	0xbc565c70	-0.013083562
234	0x3c836079	0.016037213
235	0xbcabd1a0	-0.02097398
236	0x3b9fcae6	0.0048764823
237	0xbb6844f8	-0.00354415
238	0xbd72f005	-0.05931093
239	0xbd44b645	-0.04802539
240	0xbd664908	-0.05622199
241	0xbd39ee0c	-0.045393035
242	0xbe1103d7	-0.14161621
243	0xbd72610c	-0.059174582
244	0xbddd09ba	-0.10792871
245	0xbdbd2fea	-0.092376545
246	0xbdb523d4	-0.08844724
247	0xbe01dca4	-0.12681824
248	0xbdd76f33	-0.105192564
249	0xbda05279	-0.078282304
250	0x3d130f5b	0.035903316
251	0x3c7847ab	0.015153806
252	0x3bf4a04b	0.0074653975
253	0xbcb2001a	-0.021728564
254	0xbc846ed0	-0.01616612
255	0x3e367651	0.17818572

conv2.bias f4 [16]
0	0x3eebcdd3	0.4605547
1	0xbc856555	-0.01628367
2	0x3eada2a1	0.33913139
3	0xbfc8a6c9	-1.5675899
4	0xbe56af58	-0.20965326
5	0xbce20b67	-0.027593328
6	0xbfae4dec	-1.361753
7	0x3fc29f43	1.5204853
8	0xbf4797e7	-0.7796616
9	0xbd8bc27d	-0.06824205
10	0xbf3c9d6f	-0.73677725
11	0xbdc00f30	-0.09377897
12	0x3f994ad9	1.1975967
13	0xbd5ee171	-0.054414216
14	0xbdb0a2be	-0.086247906
15	0x3f002069	0.50049454

fc1.weight f4 [120, 400]
0	0xbde060ba	-0.10955949
1	0xbd63477f	-0.055488106
2	0x3c1076fc	0.008817431
3	0xbd9d0ede	-0.07668851
4	0xbe4261ac	-0.18982571
5	0xbdbdf5c5	-0.092753924
6	0xbd43a764	-0.047767058
7	0xbe0ab7d2	-0.13546684
8	0xbceae046	-0.028671395
9	0xbd610c98	-0.05494365
10	0xbd13926f	-0.03602832
11	0x3d2465a5	0.040136
12	0xbcdaf56f	-0.02672836
13	0x3df5074c	0.119642824
14	0x3ddf94d9	0.10917062
15	0x3d525cc9	0.051358018
16	0x3dff44fe	0.12464331
17	0x3e0908d5	0.13382275
18	0x3e72d120	0.23712587
19	0x3de37036	0.11105387
20	0xbdef786f	-0.11692893
21	0x3b8acfc3	0.004236193
22	0xbc372ee3	-0.011180612
23	0x3da3c106	0.07995801
24	0xbe1844db	-0.14870016
25	0xbcdbfde9	-0.026854472
26	0xbd234839	-0.0398638
27	0x3b8a4bb0	0.0042204484
28	0x3ca6aaaa	0.02034505
29	0xbd5389f8	-0.05164525
30	0x3cb55492	0.022135053
31	0x3ac3a6be	0.0014927012
32	0xbc1a6dfb	-0.009425635
33	0xbd7effb4	-0.062255576
34	0xbcd99bfc	-0.026563637
35	0xbae4d6f3	-0.0017459079
36	0xbd3769db	-0.044778686
37	0x3cb828e6	0.02248044
38	0xbcc0413f	-0.023468612
39	0x3cd9889c	0.026554398
40	0x3cd1ea65	0.025624463
41	0x3cb95037	0.022621257
42	0xbb9c08be	-0.0047617843
43	0xb8a98a9d	-8.084367e-05
44	0x3c56c5ff	0.013108729
45	0x3bd2c2e4	0.006431924
46	0xbbb7d000	-0.0056095123
47	0x3cc85177	0.024452908
48	0x3c4d32a7	0.0125242835
49	0x3c8b5ddc	0.01701253
50	0x3dadb0fd	0.084810235
51	0xbce29a9c	-0.027661614
52	0x3d52db13	0.051478457
53	0x3ce175fe	0.027522083
54	0x3dc4bb49	0.09606034
55	0xbbb0d5a3	-0.005396561
56	0xbc3f9656	-0.011693558
57	0x3dff0228	0.12451583
58	0x3be0a197	0.0068552005
59	0x3db1e29a	0.08685799
60	0xbdb3ec20	-0.08785272
61	0xbdedc407	-0.11609655
62	0xbe1a4609	-0.15065779
63	0xbe30f407	-0.17280589
64	0xbe22807d	-0.15869327
65	0xbdc9ef89	-0.09860141
66	0xbd9ad45a	-0.07560034
67	0xbd89eb79	-0.06734366
68	0xbdb02be7	-0.08602124
69	0x3d1c22a5	0.038118977
70	0xbcac29fb	-0.021016112
71	0xbd3fb178	-0.046800107
72	0xbc812dff	-0.015769003
73	0xbc7a9f07	-0.015296704
74	0x3e3265c7	0.17421637
75	0xbdf18c44	-0.11794332
76	0xbd49fd0d	-0.049313594
77	0xbe2509b1	-0.16116978
78	0xbe05bffd	-0.13061519
79	0xbde711c5	-0.11282686
80	0xbe0143ca	-0.12623516
81	0xbcb73c1b	-0.022367528
82	0xbe0dd4d3	-0.13850717
83	0xbdf96d00	-0.12178993
84	0xbde4a72c	-0.11164698
85	0x3cff4189	0.03115918
86	0x3daa1b37	0.08305972
87	0x3d8ccca9	0.06874973
88	0x3db7fe24	0.0898402
89	0x3e34269b	0.17592852
90	0x3d3478e3	0.0440606
91	0x3df3d6ad	0.119061805
92	0x3e26cebd	0.16289802
93	0x3e3b1e4c	0.18273276
94	0x3e3df00d	0.18548603
95	0x3ca64b45	0.020299563
96	0x3dd3101e	0.103058085
97	0x3d940765	0.07227973
98	0x3d13fe61	0.036131267
99	0xbc39d858	-0.011343084
100	0xbc848049	-0.016174452
101	0xbcf01b91	-0.02931002
102	0x3d010271	0.03149647
103	0xbd0d0f40	-0.03443837
104	0xbdd6be6c	-0.10485539
105	0xbcb8aa0d	-0.022542024
106	0x3da49f13	0.080381535
107	0xbcefa6e9	-0.029254394
108	0x3c5c73b5	0.013455321
109	0xbcc74be5	-0.024328182
110	0xbd7a3fa4	-0.06109585
111	0x3cdf8bcc	0.02728834
112	0x3cfd14c2	0.030893687
113	0x3c6fd100	0.014637232
114	0xbd85280e	-0.065017805
115	0xbc718ced	-0.014743072
116	0xbd8314e4	-0.06400469
117	0xbd8fa00e	-0.0701295
118	0x3d834341	0.06409312
119	0x3d2a5b4a	0.041590966
120	0xbdbbdb0b	-0.091726385
121	0xbd33d524	-0.04390444
122	0xbde4e70c	-0.11176881
123	0x3d754af1	0.059885923
124	0x3db575bd	0.088603474
125	0x3c9126ce	0.017718699
126	0x3d0793e2	0.033100016
127	0x3d0b6e23	0.03404058
128	0x3c569ada	0.013098443
129	0xbc18f9af	-0.009336873
130	0xbc84bb11	-0.016202481
131	0xbd1b1b8d	-0.03786807
132	0xbd3e2d20	-0.046429753
133	0xbb351f89	-0.0027637205
134	0xbc731aa7	-0.014837897
135	0x3b84bf55	0.004051129
136	0x3cf75829	0.030193405
137	0xbd3b589c	-0.0457388
138	0xbd1ab13c	-0.03776668
139	0xbcf991ab	-0.030464968
140	0x3d3e2c7a	0.046429135
141	0xbc9b16d8	-0.018931791
142	0xbce78974	-0.028263785
143	0xbb1561c9	-0.002279388
144	0x3d1b674d	0.037940312
145	0x3cb77bbd	0.02239787
146	0xbccf5501	-0.025309088
147	0xbc4194ad	-0.011815232
148	0x3d23345e	0.039844863
149	0x3d157a71	0.036493722
150	0xbde21bb2	-0.11040439
151	0xbbbbb5ff	-0.0057284827
152	0xbade1d74	-0.0016946034
153	0x3c916286	0.017747175
154	0xbde31d6e	-0.11089598
155	0x3e046af0	0.12931418
156	0x3d316db9	0.04331753
157	0xbd832903	-0.06404307
158	0xbc8faa62	-0.0175373
159	0xbc8827ec	-0.016620599
160	0xbd95f369	-0.073218174
161	0x3d5e9f60	0.05435121
162	0x3cb49bae	0.02204689
163	0x3d3cc0ce	0.04608231
164	0xbbaa9a3e	-0.0052063754
165	0x3dffe1b3	0.124942206
166	0x3d5ea518	0.054356664
167	0xbcdd98d7	-0.027050419
168	0x3e05599a	0.13022462
169	0x3d5a5488	0.05330327
170	0x3d649040	0.05580163
171	0x3d7adba5	0.061244626
172	0xbd94d59d	-0.07267306
173	0x3d5ebc00	0.05437851
174	0x3d7b3d7e	0.06133794
175	0x39bfcf43	0.0003658478
176	0xbd9d06b1	-0.07667292
177	0xbd546393	-0.051852774
178	0xbe2f3de9	-0.1711346
179	0xbe2db7cc	-0.16964644
180	0xbd466450	-0.04843551
181	0xbd8092b2	-0.0627798
182	0xbcfca90e	-0.03084233
183	0xbe152d55	-0.14568074
184	0xbe071790	-0.13192582
185	0x3de87ae8	0.113515675
186	0xbcdb5d3e	-0.02677786
187	0xbe22601e	-0.15856978
188	0xbd9ac084	-0.07556251
189	0x3d204115	0.039124567
190	0xbd1c8b82	-0.038218983
191	0xbcf4bd45	-0.029875407
192	0x3e3742e1	0.17896606
193	0x3e457253	0.19281892
194	0x3e352101	0.17688371
195	0x3e4f6e2d	0.20256872
196	0x3e855d45	0.26047722
197	0x3e8189db	0.25300488
198	0x3e41b1a9	0.18915428
199	0x3e7546a0	0.23952723
200	0xbb64248f	-0.003481183
201	0xbc843f23	-0.016143387
202	0xbd629b09	-0.055323634
203	0xbc682734	-0.014169503
204	0xbcb31695	-0.021861354
205	0xbd8217c7	-0.063521914
206	0xbd057b31	-0.032588188
207	0x3d3c427d	0.045961846
208	0x3c65b58a	0.014020333
209	0xbce1e938	-0.027577028
210	0xbd055da2	-0.03256
211	0xbcafa147	-0.021439208
212	0x3d41ea8c	0.047342822
213	0xbc8db7c9	-0.01729955
214	0xbdac1286	-0.084019706
215	0xbdb8831b	-0.090093814
216	0xbd1ec529	-0.038762245
217	0x3a9cc3cd	0.0011960209
218	0x3c96c645	0.01840509
219	0x3cba807b	0.022766342
220	0xbd681f80	-0.056670666
221	0x3c2b2f7b	0.010448332
222	0x3c9976ee	0.018733468
223	0x3d9dbe07	0.077022605
224	0x3d959e89	0.07305629
225	0xbd29b619	-0.041433427
226	0x3d188277	0.037233796
227	0x3cacb0eb	0.021080455
228	0xbd1012b3	-0.035174083
229	0xbd3473a2	-0.04405559
230	0xbc056793	-0.00814237
231	0x3d26afd6	0.040695034
232	0x3d418f96	0.047256075
233	0xbc161a6e	-0.009161575
234	0xbcc67145	-0.024223933
235	0xbd3dd4bd	-0.04634546
236	0xbd07d5e1	-0.033162955
237	0xbabd5afc	-0.0014446671
238	0xba9999fb	-0.0011718863
239	0x3c8e7d1d	0.017393643
240	0x3ca91d4b	0.02064385
241	0xbc4e5598	-0.012593649
242	0x3d46031b	0.048342805
243	0x3d2e6e2e	0.042585544
244	0xbc77484d	-0.015092921
245	0xbbb06663	-0.005383299
246	0x3d11ad0c	0.03556542
247	0xbd13d605	-0.036092777
248	0xbc81adc3	-0.015829926
249	0x3c927606	0.017878544
250	0xbda7efd3	-0.0820004
251	0xbc17d633	-0.009267378
252	0x3cd9988b	0.026561996
253	0xbda59419	-0.08084888
254	0xbc2d448b	-0.010575424
255	0x3c93daca	0.018048663

fc1.bias f4 [120]
0	0x3ef8c7e2	0.48589998
1	0x3e8ada1c	0.2711953
2	0x3eccd4fe	0.4000625
3	0xbe232e31	-0.1593559
4	0x3da40fc2	0.08010818
5	0xbdaab5c7	-0.083354525
6	0xbe39b9c0	-0.18137264
7	0xbed9649d	-0.42459574
8	0xbd2ef883	-0.042717468
9	0x3e2bbdcf	0.16771625
10	0x3e970c08	0.29501367
11	0x3a588a38	0.00082603423
12	0xbe8a8f72	-0.27062565
13	0x3f2290a6	0.63501966
14	0x3c880cc2	0.016607646
15	0xbe6b972c	-0.23006886
16	0xbd9bdc8e	-0.07610427
17	0x3d816d2f	0.06319653
18	0x3f877a3a	1.0584176
19	0xbddf7e48	-0.10912758
20	0xbdecdbcf	-0.11565363
21	0x3f09f49f	0.5388889
22	0x3e345092	0.1760886
23	0x3da0c21d	0.07849524
24	0x3edd39f0	0.43208265
25	0xbe09fe31	-0.13475873
26	0xbee4a4b5	-0.44656911
27	0xbda2c7eb	-0.079482876
28	0x3e041914	0.12900192
29	0xbe185a78	-0.14878261
30	0xbeb17feb	-0.34667906
31	0xbcec928d	-0.028878475
32	0xbd83d70b	-0.064375006
33	0xbd7135f4	-0.058889344
34	0x3e8c7500	0.27433014
35	0xbda317d1	-0.07963527
36	0xbe289252	-0.16462067
37	0xbe39946e	-0.18123028
38	0xbc87ee6a	-0.016593177
39	0xbf2f1121	-0.6838551
40	0xbd19c7fc	-0.037544236
41	0xbdbb2bae	-0.091391906
42	0x3e5ea787	0.21743594
43	0xbe6ae0bd	-0.22937293
44	0xbdb24a8d	-0.08705626
45	0x3f0b7b93	0.54485434
46	0x3d2993ce	0.041400723
47	0x3d038a11	0.032114092
48	0x3e398e17	0.18120609
49	0xbf3c2fde	-0.7351054
50	0xbd44a209	-0.04800609
51	0xbe7ec61f	-0.24880265
52	0x3d5827d1	0.052772347
53	0xbbe8428f	-0.0070880125
54	0xbe5d80cb	-0.21631162
55	0x3e4dc372	0.20094088
56	0xbcfea6dd	-0.031085426
57	0xbdc42c02	-0.09578706
58	0xbe17c0d7	-0.14819656
59	0xbe815ad7	-0.25264618
60	0x3e8b2b9d	0.27181712
61	0xbe062393	-0.13099508
62	0x3b98a6b1	0.004658543
63	0x3da3e2e7	0.080022626
64	0x3db4a697	0.08820837
65	0xbc9fab6f	-0.019490926
66	0xbd8c394f	-0.06846868
67	0xbe978233	-0.29591522
68	0xbc8e48a8	-0.01736863
69	0x3c54651f	0.012963562
70	0x3d7ef77f	0.06224775
71	0x3e33ce1a	0.1755909
72	0x3c0c2100	0.00855279
73	0x3e8e8ff8	0.27844214
74	0xbdd7b5f7	-0.10532754
75	0xbd527149	-0.05137757
76	0xbdd459c1	-0.10368682
77	0xbded6e30	-0.11593282
78	0xbdecaa3a	-0.11555906
79	0xbe29c6b4	-0.16579705
80	0xbc0aa931	-0.00846319
81	0xbe0e7da9	-0.13915123
82	0x3f2c2a15	0.6725171
83	0xbebefc64	-0.37301934
84	0xbee42e9a	-0.44566804
85	0xbd3017f2	-0.042991586
86	0xbc766ed1	-0.015041069
87	0x3e796b32	0.24357298
88	0x3deb1c6b	0.1148003
89	0xbcc7eb16	-0.02440409
90	0xbe2fad32	-0.17155913
91	0x3e6ca223	0.23108725
92	0xbdc81f35	-0.09771577
93	0x3d4f7c40	0.050655603
94	0x3d5268fb	0.05136965
95	0xbdb090d2	-0.08621372
96	0x3eae1c1c	0.3400582
97	0xbdce5fe2	-0.10076882
98	0xbe8d3069	-0.27575997
99	0x3ea94347	0.3305914
100	0x3ed9d7f2	0.42547566
101	0xbe0d64e4	-0.13808018
102	0x3e134d56	0.1438497
103	0xbe415da3	-0.18883376
104	0x3df7c277	0.12097638
105	0xbe9dd04c	-0.3082298
106	0x3f085bb1	0.5326491
107	0x3e874c1f	0.26425263
108	0xbe5f33b4	-0.21797067
109	0xbd7468b3	-0.05967016
110	0x3e7a0288	0.24415028
111	0xbe7ee58b	-0.24892251
112	0xbca2f894	-0.019893922
113	0xbeb1146b	-0.3458589
114	0x3dc096f5	0.09403793
115	0x3f77d35f	0.968069
116	0xbdb8309c	-0.089936465
117	0xbd3bdc53	-0.045864414
118	0x3e801284	0.25014126
119	0xbe0f574d	-0.13998146

fc2.weight f4 [84, 120]
0	0xbd6219ba	-0.055200316
1	0x3dc1da45	0.0946546
2	0xbd4eaa30	-0.050455272
3	0x3d5c72ef	0.053820547
4	0x3d4543ab	0.048160236
5	0x3d845124	0.06460789
6	0xbdedc3b9	-0.11609597
7	0xbd59430d	-0.05304246
8	0xbb8769f5	-0.004132504
9	0xbd7c8558	-0.061650604
10	0xbd90fb6b	-0.07079204
11	0x3913bd14	0.0001408945
12	0xbd01b037	-0.031662192
13	0xbd144b8b	-0.036204856
14	0xbe208880	-0.1567707
15	0xbc2c8ffc	-0.010532375
16	0x3d48f260	0.04905927
17	0x3ca22c49	0.019796507
18	0x3daaebb0	0.08345735
19	0xbe60a56b	-0.21938102
20	0x3e563e7b	0.20922272
21	0x3cbc4b67	0.022985173
22	0x3e116d4d	0.14201851
23	0xbc8e60be	-0.017380115
24	0xbd490456	-0.0490764
25	0x3d2e55c4	0.04256226
26	0x3af12ce4	0.0018400219
27	0xbd96a459	-0.073555656
28	0xbd39ae23	-0.045332085
29	0xbd76ff9b	-0.060302358
30	0xbe17f35b	-0.14838926
31	0x3da34ad0	0.07973254
32	0x3d1ee6da	0.038794376
33	0x3dc7b223	0.09750774
34	0xbe0376e3	-0.1283832
35	0xbce40c87	-0.027838005
36	0x3e561e1b	0.20909922
37	0x3d3e1b66	0.046412848
38	0x3e0bc253	0.13648348
39	0x3df7c5d9	0.12098283
40	0xbda52bb0	-0.08064973
41	0xbdb7f13c	-0.08981559
42	0xbcea8b58	-0.028630897
43	0xbcf9d068	-0.030494884
44	0xbdf31e7f	-0.11871051
45	0xbd4c75c7	-0.04991701
46	0xbdb722eb	-0.08942207
47	0xbe01646e	-0.12635967
48	0x3d75a58a	0.059972323
49	0x3c54c17f	0.012985586
50	0xbdd11411	-0.102089055
51	0x3d869e1a	0.06573124
52	0x3cc72856	0.024311226
53	0xbd813011	-0.06307996
54	0x3e2be5f6	0.16786942
55	0x3bab3dee	0.0052258885
56	0x3dcaec45	0.09908346
57	0xbd28fc2e	-0.041256122
58	0x3d74f243	0.05980135
59	0xbdcff7e0	-0.101547
60	0x3db1ae35	0.086758055
61	0xbc32bc7b	-0.010909195
62	0x3cdff1e1	0.027337017
63	0x3e08891f	0.13333558
64	0xbd07f556	-0.033192955
65	0xbce3d6a2	-0.027812306
66	0x3e003d19	0.12523307
67	0x3daf6464	0.0856407
68	0x3d90aa51	0.07063735
69	0xbda13f4a	-0.078733996
70	0xbda12563	-0.07868459
71	0xbdd66ca3	-0.104699396
72	0xbd0a5ac4	-0.033777967
73	0xbdb1b7e5	-0.08677653
74	0x3dbf95b9	0.09354729
75	0xbe16dd46	-0.14732847
76	0xbca8cdda	-0.02060597
77	0x3cba5f71	0.022750588
78	0xbddfb0d1	-0.10922397
79	0x3db797a9	0.08964474
80	0xbe43fc41	-0.19139196
81	0xbe32dac6	-0.17466268
82	0x3d6b63e9	0.05746833
83	0x3dd4599a	0.10368653
84	0xbce6bb0a	-0.028165359
85	0xbdf34403	-0.118782066
86	0x3b806757	0.003918569
87	0x3d89ea64	0.067341596
88	0xbd8ec8a2	-0.069718614
89	0x3cb7d6d1	0.0224413
90	0xbd46fde7	-0.048581984
91	0xbe0809a1	-0.13284923
92	0x3d366d42	0.04453779
93	0xbc7cede3	-0.015437576
94	0xbd9b704d	-0.07589779
95	0x3d110f3e	0.035414927
96	0x3dc7e121	0.09759737
97	0xbda519d7	-0.08061569
98	0x3e1f2ad8	0.15543687
99	0xbd1cff9d	-0.03832971
100	0xbe055e5a	-0.13024274
101	0x3db4ec0d	0.088340856
102	0x3d53adfa	0.05167959
103	0x39e7a5e4	0.00044183352
104	0xbd3cca17	-0.046091165
105	0x3cf5f4cf	0.03002396
106	0x3cb32277	0.02186702
107	0xbd6c3c39	-0.05767462
108	0x3c9e808a	0.019348402
109	0x3bfe2d4c	0.0077568647
110	0x3d4379ab	0.047723453
111	0xba8b4cec	-0.0010627783
112	0x3d6efd70	0.058347166
113	0x3d6b6906	0.057473205
114	0xbe396b86	-0.18107423
115	0xbd87dec5	-0.06634287
116	0x3e17901e	0.1480107
117	0x3d681488	0.056660205
118	0x3d4dc8e4	0.050240412
119	0xbcb703d5	-0.022340694
120	0xbe0b1923	-0.13583808
121	0xbd8ffc7e	-0.07030581
122	0x3bc7314b	0.006078874
123	0x3d417d0e	0.047238402
124	0x3d92eeb3	0.071744345
125	0x3d6cc6be	0.057806723
126	0xbbcb9326	-0.00621261
127	0xbdf16c0c	-0.117881864
128	0x3da6b49e	0.08139919
129	0xbd9e4060	-0.07727122
130	0xbd88df26	-0.06683187
131	0x3d9c567b	0.07633682
132	0x3c0e241a	0.0086755995
133	0xbb9ad1bb	-0.004724709
134	0xbd43e754	-0.047828034
135	0xbdd20628	-0.102550805
136	0x3d0a97f9	0.03383634
137	0x3dce95f3	0.10087194
138	0xbd00ad17	-0.03141507
139	0xbe42cdb6	-0.19023785
140	0x3daa2caa	0.083093
141	0xbdd29845	-0.10282949
142	0xbd87252d	-0.065988876
143	0x3d2472f7	0.0401487
144	0x3dcfda36	0.10149042
145	0xbd9b0a2d	-0.075703
146	0x3dde2023	0.10845973
147	0x3dc29b8e	0.09502326
148	0xbbdd98a9	-0.0067625833
149	0xbd826fe6	-0.06368999
150	0xbdbc4049	-0.09191949
151	0xbd5fe070	-0.0546574
152	0xbdc95b67	-0.09831887
153	0xbd46bc28	-0.048519284
154	0x3cd99afb	0.026563158
155	0x3d6d7087	0.057968643
156	0xbd264fd0	-0.04060346
157	0xbc568b92	-0.0130948
158	0xbcabc072	-0.020965789
159	0xbe15ebfa	-0.14640799
160	0x39fe663e	0.00048522832
161	0xbcc6108c	-0.024177812
162	0xbd24a51a	-0.040196516
163	0xbe74eb92	-0.23917988
164	0xbd468a67	-0.048471835
165	0x3cc905e0	0.024538934
166	0xbe187aa8	-0.1489054
167	0x3ddcdb24	0.10783985
168	0x3d024258	0.03180155
169	0xbda7230e	-0.08160983
170	0x3d81be94	0.06335178
171	0xbd39d982	-0.045373447
172	0x3d716248	0.05893162
173	0xbc84f098	-0.016228005
174	0x3cfe5aaf	0.0310491
175	0x3c9b7f65	0.018981645
176	0x3d1e135b	0.038592678
177	0xbc90e8d1	-0.01768914
178	0x3c7bfee6	0.015380597
179	0xbb0a32f6	-0.0021087504
180	0x3bb87c7f	0.0056300755
181	0xbe2832bd	-0.16425605
182	0xbdcc06c5	-0.09962229
183	0x3c95f758	0.01830642
184	0xbcf80dc8	-0.030280009
185	0xbc207caa	-0.009795347
186	0x3d74bcf0	0.059750497
187	0x3d1d45ee	0.03839677
188	0x3e091099	0.13385238
189	0xbd0b9a71	-0.034082834
190	0x3d299697	0.04140338
191	0x3dc02b11	0.09383214
192	0xbc5b12ea	-0.013371209
193	0x3d1a49fe	0.03766822
194	0xbca55485	-0.020181904
195	0xbd8ab80c	-0.067733854
196	0x3b8a9ec8	0.004230354
197	0xbe77d260	-0.24201345
198	0xbdc4f466	-0.09616928
199	0x3d44c91b	0.04804335
200	0xbda1fd5c	-0.079096526
201	0x3e18a2f8	0.14905918
202	0x3c5f9c7f	0.013648151
203	0x3da21195	0.0791351
204	0x3d3f18d9	0.046654556
205	0x3e0509ed	0.12992068
206	0x3d151fa7	0.03640714
207	0xbd93a3d8	-0.07208985
208	0xbd806cef	-0.062707774
209	0x3e0434ea	0.1291081
210	0x3c0fd62d	0.008779091
211	0x3d1c22c1	0.03811908
212	0xbd4c6c4e	-0.049907975
213	0xbcd9c715	-0.026584188
214	0x3dd22334	0.10260621
215	0x3b464a73	0.0030256778
216	0x3cec86b7	0.02887283
217	0xbd840249	-0.06445748
218	0x3d87d6f0	0.06632793
219	0x3dd00e4a	0.101589754
220	0x3ca80821	0.020511689
221	0x3d97960c	0.07401666
222	0xbd31464f	-0.043279942
223	0xbe121cf6	-0.1426886
224	0x3df3d511	0.119058736
225	0x3da26cf3	0.07930937
226	0xbd075f71	-0.033050004
227	0x3c96990a	0.018383522
228	0xbe00b75f	-0.1256995
229	0xbd236370	-0.039889753
230	0xbc479228	-0.012180842
231	0x3d2d0dad	0.04224937
232	0xbdfbb1dd	-0.12289784
233	0x3d021124	0.031754628
234	0xbdd75ed5	-0.10516135
235	0x3e26eef8	0.16302097
236	0xbd32b4ab	-0.04362933
237	0x3daea652	0.08527817
238	0x3da55253	0.08072343
239	0xbc8167fb	-0.015796652
240	0x3ce9cad5	0.0285391
241	0xbd99de14	-0.07513061
242	0x3dac58a3	0.084153436
243	0xba8a5d75	-0.0010556417
244	0xbe05e4d4	-0.13075572
245	0xbd2c43a3	-0.04205669
246	0xbd438dc7	-0.04774263
247	0xbde04a71	-0.109516986
248	0xbd4d2434	-0.050083354
249	0xbaa4b2a7	-0.001256545
250	0x3d9513d4	0.072791725
251	0x3e0f5c50	0.14000058
252	0xbcef58d8	-0.029217169
253	0x3ddc6ce7	0.10762959
254	0xbd1f3a1b	-0.038873773
255	0xbd05cde9	-0.032667074

fc2.bias f4 [84]
0	0xbe113f30	-0.1418426
1	0x3ed96335	0.424585
2	0x3ed362bc	0.41286266
3	0x3e84b3ad	0.25918332
4	0xbe36b23f	-0.17841433
5	0x3df57f20	0.11987138
6	0xbea0a847	-0.31378385
7	0xba6aeb5f	-0.00089614646
8	0xbe10b96a	-0.1413323
9	0xbd94b80a	-0.07261665
10	0x3decbd39	0.11559529
11	0xbf056016	-0.5209974
12	0xbede2cb3	-0.43393478
13	0xbda3bb3a	-0.07994695
14	0xbe3a2ec7	-0.18181907
15	0xbe7bcc83	-0.24589734
16	0x3f169081	0.58814245
17	0x3f29f261	0.66385466
18	0xbc2d3bee	-0.01057337
19	0xbe38fe1e	-0.18065688
20	0x3db7d6f8	0.08976549
21	0xbd6242c1	-0.055239443
22	0xbebc5cd9	-0.36789587
23	0x3e84e55c	0.25956237
24	0xbd54c43e	-0.051944964
25	0x3f419033	0.75610656
26	0x3e82559b	0.25455937
27	0x3f16c5d5	0.5889562
28	0xbd8a85a3	-0.067637704
29	0xbc34c150	-0.011032417
30	0x3e0aebd3	0.13566522
31	0x3dbe9a2a	0.09306748
32	0xbcea4d96	-0.028601449
33	0xbd881df6	-0.066463396
34	0x3e110359	0.14161433
35	0xbd97c7a5	-0.07411126
36	0x3f126324	0.57182527
37	0x3d771f1b	0.0603324
38	0x3f02e48a	0.5112997
39	0x3da376de	0.079816565
40	0xbef405f4	-0.47660792
41	0x3f5b71be	0.8572043
42	0x3e552852	0.20816162
43	0xbdcfb35d	-0.10141633
44	0x3e994e85	0.29942718
45	0xbe730caf	-0.23735307
46	0xbd3541f9	-0.04425237
47	0x3f65dd9a	0.8979126
48	0x3f7d87ec	0.99035525
49	0x3e3df9a3	0.1855226
50	0x3e956630	0.29179525
51	0x3e482da4	0.1954866
52	0xbd57b30c	-0.052660987
53	0xbe03afbb	-0.12860005
54	0xbeb09fe1	-0.34496978
55	0xbd260e1c	-0.0405408
56	0xbd819c97	-0.06328695
57	0x3f0dca15	0.5538648
58	0x3ed696af	0.41911837
59	0xbdf35c29	-0.118828125
60	0x3dd358b8	0.10319656
61	0xb9d6f721	-0.00041001386
62	0x3fd6e4d1	1.6788579
63	0xbe2db2fe	-0.16962811
64	0xbc71191e	-0.014715461
65	0xbe276a75	-0.16349204
66	0x3accf719	0.0015637606
67	0xbed635a4	-0.418378
68	0x3e5a9f97	0.21349941
69	0x3d0a65a6	0.033788346
70	0x3ddc0a17	0.10744112
71	0x3d797be7	0.060909178
72	0x3eb9a37f	0.3625755
73	0x3ead9fb7	0.33910915
74	0xbdd7110b	-0.105012976
75	0x3f2527f0	0.64514065
76	0xbd875c73	-0.0660943
77	0x3f273c5e	0.6532649
78	0xbeb84968	-0.35993505
79	0xbe65e799	-0.22451629
80	0xbbaef5d3	-0.005339363
81	0x3e9f9944	0.3117162
82	0x3d6f1d4d	0.058377553
83	0xbe35e9d4	-0.1776498

fc3.weight f4 [10, 84]
0	0xbddf5663	-0.10905149
1	0x3df9c510	0.1219579
2	0xbc773553	-0.015088397
3	0x3e462b37	0.19352423
4	0x3d8aa79b	0.067702495
5	0xbdd25e28	-0.10271865
6	0x3da57f1e	0.08080886
7	0xbdaa3509	-0.08310897
8	0xbdbf9e5d	-0.09356377
9	0x3e464d48	0.19365418
10	0x3d8d6ebb	0.06905886
11	0x3aea7949	0.0017888929
12	0xbd59c2b9	-0.053164218
13	0x3c9ae0a3	0.018905943
14	0x3b8dae03	0.0043237223
15	0x3db9fd54	0.09081522
16	0xbb4c8b63	-0.003121101
17	0xbe68a1e8	-0.22718012
18	0xbe987ca5	-0.29782596
19	0x3d56f0f9	0.052475903
20	0xbcf766ef	-0.03020045
21	0xbd09a0d4	-0.033600643
22	0x3dd4cf5f	0.103911154
23	0x3cd8aa81	0.02644849
24	0x3e2deec8	0.16985619
25	0xbcc183f8	-0.023622498
26	0xbda81c25	-0.08208493
27	0x3e6ad021	0.22930957
28	0x3bd708b3	0.0065623163
29	0x3cd81a3b	0.026379695
30	0x3df93384	0.12168029
31	0x3dd1f2f0	0.10251415
32	0xbcb7fc81	-0.02245927
33	0x3dc6e64c	0.097118944
34	0xbcc210d1	-0.02368966
35	0x3cd40845	0.02588285
36	0x3b8b8c85	0.0042586946
37	0xbe7e3fbd	-0.24829002
38	0xbe2d9a67	-0.16953431
39	0xbdc103a6	-0.09424524
40	0xbdebd517	-0.11515253
41	0x3db2c163	0.08728292
42	0xbdf8dfb6	-0.121520445
43	0x3c2085f3	0.009797561
44	0x3df44d30	0.11928785
45	0xbead492c	-0.33844888
46	0x3d2bb8be	0.04192423
47	0xbe88623f	-0.26637456
48	0x3ddf631e	0.10907577
49	0x3ccc145d	0.024912054
50	0x3e144956	0.144811
51	0x3e2048f3	0.15652828
52	0x3eb02ca4	0.34409058
53	0xbcb89d4c	-0.022535942
54	0x3b82e730	0.003994845
55	0xbdf9583d	-0.12175033
56	0x3e08c820	0.13357592
57	0x3e362a8e	0.17789671
58	0x3e401176	0.18756661
59	0x3a147dd9	0.0005664505
60	0xbc2409a2	-0.010012062
61	0x3e47e416	0.19520602
62	0xbe04c128	-0.12964308
63	0xbde03b78	-0.10948843
64	0x3cdf2b22	0.027242247
65	0xbd18e7a0	-0.03733027
66	0x3cad5eea	0.021163423
67	0x3c1f3dd7	0.009719334
68	0x3d9cedad	0.076625206
69	0xb9db964a	-0.0004188291
70	0xbe963f00	-0.2934494
71	0xbe3c1366	-0.18366775
72	0x3e0df88a	0.13864341
73	0xbdb8cea5	-0.09023789
74	0x3d7c42a3	0.061586987
75	0x3e050254	0.1298917
76	0x3c85f231	0.016350837
77	0xbd56bdb9	-0.052427027
78	0x3efd2a2e	0.49446243
79	0xbc16fa96	-0.009215018
80	0xbdbd1736	-0.09232943
81	0xbdeffaac	-0.11717734
82	0xbe69da60	-0.2283721
83	0x3cd8a24c	0.026444577
84	0x3e208a3e	0.15677735
85	0xbcee1634	-0.029063322
86	0xbd29c50c	-0.041447684
87	0xbe44878b	-0.1919233
88	0x3dd667f1	0.10469044
89	0xbe3d4a29	-0.18485321
90	0xbc0ab173	-0.008465159
91	0x3dd2a7ba	0.102858976
92	0x3e3b5e15	0.18297608
93	0xbdf4d604	-0.11954883
94	0x3e277ec6	0.16356954
95	0xb9651449	-0.00021846699
96	0xbd87640a	-0.06610878
97	0xbd1ed1b8	-0.038774222
98	0xbe10376d	-0.14083643
99	0xbcc605dd	-0.024172718
100	0xbd959f96	-0.07305829
101	0x3ce85e31	0.028365226
102	0x3d9a99ce	0.07548867
103	0x3d8ea888	0.069657385
104	0x3de7a255	0.11310259
105	0x3dec88be	0.11549519
106	0xbdd229b8	-0.102618635
107	0xbe204dae	-0.15654632
108	0x3d8d8c45	0.0691152
109	0xbe7a15eb	-0.24422424
110	0xbcbdefc7	-0.023185624
111	0xbb28b99e	-0.0025745402
112	0x3ce35dd5	0.027754704
113	0xbe26e703	-0.16299061
114	0xbe2a1af7	-0.16611849
115	0xbd1caa2d	-0.03824823
116	0xbdacba19	-0.08433933
117	0x3d981fcc	0.0742794
118	0x3d8b37b4	0.06797734
119	0x3ca55a8d	0.02018478
120	0xbe5a4f57	-0.21319328
121	0x3d8582e9	0.0651911
122	0xbbc6d180	-0.006067455
123	0x3bc8464f	0.006111897
124	0x3e6ff012	0.23431423
125	0xbeb6661f	-0.35624787
126	0x3e67e23e	0.22644898
127	0xbe095a8a	-0.13413444
128	0x3dc64a4d	0.096821405
129	0xbe6b2939	-0.22964944
130	0x3d740d8c	0.05958323
131	0xbd6cedd6	-0.057844006
132	0xbdb7e91d	-0.0898001
133	0xbc081f0c	-0.008308183
134	0x3e53d695	0.20687325
135	0x3d9fc142	0.07800533
136	0xbd06944a	-0.032856263
137	0xbaf9de68	-0.0019063475
138	0xbc1cb7a9	-0.009565272
139	0xbcf679df	-0.03008741
140	0x3d26fc85	0.040768165
141	0x3d75664e	0.05991202
142	0x3de34c47	0.11098533
143	0xbc812982	-0.015766863
144	0xbea67ef7	-0.3251874
145	0x3d86a266	0.06573944
146	0xbb6f5d7b	-0.0036524225
147	0xbd35f36c	-0.0444216
148	0x3e2e5519	0.1702465
149	0x3e22def5	0.15905364
150	0x3e92b4ab	0.28653464
151	0x3ddb2642	0.107006565
152	0xbac2019e	-0.0014801507
153	0x3e466851	0.19375731
154	0xbdfe5808	-0.124191344
155	0xbce24bfd	-0.027624125
156	0x3ddc1a77	0.10747235
157	0xbc711557	-0.0147145605
158	0x3c32480d	0.010881436
159	0xbd9eccaf	-0.07753884
160	0x3b60e862	0.0034318198
161	0xbe6d54ed	-0.23176928
162	0xbe3265b7	-0.17421614
163	0x3dda23a3	0.106513284
164	0xbe41a48b	-0.18910424
165	0xbe1bc5ff	-0.15212248
166	0xbd8ab22b	-0.06772264
167	0xbdf54df0	-0.11977756
168	0x3d57eddf	0.052717086
169	0x3d2d29eb	0.042276304
170	0x3cea5d6d	0.028609002
171	0x3d5a24e1	0.053257827
172	0x3dc703a6	0.09717493
173	0x3d913699	0.07090492
174	0xbc00f0eb	-0.007869939
175	0x3c906b57	0.017629309
176	0xbdcb7c92	-0.09935869
177	0xbd731514	-0.059346274
178	0xbccdc9fa	-0.025120724
179	0xbd9c1edd	-0.07623074
180	0x3ec8b7f0	0.39202833
181	0xbddf5155	-0.10904185
182	0xbd924c6e	-0.07143484
183	0x3de7de20	0.11321664
184	0x3bcb28b9	0.006199923
185	0x3cf6f5ec	0.030146562
186	0xbcf0fce5	-0.029417465
187	0x3da0cfd9	0.07852144
188	0xbdf7db7d	-0.12102411
189	0x3da3a9e5	0.07991389
190	0x3eaba9f1	0.33528093
191	0xbd850bfb	-0.06496426
192	0x3c6623d6	0.01404663
193	0xbba33efe	-0.0049818745
194	0xbddf2f60	-0.10897708
195	0xbbada988	-0.0052997507
196	0x3d060929	0.03272358
197	0xbd3cd318	-0.046099752
198	0x3e94abe4	0.29037392
199	0xbbf2dacf	-0.007411338
200	0x3e334ae8	0.17509043
201	0xbd631c25	-0.055446763
202	0xbce029ae	-0.027363624
203	0x3d3db63b	0.046316367
204	0x3d30e2b5	0.043184955
205	0xbd811b5e	-0.06304048
206	0x3de716b2	0.11283626
207	0xbd90af2d	-0.07064662
208	0xbe626aef	-0.22111104
209	0x3e0af3cc	0.13569564
210	0xbd53babe	-0.051691763
211	0xbe054e04	-0.13018042
212	0x3adba8f6	0.0016758728
213	0x3d62e638	0.055395335
214	0xbb8d978a	-0.0043210434
215	0x3e108eac	0.14116925
216	0x3e316bad	0.17326231
217	0x3c30b083	0.010784271
218	0xbc36b825	-0.011152302
219	0xbd3e79ca	-0.046502866
220	0xbe0ddfc5	-0.13854893
221	0x3b95d2ec	0.004572263
222	0xbe129d2b	-0.14317767
223	0xbbedf347	-0.007261667
224	0xbda1ecbb	-0.07906481
225	0xbcdf5d19	-0.027266072
226	0xbdea6f59	-0.11447019
227	0x3ccd6291	0.025071414
228	0x3daa96ae	0.08329521
229	0x3d1cd1e7	0.038286116
230	0x3e138ea5	0.14409883
231	0x3d5a3e29	0.053281937
232	0xbd648d9c	-0.05579911
233	0xbd94b962	-0.072619215
234	0xbdaf0590	-0.08545983
235	0x3e2a5125	0.16632517
236	0xbd410f6c	-0.047133848
237	0xbcf62406	-0.030046474
238	0x3e476c0b	0.19474809
239	0x3dfa67ff	0.12226867
240	0xbca17758	-0.019710228
241	0xbd8a5fbb	-0.067565404
242	0x3cafc491	0.021456035
243	0x3e111233	0.14167099
244	0x3e77b830	0.24191356
245	0x3d8d3a97	0.06895941
246	0x3e02efa9	0.12786736
247	0xbd4a1e29	-0.04934517
248	0xbdedb41f	-0.11606621
249	0x3cb0b724	0.021571703
250	0xbc57cae8	-0.013170935
251	0xbca09647	-0.019602908
252	0x3b87c524	0.004143374
253	0xbb49d1a8	-0.003079513
254	0x3b10c0b1	0.002208751
255	0x3cc5160a	0.02405836

fc3.bias f4 [10]
0	0xbeaaf3ab	-0.3338903
1	0xbe5c5275	-0.2151583
2	0x39805b7e	0.0002448223
3	0xbe8747ef	-0.26422068
4	0x3ee330b1	0.44373086
5	0xbe2761a3	-0.16345839
6	0x3eefdbf2	0.46847492
7	0xbea50186	-0.32227725
8	0x3eca98ac	0.39569604
9	0xbd508936	-0.050912105
