models/adv_submodel_1.pth (torch, 251802 bytes, 10 tensors)

conv1.weight f4 [6, 3, 5, 5]
0	0x3d0c3379	0.034228776
1	0x3d606b69	0.054789934
2	0x3d839c0c	0.06426248
3	0x3d55af47	0.05216911
4	0x3cf0c3a5	0.029390166
5	0x3d4a3b69	0.049373064
6	0x3dbaafcc	0.09115562
7	0x3ddb8a6c	0.10719761
8	0x3da79f0b	0.08184632
9	0x3d2c242c	0.042026684
10	0x3d956fc1	0.07296706
11	0x3e0d8c88	0.1382314
12	0x3e22fbc0	0.15916348
13	0x3dec0ed6	0.11526267
14	0x3d62b814	0.05535133
15	0x3d861331	0.06546629
16	0x3dee19cf	0.11626016
17	0x3e03f8f4	0.12887937
18	0x3dc44691	0.09583772
19	0x3d4afc33	0.049556922
20	0x3d4ca6de	0.049963824
21	0x3da12697	0.078686886
22	0x3dacb195	0.084323086
23	0x3d871e0d	0.065975286
24	0x3d1936e4	0.037405863
25	0x3a7894af	0.0009482605
26	0x3b2403ff	0.0025026796
27	0x3b865973	0.0041000186
28	0x3b93f9eb	0.0045158765
29	0x3b02bf36	0.0019950396
30	0x3b01b042	0.0019788896
31	0x3b8f781e	0.0043783328
32	0x3bbf61c5	0.0058405125
33	0x3ba9b0a7	0.0051785293
34	0x3b13cc77	0.002255229
35	0x3b571635	0.0032819633
36	0x3bff2489	0.0077863378
37	0x3c0c070f	0.008546605
38	0x3bc69980	0.006060779
39	0x3b377b4d	0.0027997077
40	0x3b8d4a44	0.0043118317
41	0x3be0d2b0	0.0068610534
42	0x3be3427d	0.0069354163
43	0x3b9c4e2d	0.0047700615
44	0x3b36494e	0.002781469
45	0x3bbc9f3e	0.005756288
46	0x3bd40a99	0.00647099
47	0x3bbdd514	0.005793223
48	0x3b8a5ab7	0.00422224
49	0x3b32df02	0.0027293568
50	0x3b3ad991	0.0028511027
51	0x3b81c4e8	0.0039602406
52	0x3ba2bebe	0.004966586
53	0x3b9da7e2	0.004811273
54	0x3b06caaf	0.0020567586
55	0x3a779fb9	0.0009446103
56	0x3b0ded4a	0.0021656328
57	0x3b59ca8e	0.0033232304
58	0x3b3dc174	0.0028954418
59	0x3a57b849	0.000822906
60	0x3ab91fc3	0.0014123846
61	0x3b9ba0ce	0.004749394
62	0x3bd7b435	0.0065827616
63	0x3b8896ad	0.0041683526
64	0x3af7739b	0.0018879058
65	0x3b33ffb0	0.0027465634
66	0x3bbf7025	0.005842226
67	0x3c0e2456	0.008675655
68	0x3bab2c52	0.0052237893
69	0x3b56c53b	0.0032771367
70	0x3b878a79	0.0041363803
71	0x3ba2eb03	0.0049718632
72	0x3ba81eb1	0.005130612
73	0x3b669293	0.003518258
74	0x3b1935c7	0.0023378
75	0xbcedffef	-0.029052703
76	0xbd367e29	-0.04455391
77	0xbd4375a4	-0.047719613
78	0xbd2e4181	-0.04254294
79	0xbcce5955	-0.025189081
80	0xbd164aae	-0.036692314
81	0xbd9b36f0	-0.07578838
82	0xbdba77c0	-0.09104872
83	0xbd8fbde1	-0.070186384
84	0xbcf8f767	-0.030391408
85	0xbd181347	-0.03712776
86	0xbda7d674	-0.081952006
87	0xbdc76f2d	-0.09738002
88	0xbd947f73	-0.072508715
89	0xbd02049a	-0.03174267
90	0xbd18f231	-0.037340347
91	0xbd813cb2	-0.06310405
92	0xbd8dd4ba	-0.0692534
93	0xbd624dcf	-0.055249985
94	0xbcf36579	-0.029711472
95	0xbd06ad21	-0.032879952
96	0xbd443249	-0.04789952
97	0xbd410cd5	-0.04713138
98	0xbd201a39	-0.039087508
99	0xbcb95b45	-0.022626529
100	0xbb27349d	-0.0025513538
101	0xbb38eb33	-0.0028216362
102	0xbb40a42f	-0.0029394736
103	0xbb2f3bd8	-0.002673855
104	0xbb1a8c82	-0.0023582284
105	0xbaba63fc	-0.0014220471
106	0xbafecd24	-0.0019439799
107	0xbb31ad0e	-0.0027111205
108	0xbadb53bf	-0.0016733332
109	0xb9c65dec	-0.0003783548
110	0xb9b7f2fa	-0.00035085512
111	0xba796819	-0.0009514108
112	0xbaacc99e	-0.0013182645
113	0xb9baf8fd	-0.00035662195
114	0xb91c53fb	-0.00014908604
115	0xba7e6aaa	-0.0009705225
116	0xba50f788	-0.00079714553
117	0xbac2fa4c	-0.001487562
118	0xbae11fff	-0.0017175673
119	0xbac5c06b	-0.0015087252
120	0xbabbb7eb	-0.001432178
121	0xba7ddef6	-0.0009684408
122	0xbaa2cf52	-0.0012421405
123	0xbb09250d	-0.0020926625
124	0xbaf32a31	-0.0018552003
125	0x3da915b0	0.0825609
126	0x3e198899	0.14993514
127	0x3e365bb6	0.17808422
128	0x3e10f495	0.141558
129	0x3da1dd5e	0.079035506
130	0x3e220272	0.15821245
131	0x3ea02f10	0.31285906
132	0x3ebacdc7	0.3648512
133	0x3e8e4390	0.2778592
134	0x3e117e50	0.1420834
135	0x3e2cccc8	0.16874993
136	0x3ea74840	0.3267231
137	0x3ec21165	0.37903896
138	0x3e8ec05f	0.27881142
139	0x3e0bb91d	0.13644834
140	0x3d9b0bc9	0.07570607
141	0x3e0cb302	0.13740161
142	0x3e1aaebc	0.15105718
143	0x3def4a7d	0.116841294
144	0x3d75c4f8	0.060002297
145	0x3cc3105a	0.023811508
146	0x3d149b43	0.03628088
147	0x3d229314	0.039691046
148	0x3d0a7c93	0.03381021
149	0x3cb540ea	0.02212568
150	0x3c9421d8	0.018082544
151	0x3cf39926	0.029736113
152	0x3c8a2bd4	0.016866602
153	0x3c55a6fc	0.0130403
154	0x3bb6193a	0.0055572065
155	0xbe580014	-0.2109378
156	0xbf2d70c9	-0.6775022
157	0xbf6bfce4	-0.92182755
158	0xbf0a69ae	-0.54067504
159	0xbe2d8783	-0.16946225
160	0xbe88eed2	-0.26744705
161	0xbef31551	-0.474772
162	0xbef2d01c	-0.474244
163	0xbea9f652	-0.3319574
164	0xbe23ff70	-0.1601541
165	0x3e0cd5fe	0.13753507
166	0x3ec755c8	0.38932633
167	0x3f127cd2	0.5722171
168	0x3ed8a37c	0.4231223
169	0x3e323479	0.17402829
170	0x3e570878	0.20999324
171	0x3ef4309d	0.4769334
172	0x3f225eb8	0.6342578
173	0x3eefb7aa	0.46819812
174	0x3e550029	0.20800842
175	0x3a4e91ab	0.00078799826
176	0x3b230f94	0.0024881111
177	0x3b4afe1d	0.0030974217
178	0x3af96ab2	0.001902899
179	0x3a3093b1	0.0006735875
180	0xbc39715a	-0.011318529
181	0xbd0b7342	-0.034045465
182	0xbd3f454e	-0.046696953
183	0xbce5d263	-0.028054422
184	0xbc29ed94	-0.010371584
185	0xbc835fbc	-0.01603686
186	0xbce40afd	-0.02783727
187	0xbce3917d	-0.027779335
188	0xbc9ebc65	-0.019376943
189	0xbc2f3703	-0.010694268
190	0x3bc2b17d	0.0059415684
191	0x3cae88a3	0.021305388
192	0x3d0639d6	0.03277
193	0x3cbc512b	0.022987923
194	0x3bf1f440	0.007383853
195	0x3c1cffff	0.009582519
196	0x3cd78a22	0.026310984
197	0x3d193e35	0.03741284
198	0x3cd68e59	0.026190924
199	0x3c2a4ba1	0.010394008
200	0x3c306e91	0.010768549
201	0x3cae2bff	0.021261213
202	0x3c99871d	0.018741185
203	0x3c66e886	0.014093524
204	0x3bb214f1	0.0054346253
205	0xbd1d7252	-0.038439102
206	0xbe23419c	-0.15942997
207	0xbe640c16	-0.22270235
208	0xbe0741db	-0.13208716
209	0xbd09107b	-0.033462983
210	0xbdbda61e	-0.092602
211	0xbe4ccd78	-0.20000255
212	0xbe5d5eb5	-0.21618159
213	0xbe16835f	-0.14698552
214	0xbd6efaea	-0.05834476
215	0x3d1b7452	0.03795273
216	0x3e2e114e	0.16998789
217	0x3e917056	0.28406018
218	0x3e3f20d2	0.18664864
219	0x3d5226aa	0.051306404
220	0x3d9bed16	0.0761358
221	0x3e8d29e7	0.2757103
222	0x3ed7a09b	0.4211472
223	0x3e87a331	0.26491693
224	0x3d93bcba	0.07213731
225	0x3c712d91	0.0147203365
226	0xbd308a6f	-0.04310077
227	0xbd9147c6	-0.07093768
228	0xbb77504f	-0.0037737077
229	0xbde0f819	-0.10984821
230	0xbda19697	-0.07890051
231	0xbdb8eee1	-0.090299375
232	0xbcc97189	-0.02459027
233	0xbdc36d00	-0.095422745
234	0x3cf86e1a	0.030325938
235	0xbddd438f	-0.108039014
236	0x3d80c622	0.06287791
237	0x3d52a685	0.051428337
238	0xbdbbc0d7	-0.09167641
239	0xbde6e665	-0.11274413
240	0xbdbd0729	-0.09229881
241	0xbd1f3927	-0.038872864
242	0x3d5ea7db	0.0543593
243	0xbd96dd42	-0.0736642
244	0xbd56e2d5	-0.052462418
245	0xbc23bf92	-0.009994404
246	0xbddf6c23	-0.10909297
247	0xbb383fba	-0.0028114156
248	0x3d8d3f34	0.06896821
249	0x3c4a7b59	0.01235851
250	0xbd82a6b6	-0.06379454
251	0xbd6cb626	-0.057790898
252	0xbd7a2b69	-0.061076555
253	0xbd9f764b	-0.077862345
254	0x3cbd63d5	0.023118893
255	0xbdcba470	-0.09943473

conv1.bias f4 [6]
0	0xbe98be16	-0.29832524
1	0xbf3f28d6	-0.74671686
2	0xbe99779b	-0.29974064
3	0xbc8db3e5	-0.017297694
4	0xbe27bf5f	-0.16381596
5	0xbd981d80	-0.07427502

conv2.weight f4 [16, 6, 5, 5]
0	0xbd4ad652	-0.049520798
1	0xbc5e92d9	-0.013584816
2	0xbc5c9d5f	-0.013465255
3	0x3bd1c450	0.006401576
4	0xbdc35ef9	-0.09539599
5	0x3c889dd3	0.016676819
6	0x3d4226f5	0.047400434
7	0x3c4ac11b	0.0123751415
8	0x3d1dec86	0.038555644
9	0xbd3a7c77	-0.045528855
10	0xbd847540	-0.06467676
11	0xbc114f5c	-0.008869018
12	0x3c9c9a3c	0.019116513
13	0xbd29719a	-0.041368105
14	0xbc48a13e	-0.012245474
15	0x3d3a2303	0.045443546
16	0xbd0e4e7b	-0.034742814
17	0x3c6fad23	0.014628681
18	0xbb8e8e5f	-0.004350468
19	0xbd7114a2	-0.058857568
20	0x3d511bfd	0.051052082
21	0xbda88b6a	-0.08229716
22	0xbdb3cd8b	-0.087794386
23	0x3d5d1222	0.05397237
24	0x3d219d90	0.039456904
25	0x3b8e5921	0.004344121
26	0xbc53ca76	-0.012926688
27	0xbd8fcc01	-0.070213325
28	0x3b8dc648	0.0043266155
29	0x3b1700f6	0.0023041344
30	0x3d386db9	0.045026515
31	0x3bae3446	0.00531629
32	0xbc67b3ac	-0.014141958
33	0xbd972f9b	-0.07382127
34	0xbc8e7f70	-0.017394751
35	0xbd66ba49	-0.05633
36	0xbd92ef82	-0.07174589
37	0xbc936bef	-0.017995803
38	0xbd66e4fc	-0.05637072
39	0xbd16bd78	-0.036801785
40	0xbbbda239	-0.0057871607
41	0xbda7ef0e	-0.08199893
42	0xbc78a79a	-0.015176678
43	0xbd9c9c5c	-0.07647011
44	0x3d84a25a	0.064762786
45	0xbd857e1c	-0.06518194
46	0xbd601a41	-0.054712538
47	0xbd928c45	-0.071556605
48	0xbd5450f9	-0.051835034
49	0x3d8fba70	0.07017982
50	0xbd98fdd8	-0.07470292
51	0xbcd6ff47	-0.026244773
52	0xbda4e025	-0.08050565
53	0x3d58ec84	0.052959934
54	0x3c288840	0.010286391
55	0x3d07c9d5	0.033151466
56	0xbcb08272	-0.021546576
57	0xbd3305e2	-0.043706782
58	0xbd8686e5	-0.06568698
59	0xbd924bc5	-0.07143358
60	0x3ce2ac43	0.027670031
61	0x3d37c8a8	0.044869095
62	0x3beb29e0	0.0071766227
63	0xbd0723b3	-0.03299303
64	0x3cf3bc02	0.029752735
65	0xbc07d53f	-0.008290588
66	0x3d052e90	0.03251511
67	0xbd27d628	-0.04097572
68	0x3cc0dc78	0.023542628
69	0xbc8039ec	-0.01565262
70	0x3d21ce4a	0.039503373
71	0xbd41be4f	-0.047300633
72	0x3c0c43ef	0.0085611185
73	0xbd87e113	-0.066347264
74	0xbd177680	-0.036978245
75	0xbc136a6b	-0.00899754
76	0xb973f0a7	-0.00023263936
77	0xbd1b2cf3	-0.037884664
78	0xbd1cc116	-0.03827008
79	0x3d7c8c21	0.061657075
80	0xbd40d877	-0.047081437
81	0x3d87b749	0.06626756
82	0x3da01a60	0.07817531
83	0x3ce22a89	0.027608173
84	0x3d843f97	0.06457441
85	0x3cbd0f89	0.023078697
86	0xbd77d065	-0.060501475
87	0xbafef980	-0.0019453019
88	0x3bde9585	0.0067927265
89	0xbd91a6b6	-0.07111876
90	0xbca86eeb	-0.020560702
91	0x3da55c12	0.08074202
92	0x3d41e7cd	0.047340203
93	0x3d83b55d	0.06431077
94	0x3d3fdc77	0.04684111
95	0xbbabe34e	-0.0052456027
96	0xbbeadb46	-0.0071672527
97	0x3d31e34f	0.04342967
98	0x3d562c8c	0.052288577
99	0xbcfe586b	-0.03104802
100	0xbcc6243f	-0.024187205
101	0x3c8dd19d	0.017311865
102	0x3b86a081	0.004108489
103	0xbdb034a4	-0.086037904
104	0x3d32a95f	0.043618556
105	0x3c81f6f1	0.015864821
106	0xbd093da6	-0.03350606
107	0xbd8dc9bd	-0.06923244
108	0x3c5152de	0.012776105
109	0x3d7bb17d	0.061448563
110	0xbc522fb4	-0.012828756
111	0xbd5ac087	-0.053406265
112	0x3d5cbd5b	0.05389152
113	0xbd798a93	-0.06092317
114	0x3cb40004	0.021972664
115	0xbc3001fd	-0.010742662
116	0xbb5ba1cd	-0.0033513189
117	0xbd07696f	-0.033059534
118	0x3d856cc2	0.065148845
119	0xbd715b15	-0.058924753
120	0x3d5e8cf0	0.054333627
121	0x3d5e5087	0.054276016
122	0x3cb16b8d	0.02165773
123	0xbd3b82a6	-0.045778893
124	0x3a963714	0.0011460506
125	0x3cd5b825	0.026088784
126	0x3d5c00bf	0.05371165
127	0xbb2a74d4	-0.0026009576
128	0x3d8b6b3c	0.06807563
129	0x3d6baef2	0.057539888
130	0xbd2869bf	-0.041116472
131	0xbc8b939c	-0.01703816
132	0xbd23479d	-0.039863218
133	0xbd4cea9c	-0.05002843
134	0xbc9a367a	-0.018824805
135	0x3c48e57f	0.012261747
136	0xbd910dc5	-0.070827045
137	0xbda5a83c	-0.08088729
138	0xbd88d7ce	-0.066817865
139	0x3d8587e9	0.065200634
140	0xbca024f7	-0.019548876
141	0x3d105bb1	0.035243694
142	0xbbff4171	-0.0077897836
143	0xbd8d0c0b	-0.06887063
144	0x3d9eeb57	0.07759731
145	0x3da51798	0.08061141
146	0xbd1e94ea	-0.038716234
147	0x3d94ad53	0.072596215
148	0xbc243d93	-0.010024446
149	0x3d3847a6	0.044990204
150	0x3dc9bb15	0.09850136
151	0x3db753cb	0.08951529
152	0x3ddfaeb8	0.10921997
153	0x3e10cf85	0.14141662
154	0x3e1bd69b	0.15218584
155	0x3d777e07	0.060422923
156	0x3d9a1174	0.0752286
157	0x3e33c83e	0.17556855
158	0x3d6fe4f3	0.058567952
159	0x3c3166f5	0.0108277695
160	0x3e144138	0.14478004
161	0x3e30848f	0.17238067
162	0x3dfd8fed	0.12380967
163	0x3c56ccf3	0.013110387
164	0x3da9e69c	0.082959384
165	0x3dc34684	0.09534934
166	0x3d93c838	0.07215923
167	0xbd363324	-0.044482365
168	0x3c7c4879	0.015398138
169	0x3dd45b90	0.10369027
170	0x3e0b05b0	0.13576388
171	0x3d9aee4f	0.07564985
172	0x3d7b27ff	0.06131744
173	0x3da3897a	0.07985206
174	0x3e023415	0.1271518
175	0xbc1e6540	-0.009667695
176	0x3bb4604f	0.005504645
177	0x3a87f7fa	0.0010373585
178	0x3cd868e6	0.026417207
179	0x3c706184	0.014671687
180	0xbccb14d0	-0.024790198
181	0x3a4bfef3	0.0007781826
182	0x3c17df3f	0.009269535
183	0xbc1de5fb	-0.009637351
184	0xbd0d389a	-0.034477808
185	0xbbf45c4e	-0.0074572926
186	0x3c9d8cef	0.019232241
187	0xbc12490c	-0.008928549
188	0xbd594734	-0.05304642
189	0xbd0877f0	-0.033317506
190	0xbbc6ba88	-0.0060647167
191	0x3bdbf4a5	0.0067125135
192	0xbd85a10e	-0.06524859
193	0xbd31cf2f	-0.043410476
194	0x3c2f59fb	0.010702605
195	0xbc0817d0	-0.008306459
196	0xbc8b4525	-0.017000744
197	0xbd565b46	-0.05233314
198	0xbc0db332	-0.0086486805
199	0xbb3a6549	-0.0028441718
200	0xbc085e58	-0.008323275
201	0x37d4e680	2.5379704e-05
202	0x3ba41988	0.0050079264
203	0xbb370301	-0.0027925374
204	0xbc54b5bd	-0.012982783
205	0xbc3e1554	-0.011601765
206	0xbbac941b	-0.005266679
207	0xbcb31b1f	-0.021863518
208	0xbcc6b1b3	-0.024254655
209	0xbc30b64b	-0.0107856495
210	0xbc4421a7	-0.011970914
211	0xbcc4cbd1	-0.024022968
212	0xbd08d643	-0.03340746
213	0xbc2c5461	-0.010518164
214	0x3afc1f4b	0.00192354
215	0xbca29253	-0.019845163
216	0xbcd4398c	-0.025906347
217	0xbc5678ff	-0.013090371
218	0xbb3b082b	-0.0028538804
219	0xbb4aabca	-0.0030925148
220	0xbc447be0	-0.011992425
221	0xbc54575f	-0.012960284
222	0x3bca5652	0.006174841
223	0xbb4a6291	-0.0030881504
224	0xbc0cc16b	-0.008591036
225	0xbbb08ad6	-0.0053876443
226	0xbb822223	-0.0039713546
227	0x3d35a758	0.044349045
228	0xbd8eef74	-0.06979266
229	0x3c8e99d4	0.017407335
230	0x3c655680	0.013997674
231	0xba2b610b	-0.0006537593
232	0x3ceb4455	0.028719107
233	0x3da16f50	0.07882559
234	0x3d150e24	0.03639044
235	0x3da1c80c	0.07899484
236	0xbda2a87c	-0.07942292
237	0x3cd6a903	0.026203638
238	0xbba2cabd	-0.004968016
239	0xbcf79b67	-0.030225469
240	0x3d519cfe	0.05117511
241	0x3cc8dd74	0.02451966
242	0x3d2370f3	0.03990264
243	0xbcf6f4de	-0.030146059
244	0x3d97c16b	0.074099384
245	0x3c1d9228	0.009617366
246	0x3bed3e11	0.007240065
247	0x3d345aaa	0.044031776
248	0xbda0f848	-0.07859856
249	0xbd9e2d4c	-0.077234834
250	0xbb39bfdc	-0.0028343117
251	0xbb82393b	-0.0039741076
252	0xba2c50f5	-0.0006573343
253	0x3b35d1aa	0.0027743378
254	0x3ba850a5	0.0051365667
255	0xbc13a56e	-0.0090116095

conv2.bias f4 [16]
0	0xbd96d76b	-0.073653065
1	0xbeec5397	-0.46157524
2	0x3f949f16	1.1611049
3	0xbe5e8fb9	-0.21734513
4	0xbe6c6ebe	-0.2308912
5	0xbd338801	-0.043830875
6	0x3fdcacd2	1.724024
7	0xbdc227a6	-0.094802186
8	0x3c643f6d	0.0139311375
9	0xbd5c1879	-0.053734276
10	0xbdf0dd2f	-0.117609374
11	0xbd58b11a	-0.052903272
12	0x3f05c17a	0.52248347
13	0x3befc8d2	0.007317641
14	0x3dac3fd5	0.084106125
15	0xbd9a81a7	-0.075442605

fc1.weight f4 [120, 400]
0	0xbcaf7c6f	-0.02142164
1	0xbcdc1ac4	-0.026868232
2	0x3d14b7b3	0.036308
3	0xbce9124d	-0.02845111
4	0x3ad1ea97	0.0016015348
5	0x3cd4280f	0.025898008
6	0xbd4904bb	-0.049076777
7	0x3c8cda06	0.017193805
8	0x3ca378ce	0.019955065
9	0xbcfc5835	-0.03080378
10	0x3d3248f0	0.04352659
11	0x3b183f37	0.0023231038
12	0xbc3d5c15	-0.011557599
13	0x3d16aec8	0.03678778
14	0xbcba5f43	-0.022750502
15	0x3b808aaf	0.0039227824
16	0x3b0bab5a	0.002131185
17	0x3d357b1f	0.04430687
18	0xbcfb5db9	-0.030684339
19	0xbd478982	-0.048715122
20	0x3bd02d06	0.0063530235
21	0x3cbdd3b9	0.023172246
22	0xbd303d65	-0.0430273
23	0x3c86c2de	0.016450342
24	0xbd04eee4	-0.032454386
25	0xbe986097	-0.29761192
26	0xbe586e6e	-0.21135876
27	0xb92274ab	-0.00015492986
28	0x3e4b4e1b	0.19854014
29	0x3ecd26cd	0.40068665
30	0xbe9e07a0	-0.30865192
31	0xbe16efb7	-0.14739881
32	0xbd830e39	-0.06399197
33	0x3d8e4ea5	0.06948594
34	0x3e5c95f1	0.21541573
35	0xbe49a428	-0.19691527
36	0xbd872f13	-0.066007756
37	0xbd271caf	-0.04079884
38	0x3daaedf8	0.0834617
39	0x3e135044	0.14386088
40	0xbe17efb0	-0.14837527
41	0xbd267170	-0.040635526
42	0xbc14b2d8	-0.009075843
43	0x3d36bd4d	0.044614125
44	0x3df02ef8	0.117277086
45	0xbe1cd194	-0.15314323
46	0xbd935fe1	-0.07196022
47	0x3d8c2db5	0.068446554
48	0x3db5b72e	0.088728294
49	0x3e5c8973	0.21536808
50	0x3dec2b8a	0.11531742
51	0x3cce7203	0.02520085
52	0x3dd67d89	0.10473163
53	0xbdb79849	-0.08964593
54	0xbdb7cd86	-0.08974747
55	0x3dcbcdff	0.099514
56	0x3c9fb29d	0.01949435
57	0xbccd9132	-0.025093649
58	0xbd62bd2c	-0.05535619
59	0xbdc9d7b9	-0.09855599
60	0x3dbb5a98	0.09148139
61	0x3d955b2d	0.07292781
62	0x3bfcbbf6	0.0077128364
63	0xbd4d2e01	-0.0500927
64	0xbdbf4d47	-0.09340911
65	0x3bad0eee	0.005281321
66	0xbb5af353	-0.0033409193
67	0xbcd229ff	-0.02565479
68	0xbd5fbe27	-0.054624703
69	0xbd207876	-0.03917738
70	0x3d3e17c3	0.04640938
71	0xbdabafb7	-0.08383124
72	0xbc946b89	-0.018117683
73	0xbcddaa45	-0.02705873
74	0xbbc2a362	-0.005939887
75	0xbaaec0d6	-0.0013332616
76	0xbd95b670	-0.07310188
77	0x3d2c3665	0.042044062
78	0x3d80340c	0.06259927
79	0x3dab6b74	0.083701044
80	0x3c3c8671	0.011506663
81	0xbd993082	-0.07479955
82	0x3d882c55	0.06649081
83	0xbd63da34	-0.055628017
84	0x3dad0874	0.08448878
85	0xbd776d12	-0.060406752
86	0xbbfaa0cb	-0.0076485625
87	0x3d1c821a	0.038210012
88	0x3ccbbef9	0.024871336
89	0xbc71c0a9	-0.014755406
90	0xba677c48	-0.000883047
91	0x3c0f7e36	0.008758118
92	0x3c082868	0.008310415
93	0x3d81e778	0.06342977
94	0x3c88a0e0	0.016678274
95	0xbd52e779	-0.05149028
96	0xbd67f951	-0.05663425
97	0xbc22409c	-0.009903099
98	0x3d588afa	0.052866913
99	0x3b3d39b8	0.0028873514
100	0x3c53015c	0.012878742
101	0x3d09ed22	0.033673413
102	0xbd2e2f05	-0.04252531
103	0x3d7f3f15	0.06231602
104	0x3c4a458d	0.012345684
105	0xbcb9476f	-0.02261707
106	0xbc07ff6b	-0.0083006425
107	0xbbaeaf4d	-0.005330956
108	0x3d3d0ab2	0.046152778
109	0x3c4f8f81	0.012668491
110	0xbc148f36	-0.009067347
111	0xbd2f9c87	-0.042873885
112	0x3c2f308b	0.010692726
113	0xbb2576b8	-0.0025247764
114	0x3d42dafe	0.04757213
115	0x3cfa6c69	0.030569272
116	0x3c88d542	0.016703252
117	0xbd95af30	-0.07308805
118	0x3d0dbc9f	0.03460371
119	0xbc1044d4	-0.008805472
120	0xbd956cdb	-0.07296153
121	0xbd98bb9f	-0.07457661
122	0x3ca1186d	0.019664967
123	0x3cd38e91	0.025824817
124	0xbb95af3a	-0.004568008
125	0xbcb88587	-0.022524608
126	0xbd2fb00c	-0.0428925
127	0xbc9adabb	-0.018903127
128	0x3cc6020b	0.024170896
129	0x3bc5480f	0.006020553
130	0xbcf1e9be	-0.029530402
131	0xbbc253eb	-0.005930414
132	0x3d439506	0.04774954
133	0x3b8d4123	0.0043107434
134	0x3d3f1b63	0.046656977
135	0x3bccb901	0.00624764
136	0x3d2e2e26	0.04252448
137	0x3d2c3116	0.042039
138	0x3d191362	0.037372
139	0x3cd58678	0.026065096
140	0xbcc3a9c4	-0.023884661
141	0xbcc9429a	-0.02456789
142	0xbbe87fd8	-0.0070953183
143	0x3d07aac0	0.033121824
144	0x3c9bde45	0.019026885
145	0x3d4c2531	0.049840156
146	0x3bcb41bb	0.006202904
147	0x3d41c194	0.04730375
148	0xbd48a417	-0.048984613
149	0x3cd5165c	0.026011638
150	0x3e6e5564	0.23274761
151	0x3d35c534	0.04437752
152	0x3c1815ab	0.00928251
153	0xbc04c4b5	-0.008103539
154	0x3cd33918	0.02578406
155	0x3e7f9e3c	0.24962705
156	0xbe439713	-0.19100599
157	0xbd3991ed	-0.04530518
158	0xbd50986d	-0.050926615
159	0xbe2fc9bc	-0.171668
160	0x3e355dfb	0.17711632
161	0xbd556fb8	-0.052108496
162	0x3d2b4524	0.041813985
163	0xbe34ee2e	-0.17668983
164	0x3c6c1269	0.014408686
165	0x3e28eabe	0.16495797
166	0xbcb5488f	-0.022129325
167	0x3db526cb	0.0884529
168	0xbd834109	-0.06408889
169	0xbc739fdc	-0.014869656
170	0x3c78ec2f	0.015193029
171	0xbc26ddc1	-0.010184706
172	0x3d0152c6	0.03157308
173	0x3bb86706	0.0056275157
174	0xbdb54024	-0.088501245
175	0x3e8b59ee	0.27217048
176	0x3db31b7a	0.08745475
177	0x3dafedbc	0.08590266
178	0x3decb832	0.1155857
179	0x3c83efa4	0.01610548
180	0x3deeab48	0.11653763
181	0x3d9cda17	0.07658785
182	0x3da8854c	0.08228549
183	0x3c8d40b9	0.017242776
184	0xbd336c78	-0.043804616
185	0x3d14fcf0	0.036374032
186	0x3d43a57b	0.047765236
187	0x3d9477e6	0.07249431
188	0x3d95267c	0.07282731
189	0xbd94b3ce	-0.072608575
190	0x3d13f034	0.036117747
191	0x3db496dd	0.088178374
192	0xbd6e8586	-0.058232807
193	0x3b9afeb3	0.0047300695
194	0xbd8a9778	-0.067671716
195	0xbd0464f0	-0.032322824
196	0x3c6b4eab	0.014362018
197	0x3dbe69bf	0.09297513
198	0x3da6c10c	0.081422895
199	0xbbbc287a	-0.00574213
200	0x3d354d56	0.044263206
201	0xbc999fd4	-0.01875297
202	0x3d6a8639	0.05725691
203	0x3c1f30e5	0.009716247
204	0xba99e362	-0.0011740739
205	0xbc7f6190	-0.015587226
206	0xbd06fc63	-0.03295554
207	0xb9da2f92	-0.00041615643
208	0xbdc52d53	-0.096277855
209	0xbbeed61a	-0.0072887065
210	0x3df136af	0.11778008
211	0x3dd9ec0f	0.10640728
212	0x3d6cbd8e	0.05779796
213	0xbd6b95e0	-0.05751598
214	0xbcd666db	-0.026172092
215	0x3d0d403d	0.03448509
216	0x3d829da4	0.06377724
217	0x3e0ff0a9	0.14056648
218	0xbcd3d494	-0.025858201
219	0xbb2c69fc	-0.0026308289
220	0x3d42c47a	0.047550656
221	0x3b52da9a	0.0032173754
222	0x3c6eac56	0.014567455
223	0xbb962a8b	-0.0045827082
224	0xbd8bab43	-0.06819775
225	0x3c5f2a83	0.013620975
226	0xbb53aed5	-0.0032300253
227	0xbc3bc040	-0.01145941
228	0xbd2b6019	-0.041839693
229	0x3caf7d84	0.021422155
230	0xbd48082c	-0.04883592
231	0x3b4b5f2b	0.0031032066
232	0x3d0f3d1d	0.03497039
233	0xbcf2fcc0	-0.029661536
234	0x3d20109b	0.039078336
235	0x3cd686e5	0.02618737
236	0x3cea4616	0.028597873
237	0xbba75267	-0.0051062587
238	0x3cc9cfa9	0.024635153
239	0xbbe48e1d	-0.006974949
240	0x3d2284e1	0.039677504
241	0xbc4c8a7a	-0.012484187
242	0xbceb23b8	-0.028703555
243	0x3c516fd6	0.012783011
244	0xbd43375b	-0.047660213
245	0xbca36dbe	-0.01994979
246	0x3c4e943f	0.012608587
247	0xbd3ea14f	-0.046540555
248	0x3c2a0c02	0.010378839
249	0x3d428585	0.047490615
250	0xbe61052c	-0.21974629
251	0xbe46cd1e	-0.19414183
252	0xbd0f1fe4	-0.034942523
253	0x3de30b2b	0.110861145
254	0x3e922873	0.28546485
255	0xbe206341	-0.15662862

fc1.bias f4 [120]
0	0xbe7e6952	-0.24844864
1	0xbdca3e86	-0.09875207
2	0x3d4c0bb3	0.049815845
3	0x3ee10713	0.4395071
4	0x3e63e7a3	0.22256331
5	0xbe050259	-0.12989177
6	0x3e18207c	0.14856142
7	0x3e7a11ba	0.24420825
8	0x3ee80860	0.4531889
9	0xbc454461	-0.012040229
10	0x3ef100b3	0.47070846
11	0xbe9adcac	-0.30246484
12	0xbe356c0c	-0.17716998
13	0xbe8e9895	-0.27850786
14	0xbe8f0322	-0.27932078
15	0xbeb4a887	-0.35284826
16	0x3d996d42	0.074915424
17	0x3d9f40ea	0.07776053
18	0xbe0beeed	-0.13665362
19	0xbd332b97	-0.043742742
20	0xbdf86b7e	-0.121298775
21	0x3e877eed	0.26464024
22	0xbdb88419	-0.09009571
23	0x3d296ca5	0.041363377
24	0x3e4da6f1	0.20083214
25	0x3f3fd73a	0.74937785
26	0xbddcf624	-0.10789135
27	0x3ebcf537	0.36905834
28	0x3de3331f	0.11093735
29	0x3d1cc0de	0.03826987
30	0xbd8f3f02	-0.0699444
31	0x3b85fffc	0.0040893536
32	0xbe91cd75	-0.28477064
33	0x3c3fe2a1	0.011711747
34	0xbe69ec19	-0.2284397
35	0xbd151356	-0.036395393
36	0xbdea40f2	-0.114381686
37	0xbe2fabf2	-0.17155436
38	0x3be5c31d	0.0070117847
39	0x3cde5637	0.02714072
40	0xbe4f20e1	-0.20227386
41	0x3e3fccc5	0.18730457
42	0xbc7bd1b3	-0.01536982
43	0xbe86bb81	-0.2631493
44	0xbe68a543	-0.22719292
45	0x3d263f20	0.040587544
46	0xbe46e466	-0.19423065
47	0xbeb303c8	-0.34963822
48	0xbea85378	-0.32876182
49	0xbed35a18	-0.41279674
50	0x3e7d4b02	0.24735644
51	0xbda47883	-0.08030798
52	0x3e073bba	0.13206378
53	0xbed8ea05	-0.42366043
54	0x3e13fb9d	0.14451452
55	0xbd100dde	-0.035169475
56	0x3cd7dc77	0.026350243
57	0x3de87ba9	0.11351711
58	0x3db07192	0.08615412
59	0xbdc3d339	-0.09561772
60	0x3eb5b989	0.35493115
61	0x3e1c04ff	0.15236281
62	0x3efcf45b	0.49405178
63	0x3db7f062	0.08981396
64	0x3c849e3e	0.016188737
65	0xbf076f2c	-0.5290401
66	0xbd2ee365	-0.04269733
67	0xbe146a9c	-0.14493793
68	0xbcf944d4	-0.030428328
69	0x3f11e6aa	0.5699259
70	0xbdcec34d	-0.100958444
71	0xbe1be2da	-0.15223256
72	0x3de2e576	0.110789225
73	0x3da22a1c	0.07918188
74	0xbd647cd6	-0.055783115
75	0xbe355693	-0.17708807
76	0x3dd7914d	0.10525761
77	0x3e68dbe7	0.22740136
78	0x3ddbcbc2	0.10732223
79	0xbe34ba39	-0.17649163
80	0xbe300b0f	-0.17191719
81	0x3ed80c6e	0.42196983
82	0xbe9c53b9	-0.30532625
83	0xbdbdce6e	-0.09267889
84	0x3e1b7436	0.1518105
85	0xbd85ce04	-0.06533435
86	0xbcba4d96	-0.022742074
87	0xbd64e307	-0.055880573
88	0xbc1c8206	-0.009552484
89	0x3e1ca4a2	0.15297177
90	0xbee78b77	-0.4522359
91	0xbc99894f	-0.018742232
92	0x3e86b994	0.2631346
93	0x3dd1610c	0.10223588
94	0xbca82692	-0.020526204
95	0xbd77eb23	-0.06052698
96	0x3efaf211	0.49012807
97	0x3e8d62af	0.27614352
98	0x3d88cda8	0.06679851
99	0x3c0488d3	0.008089262
100	0xbd792797	-0.06082877
101	0xbf0d472d	-0.5518673
102	0x3f227641	0.6346169
103	0x3d9147d2	0.07093777
104	0x3e90203c	0.28149593
105	0x3e8e7f87	0.2783167
106	0x3e9e4744	0.30913746
107	0xbd3a4685	-0.04547741
108	0xbce708c8	-0.02820243
109	0xbd670d39	-0.056409094
110	0x3efeedc7	0.49790785
111	0xbf0894bc	-0.5335195
112	0xbd641e03	-0.055692684
113	0xbdca0ccb	-0.09865721
114	0xbcf43baa	-0.029813606
115	0xbd252e9c	-0.040327653
116	0x3e3a290f	0.18179725
117	0x3b74832a	0.0037309625
118	0xbdee9792	-0.116500035
119	0x3ddcecd5	0.107873596

fc2.weight f4 [84, 120]
0	0x3d27b0d8	0.040940136
1	0xbd4c4533	-0.04987068
2	0x3e232a1a	0.15934029
3	0xbe1256c4	-0.14290911
4	0x3d8c8586	0.06861405
5	0xbd4e8421	-0.050418977
6	0xbd969436	-0.07352488
7	0xbca49393	-0.0200899
8	0xbd941b30	-0.07231748
9	0x3e16443c	0.14674467
10	0x3d220aab	0.039560955
11	0x3d98d17a	0.074618295
12	0x39c7bd00	0.00038097054
13	0xbd9249dc	-0.07142994
14	0x3d676df1	0.056501333
15	0x3bad2777	0.0052842456
16	0x3ce41ae1	0.027844848
17	0x3d4bb63e	0.049734347
18	0x3d0e3ceb	0.034726065
19	0x3c9f87b0	0.01947388
20	0x3d8c5430	0.06851995
21	0x3da50bb5	0.080588736
22	0x3daa82d9	0.083257385
23	0x3e06e2f1	0.13172509
24	0xbd06b8ff	-0.03289127
25	0xbda09a7a	-0.07841964
26	0x3d6a78b6	0.057244025
27	0xbd1b13f1	-0.037860814
28	0xbdb1d7aa	-0.08683713
29	0x3e8661ed	0.26246586
30	0x3cce799e	0.025204476
31	0xbdf4913b	-0.11941763
32	0xbd88a780	-0.06672573
33	0xbdc93e26	-0.09826307
34	0x3da9d0b7	0.08291762
35	0xbd6fc2e2	-0.058535464
36	0x3dde7dc3	0.10863831
37	0x3c2ba3da	0.010476077
38	0x3db34bc3	0.08754685
39	0xbd275ea6	-0.04086175
40	0xbddc5cd3	-0.10759892
41	0xbcbf329f	-0.023339568
42	0x3cde6078	0.02714561
43	0x3e042e06	0.12908182
44	0xbcf977a7	-0.030452562
45	0xbe645eef	-0.2230184
46	0x3dee0c1f	0.11623406
47	0x3e342cbc	0.1759519
48	0x3e05fbb0	0.13084292
49	0x38f4663f	0.000116538715
50	0x3d5b9027	0.05360427
51	0xbe0fbcdf	-0.14036892
52	0x3d8ed853	0.06974854
53	0xbc45a3d3	-0.0120629845
54	0xbe8710f9	-0.26380137
55	0x3c137b83	0.009001615
56	0xbc9b7e97	-0.018981261
57	0xbe10984e	-0.141206
58	0x3e0343f4	0.12818891
59	0xbe982acb	-0.29720148
60	0x3d7099d5	0.058740456
61	0xbe130070	-0.14355636
62	0x3c0ed6c5	0.008718197
63	0x3ce0415d	0.027374918
64	0xbe4bbf6a	-0.19897237
65	0x3cd70f11	0.026252301
66	0x3d1db119	0.03849897
67	0x3d2de59a	0.042455293
68	0xbdcab942	-0.098986164
69	0x3cdc8e34	0.026923276
70	0xbcc2063a	-0.02368461
71	0x3b5104a4	0.0031893635
72	0xbd9463f8	-0.0724563
73	0xbda5a499	-0.08088035
74	0x3e464954	0.1936391
75	0xbd88d547	-0.066813044
76	0xbe62d364	-0.22150952
77	0xbdead857	-0.11467045
78	0xbddfc4ca	-0.109262064
79	0xbbcc9769	-0.0062436354
80	0xbcd55fd5	-0.026046673
81	0xbd7f278c	-0.062293574
82	0x3dc5de98	0.09661597
83	0x3d9d9c61	0.076958425
84	0xbaf872ab	-0.0018955072
85	0x3b669a53	0.00351872
86	0x3cf36088	0.029709116
87	0xbe68aa08	-0.22721112
88	0x3c37cab9	0.011217766
89	0xbe48789a	-0.19577256
90	0x3db277e5	0.08714274
91	0xbdadd56a	-0.08487971
92	0x3df23063	0.11825635
93	0x3da079e7	0.07835751
94	0xbd08d4e5	-0.033406157
95	0xbe04ce77	-0.12969385
96	0xbdaca303	-0.084295295
97	0xbd942124	-0.072328836
98	0x3c5a9da9	0.013343253
99	0xbda60fde	-0.08108495
100	0xbe258f09	-0.16167845
101	0x3e2005de	0.15627238
102	0xbdcbeaff	-0.09956931
103	0x3ca6c0fc	0.020355694
104	0xbd1ba4cd	-0.037998963
105	0x3e1beb5a	0.15226498
106	0x3e75ec9f	0.24016045
107	0xbcb75f03	-0.022384172
108	0xbd829e18	-0.0637781
109	0x3dffc3ab	0.124884926
110	0xbcceab60	-0.025228202
111	0x3d9ef0c9	0.0776077
112	0x3d6add45	0.057339925
113	0xbceb631f	-0.028733788
114	0x3de07b47	0.10961013
115	0xbeab9524	-0.33512223
116	0xbc57514b	-0.01314194
117	0xbd9892a5	-0.07449845
118	0x3e136e5a	0.14397565
119	0x3cd375ff	0.0258131
120	0x3b9b6f7f	0.004743516
121	0x3d943934	0.07237473
122	0xbce3b71b	-0.027797272
123	0xbe60563f	-0.219079
124	0xbd902d1b	-0.07039853
125	0xbc9075ae	-0.017634239
126	0xbd5c6e28	-0.05381599
127	0x3de8d8ea	0.11369498
128	0x3d462d42	0.048383005
129	0x3df8d9ce	0.12150918
130	0xbde3d188	-0.11123949
131	0x3dca9f2b	0.0989364
132	0x3cf14d0d	0.029455686
133	0x3e190970	0.14945006
134	0x3d560e01	0.05225945
135	0x3e937417	0.28799507
136	0xbe220607	-0.15822612
137	0x3ddfc2de	0.1092584
138	0x3db15511	0.08658803
139	0x3aca7522	0.0015446285
140	0xbdf3a0c0	-0.11895895
141	0xbe0f63a8	-0.1400286
142	0x3d18c385	0.037295837
143	0xbdd54c6a	-0.104149655
144	0xbe47a02e	-0.19494697
145	0xbe2167dc	-0.15762275
146	0x3d9b9e50	0.07598555
147	0xbdbea9b8	-0.09309715
148	0xbe175abd	-0.14780708
149	0xbce1676a	-0.027515132
150	0x3d3267e2	0.0435561
151	0xbcb8f5a2	-0.022578064
152	0xbe1524fa	-0.14564887
153	0xbe1cdc9d	-0.15318532
154	0x3e1158b3	0.14193992
155	0xbdeec62b	-0.11658891
156	0x3d2b9a89	0.041895423
157	0x3c4482e7	0.0119941
158	0xbda9a2eb	-0.08283027
159	0x3e456f7f	0.19280814
160	0xbe5ea980	-0.21744347
161	0x3da4b67c	0.08042619
162	0x3d8fa2b7	0.07013457
163	0x3e21c37b	0.15797226
164	0x3e67eb68	0.22648394
165	0xbd9158d2	-0.07097019
166	0xbe21ca39	-0.15799798
167	0x3e996ef6	0.2996747
168	0xbdfabef9	-0.122434564
169	0x3dce153c	0.10062644
170	0xbd014ed0	-0.031569302
171	0xbd830760	-0.06397891
172	0x3d3052da	0.043047763
173	0x3d4d5447	0.0501292
174	0xbc178f1d	-0.009250429
175	0x3d16838f	0.036746558
176	0x3d780c80	0.060558796
177	0xbe772264	-0.24134213
178	0xbd76968c	-0.060202166
179	0x3cf2be20	0.029631674
180	0x3c4da97e	0.012552617
181	0x3de2fd3f	0.11083459
182	0xbd6a406f	-0.057190355
183	0x3dda95a5	0.10673074
184	0xbd6e9334	-0.058245853
185	0x3e47065d	0.19436021
186	0x3c92e991	0.017933639
187	0xbe815645	-0.2526113
188	0x3cea6a56	0.028615158
189	0xbd695709	-0.05696777
190	0x3db0bbb5	0.08629552
191	0x3d99e232	0.075138465
192	0xbe125cb0	-0.1429317
193	0xbe831f9c	-0.25610054
194	0xbd199d03	-0.037503254
195	0x3d24c96a	0.040231146
196	0xbdeb1ce6	-0.11480121
197	0xbd6a74f3	-0.057240438
198	0xbdfbf2da	-0.1230218
199	0x3bfa70c3	0.007642837
200	0xbe0a1596	-0.13484797
201	0x3ca0b256	0.019616287
202	0x3b8f7d47	0.004378948
203	0x3e12d698	0.14339674
204	0xbd4486d8	-0.04798016
205	0x3c57e063	0.013176057
206	0xbe28a92b	-0.16470782
207	0xbd3804e0	-0.044926524
208	0xbe3681d2	-0.1782296
209	0xbe0c87e9	-0.1372372
210	0x3e12eb31	0.14347531
211	0xbccc921d	-0.024972016
212	0xbd9b2b19	-0.075765796
213	0x3ce3cf51	0.027808817
214	0x3dc6d617	0.09708803
215	0x3e3fe50d	0.1873972
216	0x3cc54e15	0.024085084
217	0xbdb479aa	-0.08812268
218	0xbd998832	-0.0749668
219	0x3d35ae9b	0.04435597
220	0xbe207e8c	-0.15673274
221	0x3dcef422	0.101051584
222	0xbd663fc7	-0.056213167
223	0xbe9317c5	-0.28729072
224	0xbd015265	-0.03157272
225	0xbdc9ca68	-0.09853059
226	0xbde79e62	-0.11309506
227	0x3d9048fe	0.07045172
228	0x3d629640	0.05531907
229	0x3de40e4f	0.11135542
230	0xbd733a07	-0.05938151
231	0x3e5b6c29	0.21427979
232	0xbd4da8c5	-0.05020978
233	0xbdb15910	-0.086595654
234	0xbdf224f6	-0.11823456
235	0x3da3c2d1	0.07996143
236	0x3ea91d4d	0.33030167
237	0x3ca7afe4	0.020469613
238	0x3c4b162c	0.012395423
239	0x3a390dbb	0.0007059236
240	0x3c0a0f44	0.008426491
241	0x3cff478a	0.031162042
242	0x3e193d09	0.1496469
243	0xbd81bd17	-0.06334894
244	0xbe07d1f4	-0.13263685
245	0xbd0b9ecd	-0.03408699
246	0x3df19500	0.117959976
247	0xbd62093b	-0.055184584
248	0x3c81209e	0.015762623
249	0x3b0437ec	0.0020174934
250	0x3d028fb5	0.03187533
251	0xbc3ee7d9	-0.0116519565
252	0xbd4dc14b	-0.050233167
253	0xbdd96280	-0.106144905
254	0xbbf22de2	-0.0073907236
255	0xbb2d44df	-0.0026438755

fc2.bias f4 [84]
0	0x3de12866	0.109940335
1	0xbf43741f	-0.7634906
2	0xbeb4df62	-0.35326678
3	0xbda44ab9	-0.08022065
4	0x3dfbed28	0.12301093
5	0x3e2b8271	0.16748978
6	0xbedae2e7	-0.42751238
7	0x3f05505e	0.52075756
8	0xbd579cee	-0.052639894
9	0xbec651a5	-0.38734165
10	0xbe0b525b	-0.13605635
11	0xbe3ea89a	-0.18619004
12	0x3fb27250	1.3941135
13	0x3e8397c0	0.25701714
14	0xbe6c0436	-0.23048481
15	0xbe351ab4	-0.17685968
16	0x3f2be133	0.671405
17	0x3de7dcf4	0.1132144
18	0x3eb0f2dc	0.34560287
19	0x3ea46382	0.32107168
20	0xbd1f48c0	-0.03888774
21	0xbe79ef45	-0.2440768
22	0x3e9cf33a	0.30654317
23	0x3e9b86ba	0.30376226
24	0x3e3899bf	0.180274
25	0x3d7358b7	0.059410777
26	0x3ef261fe	0.47340387
27	0xbec55c69	-0.38547066
28	0x3d922ac7	0.071370654
29	0xbddfadda	-0.109218314
30	0xbe081ae2	-0.13291505
31	0xbe215665	-0.15755613
32	0xbd52ba0b	-0.051446956
33	0x3f762920	0.961565
34	0xbe610862	-0.21975854
35	0xbc83dcf8	-0.016096577
36	0x3ee740cf	0.45166633
37	0x3ec77323	0.3895503
38	0xbeb9cf7f	-0.3629112
39	0x3e9963ad	0.2995886
40	0xbe0e8408	-0.13917553
41	0xbe7dd155	-0.24786885
42	0xbdf7008d	-0.12060652
43	0xbe4f0d26	-0.2021986
44	0xb9278217	-0.00015974823
45	0x3e1ae13b	0.15124981
46	0x3e10413f	0.1408739
47	0xba6b34a4	-0.00089723826
48	0x3e1b20cc	0.1514923
49	0x3dfc3ce0	0.123162985
50	0x3c99b1b0	0.018761486
51	0x3d7fe262	0.062471755
52	0xbd49c16f	-0.04925674
53	0xbdef050b	-0.11670884
54	0xbeab92ff	-0.33510587
55	0xbc3af196	-0.011410138
56	0x3ea1c4a7	0.31595346
57	0xbb9a30a5	-0.004705506
58	0x3d341ddb	0.043973785
59	0x3e58046a	0.21095434
60	0x3e00a80c	0.12564105
61	0xbe88411d	-0.26612177
62	0xbcaf770b	-0.021419069
63	0x3e3f037d	0.18653674
64	0x3f563d74	0.8368752
65	0x3ed987ff	0.4248657
66	0x3dfadc50	0.122490525
67	0xbeb12c6d	-0.34604207
68	0x3f03f003	0.51538104
69	0x3e5ec232	0.21753767
70	0xbda22abf	-0.079183094
71	0xbdb5db98	-0.08879775
72	0xbeae37dc	-0.34026992
73	0x3e4a1c5b	0.19737379
74	0x3e836344	0.2566167
75	0x3e025a7d	0.12729831
76	0x3f0d62fb	0.5522916
77	0x3f5f5352	0.8723651
78	0xbdd51c97	-0.10405844
79	0x3f7d334a	0.98906386
80	0x3e87f38c	0.26553
81	0xbe50c1f8	-0.20386493
82	0x3e5b30fc	0.21405405
83	0x3d397b73	0.045283746

fc3.weight f4 [10, 84]
0	0x3ba91156	0.0051595373
1	0xbe07ee19	-0.13274421
2	0x3daa5e80	0.08318806
3	0xbd96ae2e	-0.07357441
4	0xbd0760c8	-0.033051282
5	0xbe5a377f	-0.21310233
6	0x3d59f173	0.05320878
7	0xbe29461f	-0.16530655
8	0x3d730ba6	0.05933728
9	0x3b46d324	0.0030338252
10	0x3dfc489b	0.12318536
11	0x3cc7dcbf	0.024397252
12	0xbd00cd3a	-0.03144572
13	0xbcff9330	-0.031198114
14	0xbe6b613c	-0.2298631
15	0x3dd23d36	0.10265581
16	0x3de05758	0.109541595
17	0x3d5d72ee	0.054064684
18	0x3cf42503	0.029802805
19	0x3e9ff435	0.31241003
20	0x3d1d7b7a	0.038447835
21	0xbc8b1520	-0.016977847
22	0xbe0904d1	-0.13380744
23	0xbd3a3b78	-0.04546687
24	0x3c2fd510	0.01073195
25	0xbc9b8b6e	-0.018987384
26	0xbd9baa28	-0.07600814
27	0xbde1466b	-0.10999759
28	0xbe5b61c0	-0.21424007
29	0x3de4eabf	0.11177587
30	0x3e421c76	0.1895617
31	0xbdccd6d8	-0.10001916
32	0x3daa547f	0.083168976
33	0xbe685045	-0.2268687
34	0xbb3f4fa9	-0.0029191768
35	0x3d7b9239	0.061418746
36	0x3e7a7742	0.24459556
37	0x3c3d4395	0.011551757
38	0x3eae22ff	0.34011075
39	0xbde48c85	-0.111596145
40	0x3d6ca2eb	0.05777256
41	0x3bfb8714	0.0076760147
42	0x3e0e6bee	0.1390836
43	0xbcbd2e02	-0.023093227
44	0x3d1eb37a	0.03874538
45	0x3e0f4ee2	0.13994935
46	0xbd97e832	-0.074173346
47	0x3ecd8ca5	0.40146366
48	0x3dced24b	0.10098704
49	0xbb8adccf	-0.004237748
50	0xbdab2f74	-0.0835866
51	0x3e16775c	0.1469397
52	0xbda0d7af	-0.078536384
53	0xbdd2824b	-0.10278758
54	0xbdb39a3b	-0.087696515
55	0xbe85d128	-0.26136136
56	0x3bc7f6bf	0.0061024125
57	0x3dd64d07	0.104639105
58	0x3c88d1a1	0.016701521
59	0x3e00f9c7	0.12595282
60	0x3dc7ee8d	0.09762297
61	0x3d3b5f3b	0.045745116
62	0xbeb795dc	-0.3585652
63	0xbcb37298	-0.021905228
64	0x3d00f405	0.031482715
65	0x3c153e17	0.009109042
66	0x3ca78988	0.020451322
67	0xbd9f093e	-0.07765435
68	0xbe1f37b3	-0.15548591
69	0x3d0c1b54	0.03420575
70	0x3db73c3b	0.08947035
71	0xbb0482d6	-0.0020219586
72	0xbcdfa6fd	-0.027301306
73	0xbe3d6ce0	-0.18498564
74	0x3defdf95	0.11712567
75	0x3c5620ba	0.013069326
76	0x3d7425d5	0.059606392
77	0x3de54ab8	0.11195892
78	0xbdcf9815	-0.10136429
79	0x3e0bdd34	0.13658601
80	0xbe1f9aa0	-0.15586329
81	0x3eb9d780	0.36297226
82	0xbd52332d	-0.051318336
83	0xbbfc0c7f	-0.0076919193
84	0x3dad332d	0.08457027
85	0x3eba5624	0.36393845
86	0xbd5637da	-0.052299358
87	0x3ea2b8c8	0.31781602
88	0xbb1db909	-0.0024066588
89	0x3d96f025	0.07370023
90	0xbccdf524	-0.025141306
91	0x3ddefc82	0.10888006
92	0xbbd9b6fb	-0.0066441274
93	0x3d8ceb3f	0.06880807
94	0xbdd1f7f3	-0.10252371
95	0x3e3cb76f	0.1842935
96	0xbe2b68fd	-0.16739269
97	0xbca9adfd	-0.020712847
98	0xbd39f000	-0.045394897
99	0x3da937ac	0.08262572
100	0xbe7600d6	-0.24023756
101	0x3d7bc34e	0.061465554
102	0x3d49cf10	0.049269736
103	0x3e056700	0.13027573
104	0xbe5ca9bf	-0.21549128
105	0xbc82f4df	-0.015985904
106	0x3c72e36e	0.014824731
107	0x3e3ce531	0.18446805
108	0xbd9f0770	-0.077650905
109	0xbd82c35a	-0.063849166
110	0xbeb2b92b	-0.34906897
111	0xbe0b3880	-0.13595772
112	0xbcafc5af	-0.021456568
113	0x3dee10f6	0.11624329
114	0x3e29cc94	0.16581947
115	0x3e0cb3dd	0.13740487
116	0x3d97a254	0.074040085
117	0xbe0de44f	-0.13856624
118	0xbe003975	-0.12521918
119	0xbc487741	-0.012235464
120	0xbe1ef125	-0.15521677
121	0x3de5f01c	0.11227438
122	0xbe2e4d6f	-0.17021726
123	0x3e678636	0.22609791
124	0xbe18cf7c	-0.14922899
125	0xbd9a5eec	-0.07537636
126	0x3db1973a	0.08671422
127	0xbe1953dc	-0.14973396
128	0xbc99978e	-0.018749025
129	0x3d7abe2d	0.061216522
130	0xbe11964d	-0.14217491
131	0x3c3d66b6	0.011560133
132	0xbc3dc550	-0.0115826875
133	0x3d026e64	0.031843558
134	0xbc9c8e6f	-0.019110886
135	0x3d7b474f	0.061347302
136	0xbde9d0a6	-0.1141675
137	0xbda6d305	-0.081457175
138	0xbe49dd04	-0.19713217
139	0x3ded03b1	0.1157297
140	0xbdf92344	-0.121649295
141	0x3d8a16c4	0.067426234
142	0xbc1232d4	-0.008923251
143	0x3e55d10b	0.20880525
144	0x3d75248c	0.059849307
145	0x3ba2fdf0	0.0049741194
146	0x3c977bc7	0.018491639
147	0xbdc86143	-0.09784176
148	0x3d44225a	0.047884323
149	0xbe3e7779	-0.18600263
150	0xbe255297	-0.16144787
151	0x3cefb9a5	0.029263327
152	0xbdfb41a5	-0.1226838
153	0x3c9adfbb	0.018905511
154	0x3dcf1e18	0.10113162
155	0xbd5baa7f	-0.053629395
156	0xbdbee09c	-0.093201846
157	0x3be2e418	0.0069241636
158	0x3dbc87a0	0.09205556
159	0x3e4f7d69	0.20262684
160	0xbe56bd22	-0.20970586
161	0xbf05fc2c	-0.5233791
162	0x3d80b5ad	0.06284652
163	0xbd341369	-0.043963823
164	0xbd06fc64	-0.032955542
165	0xbe11b980	-0.14230919
166	0x3d0834e3	0.03325356
167	0xbd1f4836	-0.038887225
168	0x3befab1e	0.0073141
169	0xbda19dec	-0.07891449
170	0x3c8d360c	0.017237686
171	0xbdc6a2a3	-0.09698989
172	0xbc1d1e16	-0.009589693
173	0xbdcccdb1	-0.1000017
174	0x3eb6f49b	0.35733494
175	0x3cd15dba	0.025557388
176	0x3c4aec70	0.012385473
177	0xbdc312c0	-0.09525061
178	0xbd2e005f	-0.042480823
179	0xbdef5c48	-0.11687523
180	0x3e0c1268	0.13678896
181	0x3ddef41f	0.10886406
182	0x3dfc4762	0.12318303
183	0xbe0ed4ca	-0.1394836
184	0x3cc619df	0.024182258
185	0x3d61bfb2	0.055114456
186	0x3c61e344	0.0137870945
187	0xbd2d7f58	-0.042357773
188	0x3b309d81	0.0026949348
189	0xbd863196	-0.065524265
190	0x3da97dcd	0.08275948
191	0xbdc7f801	-0.097641
192	0xbd38754a	-0.04503373
193	0xbd3ce9dc	-0.046121463
194	0x3beba520	0.0071913153
195	0x3c694f1a	0.014240051
196	0x3d09a7bf	0.03360724
197	0x3d863c5b	0.06554481
198	0xbd74b0bf	-0.05973887
199	0xbe01d47d	-0.12678714
200	0x3d19f4ec	0.03758709
201	0x3de68284	0.11255363
202	0xbd393643	-0.045217764
203	0x3d032690	0.032019198
204	0x3dd64308	0.10462004
205	0xbcdc390c	-0.02688267
206	0xbd725e1d	-0.059171785
207	0x3d5ea5eb	0.05435745
208	0x3f0fed14	0.5622113
209	0x3f1fb5aa	0.6238657
210	0x3e0bf539	0.13667764
211	0xbdb81d3f	-0.08989953
212	0x3d581423	0.05275358
213	0x3cf13adc	0.029447012
214	0x3adf9285	0.0017057216
215	0xbc01e598	-0.007928275
216	0xbda4d030	-0.08047521
217	0x3e14d14d	0.14532967
218	0x3a9a1d39	0.0011757977
219	0x3c50ac61	0.012736411
220	0xbb2ed506	-0.0026677265
221	0xbd956c2f	-0.07296025
222	0xbc9e4db0	-0.019324154
223	0x3d92e8bc	0.07173297
224	0xbdd2bb61	-0.10289646
225	0x3d9c48b4	0.076310545
226	0xbc6e9833	-0.014562654
227	0xbdeb67f0	-0.11494434
228	0xbc82e6e0	-0.01597923
229	0x3d5ba645	0.053625364
230	0xbdc86dc4	-0.09786561
231	0xbc88fdc1	-0.016722562
232	0xbcdc4f9d	-0.026893431
233	0x3d919769	0.07108957
234	0xbd8c6b81	-0.06856442
235	0xbd0adb22	-0.033900388
236	0x3dc0cd95	0.09414212
237	0xbe5ebe84	-0.21752363
238	0xbda31aaf	-0.07964074
239	0xbcc6344d	-0.02419486
240	0x3e9d0848	0.3067038
241	0x3d5183ae	0.05115097
242	0xbdbe4c48	-0.09291893
243	0xbdeb39bf	-0.114856236
244	0x3df2ad8f	0.1184951
245	0x3df9b5df	0.12192892
246	0x3d5ea563	0.054356944
247	0x3ddc93b5	0.107703604
248	0x3d99915b	0.074984275
249	0x3e0367c7	0.12832557
250	0xbe0a58cd	-0.13510437
251	0x3e2075a1	0.15669872
252	0xbc51bd2a	-0.012801448
253	0xbd77e985	-0.060525436
254	0x3d9e9703	0.07743647
255	0xbd5573e0	-0.05211246

fc3.bias f4 [10]
0	0xbe7a29ac	-0.24429959
1	0xbe88aed6	-0.2669589
2	0x3dcd0ad7	0.10011833
3	0xbda5f9bf	-0.08104276
4	0x3e99420d	0.29933205
5	0x3c09c255	0.008408149
6	0x3e9dc782	0.30816275
7	0xbe995b63	-0.29952535
8	0x3ed578c7	0.41693708
9	0x3d5b76e1	0.05358017
