models/adv_submodel_3.pth (torch, 251802 bytes, 10 tensors)

conv1.weight f4 [6, 3, 5, 5]
0	0xbd837aba	-0.064198926
1	0xbc97526f	-0.018471925
2	0x3d9a0b26	0.07521658
3	0xbc8b5e0d	-0.01701262
4	0x3d645e2a	0.055753864
5	0xbd768251	-0.060182873
6	0xbb86c269	-0.004112531
7	0xbd8c0487	-0.06836801
8	0xbdee84b0	-0.11646402
9	0x3d2ce308	0.0422087
10	0xbc67d347	-0.014149494
11	0x3c427a78	0.011870019
12	0xbce02248	-0.027360097
13	0x3dbf82af	0.09351098
14	0x3d252a25	0.040323395
15	0x3a6e3c89	0.0009088
16	0x3cec4703	0.028842455
17	0xbdd00fe2	-0.101592794
18	0xbd87f1db	-0.06637927
19	0x3d09422e	0.03351038
20	0xbd9ff55a	-0.07810469
21	0xbdd1db2e	-0.10246883
22	0xbdca11bc	-0.09866664
23	0x3cbc9f6e	0.02302524
24	0x3c7079b1	0.014677451
25	0xbd396212	-0.045259543
26	0x3d62f1fa	0.055406548
27	0x3d0bd599	0.03413925
28	0xbdee9abf	-0.11650609
29	0xbbe9fd10	-0.007140763
30	0xb9ecd979	-0.00045175457
31	0x3d96c6ba	0.07362123
32	0xbdc811d0	-0.097690225
33	0xbdccde6c	-0.10003361
34	0xbd8d83ff	-0.06909942
35	0x3d9a6a0b	0.07539757
36	0xbd25483e	-0.0403521
37	0xba000613	-0.00048837176
38	0xbd2990cf	-0.041397866
39	0xbdc19eaa	-0.09454091
40	0x3d4b7130	0.04966849
41	0xbd17446b	-0.036930483
42	0x3c87a40d	0.016557718
43	0x3ce5bddf	0.02804464
44	0x3d2540dd	0.04034506
45	0xbca1f03d	-0.019767875
46	0x3cff65d0	0.031176478
47	0xbdd1b728	-0.102400124
48	0xbd1b1c29	-0.037868652
49	0xbd68aea6	-0.056807183
50	0x3d870172	0.065920725
51	0x3d1d0cca	0.038342275
52	0xbda906b1	-0.082532294
53	0x3c550e8a	0.013003955
54	0xbdc1991a	-0.0945303
55	0xbdb29ef6	-0.08721726
56	0xbd007e12	-0.03137023
57	0xbda65889	-0.081223555
58	0x3dbbbe34	0.09167138
59	0xbc5195f1	-0.0127920965
60	0xbdcc9e17	-0.09991091
61	0xbd758370	-0.0599398
62	0xbcdd2a0f	-0.026997594
63	0x3d833ae9	0.064077206
64	0x3ce45179	0.02787088
65	0x3d44430f	0.047915515
66	0xbce254fb	-0.027628412
67	0xbd8a012d	-0.067385055
68	0xba445dab	-0.0007490764
69	0xbdb69b54	-0.08916345
70	0xbd143db9	-0.036191676
71	0x3d00a10d	0.03140359
72	0xbddc1a41	-0.10747195
73	0xbc93d3a4	-0.018045254
74	0xbdf03f81	-0.117308624
75	0x3ca7aaf3	0.020467257
76	0x3c00cc56	0.0078612175
77	0x3bb88950	0.0056316033
78	0x3d4db51a	0.05022154
79	0xbd19f3be	-0.037585966
80	0xbd532779	-0.051551316
81	0x3d966d2d	0.073450424
82	0xbd800f3b	-0.06252905
83	0x3d657a7a	0.056025006
84	0xbb8af77c	-0.004240928
85	0x3c4511de	0.012028186
86	0x3cabb179	0.020958649
87	0xbdba5069	-0.09097368
88	0x3d019a9a	0.03164158
89	0xbde69511	-0.11258901
90	0xbd5a6e3e	-0.05332779
91	0xbddfb41c	-0.10923025
92	0xbd8ea8f4	-0.06965819
93	0xbd135028	-0.035965115
94	0xbd837f21	-0.06420732
95	0xbcd5332c	-0.026025377
96	0xbdcfef82	-0.10153104
97	0x3c2ba031	0.010475204
98	0x3dad02fc	0.08447835
99	0xbdb13f2b	-0.086546265
100	0x3d6129c4	0.05497147
101	0xbc84ad25	-0.016195843
102	0xbcc8cba0	-0.024511158
103	0xbdb4ecb3	-0.08834209
104	0xbdd8ed57	-0.10592144
105	0x3d2b6448	0.041843683
106	0xbd1fb026	-0.038986348
107	0x3d7b03b3	0.061282825
108	0xbd475c63	-0.04867209
109	0xbdbdb210	-0.09262478
110	0xbc0d6b33	-0.008631515
111	0xbde5cd2a	-0.112207726
112	0xbb0f24e8	-0.0021842066
113	0x3db30c73	0.08742609
114	0x3d31da39	0.043421004
115	0x3da23c7c	0.07921693
116	0xbdddb897	-0.10826223
117	0xbd4b95db	-0.04970346
118	0xbd1957c3	-0.03743721
119	0xbd777f72	-0.060424276
120	0xbd3d1cc5	-0.046170015
121	0xbd9e0021	-0.07714868
122	0x3cdd171a	0.026988555
123	0x3cfec445	0.031099448
124	0xbdb3619e	-0.087588534
125	0xbd692746	-0.05692222
126	0xbcfbd48e	-0.030741002
127	0xbd2d3882	-0.04229022
128	0xbce02d50	-0.027365357
129	0xba102abf	-0.0005499534
130	0x3d176937	0.036965575
131	0x3db5b591	0.08872522
132	0xbdf1fc37	-0.11815684
133	0x3cd05044	0.025428899
134	0x3b5aaf1f	0.003336854
135	0xbd5cdebe	-0.05392336
136	0xbd41fd2c	-0.047360584
137	0xbbe0a2ea	-0.0068553584
138	0xbcb3a6c0	-0.021930099
139	0xbd89d7fc	-0.06730649
140	0xbd93f9a3	-0.07225349
141	0x3daf8369	0.085699864
142	0xbdf04e6a	-0.11733706
143	0x3d40bf2c	0.047057316
144	0x3d453a67	0.0481514
145	0xbd72fbd6	-0.0593222
146	0x3d4442f3	0.04791541
147	0xbdc4c0f2	-0.09607114
148	0x3dd766c1	0.105176456
149	0xbcd89486	-0.026438009
150	0xb81834be	-3.6288744e-05
151	0x39382112	0.00017559927
152	0xbaa54d70	-0.0012611579
153	0xbb0a3b44	-0.0021092454
154	0xbaf8acb9	-0.0018972374
155	0x3b38e7af	0.0028214266
156	0x3b5365a9	0.003225664
157	0x3b3b8fa8	0.0028619561
158	0xba47b9a3	-0.00076189096
159	0x3aa3c1a3	0.0012493621
160	0x3b8cea66	0.0043004034
161	0x3b917b22	0.0044397274
162	0x3b76df01	0.0037669542
163	0x3b5aaa77	0.0033365765
164	0x3b84a73a	0.0040482553
165	0x3aa1ae26	0.0012335225
166	0x3b403f4f	0.002933461
167	0x3b62d290	0.0034610368
168	0x3b11b486	0.0022232844
169	0x3ae8ba00	0.0017755628
170	0x37b4d85f	2.1558428e-05
171	0x3a1b0f4e	0.00059150613
172	0x3af2902f	0.0018506105
173	0x3ac9be44	0.0015391787
174	0x3a2c1c90	0.00065655354
175	0x3b06c496	0.0020563952
176	0x3afac826	0.0019133135
177	0x3abbfb84	0.0014341925
178	0x39b7598f	0.00034971206
179	0xba27d6d9	-0.0006402559
180	0x3baaf212	0.0052168453
181	0x3b9959e9	0.0046799076
182	0x3ba612dd	0.0050681666
183	0x3b9c6bff	0.0047736163
184	0x39b8770b	0.0003518391
185	0x3bbfd192	0.00585384
186	0x3bf3e3b9	0.007442918
187	0x3bc0fd91	0.0058896025
188	0x3bf31f3d	0.0074194954
189	0x3bc71e1d	0.006076588
190	0x3b18afaa	0.0023298063
191	0x3b8606bf	0.0040901597
192	0x3b90b087	0.004415575
193	0x3b7f3fef	0.003894802
194	0x3b4a6c44	0.0030887285
195	0x3a959498	0.0011412082
196	0x3ae26787	0.0017273285
197	0x3acd3751	0.0015656744
198	0x3aed71fa	0.0018115633
199	0xb8468231	-4.732813e-05
200	0x3d109af9	0.035304043
201	0x3d844b80	0.06459713
202	0x3dae7535	0.08518449
203	0x3d6de49d	0.05807935
204	0x3cc9d90a	0.024639625
205	0x3da66f7d	0.081267335
206	0x3e1af498	0.15132368
207	0x3e425ae2	0.18979982
208	0x3e070310	0.13184762
209	0x3d6e896c	0.058236524
210	0x3dd6ddbe	0.10491513
211	0x3e47218c	0.19446391
212	0x3e7a17d9	0.2442316
213	0x3e2176b1	0.15767933
214	0x3d84de1a	0.06487675
215	0x3d7c1f92	0.061553545
216	0x3dd54de3	0.10415246
217	0x3df4adfc	0.119472474
218	0x3da25148	0.079256594
219	0x3d072990	0.03299862
220	0x3cf2f92b	0.029659828
221	0x3d27d313	0.04097278
222	0x3d310474	0.043217137
223	0x3ce39a76	0.027783614
224	0x3c2dfbb6	0.010619095
225	0xbd338e60	-0.04383695
226	0xbcf3d91a	-0.029766608
227	0xbcdc3524	-0.026880808
228	0x3d158e80	0.03651285
229	0xbd915554	-0.07096353
230	0x3db3bbd1	0.087760575
231	0xbabaa9be	-0.0014241261
232	0xbca8e02c	-0.020614706
233	0xbd862510	-0.06550038
234	0xbcb13164	-0.021629997
235	0xbdbf42c0	-0.093389034
236	0x3da8a687	0.082348876
237	0x3b63ac4d	0.003474015
238	0x3c92cbb4	0.017919399
239	0xbd39c8b3	-0.045357417
240	0xbd5b0ae0	-0.053477168
241	0xbd671155	-0.056413013
242	0xbbe2ff5d	-0.0069274143
243	0xbdadd93e	-0.08488701
244	0x3d3c48dd	0.045967925
245	0x3bceacd2	0.006307223
246	0xbd60eca6	-0.054913186
247	0x3da62a59	0.08113546
248	0x3c76c4b1	0.015061543
249	0x3c99991c	0.018749766
250	0x3d071367	0.032977488
251	0xbd877c82	-0.06615545
252	0xbdb70f55	-0.08938471
253	0xbdaee441	-0.0853963
254	0xbca23f53	-0.019805586
255	0xbd8b003b	-0.06787153

conv1.bias f4 [6]
0	0xbcb6115e	-0.022225078
1	0xbce2e5c2	-0.027697448
2	0xbecef038	-0.40417647
3	0xbd3c41be	-0.045961134
4	0xbdc5c61d	-0.09656928
5	0xbd0862a5	-0.0332972

conv2.weight f4 [16, 6, 5, 5]
0	0xbd9e63e9	-0.077339
1	0xbd0a7ec6	-0.033812307
2	0x3d82aa73	0.06380167
3	0x3c9d5fd3	0.019210732
4	0x3d292988	0.041299373
5	0x3bd3456f	0.006447486
6	0xbd9885e6	-0.07447414
7	0xbd1296aa	-0.035788216
8	0x3d6d3fd7	0.05792221
9	0x3d95966d	0.07304082
10	0xbd4ca2dc	-0.049960002
11	0xbd2aa790	-0.041663706
12	0x3c2af841	0.010435165
13	0xbd98f52a	-0.07468636
14	0xbd6a5e52	-0.057218857
15	0xbd2ce852	-0.042213745
16	0x3d806406	0.06269078
17	0xbcc31951	-0.023815783
18	0x38c2753a	9.272476e-05
19	0x3cd3727e	0.02581143
20	0x3bd9f5dc	0.006651623
21	0xbc94d26b	-0.018166741
22	0xbd61964a	-0.055074967
23	0x3d089898	0.03334865
24	0x3d4406b3	0.04785795
25	0xbd8979b1	-0.06712664
26	0xba9a72fe	-0.0011783538
27	0xbd66d88f	-0.05635887
28	0x3d0686f7	0.032843556
29	0xbd99c4a7	-0.075082116
30	0x3c74a850	0.014932707
31	0x3cbdf322	0.023187224
32	0x3d5bb8e7	0.053643133
33	0xbc9465e9	-0.018115
34	0xbd8b6d01	-0.068079
35	0x3ceeb76b	0.029140195
36	0xbd8a5fdb	-0.06756564
37	0x3d38e1da	0.045137264
38	0x3d658e57	0.05604395
39	0xbce344fa	-0.027742852
40	0xbd1cecd0	-0.03831178
41	0xbd5a0b7c	-0.05323361
42	0xbd55f463	-0.05223502
43	0xbd138e18	-0.036024183
44	0xbd58272a	-0.052771725
45	0x3d398cd8	0.045300335
46	0xbd0e0fb0	-0.03468293
47	0xbcda8d35	-0.02667866
48	0xbd9f1105	-0.07766918
49	0x3d826914	0.06367698
50	0xbee5a42e	-0.44851822
51	0xbe972bbf	-0.29525563
52	0xbd127a46	-0.03576114
53	0x3d659f71	0.05606026
54	0x3e5c24c7	0.21498404
55	0xbf6a49d2	-0.9151889
56	0xbe0de2ca	-0.13856044
57	0x3e6bf2e8	0.2304188
58	0x3e94baf8	0.29048896
59	0x3ed69234	0.4190842
60	0xbf3df39a	-0.7419983
61	0x3dc0bb28	0.09410697
62	0x3ea3651c	0.31913078
63	0x3ea58819	0.32330397
64	0x3e4a8e0e	0.19780752
65	0xbecc8dc4	-0.3995191
66	0x3d8eb37f	0.0696783
67	0x3e18d988	0.14926732
68	0x3e376b03	0.17911915
69	0x3dab2556	0.08356731
70	0xbdb1c12f	-0.08679425
71	0x3d71bb95	0.059016783
72	0x3de5c979	0.112200685
73	0x3dea4c36	0.11440317
74	0x3d85061d	0.06495307
75	0xbd64ffe6	-0.055908106
76	0x3c89dbdc	0.01682847
77	0x39a177fa	0.00030797702
78	0x3cfcb279	0.030846821
79	0xbb5a0c8d	-0.003327164
80	0x3d9c650b	0.0763646
81	0xba1f2523	-0.00060709025
82	0xbc0a569b	-0.0084435
83	0x3d9e870e	0.077406034
84	0xbd4a751f	-0.0494281
85	0xbd03ba61	-0.032160167
86	0xbc1a8763	-0.009431693
87	0x3da3740d	0.07981119
88	0xbd9c8f30	-0.07644498
89	0xbd8ed281	-0.06973744
90	0x3d8ae0ae	0.067811355
91	0x3d2ca122	0.042145856
92	0xbd6e936e	-0.05824607
93	0x3d1ec1dd	0.0387591
94	0xbc0142a8	-0.007889427
95	0x3c03d2bc	0.008045848
96	0xbd94c9a4	-0.072650224
97	0xbd840a8b	-0.064473234
98	0xba59fedc	-0.000831587
99	0xbd6a41a3	-0.057191502
100	0xbd192f8c	-0.03739886
101	0x3cddddec	0.02708336
102	0x3ba55b4f	0.005046285
103	0x3b656e36	0.0035008318
104	0x3d6d2710	0.05789858
105	0x3d49b44a	0.049244203
106	0xb9be2300	-0.000362657
107	0x3d326c73	0.043560456
108	0xbd9ddb6a	-0.077078655
109	0x3d9c659c	0.07636568
110	0x3c80904a	0.015693802
111	0xbd97c13d	-0.07409904
112	0x3cfeb7a4	0.031093426
113	0x3d24b8f3	0.040215444
114	0xbd539252	-0.051653214
115	0xbd2bb47b	-0.041920166
116	0xbd670b70	-0.056407392
117	0xbd9cd2b1	-0.07657374
118	0x3c7bc5e2	0.015367003
119	0xbc9ce92a	-0.01915415
120	0x3cf3b333	0.029748535
121	0x3d81c410	0.06336224
122	0x3d8be5e8	0.068309605
123	0x3c9a4e66	0.018836211
124	0x3d33c8af	0.04389256
125	0x3cd9e67f	0.026599167
126	0xbd2fdaf6	-0.042933427
127	0x3d815dec	0.06316742
128	0xbcc84f3c	-0.024451844
129	0xbd29c225	-0.041444916
130	0xba3f19ff	-0.00072899455
131	0x3d7c074b	0.061530393
132	0xbcc3cc20	-0.023901045
133	0xbd300d5a	-0.042981483
134	0xbd5c73c4	-0.05382134
135	0x3cd20d9c	0.025641255
136	0xbd37c9f1	-0.04487032
137	0xbd7fd25e	-0.06245648
138	0xbc98c915	-0.01865057
139	0xbc9274e0	-0.017877996
140	0x3c97bab7	0.01852165
141	0x3d9421d0	0.07233012
142	0xbcefb444	-0.029260762
143	0xbb886d84	-0.004163446
144	0xbb46df63	-0.0030345551
145	0xbd8d157f	-0.06888866
146	0xbcb9dc87	-0.022688163
147	0x3d9e3fed	0.077270366
148	0x3d3180ff	0.04333591
149	0xbd8e6512	-0.069528714
150	0xbcefd740	-0.029277444
151	0xbd16bffc	-0.036804184
152	0x3d01e2b9	0.03171036
153	0x3c20ce94	0.009814877
154	0xbd06feff	-0.032958027
155	0x3c87281f	0.016498623
156	0x3d2a9bd7	0.041652527
157	0xbd9f7005	-0.07785038
158	0xbc273714	-0.010206003
159	0xbc60c1e2	-0.0137181
160	0xbc92b94f	-0.017910628
161	0xbb68265b	-0.0035423252
162	0x3d15e8a8	0.03659883
163	0x3d9fc457	0.07801121
164	0xbd4b87d8	-0.049690098
165	0x3ce4e398	0.027940556
166	0xbda1a3e5	-0.078925885
167	0xbbc8efe0	-0.006132111
168	0xbcbbc8a2	-0.022922818
169	0xbd738cda	-0.0594605
170	0x3c815284	0.015786417
171	0xbd2d6fb5	-0.04234286
172	0x3c125019	0.00893023
173	0xbcceaadd	-0.025227958
174	0x3cb8548e	0.022501256
175	0xbd802b04	-0.062582046
176	0xbd89ca1d	-0.06728003
177	0x3d88c13f	0.06677484
178	0xbce51b09	-0.027966993
179	0xbbd29e06	-0.0064275293
180	0x3b9e4dab	0.004831036
181	0xbd8ed214	-0.06973663
182	0x3d5d1c21	0.053981904
183	0xbd007a1e	-0.03136646
184	0x3d0daf83	0.03459121
185	0x3c55e8c0	0.01305598
186	0xbd1fb11b	-0.03898726
187	0xbd6b8ebe	-0.057509176
188	0x3d698eed	0.05702107
189	0xbd74bada	-0.059748508
190	0xbd2834f8	-0.04106614
191	0xbd552d5b	-0.052045207
192	0x3d46eb8b	0.048564475
193	0xbd7eab03	-0.06217481
194	0x3d79830c	0.06091599
195	0x3d989080	0.07449436
196	0x3d66405b	0.056213718
197	0x3c21c6dc	0.009874072
198	0x3d721231	0.05909938
199	0xbd427ae6	-0.047480486
200	0x3df80ef6	0.121122286
201	0x3d51360a	0.051076926
202	0x3e1c2018	0.15246618
203	0xbdb50001	-0.08837891
204	0xbbc274c8	-0.0059343316
205	0x3d81c533	0.06336441
206	0x3e040920	0.12894106
207	0xbe4e9d39	-0.20177163
208	0xbf0461cb	-0.5171172
209	0x3ca214fa	0.019785393
210	0xbe53433a	-0.20631114
211	0xbf1d66e4	-0.61485124
212	0xbf8067eb	-1.0031713
213	0xbeb2d683	-0.34929284
214	0x3e74f58d	0.23921795
215	0xbeb14a1b	-0.3462685
216	0xbedb148f	-0.42789122
217	0x3ee400ce	0.44531864
218	0x3f1b9159	0.6076866
219	0x3efdccc9	0.495703
220	0x3e9fbb28	0.31197476
221	0x3f11dc91	0.5697718
222	0x3f0657df	0.5247783
223	0x3e78d416	0.24299654
224	0x3e0e4bd5	0.13896115
225	0xbd0a72bb	-0.03380082
226	0x3c5fd4b1	0.013661549
227	0x3b8ec3f6	0.0043568565
228	0xbca41985	-0.0200317
229	0x3d7beeb4	0.061506942
230	0x3d7cfadc	0.061762676
231	0xbc1f396f	-0.009718283
232	0x3d0b3fb0	0.033996284
233	0x3d15e316	0.03659352
234	0x3d9c8f85	0.07644562
235	0x3a2bcd49	0.0006553722
236	0xbd37e953	-0.04490025
237	0x3d088727	0.033332016
238	0xbd629c44	-0.055324808
239	0xbc43b8d1	-0.011945919
240	0xba8c2538	-0.0010692244
241	0xbd8cf8cd	-0.068833925
242	0x3d3ebb06	0.04656508
243	0x3d283200	0.04106331
244	0x3ca0eeab	0.019645056
245	0xbd5b5075	-0.053543527
246	0xbd391898	-0.04518947
247	0xbc7f1b0b	-0.015570412
248	0xbd827ace	-0.063710794
249	0xbd580cad	-0.052746464
250	0x3d4bca3c	0.049753413
251	0x3d5a7593	0.053334784
252	0xbc44699d	-0.011988071
253	0x3d1a0497	0.037602033
254	0xbc922335	-0.017839054
255	0x3b893c4d	0.0041880966

conv2.bias f4 [16]
0	0xbdc30f15	-0.09524361
1	0xbf2970f6	-0.6618799
2	0xbe36d1de	-0.17853495
3	0x3ec409c2	0.38288695
4	0x3fb1705a	1.3862412
5	0xc03b0a64	-2.9225092
6	0xbcef6f2a	-0.029227812
7	0xbd8bb8d9	-0.06822366
8	0xbe895219	-0.26820448
9	0xbd3e57ad	-0.046470333
10	0xbe0e216f	-0.13879941
11	0xbe3a436f	-0.18189786
12	0xbe7647b2	-0.24050787
13	0xbdec3100	-0.115327835
14	0xbec7f906	-0.39057177
15	0xbeab9b55	-0.33516946

fc1.weight f4 [120, 400]
0	0xbd6d5ebb	-0.05795167
1	0xbd24925e	-0.04017865
2	0xbc2dd54b	-0.010609935
3	0xbd0b23af	-0.033969577
4	0x3b2c2a12	0.0026270193
5	0x3da49006	0.08035283
6	0x3da8fc80	0.082512856
7	0xbdc83e99	-0.097775646
8	0xbe0a24be	-0.13490579
9	0x3d242fe7	0.040084746
10	0x3e0f0219	0.13965644
11	0x3d6bd463	0.057575595
12	0x3d724ebd	0.059157122
13	0x3df8b231	0.12143362
14	0xbd639c4b	-0.055568974
15	0xbd7bb889	-0.061455283
16	0x3a3bb0f9	0.0007159855
17	0xbd29692a	-0.041360058
18	0xbc80e7f5	-0.015735606
19	0xbd1d8bdc	-0.03846346
20	0xbdb76d21	-0.089563616
21	0xbd7a0f5e	-0.06104981
22	0x3bad918b	0.005296891
23	0xbd392360	-0.04519975
24	0x3dcf5511	0.10123647
25	0xbdc3ce76	-0.09560864
26	0xbde07e64	-0.10961607
27	0x3d4fd9c9	0.050744805
28	0xbda674f2	-0.08127774
29	0xbd0f85a7	-0.03503957
30	0x3db3d284	0.08780387
31	0xbd464363	-0.04840411
32	0x3c965456	0.018350761
33	0xbde583a7	-0.11206751
34	0xbe052acb	-0.13004605
35	0x3e0520d2	0.13000801
36	0x3e05fd57	0.13084923
37	0xbb37c752	-0.0028042388
38	0x3b9d879b	0.004807425
39	0x3e153286	0.14570054
40	0x3c1dfb27	0.009642399
41	0x3a1381d5	0.00056269515
42	0x3da3e24d	0.08002148
43	0x3da78708	0.08180052
44	0x3e016b48	0.12638581
45	0x3cc93d41	0.024565341
46	0xbcc95794	-0.024577893
47	0xbd30d710	-0.04317385
48	0x3da09a0c	0.07841882
49	0xbc9f0dca	-0.019415755
50	0x3c891937	0.016735656
51	0xbcada286	-0.021195661
52	0xbcc01d83	-0.023451572
53	0x3bffa867	0.0078020575
54	0xbd0e3773	-0.03472085
55	0xbbd82f43	-0.006597431
56	0x3cf29b44	0.029615052
57	0xbdc1f88e	-0.09471236
58	0xbc54375c	-0.012952652
59	0x3dce11e8	0.10062009
60	0xbd1c6d5f	-0.038190242
61	0xbdcb2b0c	-0.0992032
62	0x3c93c0d5	0.018036285
63	0xbc0342eb	-0.00801156
64	0x3d1eb621	0.03874791
65	0x3de3b5d8	0.11118668
66	0xbdc8bf49	-0.0980211
67	0xbe3e53df	-0.18586682
68	0xbe56e2ba	-0.20984927
69	0xbe12aac1	-0.1432295
70	0x3e1ffb0e	0.15623114
71	0x3ddfdc0a	0.10930641
72	0x3cb64356	0.022248905
73	0xbe0c4e3f	-0.13701724
74	0xbc889a65	-0.016675184
75	0xbbca8456	-0.0061803265
76	0xbc641db1	-0.013923095
77	0x3bb0e4c1	0.0053983633
78	0xbd1e42a0	-0.038637757
79	0xbc49a3ff	-0.012307166
80	0x3bbc7ad1	0.0057519455
81	0x3d2b22dc	0.04178129
82	0x3d2685e3	0.040655028
83	0xbce540ab	-0.027984938
84	0xbd4a77a0	-0.04943049
85	0x3c7b2e7f	0.01533091
86	0xbd27aa85	-0.040934104
87	0x3d129f3e	0.035796396
88	0x3b8c5a00	0.00428319
89	0x3ca61d9f	0.020277796
90	0x3b6a36a4	0.0035738135
91	0x3d0f5781	0.03499556
92	0x3c866540	0.016405702
93	0xbcb80322	-0.022462431
94	0xbc89c470	-0.016817302
95	0x3b7365d9	0.0037139563
96	0x3ca3d7b8	0.020000324
97	0x3d232681	0.039831642
98	0x3ceca42d	0.028886879
99	0x3d985348	0.0743776
100	0x3cba4b73	0.022741055
101	0xbbd35f7c	-0.0064505916
102	0x3cd41f78	0.025893912
103	0x3b5e2c9f	0.0033901108
104	0xbd503587	-0.050832298
105	0xbd2abafe	-0.041682236
106	0x3cebf616	0.028803866
107	0xbcfdb302	-0.030969147
108	0xbd24a66f	-0.040197786
109	0x3c0c8a80	0.008577943
110	0xbb9d5fc6	-0.004802677
111	0xbba99a95	-0.0051758983
112	0xbc29d73d	-0.010366258
113	0x3d1f6257	0.038912144
114	0xbccc3014	-0.02492527
115	0x3a349031	0.0006887941
116	0xbd8502fd	-0.064947106
117	0x3ce4ca0f	0.02792838
118	0xbc28178e	-0.010259522
119	0x3cc4a4d6	0.024004381
120	0x3d1b6214	0.03793533
121	0x3d2a9002	0.041641243
122	0x3d260f3e	0.04054188
123	0xbc82c878	-0.015964732
124	0xbc5054d7	-0.01271554
125	0xbcc64a98	-0.024205491
126	0xbb36d8e2	-0.0027900268
127	0x3ddae79a	0.10688706
128	0x3c1e0c8c	0.009646546
129	0x3d8ad445	0.067787685
130	0xbc3288fd	-0.010896918
131	0x3cbe9ba5	0.023267576
132	0xbc14a646	-0.009072846
133	0xba1549ee	-0.00056949153
134	0xbd0d4d75	-0.034497697
135	0xbcaa2b0e	-0.020772483
136	0x3d320019	0.043457124
137	0xbdd99ae5	-0.10625247
138	0xbcb79035	-0.02240763
139	0xbdb00525	-0.08594731
140	0xbd66dd55	-0.056363422
141	0x3d41e145	0.047333974
142	0xbd64241a	-0.05569849
143	0xbd8be607	-0.068309836
144	0xbc39909f	-0.011325984
145	0xbd591dae	-0.05300682
146	0xbb24bda8	-0.0025137458
147	0x3e089b5f	0.1334052
148	0xbcfd9354	-0.03095404
149	0xbda70f10	-0.0815717
150	0xbd123f1f	-0.03570473
151	0xbd3b2fbd	-0.045699824
152	0x3db00f9a	0.08596726
153	0x3ddf9d60	0.10918689
154	0x3c0847d2	0.008317905
155	0x3d000db1	0.031263057
156	0x3d9d2c79	0.07674498
157	0x3d3254ed	0.043538023
158	0xbc6dfeac	-0.014526051
159	0x3dd74a92	0.1051227
160	0x3df3eb20	0.11910081
161	0x3bef0514	0.0072943065
162	0xbbce6eaf	-0.0062998156
163	0x3c9c8e50	0.019110829
164	0x3e0c065e	0.13674304
165	0x3db79638	0.08964199
166	0x3dc2d639	0.09513516
167	0xbd5e4147	-0.054261472
168	0x3e05bf87	0.13061343
169	0x3c3b3973	0.011427271
170	0x3d47c9cd	0.048776437
171	0x3d9d1708	0.076704085
172	0x3d775f44	0.060393587
173	0xbd371f67	-0.044707682
174	0xbd528ec2	-0.051405676
175	0x3d6fc77f	0.058539864
176	0x3d75f8c5	0.0600517
177	0xbd0190cb	-0.031632226
178	0x3d9734cf	0.07383119
179	0xbd554ab1	-0.052073184
180	0x3cd185dc	0.025576524
181	0x3d53d3e2	0.05171574
182	0xbc63525e	-0.013874618
183	0x3db3e7be	0.08784436
184	0xbba9f984	-0.0051872153
185	0xbbaa95b4	-0.0052058343
186	0xbcca1d19	-0.024672078
187	0xbc9da8b0	-0.019245476
188	0x3c58a539	0.013222986
189	0xbd3c519e	-0.045976274
190	0xbd16de89	-0.03683332
191	0x3d0918f1	0.03347105
192	0xbd980aee	-0.0742396
193	0xbd042408	-0.032260925
194	0xbcc006ae	-0.023440685
195	0x3d087a8b	0.03331999
196	0x3c4073ba	0.011746341
197	0xbd8cf23c	-0.0688214
198	0xbd8009e0	-0.062518835
199	0x3d348827	0.044075157
200	0xbd969c97	-0.07354086
201	0xbd8b5cfc	-0.06804845
202	0xbe0dac36	-0.13835225
203	0xbdd5aec4	-0.104337245
204	0xbde621b6	-0.112368986
205	0xbda8ba2d	-0.08238635
206	0xbda68b79	-0.08132071
207	0xbd7282b7	-0.05920669
208	0x3cde3935	0.027126888
209	0xbd7a7b43	-0.061152708
210	0xbcdd5c0a	-0.027021427
211	0xbbcc98ec	-0.0062438156
212	0xbd83386c	-0.06407246
213	0x3d4ca1de	0.049959056
214	0xbcee3688	-0.029078737
215	0x3dd872ef	0.10568797
216	0x3d9b1bd9	0.07573671
217	0x3d95b3d8	0.07309693
218	0x3c62a91b	0.013834263
219	0x3e0a85fe	0.13527676
220	0x3cae1b91	0.021253379
221	0x3d9c806c	0.07641682
222	0x3d3b12fe	0.04567241
223	0xbc13885f	-0.009004681
224	0x3dce0bdc	0.10060856
225	0xbde9134e	-0.11380635
226	0xbc8ba04e	-0.017044213
227	0xbc8b9635	-0.017039398
228	0xbd11f8c2	-0.035637625
229	0xbd56551c	-0.05232726
230	0xbd64e6d6	-0.055884205
231	0xbdbece90	-0.093167424
232	0xbca4a870	-0.020099849
233	0x3da94372	0.08264817
234	0x3dd78583	0.10523512
235	0xbcd49538	-0.02595006
236	0xbd15e836	-0.036598407
237	0x3d642f90	0.05570942
238	0x3ccbfee3	0.024901813
239	0x3da3a47c	0.07990357
240	0xbd6b7bcd	-0.057491113
241	0x3d92c7c9	0.07167012
242	0x3dc81cd5	0.09771124
243	0xbbcb7874	-0.0062094275
244	0xbda91af8	-0.08257097
245	0x3d0bb264	0.034105673
246	0xbcecd73b	-0.028911224
247	0x3c0e3d40	0.008681595
248	0xbce4f9f7	-0.027951224
249	0x3cebef29	0.028800564
250	0x3ceb7b84	0.02874542
251	0xbd2690a5	-0.040665288
252	0xbcb86b30	-0.022512048
253	0x3b32fc0f	0.0027310883
254	0x3ca73dd8	0.020415232
255	0x3dd5e3e8	0.1044386

fc1.bias f4 [120]
0	0x3eca9aeb	0.39571318
1	0x3d8a508d	0.06753645
2	0xbd8c20ea	-0.06842215
3	0xbdf4b8ad	-0.119492866
4	0xbd467385	-0.04845001
5	0x3e170a4d	0.14750023
6	0x3e87af7c	0.2650107
7	0xbeb925ac	-0.36161554
8	0xbed3919e	-0.41322035
9	0x3cb98a77	0.022649033
10	0x3e29ce6b	0.16582648
11	0xbea8a344	-0.32937062
12	0xbbb739d2	-0.0055916095
13	0xbd0c59be	-0.034265272
14	0x3ed1a9f7	0.40949985
15	0x3add2301	0.0016871394
16	0xbea67aa7	-0.3251545
17	0x3e88500c	0.2662357
18	0xbea495af	-0.3214545
19	0xbe0bbf82	-0.13647273
20	0x3e4e119e	0.20123908
21	0x3dd1f591	0.10251916
22	0x3ea82ad9	0.3284519
23	0x3d0b8373	0.034060907
24	0x3efd1934	0.4943329
25	0x3d70b14f	0.058762845
26	0xbd6e2eda	-0.05815015
27	0xbe49ebe9	-0.19718899
28	0xbe299c44	-0.16563517
29	0xbde44004	-0.111450225
30	0x3ed82289	0.42213848
31	0xbd8b7819	-0.06810016
32	0x3f7f4110	0.9970865
33	0x3bad0048	0.0052795745
34	0xbdb1579a	-0.08659287
35	0x3de8e8ef	0.113725536
36	0x3c121ac9	0.008917519
37	0xbdef25b3	-0.116771124
38	0x3e80cb23	0.2515498
39	0x3dc85bed	0.097831585
40	0x3d28f673	0.041250657
41	0x3d78136f	0.06056541
42	0xbe502540	-0.2032671
43	0x3cd35946	0.025799405
44	0xbe401f37	-0.18761908
45	0xbe42175c	-0.18954223
46	0x3d74a2d6	0.059725605
47	0x3f18f8bc	0.5975454
48	0xbd503d12	-0.05083949
49	0x3b81da5b	0.0039627976
50	0xbd4691bc	-0.048478827
51	0xbe3209aa	-0.17386499
52	0xbf0540c9	-0.5205198
53	0xbe36637d	-0.1781139
54	0x3ee20506	0.44144458
55	0xbe3330a0	-0.17499018
56	0xbe3700e8	-0.1787144
57	0x3f13b845	0.5770305
58	0x3e0796fa	0.13241187
59	0x3e494c2d	0.19657965
60	0x3ddfa993	0.109210156
61	0x3ef8ecf7	0.4861829
62	0x3d167f04	0.036742225
63	0xbcfaf85f	-0.03063601
64	0xbe677c75	-0.2260607
65	0xbdf69a4d	-0.12041149
66	0x3df01a70	0.117237926
67	0xbdbe6fbf	-0.092986576
68	0xbe11a8b8	-0.14224517
69	0x3ddf6910	0.10908711
70	0xbd62d31a	-0.055377103
71	0xbe80c244	-0.25148213
72	0x3e725460	0.23664999
73	0x3d70cf8c	0.058791682
74	0xbe04edd5	-0.1298135
75	0xbe1987f3	-0.14993267
76	0xbe3b2d09	-0.18278898
77	0xbe1e89f6	-0.15482315
78	0xbed27496	-0.41104573
79	0xbda4e846	-0.08052115
80	0x3b99e620	0.0046966225
81	0xbe28201b	-0.16418497
82	0x3d2a60c7	0.0415962
83	0xbc235760	-0.009969562
84	0xbe810924	-0.25202286
85	0x3d7c77aa	0.061637558
86	0x3e7b6a5e	0.24552295
87	0xbd99ef7b	-0.075163804
88	0xbe70a071	-0.23498704
89	0x3e7a4585	0.24440582
90	0x3ca620ae	0.020279255
91	0xbc8ca516	-0.017168563
92	0xbe52adcc	-0.20574111
93	0x3e20f741	0.1571932
94	0xbd97aa53	-0.07405534
95	0x3deabbed	0.11461625
96	0x3d87321a	0.06601353
97	0x3d30eec5	0.04319646
98	0xbd9dff4a	-0.07714708
99	0x3f2d9a57	0.6781363
100	0x3e5440ca	0.2072784
101	0x3efe7232	0.496965
102	0xbdee0011	-0.116211064
103	0x3eb2398d	0.34809533
104	0x3eaeb2a3	0.34120664
105	0x3d72545e	0.05916249
106	0xbe083cb4	-0.13304406
107	0xbdbc1890	-0.091843724
108	0x3c271c5c	0.0101996325
109	0xbe933fb3	-0.28759536
110	0x3de85aff	0.11345481
111	0xbe287499	-0.16450728
112	0xbe2f025f	-0.17090748
113	0xbde93065	-0.11386184
114	0xbf0c9230	-0.54910564
115	0xbdda7e50	-0.106686234
116	0x3ceccee3	0.028907245
117	0xbd466c8c	-0.048443362
118	0xbe3f948d	-0.18709011
119	0x3edccbf1	0.43124345

fc2.weight f4 [84, 120]
0	0x39e1f6e9	0.00043099307
1	0xbcf37fc2	-0.029724006
2	0xbc7275d3	-0.014798599
3	0xbd94e930	-0.072710395
4	0xbcf4f445	-0.029901633
5	0x3e09d7fb	0.13461296
6	0xbdc47a3c	-0.09593627
7	0x3c9e5cfc	0.019331448
8	0x3d89633f	0.06708383
9	0xbda2ae01	-0.07943345
10	0x3d83d4a6	0.06437044
11	0xbdefd7b3	-0.11711063
12	0xbe09f869	-0.13473667
13	0x3e6fa1e2	0.23401597
14	0xbd968d26	-0.07351141
15	0xbdbc7f77	-0.092039995
16	0xbdb2c384	-0.08728698
17	0x3d4e9be2	0.05044163
18	0xbd72c82a	-0.059272923
19	0xbcd47fbc	-0.025939815
20	0x398ecb94	0.00027236028
21	0xbd4ce857	-0.050026264
22	0xbd4c4977	-0.04987475
23	0x3d7a7f59	0.061156604
24	0x3d14681b	0.036232095
25	0xbe2439c7	-0.16037665
26	0x3e60f196	0.21967158
27	0xbe08cff0	-0.13360572
28	0xbd3ed65a	-0.04659114
29	0xbd3699da	-0.044580318
30	0x3d0144bb	0.031559687
31	0x3c6270dd	0.013820854
32	0x3e0ddb74	0.13853246
33	0xbd6d0e94	-0.05787523
34	0xbd80c944	-0.06288388
35	0xbd16ee36	-0.03684827
36	0x3e32e0ee	0.17468616
37	0xbd14f1a1	-0.036363248
38	0xbd5eadea	-0.054365076
39	0x3da6b72c	0.08140406
40	0xbe05be1a	-0.13060799
41	0x3e2d0dec	0.16899842
42	0xbd8ac068	-0.0677498
43	0x3dadc738	0.084852636
44	0x3d4d8805	0.050178546
45	0xbd69397c	-0.056939587
46	0x3ce39894	0.027782716
47	0xbd86dfa8	-0.06585628
48	0xbdbb4559	-0.091440864
49	0x3d13f102	0.036118515
50	0x3d1748d4	0.03693469
51	0xbe274693	-0.16335516
52	0x3e22775b	0.15865843
53	0x3e808bf1	0.25106767
54	0x3c26b718	0.010175489
55	0x3d45994a	0.04824189
56	0xbdaf2468	-0.08551866
57	0xbb2c980e	-0.002633575
58	0x3db73190	0.08945
59	0xbe30525c	-0.17218918
60	0x3e1c3ef1	0.15258385
61	0xbe0dc56c	-0.13844842
62	0xbd162d11	-0.036664072
63	0xbe234c3c	-0.1594705
64	0x3b848341	0.004043967
65	0xbcf8c351	-0.030366572
66	0x3d885058	0.06655949
67	0x3de18c56	0.11013095
68	0xbdf6585f	-0.12028574
69	0xbe26fb10	-0.1630671
70	0xbe41926a	-0.18903509
71	0x3e487f93	0.19579916
72	0x3d9b7cb7	0.07592147
73	0xbe2d6605	-0.16933449
74	0x3d52a959	0.051431034
75	0xbe19d840	-0.15023899
76	0x3c9bd19c	0.019020848
77	0x3e0ec8ee	0.13943836
78	0x3e0acbca	0.13554302
79	0x3dfea6f3	0.12434187
80	0xbdddd5d0	-0.10831797
81	0x3e08c2e7	0.133556
82	0xbd238cfa	-0.039929368
83	0x3d7235a8	0.0591332
84	0xbd9d5502	-0.076822296
85	0x3eafa6ec	0.3430704
86	0x3d2365b0	0.0398919
87	0x3e540365	0.2070442
88	0x3cda84f4	0.026674725
89	0x3c47e09f	0.01219955
90	0xbe2acc5f	-0.16679524
91	0xbe0f0d97	-0.13970028
92	0xbc5f280a	-0.013620386
93	0x3dda9d78	0.10674566
94	0xbe5bfa9b	-0.21482317
95	0xbc866d7c	-0.016409628
96	0xbcc78595	-0.024355689
97	0x3e7bd528	0.24593031
98	0xbd48b25c	-0.04899822
99	0x3de20bfe	0.110374436
100	0xbe292477	-0.16517816
101	0xbe2e2444	-0.17006022
102	0x3e30ee5d	0.17278428
103	0xbcc9d5b4	-0.024638034
104	0xbe3ac81a	-0.18240395
105	0xbe0e0028	-0.13867247
106	0xbd23dac2	-0.040003546
107	0xbdab98cd	-0.08378754
108	0x3d94c123	0.072634004
109	0xbe216bf2	-0.15763834
110	0xbe67ec72	-0.2264879
111	0x3cc5d76f	0.024150578
112	0xbd76dc95	-0.060268957
113	0xbd479bb2	-0.048732467
114	0xbda16027	-0.07879668
115	0xbd953866	-0.07286148
116	0x3ce998ca	0.028515238
117	0x3c87607a	0.016525496
118	0xbe1796da	-0.14803639
119	0x3d6d965f	0.058004733
120	0x3d8c56de	0.06852506
121	0x3d1260f3	0.03573699
122	0xbdef5aaa	-0.11687215
123	0x3ce7db0b	0.02830269
124	0xbe0b9f95	-0.13635094
125	0xbb072c53	-0.0020625785
126	0x3a502864	0.0007940589
127	0x3c20469b	0.009782459
128	0x3d3842b6	0.044985496
129	0xbd9426ce	-0.07233964
130	0xbdab2c08	-0.08358008
131	0x3bdeb295	0.006796191
132	0x3c94f9be	0.018185493
133	0xbcc23085	-0.023704777
134	0x3c93a649	0.018023627
135	0x3c3c1c19	0.011481308
136	0xbd0828e6	-0.03324213
137	0x3d1b7ca4	0.037960663
138	0xbd01194e	-0.031518273
139	0x3ceaa922	0.028645102
140	0xbca241ee	-0.019806828
141	0x3d0f76c2	0.035025366
142	0xbe012824	-0.12612969
143	0xbd54d7f4	-0.05196376
144	0x3e1b3ccd	0.15159912
145	0xbd6f83a9	-0.05847517
146	0x3ca56cf9	0.020193564
147	0x3c646623	0.013940367
148	0xbc4b6597	-0.012414358
149	0x3e310547	0.1728717
150	0x3d69669b	0.056982618
151	0xbd8196ca	-0.06327589
152	0x3abda1d1	0.0014467781
153	0x3c4cfa3f	0.012510835
154	0xbded4646	-0.11585669
155	0x3d4f1996	0.05056151
156	0x3c53492c	0.0128958635
157	0xbe4070a2	-0.18792966
158	0x3e1301be	0.14356133
159	0xbd570491	-0.05249459
160	0x3d6beb9a	0.057597734
161	0x3c3f00b8	0.011657886
162	0x3d5f1e3b	0.05447219
163	0x3c32ba8f	0.010908737
164	0x3e38141b	0.1797642
165	0x3dcb2449	0.0991903
166	0xbe0ed9f0	-0.13950324
167	0xbdf07380	-0.1174078
168	0x3e3d6fb7	0.18499647
169	0xbdc27642	-0.09495212
170	0xbdd675d3	-0.10471692
171	0x3e4ab866	0.19796905
172	0xbe010a95	-0.12601693
173	0xbd777a88	-0.06041959
174	0x3ce11afa	0.027478684
175	0x3cc11073	0.023567414
176	0xbd913f33	-0.070921324
177	0xbd46c032	-0.048523135
178	0xbe2e7682	-0.17037395
179	0x3b8abb62	0.0042337636
180	0xbb53ff2c	-0.003234814
181	0x3d0c4ede	0.0342549
182	0xbd3318e1	-0.0437249
183	0x3c9c6703	0.019092089
184	0xbe03639d	-0.12830968
185	0x3e031b9b	0.128035
186	0x3d1ec113	0.03875835
187	0x3d4a0d6c	0.049329206
188	0xbd69668d	-0.056982566
189	0xbe02fdca	-0.12792125
190	0x3dc33b19	0.09532756
191	0xbd3961fc	-0.04525946
192	0x3d1641bd	0.036683787
193	0xbd592adf	-0.0530194
194	0xbd55b6a5	-0.052176137
195	0xbdabc605	-0.083873786
196	0xbca38041	-0.019958617
197	0x3e078073	0.13232593
198	0x3d5b34a9	0.053517018
199	0x3e2f74f2	0.17134455
200	0xbe05ef22	-0.13079503
201	0xbdaf8750	-0.08570731
202	0xbc1cd058	-0.009571157
203	0xbe226c43	-0.15861611
204	0xbcf2e527	-0.029650284
205	0x3dc2399a	0.09483643
206	0xbca7026c	-0.020386897
207	0x3e8baacf	0.27278754
208	0x3e4d7c5b	0.20066969
209	0x3b68b535	0.0035508398
210	0xbdbb2c32	-0.09139289
211	0xbc8e36d1	-0.017360123
212	0x3dc7b315	0.09750954
213	0x3cdc76fd	0.026912207
214	0x3e00f5ff	0.1259384
215	0x3d7f5de9	0.06234542
216	0x3dc2bc6f	0.09508597
217	0xbdc4d8c8	-0.0961166
218	0x3d034d62	0.03205622
219	0xbd3fe0a5	-0.046845097
220	0x3cf4486d	0.029819692
221	0xbd9d6399	-0.07685012
222	0xbd09e74f	-0.03366786
223	0xbe03a24e	-0.12854883
224	0x3d0bbd9e	0.03411638
225	0xbcd3833b	-0.025819412
226	0xba90b740	-0.0011040941
227	0xbd7080b6	-0.0587165
228	0xbe3642ff	-0.17798994
229	0xbd329253	-0.043596577
230	0x3e0ed496	0.13948283
231	0xbd3d5ec6	-0.04623296
232	0xbd62de09	-0.05538753
233	0x3e3d3f60	0.18481207
234	0xbe2086b1	-0.1567638
235	0x3d90e1a5	0.07074288
236	0xbe219d4f	-0.15782665
237	0xbe0052cd	-0.12531586
238	0x3ce9ff10	0.028564006
239	0x3c24fcf1	0.010070072
240	0xbe23f654	-0.16011935
241	0x3d3a4f5d	0.045485843
242	0xbc8ebab9	-0.01742302
243	0xbe092a3a	-0.13395014
244	0x3cd9ae03	0.026572233
245	0x3e12146b	0.14265601
246	0xbcd5fb81	-0.026120903
247	0x3d7df0e6	0.061997317
248	0xbe11a408	-0.14222729
249	0x3c877e8a	0.01653983
250	0x3ce89058	0.028389141
251	0xbd5a20e0	-0.05325401
252	0x3d8f9d00	0.07012367
253	0xbe441c26	-0.19151363
254	0xbdc7302b	-0.09725984
255	0x3c3d4334	0.011551667

fc2.bias f4 [84]
0	0x3dd10afa	0.10207172
1	0x3e2fec8e	0.17180082
2	0x3f23de6c	0.64011264
3	0x3cc678c3	0.024227506
4	0xbe034b37	-0.12821661
5	0x3e93c474	0.2886082
6	0xbe912e3d	-0.2835559
7	0x3ec66d4f	0.3875527
8	0xbe28193f	-0.1641588
9	0x3e6c87fa	0.23098746
10	0x3d9cc309	0.076543875
11	0x3ed174e0	0.4090948
12	0x3d25a38b	0.04043917
13	0x3e0dbed1	0.13842322
14	0xbd439ba5	-0.047755856
15	0x3df3e003	0.11907961
16	0xbee939d7	-0.4555194
17	0xbe7b1152	-0.24518326
18	0x3f0aa264	0.5415404
19	0x3e007dc9	0.12547983
20	0x3e46fd70	0.19432616
21	0x3e06a978	0.13150585
22	0x3ed0a451	0.40750363
23	0xbd326438	-0.043552607
24	0x3f11dbf3	0.5697624
25	0x3f051448	0.5198407
26	0x3dee1d10	0.11626637
27	0xbeb45ecb	-0.3522857
28	0xbdfdfa7a	-0.1240129
29	0xbedf8834	-0.43658602
30	0xbe87dac5	-0.26534095
31	0x3e6b9488	0.23005879
32	0x3f6b4f88	0.9191823
33	0x3f381362	0.71904576
34	0x3eadae83	0.33922204
35	0xbe836b93	-0.2566801
36	0x3d9e811d	0.0773947
37	0x3eceb871	0.40375093
38	0x3f49f5b4	0.7889054
39	0x3ec627ef	0.38702342
40	0x3e2eb895	0.170626
41	0xbe8d370a	-0.27581054
42	0x3d81855d	0.06324265
43	0x3e591163	0.21198039
44	0x3ef8f2bd	0.48622695
45	0x3ef379c3	0.47553834
46	0x3e0cbf32	0.1374481
47	0xbe0c47f1	-0.13699318
48	0xbe686798	-0.22695768
49	0xbe486714	-0.19570571
50	0xbe7126d9	-0.23549975
51	0xbe280eb7	-0.16411863
52	0x3f12a2e3	0.57279795
53	0xbd71c761	-0.059028033
54	0xbe14db13	-0.14536695
55	0x3de09853	0.109665535
56	0x3e56cc19	0.20976295
57	0x3db7ce7d	0.089749314
58	0xbe501a29	-0.2032248
59	0xbdaf3cc0	-0.08556509
60	0xbdbf28ce	-0.09333955
61	0x3f5083ae	0.8145093
62	0xbc9c3923	-0.019070214
63	0xbcf101d3	-0.029419815
64	0x3ed3a8ff	0.4133987
65	0xbec27ee9	-0.3798745
66	0x3dc4a299	0.096013255
67	0xbee2b118	-0.44275737
68	0x3eeb12c5	0.45912758
69	0x3eb4829a	0.3525589
70	0x3eb926b4	0.3616234
71	0xbe1866ce	-0.14882967
72	0xbe5b63cf	-0.21424793
73	0x3d783648	0.06059864
74	0x3db9c64d	0.09071026
75	0x3e1a04df	0.1504092
76	0xbe7bc799	-0.24587859
77	0xbc64c63d	-0.013963279
78	0x3dc15bf4	0.09441367
79	0x3e4c0c88	0.19926655
80	0x3f7d6753	0.98985785
81	0xbe61eb18	-0.22062337
82	0xbb1b616f	-0.0023709198
83	0x3d9a0497	0.07520407

fc3.weight f4 [10, 84]
0	0xbe5b8f17	-0.21441303
1	0xbcedae0f	-0.029013662
2	0xbcac289a	-0.021015454
3	0xbd67c945	-0.05658843
4	0x3c586cb6	0.013209512
5	0x3e0847bc	0.13308614
6	0xbd0ca7c3	-0.034339678
7	0x3e1ede94	0.15514594
8	0xbe6bf84b	-0.23043935
9	0x3e3a7b54	0.18211108
10	0x3d32fd4a	0.043698587
11	0xbe41fbd5	-0.18943723
12	0x3e5beced	0.21477099
13	0x3ba1323c	0.0049193185
14	0xbeb845f1	-0.3599086
15	0x3d19a55e	0.037511222
16	0xbdde027a	-0.10840316
17	0xbcf41fc9	-0.029800313
18	0x3e5a0b14	0.21293288
19	0x3dd43eba	0.10363527
20	0xbdb47016	-0.08810441
21	0xbe7952b5	-0.24347956
22	0xbace47cd	-0.0015737951
23	0x3e6b008c	0.22949427
24	0x3e408941	0.18802358
25	0xbe8ef111	-0.27918294
26	0x3e62e53a	0.22157755
27	0xbdb543fa	-0.08850856
28	0x3e465f5e	0.19372317
29	0x3e224f9c	0.15850681
30	0x3e39f01f	0.18158005
31	0xbd357edc	-0.044310436
32	0xbe15fbc7	-0.14646827
33	0xbe6f3ec7	-0.23363791
34	0xbd009ecb	-0.031401437
35	0x3d61f246	0.05516269
36	0xbde29f1d	-0.11065505
37	0x3e401dc5	0.18761356
38	0x3cbd57e5	0.0231132
39	0x3e83b5c4	0.25724614
40	0x3e4b6632	0.19863203
41	0xbd80ddd3	-0.062923096
42	0x3d163f09	0.03668121
43	0x3e0eef22	0.1395841
44	0x3df70c66	0.12062912
45	0x3dcadfcd	0.09905968
46	0xbd867fd3	-0.06567349
47	0x3d9993d7	0.07498901
48	0xbe4d4b65	-0.20048292
49	0xbe9de894	-0.30841506
50	0xbe038acd	-0.12845917
51	0xbde3db4d	-0.11125813
52	0x3e40d166	0.18829879
53	0xbe1a4827	-0.15066586
54	0xbc82847d	-0.015932316
55	0x3da2dd9e	0.079524264
56	0x3e10c5c4	0.14137942
57	0x3cb84a25	0.022496292
58	0xbd9df327	-0.07712393
59	0xbe855edb	-0.2604893
60	0xbe013901	-0.12619402
61	0x3d757f2e	0.05993574
62	0xbe8a8071	-0.27051118
63	0x3deab1a9	0.11459667
64	0x3dde5ccb	0.108575426
65	0xbcf13b53	-0.029447233
66	0xbe8b61ed	-0.2722315
67	0xbe1ff09b	-0.15619127
68	0xbd4ddaa6	-0.050257348
69	0xbe149149	-0.14508547
70	0x3e3aa994	0.18228751
71	0x3e75c559	0.24001063
72	0xbc525b06	-0.0128390845
73	0x3e661d6c	0.22472161
74	0x3d9d8e6b	0.0769318
75	0x3daa59f2	0.08317937
76	0xbc600761	-0.013673634
77	0xbdcec493	-0.10096087
78	0x3eb1382b	0.34613165
79	0xbe2c8d70	-0.16850829
80	0xbe395a67	-0.18100892
81	0xbdf88262	-0.121342435
82	0x3d9d525f	0.07681727
83	0x3dda1a7c	0.10649583
84	0x3d92e2f4	0.07172194
85	0x3dbef2e6	0.09323673
86	0xbe8f0b32	-0.2793823
87	0x3c981a1e	0.018567141
88	0xbc76510d	-0.015033972
89	0x3e3a02a1	0.18165065
90	0x3c9521b5	0.01820455
91	0x3d8eb85a	0.06968756
92	0xbe03b99e	-0.12863776
93	0x3e26fc0c	0.16307086
94	0x3d2129cb	0.039346498
95	0x3e66f6e3	0.22555117
96	0x3d9748aa	0.073869064
97	0x3d78c1bf	0.060731646
98	0x3d205ca1	0.039150838
99	0xbd5aa3f9	-0.053379033
100	0x3f27e17e	0.6557845
101	0xbdab3906	-0.08360486
102	0xbeb7fd29	-0.35935333
103	0x3cbdf807	0.023189558
104	0xbe07d295	-0.13263924
105	0x3d5d25f9	0.05399129
106	0xbc377b96	-0.011198899
107	0x3dd013b8	0.10160011
108	0xbce12008	-0.027481094
109	0xbe17236f	-0.1475961
110	0x3e4cc397	0.19996487
111	0x3d7050ff	0.058670994
112	0xbe8724fa	-0.26395398
113	0xbe07ebd2	-0.13273552
114	0xbe695285	-0.22785385
115	0x3e65f408	0.22456372
116	0x3dbb20ba	0.091371015
117	0xbd24609d	-0.0401312
118	0x3d86e2f1	0.065862544
119	0xbe8dcc98	-0.27695155
120	0x3dda302e	0.10653721
121	0xbe0f3d6c	-0.13988274
122	0x3c4ea050	0.012611464
123	0xbe084d0c	-0.13310641
124	0xbd8797bf	-0.0662074
125	0xbe63bed3	-0.22240762
126	0xbe803c72	-0.25046116
127	0x3ddbd5cd	0.10734139
128	0x3c279137	0.010227493
129	0x3e132d8b	0.14372842
130	0x3e3eb150	0.18622327
131	0x3dbc0346	0.09180312
132	0xbe1370bf	-0.14398478
133	0xbdc56a65	-0.09639434
134	0x3e46980c	0.19393939
135	0xbdd36b9c	-0.10323259
136	0x3c67de09	0.014152058
137	0x3e5b8d67	0.2144066
138	0x3c43675d	0.011926499
139	0xbd34050d	-0.04395013
140	0x3deff109	0.11715896
141	0xbe37e126	-0.17956981
142	0xbe4ae169	-0.1981255
143	0xbe318780	-0.17336845
144	0x3d542f1e	0.051802747
145	0x3cb88deb	0.02252861
146	0x3e9dedc5	0.30845466
147	0xbde59521	-0.11210085
148	0x3e33f53f	0.17574023
149	0xbe56aec3	-0.20965104
150	0xbdcf08af	-0.10109078
151	0x3e63f134	0.2225998
152	0xbe859a26	-0.26094168
153	0xbe8e271e	-0.2776422
154	0xbe6bc95e	-0.23026034
155	0xbd87ab9d	-0.066245295
156	0xbdeb27b7	-0.114821844
157	0x3e249714	0.16073257
158	0xbe6a0781	-0.22854425
159	0xbbed8dc5	-0.0072495663
160	0xbd80c160	-0.06286883
161	0xbd2fb5bf	-0.042897936
162	0x3d8c2cb8	0.06844467
163	0x3e1aa012	0.15100124
164	0xbe35e625	-0.17763574
165	0x3e38fd54	0.18065387
166	0x3d3d6a12	0.046243735
167	0x3d16b76a	0.03679601
168	0xbc3569fa	-0.01107263
169	0xbda11a6a	-0.07866366
170	0x3e50b2d3	0.20380716
171	0xbd64bdce	-0.055845074
172	0xbe307698	-0.1723274
173	0x3d8ad639	0.06779141
174	0x3d6cbb1b	0.057795625
175	0xbda361af	-0.07977616
176	0x3e20073e	0.15627763
177	0xbda2a575	-0.07941715
178	0xbe306329	-0.17225327
179	0xbceb4215	-0.028718034
180	0xbdada0e0	-0.0847795
181	0xbce5be6b	-0.0280449
182	0xbd801b65	-0.06255225
183	0x3cd6c6cb	0.026217839
184	0xbdde74bd	-0.1086211
185	0x3edcd5e3	0.43131933
186	0x3da77f46	0.08178572
187	0x3ca78319	0.020448254
188	0xbd3af103	-0.045640003
189	0x3d7c7b29	0.061640892
190	0x3d0b94f4	0.0340776
191	0xbd3286b3	-0.04358549
192	0x3dc610eb	0.096711956
193	0x3cf57f7e	0.02996802
194	0xbd9a003d	-0.07519577
195	0xbdff16cc	-0.1245552
196	0x3da847f4	0.08216849
197	0x3e858438	0.26077437
198	0x3de57992	0.11204828
199	0xbddf4f50	-0.109037995
200	0x3e480920	0.19534731
201	0x3d8d3358	0.06894559
202	0xbe3258b7	-0.17416655
203	0xbd902f2e	-0.07040249
204	0xbca6921e	-0.020333346
205	0x3d48cf86	0.049026035
206	0x3dc0f87f	0.09422397
207	0x3de7f93b	0.11326834
208	0x3e367587	0.1781827
209	0xbdefcbc2	-0.117087856
210	0x3d90d0ba	0.070710614
211	0x3bedfa97	0.0072625387
212	0x3def5f5e	0.11688112
213	0xbe16797f	-0.14694785
214	0x3d013a45	0.03154971
215	0x3c8f9376	0.01752637
216	0xbe42a937	-0.19009863
217	0xbd12fe36	-0.035886966
218	0xbd3b16ad	-0.045675922
219	0x3b0b26c5	0.0021232825
220	0xbd912263	-0.07086637
221	0xbe29a7d9	-0.16567935
222	0xbdcde6be	-0.10053776
223	0xbc38af95	-0.011272331
224	0xbd5c7ad1	-0.053828064
225	0xbd978bb7	-0.07399695
226	0x3d995d1e	0.07488464
227	0x3ce0f05b	0.02745836
228	0x3d22ecd1	0.039776627
229	0x3dd8009a	0.1054699
230	0x3ca15c17	0.019697232
231	0xbe8d22a3	-0.27565488
232	0x3d141e5f	0.036161777
233	0x3dcfbd44	0.101435214
234	0xbc84d842	-0.016216401
235	0x3da24c42	0.07924701
236	0x3e19402f	0.1496589
237	0x3d9322bc	0.071843594
238	0x3c402845	0.011728351
239	0x3cc92f67	0.024558736
240	0x3f00f133	0.5036804
241	0xbcc9269b	-0.024554541
242	0xbdff45a5	-0.124644555
243	0xbc93ea46	-0.018056046
244	0x3c502d62	0.012706133
245	0x3c554abf	0.013018309
246	0x3cbe4698	0.023227021
247	0x3d9cdc24	0.07659176
248	0x3dc107eb	0.09425338
249	0x3c4334c9	0.01191444
250	0x3ec748c5	0.38922706
251	0xbe1c4cf4	-0.1526373
252	0xbd567ae5	-0.052363295
253	0xbda34a3d	-0.07973144
254	0x3d0f4e31	0.03498668
255	0x3d25ee2a	0.040510334

fc3.bias f4 [10]
0	0xbedb5808	-0.428406
1	0x3d7e900d	0.062149096
2	0xbde8a000	-0.113586426
3	0xbe404cac	-0.18779248
4	0x3e493570	0.19649291
5	0x3e005931	0.12534024
6	0x3eb0cae6	0.345298
7	0xbe9cae85	-0.30601898
8	0x3e54aefa	0.20769873
9	0x3e08edc6	0.13371953
