models/default_model.pth (torch, 250951 bytes, 10 tensors)

conv1.weight f4 [6, 3, 5, 5]
0	0xbe43ff28	-0.19140303
1	0xbe57b565	-0.2106529
2	0xbe289301	-0.16462328
3	0xbe401445	-0.18757732
4	0xbe92fd5d	-0.28708926
5	0xbe5f360a	-0.21797958
6	0x3c4d947e	0.01254761
7	0xbda69e0a	-0.08135612
8	0xbd9d5982	-0.07683088
9	0xbd8eaccd	-0.06966553
10	0x3c256703	0.010095361
11	0x3cc2c954	0.023777641
12	0x3d64ec25	0.055889267
13	0x3c670725	0.0141008245
14	0xbceaf4fa	-0.028681267
15	0xbdc8faaa	-0.098134354
16	0x3d8c5ab8	0.06853241
17	0xbdbed8ef	-0.093187205
18	0x3d80784e	0.06272946
19	0xbb21ea03	-0.0024706132
20	0xbe08310f	-0.13299964
21	0xbceafcb4	-0.028684951
22	0x3baaaf0b	0.005208855
23	0xbe2ef8e7	-0.17087136
24	0xbd5101b3	-0.05102701
25	0x3dbefac5	0.09325174
26	0x3da5c415	0.0809404
27	0x3e784d30	0.24248195
28	0x3d984d21	0.07436586
29	0x3da18035	0.07885782
30	0xbccb6957	-0.024830503
31	0x3daf75d4	0.08567396
32	0x3e08b4f8	0.13350284
33	0x3de3037a	0.110846475
34	0x3da45f45	0.08025984
35	0x3dfad29f	0.12247204
36	0x3e427576	0.1899012
37	0x3e3ac52a	0.18239275
38	0x3de6c6d4	0.11268392
39	0x3c72be95	0.014815946
40	0xbd5bb311	-0.053637568
41	0x3c88e610	0.016711265
42	0xb96ec8da	-0.00022772272
43	0x3d15f3a8	0.03660932
44	0xbc109b81	-0.0088261375
45	0xbe483274	-0.19550496
46	0xbbc6a4a6	-0.006062108
47	0xbca461f5	-0.02006624
48	0xbde5ab6f	-0.11214339
49	0xbdb2f20e	-0.087375745
50	0x3ea45c8e	0.32101864
51	0x3ed56189	0.41675976
52	0x3eb39e49	0.350817
53	0x3ec092fc	0.3761214
54	0x3e16fca0	0.14744806
55	0x3e805363	0.2506362
56	0x3e8582df	0.2607641
57	0x3ebfe147	0.3747656
58	0x3ea7d6c3	0.32781038
59	0x3e869f03	0.2629319
60	0x3ea6124f	0.32435843
61	0x3eb7e6fa	0.3591841
62	0x3ec1cad1	0.3785005
63	0x3ec571f5	0.38563505
64	0x3e47dde6	0.19518241
65	0x3e4c0e89	0.1992742
66	0x3e6069cf	0.21915363
67	0x3ebba5b6	0.36649865
68	0x3ea60499	0.32425383
69	0x3e23e186	0.16003999
70	0x3dde8a8c	0.108662695
71	0x3e535fc2	0.20641997
72	0x3e47cda6	0.19512042
73	0x3e83ab63	0.25716695
74	0x3e26dc1f	0.16294907
75	0x3d6a6245	0.057222623
76	0x3db26db1	0.08712328
77	0x3dadfce6	0.08495502
78	0xbd4359b5	-0.047692973
79	0x3d7bb2c9	0.0614498
80	0xbd653bac	-0.05596511
81	0xbc836226	-0.016038012
82	0x3b6d7413	0.0036232516
83	0x3db5b7f9	0.088729806
84	0x3c2c3718	0.010511182
85	0x3d6a57c6	0.057212614
86	0xbdcd7320	-0.10031724
87	0xbdaf13a5	-0.08548669
88	0x3a4b11be	0.0007746479
89	0x3dd19562	0.10233571
90	0xbd30ef06	-0.0431967
91	0xbca01a79	-0.019543873
92	0x3b9c6d4f	0.004773773
93	0xbdc5c49a	-0.096566394
94	0xbde22180	-0.11041546
95	0xbdc4333c	-0.09580085
96	0x3d5cefc1	0.053939585
97	0xbd06c12a	-0.03289906
98	0x3da7a15e	0.08185075
99	0x3d31243c	0.043247446
100	0xbc9666b2	-0.018359516
101	0xbaf96436	-0.0019027058
102	0xbde7ec5a	-0.11324377
103	0x3de4e1e6	0.11175899
104	0x3d2c2ecf	0.042036828
105	0xbde1ceb9	-0.11025757
106	0x3daa748b	0.0832301
107	0xbd982bea	-0.07430251
108	0xbdd7909a	-0.105256274
109	0xbcbfe3d2	-0.023424063
110	0x3d40bb47	0.0470536
111	0xbd80dfd7	-0.06292694
112	0xbc4f497b	-0.012651796
113	0x3de81f76	0.11334126
114	0xbdd92018	-0.106018245
115	0xbda5e1b7	-0.08099692
116	0xbdb2ddee	-0.08733736
117	0xbdb95dca	-0.09051092
118	0xbd4a8e16	-0.04945191
119	0xbd125d30	-0.0357334
120	0x3d339364	0.043841735
121	0x3d23b05b	0.039963108
122	0xbd86c080	-0.06579685
123	0xbd7fae75	-0.062422235
124	0xbbf6adf1	-0.0075280597
125	0xbc0d1188	-0.008610137
126	0xbd0caaa6	-0.03434243
127	0x3b7a557a	0.003819792
128	0x3c2765c1	0.010217131
129	0xbce60351	-0.028077753
130	0xbcfa0c75	-0.030523518
131	0xbd855580	-0.065104485
132	0xbc938f9f	-0.01801282
133	0xbdd9003f	-0.1059575
134	0xbd6f599f	-0.05843508
135	0xbd4588a3	-0.04822601
136	0xbd970b3d	-0.073751904
137	0x3bb7dd3b	0.0056110895
138	0xbdd6e4ff	-0.10492896
139	0x3d9f5c56	0.077812836
140	0x3c34543c	0.011006411
141	0x3d091fb4	0.0334775
142	0xbde9224f	-0.11383497
143	0xbd64b841	-0.05583978
144	0xbc8c7be3	-0.017148918
145	0xbde5d9ae	-0.1122316
146	0x3d1fb4a1	0.03899062
147	0x3de375ae	0.1110643
148	0x3c9027c0	0.01759708
149	0xbd12a66b	-0.03580324
150	0xbdab2c16	-0.08358018
151	0x3d8341c6	0.0640903
152	0xbdc11b49	-0.09429032
153	0xbd5b07f4	-0.05347438
154	0xbc9f913f	-0.019478438
155	0xbe56765e	-0.20943591
156	0xbe580205	-0.2109452
157	0xbe259957	-0.16171776
158	0xbe3a2595	-0.18178399
159	0xbd044c54	-0.032299355
160	0xbdddc80e	-0.10829173
161	0xbe800415	-0.25003114
162	0xbdac55cf	-0.08414804
163	0xbcb3d185	-0.021950493
164	0xbe2b207c	-0.1671161
165	0x3e371da4	0.17882401
166	0x3e4cea83	0.20011334
167	0x3e50c02e	0.2038581
168	0xbc4aa404	-0.012368206
169	0x3e0e3716	0.13888201
170	0x3dcd4fd1	0.100249894
171	0x3e3b23c6	0.18275365
172	0x3e207312	0.15668896
173	0x3e50924a	0.20368305
174	0x3e46f045	0.19427593
175	0xbb86b01c	-0.0041103493
176	0x3d370549	0.044682775
177	0xbd819a63	-0.06328275
178	0x3d729d83	0.059232246
179	0x3dce126c	0.100621074
180	0xbdd5ccf0	-0.10439479
181	0xbe2aed01	-0.16691972
182	0xbe5f3dfa	-0.21800986
183	0xbe5dbcdb	-0.21654074
184	0xbe3fce43	-0.18731026
185	0xbe706610	-0.23476434
186	0xbe4e5945	-0.20151241
187	0xbdf18ede	-0.11794828
188	0xbe3c0dda	-0.18364659
189	0xbd7257a3	-0.05916561
190	0xbd1f3a0a	-0.03887371
191	0x3e22056f	0.15822385
192	0x3c8de1da	0.017319608
193	0x3d85867a	0.0651979
194	0xbd40e685	-0.04709484
195	0x3e109522	0.1411939
196	0x3e9d03c2	0.3066693
197	0x3e6321a0	0.22180796
198	0x3e919462	0.2843352
199	0x3e843a99	0.25825956
200	0x3da5d161	0.080965765
201	0x3d2e0e03	0.04249383
202	0xbd81dc53	-0.06340852
203	0x3dd7abbf	0.10530805
204	0x3dc371fa	0.09543224
205	0xbdeba90f	-0.11506855
206	0xbd5b2bee	-0.05350869
207	0xbdb4390d	-0.08799944
208	0x397bba87	0.00024006712
209	0xbe0f8910	-0.14017129
210	0xbdd60f28	-0.104521096
211	0xbe399e06	-0.18126687
212	0xbdee6926	-0.11641149
213	0xbe452def	-0.19255804
214	0xbe69bf51	-0.22826888
215	0x3d905670	0.07047737
216	0xbd37cedd	-0.044875015
217	0xbcdd73c6	-0.027032744
218	0xbd274116	-0.040833555
219	0x3bec0b14	0.007203469
220	0x3e6b2abc	0.2296552
221	0x3e4e0f03	0.20122914
222	0x3e6c7f12	0.23095348
223	0x3e81d95a	0.2536114
224	0x3e38c54c	0.18044013
225	0x3e9b9bff	0.30392453
226	0x3e4342be	0.19068429
227	0x3e82597a	0.2545889
228	0x3e95ed0b	0.29282412
229	0x3e5b948c	0.21443385
230	0x3e8f56d5	0.27995935
231	0x3e8f042c	0.2793287
232	0x3e7bcf06	0.24590692
233	0x3e58aef1	0.21160485
234	0x3e647929	0.22311844
235	0x3ec4444e	0.38333362
236	0x3e983cec	0.2973398
237	0x3e5cc88f	0.21560882
238	0x3e698e1b	0.22808115
239	0x3e39d288	0.18146718
240	0x3e5223af	0.20521425
241	0x3eac3ec9	0.3364165
242	0x3e2db527	0.16963635
243	0x3da0593b	0.07829519
244	0x3e04cd9a	0.12969056
245	0x3e4e9081	0.20172311
246	0x3e89c3b6	0.26907128
247	0x3e5f18c8	0.21786797
248	0x3d95cf0c	0.07314882
249	0xbce7a73e	-0.02827799
250	0xbdeda672	-0.116040125
251	0xbdc7f6eb	-0.09763893
252	0xbe11983b	-0.14218228
253	0xbe6614cd	-0.22468872
254	0xbe6d72b5	-0.23188289
255	0x3d9af8da	0.07566996

conv1.bias f4 [6]
0	0xbf3c8664	-0.73642564
1	0xbd687d5a	-0.05676017
2	0x3c11cb89	0.008898624
3	0xbe3d708b	-0.18499963
4	0xbca42298	-0.020036027
5	0xbca71729	-0.020396786

conv2.weight f4 [16, 6, 5, 5]
0	0xbdba4693	-0.09095492
1	0xbdbfdc62	-0.093682066
2	0xbcc7bedd	-0.024383003
3	0xbc427f34	-0.011871148
4	0xbd5b6f63	-0.053573024
5	0x3c1ba554	0.0094998665
6	0xbe046df5	-0.1293257
7	0xbcd6d4b5	-0.026224473
8	0xbc2ca907	-0.010538346
9	0xbd8bcb44	-0.06825879
10	0xbd037189	-0.032090697
11	0x3a4b87bc	0.00077640614
12	0xbd939b4e	-0.072073564
13	0xbd3f754d	-0.046742726
14	0xbdd901c4	-0.1059604
15	0x3c48e71c	0.012262132
16	0x3c08e10b	0.008354436
17	0xbd18490b	-0.037179034
18	0xbd858aaa	-0.06520589
19	0x3c40cadf	0.011767118
20	0xbe3f9ced	-0.18712206
21	0xbdc3f23a	-0.095676854
22	0xbdc435f1	-0.09580601
23	0xbdb3c114	-0.08777061
24	0xbe176cb2	-0.14787558
25	0x3da0d67a	0.07853408
26	0xbad0767b	-0.001590445
27	0xbd2b6cc1	-0.041851763
28	0x3d3c004e	0.045898728
29	0x3d5a274b	0.05326013
30	0xbd2cd03b	-0.04219077
31	0x3b9fcf94	0.00487704
32	0xbcb4f795	-0.022090713
33	0xbd4bbe13	-0.049741816
34	0x3b64524e	0.0034839096
35	0xbd909491	-0.07059587
36	0x3ce724e1	0.028215827
37	0xbc147c0e	-0.00906278
38	0xba3646e5	-0.0006953313
39	0xbd10ea60	-0.035379767
40	0x3d3cc4a6	0.046085976
41	0x3d5c750c	0.053822562
42	0xbbba04f3	-0.0056768595
43	0x3cc59b24	0.024121828
44	0x3d95974e	0.0730425
45	0x3d572cbe	0.052532904
46	0xbccc8d32	-0.02496967
47	0x3d6fdb23	0.058558594
48	0xbd604926	-0.05475726
49	0xbd8d8806	-0.0691071
50	0xbdd4748e	-0.103737935
51	0xbdb37edf	-0.08764433
52	0xbe05836d	-0.13038416
53	0xbc7dc155	-0.0154879885
54	0xbd8c802d	-0.06860385
55	0xbcd897f0	-0.026439637
56	0xbdc83752	-0.097761765
57	0xbcc585df	-0.024111686
58	0x3c787002	0.0151634235
59	0xbd72dc16	-0.05929192
60	0x3c930cb3	0.017950391
61	0xbd1c5dad	-0.038175274
62	0xbdf11a4c	-0.11772594
63	0x3c1eee16	0.009700319
64	0xbdb6f306	-0.08933072
65	0x3d196850	0.037452996
66	0xbc8f89fb	-0.017521849
67	0x3cf71028	0.030159071
68	0xbd81e22c	-0.06341967
69	0xbcf44f8d	-0.029823089
70	0xbc796049	-0.01522071
71	0xbd161cd6	-0.036648594
72	0xbc94f927	-0.018185211
73	0xbd54a117	-0.05191144
74	0x3d0e6f08	0.034773856
75	0xbdb6ab84	-0.08919433
76	0xbd96614a	-0.07342775
77	0xbd9d5f49	-0.0768419
78	0xbd462841	-0.048378233
79	0x3cb1ac5d	0.021688635
80	0xbd985334	-0.07437745
81	0xbd80f543	-0.0629678
82	0xbd1b192d	-0.037865806
83	0xbe06578b	-0.13119332
84	0xbcbbf7ca	-0.022945303
85	0x3b19fc25	0.0023496237
86	0xbcf0c037	-0.02938853
87	0xbe0a4c38	-0.13505638
88	0xbdf1c321	-0.11804796
89	0xbcb3be23	-0.02194125
90	0x3d159351	0.036517445
91	0xbd8592c0	-0.06522131
92	0xbb01c596	-0.0019801608
93	0xbca9be12	-0.020720515
94	0x3d230d04	0.039807335
95	0xbcc02ca3	-0.023458784
96	0xbd320935	-0.04346581
97	0xbd699318	-0.057025045
98	0x3cefea9f	0.02928668
99	0xbbefa977	-0.007313903
100	0x3e346037	0.17614828
101	0x3dafc229	0.08581955
102	0x3db879d0	0.09007609
103	0x3c239ad6	0.009985646
104	0x3d4f77f7	0.050651517
105	0x3cff6943	0.031178122
106	0x3cb733d9	0.02236359
107	0x3e0d51b5	0.138007
108	0x3d956bc0	0.07295942
109	0x3daeb616	0.08530824
110	0x3db33505	0.08750347
111	0x3d3b6601	0.045751575
112	0x3d7425d9	0.059606407
113	0x3d8daa2e	0.06917225
114	0x3decc893	0.11561694
115	0x3ced69f7	0.028981192
116	0x3e0ea03d	0.13928314
117	0x3a1a86d1	0.0005894723
118	0x3c2323dd	0.009957281
119	0x3dba7d1c	0.09105894
120	0x3e5baff2	0.21453837
121	0x3e2e6646	0.17031202
122	0x3e1edf41	0.15514852
123	0x3e33e4a1	0.17567684
124	0x3e0e683a	0.13906947
125	0xbd9f8bee	-0.07790361
126	0x3c92f2a4	0.017937966
127	0xbcf20563	-0.029543584
128	0x3da0a9a8	0.07844859
129	0xbd99649a	-0.07489891
130	0x3bed3d3f	0.007239967
131	0xbd99524a	-0.074863985
132	0xbd7c4a71	-0.06159443
133	0xbd6e91a9	-0.05824438
134	0xbd3bda33	-0.045862388
135	0xbc30c9e2	-0.01079032
136	0x3cbf287d	0.023334736
137	0x3d44e398	0.048068613
138	0x3d75144b	0.059833806
139	0x3c05543a	0.008137757
140	0x3d17bc6e	0.037044935
141	0x3d643e27	0.055723336
142	0xbd48f21d	-0.049059022
143	0xbd3338d2	-0.04375536
144	0xbd5bf2bc	-0.053698286
145	0x3d72eb34	0.05930634
146	0xbced91c5	-0.029000172
147	0x3cbcc5d1	0.023043545
148	0xbda74f9d	-0.08169482
149	0x3d2f73d3	0.042835068
150	0xbde3c2c6	-0.111211345
151	0xbe84d0dd	-0.259406
152	0xbe7bc103	-0.24585347
153	0x3d0e84cf	0.034794625
154	0x3e20a1d3	0.15686731
155	0x3e4e7f4b	0.20165746
156	0xbcd55a59	-0.026044058
157	0xbeadad30	-0.33921194
158	0xbdd563f6	-0.10419457
159	0x3e14a346	0.14515409
160	0x3ebae1b5	0.36500326
161	0x3de48fde	0.11160253
162	0xbe4bff4a	-0.19921604
163	0xbe8eb151	-0.27869657
164	0x3b78afb5	0.0037946526
165	0x3e8213ed	0.25405827
166	0x3e766e71	0.24065568
167	0xbd757a53	-0.05993111
168	0xbd8e5c1e	-0.06951164
169	0xbd638716	-0.05554875
170	0x3e3d7be6	0.18504295
171	0x3e67f14e	0.22650644
172	0x3e16b8bf	0.14718913
173	0x3d7f096a	0.062264837
174	0xbc1ad797	-0.009450815
175	0x3cad56fb	0.02115964
176	0xbc40d62c	-0.011769813
177	0xbd92af62	-0.07162358
178	0xbda65674	-0.081219584
179	0x3d0be2ff	0.034152027
180	0x3d2787e5	0.040901083
181	0x3d50c7da	0.050971843
182	0xbd717732	-0.058951564
183	0x3d4c58c6	0.04988935
184	0xbda2ce72	-0.079495326
185	0x3d359e7f	0.044340607
186	0x3bb10e7b	0.0054033375
187	0x3d1ddcfa	0.038540818
188	0x3d30b44a	0.043140687
189	0x3d2b76cf	0.04186135
190	0x3d02b894	0.03191431
191	0x3caaebf7	0.02086447
192	0xbce6b64a	-0.028163094
193	0x3da2322f	0.07919728
194	0x3d751aaa	0.059839882
195	0x3d910b30	0.07082212
196	0x3d55808f	0.052124556
197	0x3d38a0fd	0.045075405
198	0xbd1e0412	-0.0385781
199	0x3d71f432	0.059070773
200	0xbc65a93c	-0.014017399
201	0x3d05f0aa	0.03270022
202	0xbce73b25	-0.028226444
203	0xbc35a511	-0.011086718
204	0xbdb2a239	-0.08722348
205	0x3da2a3f4	0.07941428
206	0x3de0f1f9	0.109836526
207	0x3d9b1c5c	0.075737685
208	0xbd4772ca	-0.048693456
209	0x3ba002df	0.0048831548
210	0x3c162749	0.00916464
211	0x3d8cc8d1	0.0687424
212	0xbcc67076	-0.024223547
213	0x3c2aea8c	0.010431897
214	0xbcf9f206	-0.030510914
215	0xbdb1af79	-0.08676047
216	0xbd01615d	-0.031586993
217	0xbd40236a	-0.046908773
218	0xbc09f728	-0.008420743
219	0x3d06b814	0.032890394
220	0xbddedc64	-0.1088188
221	0xbcf2d20a	-0.02964117
222	0xbceaf2ba	-0.028680194
223	0xbd139dfe	-0.036039345
224	0xbca526a9	-0.020160036
225	0x3e4a447a	0.19752684
226	0x3d81fdde	0.063472494
227	0x3d3e1102	0.04640294
228	0x3d718ffa	0.058975197
229	0x3dc2d2d2	0.09512867
230	0x3d841084	0.064484626
231	0x3e66fd86	0.22557649
232	0x3dcbfd20	0.09960389
233	0xbd53e6e0	-0.05173385
234	0x3ce4cd33	0.027929878
235	0x3dc12415	0.0943071
236	0x3e3f8230	0.18702006
237	0x3d93fbe1	0.072257765
238	0xbd362765	-0.044471163
239	0x3dac3c60	0.08409953
240	0x3d39fd58	0.045407623
241	0x3ddcb344	0.1077638
242	0x3cf396f0	0.029735059
243	0x3d2a3ffe	0.041564934
244	0x3d6e465d	0.058172572
245	0xbcbfc760	-0.0234105
246	0xbc887c8b	-0.01666095
247	0xbd3c3441	-0.04594827
248	0x3c944d0d	0.018103147
249	0xbd109196	-0.03529509
250	0x3dc04205	0.09387592
251	0xbe04439d	-0.12916417
252	0xbe6a77a8	-0.22897208
253	0xbd58db87	-0.052943733
254	0x3d4ba3ed	0.04971688
255	0x3e154506	0.14577112

conv2.bias f4 [16]
0	0x3e9b9f37	0.3039491
1	0xbc399800	-0.0113277435
2	0xbcadd35c	-0.021218948
3	0xbdc405d9	-0.09571428
4	0xbc81d024	-0.01584632
5	0xbcd83a58	-0.026395008
6	0x3d4d0025	0.050048966
7	0xbcd41cb7	-0.025892599
8	0x3dad92c5	0.0847526
9	0x3e387a07	0.180153
10	0x3e288ba3	0.16459517
11	0xbdea7cc1	-0.11449576
12	0x3d12f8ad	0.035881687
13	0x3d177730	0.0369789
14	0x3c53499b	0.012895967
15	0x3c574d12	0.013140934

fc1.weight f4 [120, 400]
0	0x3d05e699	0.03269062
1	0x3d551a06	0.05202677
2	0x3ba14331	0.00492134
3	0x3c819b67	0.015821172
4	0x3c9814cf	0.01856461
5	0xbca38d8e	-0.01996496
6	0x3c8911d2	0.01673213
7	0x3c03a776	0.008035531
8	0xbcf1cb8d	-0.029516006
9	0x3d075581	0.033040527
10	0xbb42f61c	-0.0029748743
11	0xbcda6717	-0.026660485
12	0x3bce58cd	0.006297207
13	0x3c440f5d	0.0119665535
14	0x3d6c5890	0.057701647
15	0x3cf62e98	0.030051515
16	0x3d37c46f	0.044865068
17	0x3c5e2688	0.013558991
18	0xbd42876e	-0.047492437
19	0xbd158d45	-0.03651168
20	0x3d00a6f9	0.031409238
21	0xbcd3da93	-0.02586106
22	0xbcaf8dd2	-0.02142993
23	0xbb710c10	-0.0036780871
24	0x3d66f549	0.056386266
25	0xbd44f087	-0.048080947
26	0x3c926b80	0.017873526
27	0x3d4fc578	0.05072543
28	0x3d8e2311	0.06940282
29	0x3b5da681	0.0033821168
30	0xbc038da7	-0.008029378
31	0xbcf41a8a	-0.029797811
32	0x3d2e10f4	0.042496637
33	0xbc980a7a	-0.018559683
34	0x3b156183	0.0022793717
35	0xbd468646	-0.048467897
36	0xbce0f1ee	-0.027459111
37	0x3c10d084	0.0088387765
38	0x3a316186	0.0006766546
39	0x3c178cae	0.009249849
40	0xbd33393f	-0.043755766
41	0x3d24e461	0.04025686
42	0xbc99ab61	-0.018758478
43	0x3c601b1f	0.013678341
44	0xbcd06609	-0.02543928
45	0xbc0e2adc	-0.008677211
46	0x3cce15a1	0.025156798
47	0x3cce0dc9	0.025153058
48	0xbcfa2a3a	-0.030537713
49	0xbc0280ba	-0.007965261
50	0x3d34141d	0.043964494
51	0x3d03a09d	0.032135595
52	0x3d642ac3	0.055704843
53	0x3d30e2c6	0.043185018
54	0x3cdc9a1b	0.026928952
55	0xbd058111	-0.03259379
56	0xbb19ef96	-0.0023488752
57	0x3cdde6e9	0.027087646
58	0x3cb6099f	0.022221385
59	0xbd206103	-0.039155018
60	0xbd2c00dc	-0.041993007
61	0x3d11d2f5	0.035601575
62	0x3d14f868	0.03636971
63	0x3c8ed907	0.017437471
64	0x3b6e9c49	0.0036409071
65	0xbd939b94	-0.072074085
66	0x3ca15caa	0.019697506
67	0x3daa7862	0.083237424
68	0x3d930940	0.07179499
69	0x3cc6a0de	0.02424663
70	0xbd8878b0	-0.06663644
71	0x3d4d6465	0.05014457
72	0x3d9719c4	0.07377961
73	0xbcc328da	-0.02382319
74	0xbd1ba95e	-0.038003318
75	0xbcdaee77	-0.026725037
76	0xbd591c19	-0.05300531
77	0xbd0313d3	-0.032001328
78	0x3d52bc34	0.051449016
79	0xbd82f0fb	-0.063936196
80	0xbd410042	-0.047119386
81	0x3d800bb4	0.06252232
82	0xbc772600	-0.0150847435
83	0xbb5497d0	-0.003243912
84	0x3c33aa8f	0.010965957
85	0x3c4a0336	0.012329867
86	0x3c093de0	0.008376569
87	0xbb5a9604	-0.0033353576
88	0x3c685fc8	0.014182992
89	0xbd8f0ae2	-0.069844976
90	0x3b8fb615	0.0043857195
91	0xbd0531da	-0.032518245
92	0x3d3a2673	0.045446824
93	0x3be39516	0.0069452627
94	0xbceb7182	-0.028740648
95	0xbd928f89	-0.071562834
96	0xbc51836d	-0.012787682
97	0x39237bcd	0.00015591011
98	0x3b228b66	0.0024802326
99	0x3bc00dc8	0.005861018
100	0xbd2de60a	-0.04245571
101	0xbc59d878	-0.013296239
102	0xbaefcca4	-0.0018295241
103	0xbce755c8	-0.028239146
104	0xbcf5be4b	-0.029997965
105	0xbd2a2c7b	-0.041546326
106	0xbd4380d1	-0.04773027
107	0xbd39858a	-0.04529337
108	0x3cd1e074	0.025619723
109	0x3c58f6aa	0.013242403
110	0x3c61b868	0.013776876
111	0xbc642b4b	-0.0139263375
112	0x3d305c80	0.043056965
113	0xbccd784e	-0.02508178
114	0xbcc785f7	-0.024355872
115	0x3d167acb	0.0367382
116	0xbc65ac3e	-0.0140181165
117	0x3d2337d3	0.03984816
118	0xbc9c6e3b	-0.01909553
119	0x3cd2ac5a	0.02571695
120	0xbd149523	-0.03627504
121	0x3d4806d2	0.04883463
122	0x3c819b78	0.015821204
123	0xbd345a06	-0.044031166
124	0x3ccd2fbf	0.025047181
125	0x3cb4c2f3	0.022065615
126	0x3bb450c9	0.0055027944
127	0x3cb80f69	0.022468286
128	0x3d22575d	0.039634097
129	0xbd5750c0	-0.052567244
130	0xbca6af34	-0.020347215
131	0xbadee2a6	-0.0017004802
132	0xbc2a0090	-0.010376111
133	0x3c41c51c	0.01182678
134	0xbd29f24e	-0.041490845
135	0xbc6549d8	-0.0139946565
136	0xbc6cfaca	-0.01446409
137	0x3d536d34	0.051617816
138	0x3cd8e3f9	0.026475893
139	0xbbc88da1	-0.006120399
140	0xbc24deb6	-0.010062864
141	0xbd1d650f	-0.038426455
142	0xbce39f71	-0.027785989
143	0x3d086aec	0.033305094
144	0x3c21f3b3	0.009884763
145	0xbc13b037	-0.009014181
146	0x3be01a48	0.0068390705
147	0xbc53f5cb	-0.01293702
148	0x3d21d877	0.039513078
149	0x3d5507f0	0.052009523
150	0xbc228c44	-0.009921137
151	0x3d34d3b7	0.04414722
152	0x3cae71ef	0.021294562
153	0xbb9253f5	-0.004465575
154	0xbc518075	-0.012786974
155	0xbbc893c8	-0.0061211325
156	0xbbb8df30	-0.0056418404
157	0x3cd52c49	0.026022093
158	0x3cf293bd	0.029611463
159	0xbd933de4	-0.07189539
160	0xbcb8bf95	-0.022552291
161	0x3d0f5504	0.034993187
162	0x3c76d35f	0.015065043
163	0x3c48f041	0.012264312
164	0xbd0d397c	-0.03447865
165	0xbd0f58d1	-0.03499681
166	0xbc8ef504	-0.017450817
167	0x3d02711b	0.031846147
168	0x3d9021c4	0.0703769
169	0x3d59fc6e	0.05321925
170	0x3cd007bd	0.025394315
171	0xbcd4a7b7	-0.025958879
172	0x3d517e98	0.05114612
173	0x3d874f64	0.066069394
174	0x39850c6a	0.00025376986
175	0x3d49d4c6	0.049275182
176	0x3d100d2f	0.035168823
177	0x396dd9e1	0.00022683248
178	0xbd30c947	-0.043160703
179	0xbd0b0290	-0.03393799
180	0xbd0af5a7	-0.03392568
181	0xbd2db2a0	-0.04240668
182	0x3ca6eedb	0.020377567
183	0x3cb65646	0.022257935
184	0xbc0c4b0e	-0.008562816
185	0xbd6a7a06	-0.057245277
186	0xbc8345e9	-0.016024547
187	0xbcceb025	-0.025230477
188	0xbd667389	-0.056262527
189	0xbd702f34	-0.058638766
190	0x3c233d33	0.0099633215
191	0xbccfd71a	-0.025371123
192	0xbaab888a	-0.0013086956
193	0x3cf815ac	0.030283771
194	0xbc2228df	-0.00989744
195	0x3c7c519a	0.015400315
196	0xbb33fe0a	-0.0027464652
197	0xbc656926	-0.01400212
198	0xbc3946d9	-0.011308395
199	0xbd1cc31e	-0.038272016
200	0x3d8aa603	0.067699455
201	0x3d37b7eb	0.044853132
202	0x3d99996b	0.07499965
203	0x3ca6923b	0.0203334
204	0xbd313e68	-0.043272406
205	0x3d903609	0.070415564
206	0x3d997c49	0.07494409
207	0xbc082470	-0.008309469
208	0xbd215b0e	-0.039393477
209	0xba90bb15	-0.0011042083
210	0x3d687d75	0.05676027
211	0x3d48b83d	0.04900383
212	0x3cf4acd2	0.029867563
213	0xbd42f6b9	-0.047598574
214	0x3c80ae4a	0.015708108
215	0x3c22a8d2	0.009927945
216	0xbbea40f3	-0.007148856
217	0xbd81d384	-0.063391715
218	0x3d2e9e22	0.042631276
219	0xbd31c831	-0.043403808
220	0x3d72983b	0.05922721
221	0xbccf9836	-0.025341135
222	0xbd0d6992	-0.034524508
223	0x3c125f88	0.008933909
224	0xbc4947a8	-0.012285151
225	0x3dabe015	0.0839235
226	0x3c1576cb	0.009122561
227	0x3ce7decd	0.028304482
228	0x3d2faedf	0.04289138
229	0x3d56a247	0.052400853
230	0x3d989795	0.07450787
231	0xbc34b54f	-0.011029555
232	0xbc8c6946	-0.017140042
233	0xbd4d63a4	-0.050143853
234	0x3bb9549e	0.005655839
235	0x3cdeb907	0.027187837
236	0xbc4e5a6b	-0.0125947995
237	0x3d0a2340	0.033725023
238	0x3bc78e09	0.00608993
239	0xbcb3a6f6	-0.0219302
240	0x3cbe41e8	0.023224786
241	0x3d257c31	0.04040164
242	0x3c5293b5	0.012852599
243	0x3cbf7283	0.023370033
244	0x3d3e17d8	0.046409458
245	0x3d0350f2	0.032059617
246	0x3ccfcaa3	0.02536518
247	0x3c92ef5b	0.0179364
248	0x3c6d5cea	0.0144874845
249	0xbca8ba5a	-0.020596672
250	0x3d3e9dea	0.046537317
251	0xbcdc72fc	-0.026910298
252	0x3d77a61b	0.060461145
253	0x3d753c58	0.059872
254	0xbb21d06f	-0.0024690886
255	0xbce2fbd5	-0.027707973

fc1.bias f4 [120]
0	0x3d29b655	0.04143365
1	0x3d1efdc8	0.038816243
2	0x3d3c9bfe	0.046047203
3	0x3d27a408	0.040927917
4	0xbc8fb94e	-0.017544415
5	0xbd478565	-0.0487112
6	0x3c9345ba	0.017977584
7	0xbda7d33d	-0.081945874
8	0x3d8f5655	0.069988884
9	0xbd07b7b0	-0.033134162
10	0x3c3003c0	0.010743082
11	0x3d32a8e8	0.043618113
12	0xbccefd2e	-0.02526721
13	0x3d6b844e	0.057499222
14	0x3cb322c8	0.02186717
15	0xbca2e14e	-0.019882824
16	0x3d39daa2	0.04537452
17	0x3c968a07	0.018376363
18	0x3d0b67a4	0.034034386
19	0xbd0c9e3f	-0.034330603
20	0x3ca28bb4	0.019842006
21	0xbd8ecb7c	-0.06972405
22	0x3b472e4a	0.003039258
23	0xba5655a1	-0.0008176212
24	0x3a01720d	0.00049379544
25	0x3cb8b868	0.02254887
26	0x3cca783f	0.02471554
27	0x3d9fcdd7	0.07802933
28	0xbc17abd3	-0.009257275
29	0xbcf0a6a7	-0.029376341
30	0x3c9c40f1	0.019073935
31	0x3d042564	0.03226222
32	0x3d13802d	0.03601091
33	0x3dff27e7	0.12458783
34	0x3cc37196	0.023857873
35	0x3bc6935d	0.0060600475
36	0xbc3ce408	-0.011528976
37	0x3d9c89b7	0.076434545
38	0x3cb35092	0.021889005
39	0x3b18ae30	0.0023297183
40	0xbbceeec5	-0.0063150846
41	0x3dee0801	0.116226204
42	0x3c870dcb	0.01648607
43	0xbd4c4e59	-0.049879406
44	0x3c3723f3	0.011178005
45	0xbb30bf4c	-0.002696949
46	0xbd4d7cb8	-0.05016777
47	0x3d49c8cf	0.04926377
48	0x3d09ebb4	0.03367205
49	0x3d0d6d8a	0.034528293
50	0x3cff9082	0.031196836
51	0x3d85a650	0.06525862
52	0x3cd9451c	0.026522212
53	0x3d6b3f63	0.057433497
54	0xbbf81a23	-0.007571475
55	0xbad2d3ed	-0.0016084887
56	0xbd27bb05	-0.04094984
57	0xbc48ab5e	-0.012247888
58	0x3d803e8a	0.062619284
59	0x3c92584f	0.017864374
60	0x3c66ee35	0.014094879
61	0x3d06f19f	0.03294527
62	0xbd7bd2db	-0.061480384
63	0x3cc7d809	0.024395006
64	0xbab2684a	-0.0013611403
65	0xbc367c18	-0.011137985
66	0x3d88acc3	0.06673577
67	0x3ba43738	0.0050114654
68	0xbcc93229	-0.024560051
69	0x3d090b70	0.033458173
70	0x3d279d54	0.040921524
71	0x3c161146	0.009159392
72	0xbcccd314	-0.025002994
73	0xbdb1bfb8	-0.086791456
74	0x3d13893b	0.036019545
75	0x3d58f7ce	0.0529707
76	0x3c879aab	0.016553244
77	0x3dbac63a	0.0911984
78	0xbd0cd29a	-0.034380533
79	0x3c1a80a9	0.009430089
80	0xbd199d58	-0.03750357
81	0xbc2e1de5	-0.010627245
82	0x3c775f23	0.015098366
83	0xbce83a03	-0.028347975
84	0x3d25b92f	0.040459808
85	0xbb1f22fc	-0.0024282327
86	0xbcd85e95	-0.026412288
87	0xbd812d07	-0.063074164
88	0x3d8bf9cb	0.068347536
89	0xbd8a7dc9	-0.06762273
90	0xbd9d933f	-0.076941006
91	0xbd476688	-0.048681766
92	0xbc999809	-0.018749254
93	0x3be4df4a	0.006984626
94	0xbdbc05db	-0.09180804
95	0x3c01deea	0.007926682
96	0xbd32879f	-0.04358637
97	0x3d3a3063	0.0454563
98	0x3d6f7ae2	0.0584668
99	0xbd0e40a6	-0.034729622
100	0x3d1c1abc	0.038111433
101	0x3ceebe86	0.029143583
102	0x3be4a69d	0.0069778697
103	0xbd2c913f	-0.042130705
104	0x3dac8a8c	0.08424863
105	0xbdb146e9	-0.08656103
106	0xbddd9944	-0.10820249
107	0xbce8be70	-0.02841112
108	0x3df16c0a	0.11788185
109	0x3d111634	0.035421565
110	0xbd3b8ec1	-0.045790438
111	0xbd633f4f	-0.055480298
112	0xbc8af18b	-0.01696088
113	0xbcbd178e	-0.02308252
114	0xbb06a924	-0.0020547593
115	0xbcf6c8e1	-0.030125083
116	0x3c996195	0.018723289
117	0x3a4d3f20	0.0007829536
118	0x3cb32714	0.02186922
119	0x3c46c954	0.012132961

fc2.weight f4 [84, 120]
0	0x3ca4ce4a	0.020117898
1	0xbdb92edd	-0.090421416
2	0xbcf67b8f	-0.030088214
3	0xbd96ea30	-0.073688865
4	0x3d8711d7	0.065951996
5	0xbbb82527	-0.0056196633
6	0xbce1c0d3	-0.027557766
7	0x3d1aadbf	0.037763353
8	0xba6e532b	-0.00090913725
9	0xbd4b79b8	-0.049676627
10	0x3d33118b	0.043717902
11	0x3d763f90	0.06011921
12	0x3d84bdb4	0.064814955
13	0xbd7dfd41	-0.0620091
14	0x3d7984b3	0.060917567
15	0xbded6f83	-0.11593535
16	0xbd845db9	-0.06463189
17	0xbd0568e2	-0.032570727
18	0xbcba0114	-0.022705592
19	0xbba9b1f9	-0.0051786867
20	0xbd10ed09	-0.035382304
21	0xbd445f5b	-0.0479425
22	0x3c964503	0.018343454
23	0x3bf34fd2	0.007425287
24	0x3c9355dc	0.017985277
25	0xbcf1dab8	-0.029523239
26	0xbd969fa2	-0.07354666
27	0xbc80b13b	-0.01570951
28	0x3da2424c	0.079228014
29	0x3d0f7155	0.03502019
30	0x3d802769	0.06257517
31	0x3dbb463f	0.09144258
32	0xbd81ccbf	-0.0633788
33	0xbd8b8f47	-0.06814437
34	0x3daa0a69	0.08302767
35	0xbd6c2d48	-0.05766037
36	0x3da74847	0.08168083
37	0xbd4488a5	-0.047981877
38	0xbd482832	-0.04886646
39	0x3caeff32	0.021361921
40	0xba5b61d8	-0.0008368767
41	0xbcef13ff	-0.02918434
42	0xbd31a873	-0.043373536
43	0xbd132a3b	-0.035928946
44	0xbb82c77b	-0.003991065
45	0xbbb7aa66	-0.00560503
46	0x3d5a8d60	0.053357482
47	0xbda1aee9	-0.078946896
48	0xbd8296f7	-0.063764505
49	0x3c91d12d	0.017799938
50	0x3d9f442c	0.07776675
51	0xbc823512	-0.015894447
52	0x3c73248f	0.014840259
53	0x3ce1cafb	0.027562609
54	0xbda73626	-0.08164625
55	0xbcb44514	-0.022005595
56	0xbdc80311	-0.0976621
57	0x3da38495	0.079842724
58	0x3db0cbfd	0.08632658
59	0x3d4ab439	0.04948828
60	0xbbe4d4d3	-0.0069833784
61	0xbcbe2c4b	-0.02321448
62	0x3d72dea5	0.05929436
63	0xbd6ac8a5	-0.057320256
64	0x3c177948	0.009245224
65	0x3d405be6	0.04696264
66	0x3d879c38	0.06621593
67	0x3d8127ae	0.063063964
68	0x3c1538be	0.009107767
69	0xbdbb8faa	-0.09158261
70	0x3d7a2a42	0.061075456
71	0x3da7ab04	0.081869155
72	0xbd1fadc3	-0.03898407
73	0x3db9a46a	0.090645626
74	0xbd5e0689	-0.05420545
75	0x3d343073	0.043991517
76	0xbd42b118	-0.04753217
77	0xbb9ec6d7	-0.004845481
78	0xbd988970	-0.07448089
79	0xbd818a89	-0.063252516
80	0x3d787d82	0.06066657
81	0xbcfeb784	-0.031093366
82	0x3d39f21b	0.045396905
83	0x3cc6826d	0.024232114
84	0x3d3e6c75	0.04649015
85	0xbd883111	-0.06649984
86	0xbd689789	-0.05678514
87	0xbbc6ca9c	-0.0060666334
88	0xbd55233e	-0.052035563
89	0x3d0dced4	0.034621075
90	0x3c3557f9	0.011068338
91	0x3cda51c7	0.026650323
92	0xbd9467e4	-0.07246378
93	0xbd773b6e	-0.06035941
94	0x3d2943db	0.041324478
95	0x3dad96e6	0.08476047
96	0x3c13270e	0.008981479
97	0xbd91677a	-0.07099815
98	0xbbbdfa16	-0.005797635
99	0xbdd42d8b	-0.10360249
100	0xbcd7e0b8	-0.026352271
101	0x3da8fd72	0.08251466
102	0x3dc9f95c	0.09862015
103	0x3ae7ea8d	0.0017693803
104	0xbd3518db	-0.044213157
105	0x3c8fbe31	0.017546745
106	0x3d895284	0.06705192
107	0x3ad3be04	0.0016154652
108	0xbd809d0c	-0.06279954
109	0x3d9a9f9b	0.075499736
110	0xbd9bf692	-0.07615389
111	0x3da5e18c	0.0809966
112	0xbd8eb49f	-0.069680445
113	0x3b838ee1	0.004014835
114	0x3db778fc	0.08958623
115	0xbc24b304	-0.010052446
116	0xbd777dac	-0.060422584
117	0x3dcc2832	0.09968604
118	0x3bf56cfa	0.0074897977
119	0x3d892781	0.06696988
120	0xbccbd933	-0.024883842
121	0xbd63ea30	-0.05564326
122	0xbd864106	-0.06555371
123	0xbbdbba4d	-0.0067055584
124	0x3cdffe65	0.027342984
125	0xbcbc7e15	-0.02300934
126	0xbdb83eb7	-0.08996337
127	0x3d95678d	0.07295141
128	0x3c96fbe0	0.01843065
129	0xbd2c7241	-0.04210115
130	0xbda06442	-0.07831623
131	0x3da999b6	0.08281271
132	0xbcef06bf	-0.029178021
133	0x3d33549f	0.043781873
134	0x3daead70	0.08529174
135	0x3d0e588a	0.034752406
136	0xbd679982	-0.05654288
137	0x3d9c657c	0.07636544
138	0xbc1be4da	-0.009515012
139	0xbd8eeecc	-0.06979141
140	0xbd9080fb	-0.07055851
141	0x3d384de9	0.044996176
142	0xbdac5034	-0.08413735
143	0xbd9e645e	-0.07733987
144	0x3db59a84	0.08867362
145	0x3d1cd189	0.038285766
146	0xbd9c45e6	-0.076305196
147	0x3cae667f	0.021289108
148	0xbc160b2e	-0.009157939
149	0xbd558ae7	-0.05213442
150	0xbb9c629b	-0.004772497
151	0x3c8e9549	0.01740517
152	0xbd9edfb8	-0.07757515
153	0xbd90719e	-0.07052921
154	0xbdac6cd5	-0.084191956
155	0x3d5c735c	0.053820953
156	0xbd8a0205	-0.067386664
157	0xbdaee006	-0.08538823
158	0x3ccbc1b3	0.024872636
159	0x3db43c9f	0.08800625
160	0x3cfcc7c6	0.030856978
161	0x3d0d89e4	0.03455533
162	0x3db01424	0.085975915
163	0x3cb3946b	0.021921357
164	0x3d13524a	0.03596715
165	0xbb8e30d0	-0.004339315
166	0x3da3f345	0.08005384
167	0xb9fd45ab	-0.00048307827
168	0x3af712f6	0.0018850255
169	0x3dbaa891	0.09114183
170	0xbb406630	-0.0029357783
171	0xbd9817c1	-0.07426406
172	0x3d89599e	0.06706546
173	0x3ca3fd58	0.020018265
174	0x3d2486fe	0.0401678
175	0xbcc1cc4f	-0.023656992
176	0xbd64b544	-0.05583693
177	0xbda7a233	-0.08185234
178	0x3d554774	0.052070096
179	0xbbde6a79	-0.006787595
180	0x3d15e3de	0.036594264
181	0x3d2c54bb	0.042072993
182	0x3d3843ad	0.044986416
183	0x3d81596c	0.06315884
184	0xbc982c26	-0.01857574
185	0x3d5d44e0	0.054020762
186	0xbc3bfd19	-0.011473917
187	0x3dab1417	0.08353441
188	0x3d7d6ef2	0.061873384
189	0xbd851cdb	-0.06499644
190	0xbd9507ab	-0.07276853
191	0x3d113a99	0.035456274
192	0xbdad17c8	-0.084518015
193	0xbd972632	-0.07380332
194	0x3d9a34d3	0.07529607
195	0x3d4020de	0.046906345
196	0xbd548635	-0.051885802
197	0xbd2232a5	-0.03959908
198	0xbda7aed9	-0.081876464
199	0x3d8a8cd9	0.06765146
200	0x3d086540	0.033299685
201	0xbd97d53a	-0.074137166
202	0xbd87658b	-0.06611165
203	0xbc25a96f	-0.010111197
204	0xbd4bc8ed	-0.049752165
205	0x3d098e7f	0.03358316
206	0xbd7ba35b	-0.061435085
207	0x3d939bae	0.07207428
208	0xbc680b3f	-0.0141628375
209	0xbb1a07a1	-0.0023503082
210	0xbd995cf6	-0.07488434
211	0xbda6bfdf	-0.08142065
212	0x3d854fe0	0.065093756
213	0xbd2197ba	-0.03945134
214	0x3d462929	0.048379097
215	0xbd69d54c	-0.05708818
216	0xbb86a884	-0.004109444
217	0xbaae3359	-0.0013290449
218	0x3d389225	0.04506125
219	0xbcc6c1f9	-0.024262415
220	0x3adb1038	0.0016713208
221	0xbdce16e4	-0.1006296
222	0x3d09bdd8	0.033628315
223	0x3c48358b	0.012219797
224	0x3d247a17	0.040155496
225	0x3dadf23b	0.084934674
226	0xbd21fb6f	-0.039546426
227	0xbb72f3ab	-0.0037071507
228	0x3d953429	0.072853394
229	0xbdb3ca21	-0.087787874
230	0xbd0da176	-0.03457781
231	0x3da3e484	0.0800257
232	0xbd6df920	-0.058098912
233	0xbd8a33f6	-0.06748192
234	0xbd8131c8	-0.06308323
235	0x3d1b82f7	0.037966695
236	0xbc79128d	-0.015202177
237	0x3d737452	0.059437104
238	0x3d7862be	0.060641043
239	0xbc20bddb	-0.00981089
240	0xbcf6ad92	-0.030112062
241	0xbc8ab799	-0.01693325
242	0xbda2b2de	-0.079442725
243	0xbd423049	-0.04740933
244	0xbd22225c	-0.03958355
245	0xba5bc1f2	-0.0008383087
246	0x3d66f398	0.056384653
247	0xbcf42afb	-0.029805651
248	0x3c55dad6	0.013052663
249	0x3d1682e0	0.036745906
250	0x3cb9ad40	0.02266562
251	0xbcf14790	-0.029453069
252	0xbd422df8	-0.04740712
253	0xbc5845b4	-0.013200212
254	0x3d8da754	0.06916681
255	0x3d77d32d	0.060504127

fc2.bias f4 [84]
0	0xbbcaffcf	-0.0061950455
1	0xbc950dff	-0.01819515
2	0xbd71666c	-0.058935568
3	0xbd54e5d2	-0.051976986
4	0x3db8f4d2	0.09031071
5	0x3e03ccdc	0.12871116
6	0xbd103ff9	-0.03521726
7	0x3d472877	0.048622575
8	0x3d41dae6	0.0473279
9	0xbc95a922	-0.018269125
10	0x3dc539af	0.09630143
11	0x3c674b3d	0.014117059
12	0xbd8a35ef	-0.06748568
13	0xbdda7319	-0.106664844
14	0xbd64d4b1	-0.0558669
15	0x3d31c90d	0.043404628
16	0x3c81d15b	0.015846899
17	0xbd50b9b0	-0.050958335
18	0x3da81131	0.08206404
19	0x3e3d9874	0.18515188
20	0x3db98214	0.090580136
21	0x3e375103	0.17901997
22	0xbdb08b21	-0.08620287
23	0xbd017ea6	-0.031614922
24	0xbd9cfddf	-0.076656096
25	0xbbaaa2d0	-0.005207397
26	0x3db26df2	0.08712377
27	0xbaea0047	-0.0017852866
28	0xbd318ce2	-0.043347247
29	0xbc49921f	-0.012302904
30	0x3d79b909	0.06096748
31	0xbc492804	-0.012277607
32	0xbe0f55e1	-0.13997604
33	0x3d1a92e2	0.037737735
34	0xbd71d521	-0.059041146
35	0xbc9db957	-0.019253416
36	0x3d6d5aa8	0.057947785
37	0x3ba271ba	0.004957405
38	0x3dffd9c4	0.12492707
39	0x3e78a8b1	0.242831
40	0xbe09e672	-0.13466814
41	0xbd595540	-0.053059816
42	0xbd524f4e	-0.051345162
43	0xbdff1193	-0.12454524
44	0x3e3f1e6d	0.1866395
45	0xbd1e1044	-0.03858973
46	0x3dbba659	0.09162588
47	0xbd4deac0	-0.050272703
48	0xbd34fde8	-0.044187456
49	0x3d00e208	0.03146556
50	0xbd882d8c	-0.066493124
51	0x3dcd6210	0.100284696
52	0x3d46903a	0.04847739
53	0xbdb14267	-0.08655243
54	0xbcf721df	-0.030167518
55	0x3cbd3931	0.02309856
56	0xbd3afa32	-0.04564876
57	0x3cc17eb3	0.023619985
58	0x3d95f216	0.07321565
59	0xbd147d2b	-0.036252182
60	0x3ccf8b51	0.025334986
61	0x3c90de82	0.017684225
62	0xbe3207f7	-0.17385851
63	0xbc02c355	-0.007981141
64	0x3d065c3f	0.032802816
65	0xbdf5926d	-0.11990819
66	0x3dfd17ec	0.12358078
67	0x3d9915d5	0.07474867
68	0xbd4a4704	-0.049384132
69	0x3d3ca324	0.04605402
70	0x3d7b5e7e	0.06136941
71	0x3d276114	0.040864065
72	0xbd00b152	-0.031419106
73	0xbd229da6	-0.039701127
74	0x3d01f05d	0.03172337
75	0xbd44bb4c	-0.048030183
76	0x3e79f64a	0.24410358
77	0xbcd65d53	-0.026167547
78	0xbda36a59	-0.079792686
79	0xbd37c2db	-0.044863563
80	0x3d9c467c	0.07630631
81	0xbd702f0d	-0.05863862
82	0x3d7a37c2	0.06108833
83	0x3c97001e	0.018432673

fc3.weight f4 [10, 84]
0	0x3da5a6f7	0.08088487
1	0xbdbc0156	-0.09179942
2	0x3d554412	0.05206687
3	0x3ddbdf1a	0.107359126
4	0x3e3c6fd1	0.1840203
5	0xbd6365f7	-0.055517163
6	0x3df619ad	0.12016616
7	0x3e21b5a8	0.15791953
8	0x3b9f6331	0.0048641195
9	0x3a8458c0	0.001009725
10	0xbde353b4	-0.110999495
11	0xbe2b3756	-0.16720328
12	0xbe2e61f0	-0.17029548
13	0x3e861ae7	0.261924
14	0x3dbe4fa6	0.092925355
15	0x3e815991	0.25263646
16	0x3d4d7fe7	0.050170805
17	0xbda85db7	-0.08221
18	0xbcdc42fc	-0.02688741
19	0xbd0628cb	-0.032753747
20	0xbdebcfa7	-0.11514216
21	0xbe043f76	-0.12914833
22	0x3bb80c32	0.005616688
23	0x3e0b37ff	0.1359558
24	0xbd8388f7	-0.06422608
25	0xbcff97c0	-0.03120029
26	0xbda8cace	-0.08241807
27	0x3e774b2d	0.24149771
28	0xbd658739	-0.05603716
29	0x3da2e940	0.07954645
30	0xbd2fb587	-0.042897727
31	0xbddfb5fe	-0.10923384
32	0x3dc99e9f	0.09844708
33	0xbb2c6a78	-0.0026308578
34	0x3e479984	0.19492155
35	0x3bbccf51	0.0057620187
36	0xbddc1dca	-0.10747869
37	0x3d5d0408	0.053958923
38	0x3e03c5a8	0.12868369
39	0x3d6c161a	0.057638265
40	0x3e586a19	0.21134223
41	0x3e4c0c1d	0.19926496
42	0xbdb252bf	-0.08707189
43	0x3e5b7941	0.21432973
44	0x3d1bc723	0.03803171
45	0xbd6aaecd	-0.05729561
46	0x3e0c5686	0.13704881
47	0xbd2dc818	-0.042427152
48	0xbe4b2be4	-0.19840962
49	0xbda65ea9	-0.08123524
50	0xbd0e505e	-0.034744613
51	0xbe88d2b9	-0.2672327
52	0xbdaa1ead	-0.08306632
53	0xbe7cbe48	-0.24681962
54	0x3d756169	0.05990735
55	0x3d92ad9e	0.07162021
56	0xbdbe691b	-0.09297391
57	0xbe2e46cb	-0.17019193
58	0xbe1b3f61	-0.15160896
59	0xbc1a36af	-0.009412452
60	0xbe454c4d	-0.19267388
61	0x3e74657e	0.23866841
62	0x3e54699b	0.2074341
63	0x3df329be	0.11873196
64	0xbdb1dfc6	-0.086852595
65	0x3e33c679	0.1755618
66	0xbce40995	-0.0278366
67	0xbde55db3	-0.11199512
68	0xbe46a436	-0.19398579
69	0xbcce3cc6	-0.025175463
70	0xbd23edfa	-0.040021874
71	0xbdc64068	-0.09680253
72	0xbd8c9776	-0.068648264
73	0x3e009d2b	0.12559955
74	0x3e766c59	0.24064769
75	0x3d50b4ce	0.05095368
76	0xbe595f31	-0.21227719
77	0x3d4d0f79	0.050063584
78	0xbdce554c	-0.10074863
79	0x3e8c9c30	0.27462912
80	0x3d91dd39	0.07122273
81	0x3cc98d2c	0.024603449
82	0xbdad8a90	-0.08473694
83	0xbdb2c63b	-0.08729216
84	0x3b853be5	0.004065978
85	0x3d74be14	0.059751585
86	0x3db6cc42	0.08925678
87	0x3d2ca850	0.042152703
88	0x3e794bfd	0.24345393
89	0xbd6e02b4	-0.058108047
90	0x3cf44dce	0.029822256
91	0x3e1328dc	0.14371055
92	0xbe8e0de6	-0.2774498
93	0xbc2b57f5	-0.010457982
94	0xbe958e3b	-0.29210076
95	0x3d8e2f42	0.069426075
96	0x3e445062	0.19171289
97	0xbe13d28f	-0.1443579
98	0x3c241a78	0.010016076
99	0x3e3c529b	0.18390886
100	0x3cb3cbd4	0.021947779
101	0x3e752cf9	0.23942937
102	0xbbc036d5	-0.0058659115
103	0xbe5c3198	-0.21503294
104	0xbd8e46aa	-0.06947072
105	0xbc20c560	-0.009812683
106	0x3e97089e	0.29498762
107	0xbc10030f	-0.008789792
108	0xbe58cdd4	-0.21172267
109	0x3bf618fb	0.007510302
110	0xbd8907ae	-0.06690918
111	0xbe05ce77	-0.13067041
112	0xbd1746f5	-0.036932904
113	0x3e03c6b4	0.12868768
114	0x3dbca13a	0.09210439
115	0xbd6b73dd	-0.057483543
116	0xbe2fd9e8	-0.17172968
117	0x3dcdc22f	0.10046803
118	0x3d84139f	0.06449055
119	0x3b958d29	0.0045639467
120	0xbd5223df	-0.05130374
121	0x3407ee83	1.2659625e-07
122	0xbd30a9b8	-0.043130606
123	0xbcc9d5b1	-0.024638029
124	0xbdb26dc2	-0.08712341
125	0x3d339b57	0.043849315
126	0x3df40b4a	0.11916216
127	0xbdd0df79	-0.10198874
128	0xbee469d3	-0.44611987
129	0x3d8ec1ba	0.06970544
130	0x3d43a701	0.04776669
131	0xbe3350d2	-0.17511299
132	0x3e40314c	0.18768805
133	0x3dfac5c4	0.12244752
134	0xbc5f3357	-0.01362308
135	0x3e8883f2	0.26663166
136	0x3d118cd1	0.035534684
137	0xbdb868fd	-0.090044
138	0xbe141c3f	-0.144639
139	0x3d0a4a66	0.033762358
140	0x3d723563	0.059132945
141	0xbdb35570	-0.0875653
142	0x3d95bc5b	0.073113166
143	0x3e5c0782	0.21487239
144	0xbe5b3f9d	-0.21410985
145	0xbe195a46	-0.14975843
146	0x3e140bca	0.14457622
147	0x3c6b98a9	0.014379659
148	0x3dedd437	0.116127424
149	0x3ce01acf	0.027356533
150	0xbe3e8712	-0.18606213
151	0x3e1525f3	0.14565258
152	0xbd9616cf	-0.07328569
153	0xbd92c2c6	-0.07166056
154	0x3db2ba23	0.08726909
155	0xbe820d67	-0.2540085
156	0x3c07d7cd	0.008291197
157	0x3e13f039	0.14447106
158	0x3e02ba39	0.12766351
159	0xbe1f39e5	-0.15549429
160	0xbe25aa54	-0.16178256
161	0xbe01583d	-0.12631316
162	0xbd1409c3	-0.036142122
163	0xbe3e8031	-0.18603589
164	0xbdd3dec2	-0.10345222
165	0xbd8fb32e	-0.07016598
166	0x3cb42cf0	0.021994084
167	0xbe0fd9c7	-0.14047919
168	0xbdf71e76	-0.12066357
169	0x3dc1585a	0.0944068
170	0x3bfe72d4	0.0077651534
171	0xbdff5ec1	-0.12469245
172	0xbd762413	-0.060092997
173	0x3e026af6	0.12736115
174	0xbda27b47	-0.079336695
175	0xbe1c9935	-0.15292819
176	0x3dd446b9	0.10365052
177	0x3dccd7a6	0.10002069
178	0x3d96ab33	0.073568724
179	0xbd1fbaba	-0.038996436
180	0xbdbba00e	-0.091613874
181	0x3e40be90	0.18822694
182	0xbe00d531	-0.12581326
183	0x393e78d8	0.0001816483
184	0x3d7d6100	0.061860085
185	0x3e4dafc3	0.20086579
186	0xbdc8d574	-0.09806338
187	0x3e1c5b99	0.15269317
188	0x3d51e2da	0.051241733
189	0xbe221839	-0.15829553
190	0xbe0c4f59	-0.13702144
191	0x3dd4f6cb	0.103986345
192	0x3df06cfb	0.117395364
193	0x3d955cc2	0.07293083
194	0xbd8a9fc7	-0.06768756
195	0x3e25cb1b	0.1619076
196	0xbda37600	-0.07981491
197	0x3e482d64	0.19548565
198	0xbd9c261b	-0.076244555
199	0x3d9bd034	0.07608071
200	0xbdcd4ffd	-0.10025022
201	0x3e799879	0.2437457
202	0xbe2aa353	-0.16663866
203	0x3d4926fc	0.049109444
204	0xbc6deddd	-0.014522043
205	0xbbcf7cea	-0.0063320296
206	0x3ea47065	0.32117
207	0x3e93073c	0.28716457
208	0x3e1bea0b	0.15225999
209	0xbd8cd2ff	-0.06876182
210	0xbd8ead7a	-0.06966682
211	0x3cafb49d	0.021448428
212	0x3e83cc47	0.2574179
213	0xbd85de39	-0.06536526
214	0xbc5030a6	-0.012706911
215	0x3cb442e5	0.022004554
216	0xbc8a6e46	-0.016898286
217	0xbc837bbd	-0.016050214
218	0x3ddef137	0.10885852
219	0xbd8911a5	-0.066928186
220	0x3db43480	0.08799076
221	0xbd5e7519	-0.05431089
222	0x3cce4927	0.025181366
223	0x3c6736b6	0.014112165
224	0x3c84d157	0.016213102
225	0x3b7d386d	0.0038638369
226	0x3da7cc5c	0.08193275
227	0xbd87c5d1	-0.06629527
228	0x3e47a848	0.19497788
229	0x3d0e33d9	0.034717415
230	0xbd06b2c7	-0.03288534
231	0xbd499d0a	-0.04922203
232	0xbd99a42b	-0.07502016
233	0xbe54d1a5	-0.20783098
234	0xbcb754da	-0.022379328
235	0x3d879157	0.06619518
236	0xbddc9e15	-0.10772339
237	0x3c4c2a33	0.012461233
238	0x3d1b461e	0.037908666
239	0xbd901032	-0.07034339
240	0x3d9aa0de	0.07550214
241	0x3ccd836a	0.025087077
242	0x3e550102	0.20801166
243	0xbd6599c6	-0.056054853
244	0x3e258288	0.16163075
245	0xbdac5f1a	-0.08416577
246	0x3dbc43a8	0.09192592
247	0x3e08f945	0.13376339
248	0xba50d238	-0.00079658953
249	0x3d95bc92	0.073113576
250	0xbdc6c631	-0.09705771
251	0x3c37c341	0.011215986
252	0x3d675dcf	0.056485947
253	0xbae612bb	-0.001755319
254	0xbcf99995	-0.030468741
255	0xbda8ca43	-0.08241703

fc3.bias f4 [10]
0	0xbec93820	-0.39300632
1	0x3cbaf747	0.02282299
2	0x3e2873d9	0.16450442
3	0x3cfa478c	0.030551694
4	0x3ecb2b2a	0.3968137
5	0xbe8f3f14	-0.27977812
6	0x3eaea475	0.34109846
7	0xbe85f101	-0.26160434
8	0x3ce85967	0.028362943
9	0xbe3609d4	-0.17777187
