models/DVERGEadv_submodel_2_50epochs.pth (torch, 252090 bytes, 10 tensors)

conv1.weight f4 [6, 3, 5, 5]
0.077415034 -0.104031295 -0.057223205 -0.0045372443 0.028171917 0.03480941 -0.021509567 0.09164734
-0.01603953 -0.052030206 -0.10745248 0.042789683 -0.005476098 0.06943567 -0.055492993 -0.05714604
-0.026025807 0.0036666342 -0.12467218 -0.118649155 0.04168389 0.06503863 0.068984374 -0.058446504
-0.021503095 -0.10026174 -0.07898171 -0.025743393 -0.10056038 -0.09109339 -0.11043256 0.08485983
0.0674727 -0.025669547 0.057977546 0.005211991 -0.09428305 0.062900804 0.01955602 0.013323362
-0.069585465 -0.030749893 0.024988933 0.096611395 -0.032868773 -0.09747228 -0.06407892 -0.0076046768
-0.03646374 -0.091502994 0.040655512 -0.0503114 0.070943736 0.010757624 0.047648627 0.011715477
-0.076089196 -0.08526847 0.03841752 0.0801587 0.06680716 0.094644666 0.0014323147 0.014362275
0.050113294 -0.03366085 -0.00036873366 0.02382267 0.052913245 -0.06272445 0.043719776 -0.112792365
0.07386479 -0.026369717 0.016600983 0.07102715 0.10680615 0.07647539 0.036288053 -0.0006592267
0.16191185 0.6059653 0.7707836 0.39159542 0.08814044 0.04631516 0.34443024 0.55314636
0.37870607 0.11011249 -0.19531229 -0.6264144 -0.7782213 -0.35656887 -0.04475984 -0.1315861
-0.55423725 -0.84000945 -0.48835093 -0.07325134 0.04076915 0.051266346 0.034385324 0.0243797
0.012524243 0.08007984 0.3031341 0.38319832 0.20240703 0.055507332 0.01737215 0.17485951
0.28271025 0.19606742 0.056062907 -0.08671551 -0.31188905 -0.3932967 -0.16971885 -0.012167088
-0.04531121 -0.26540518 -0.4078205 -0.21910487 -0.013306793 0.019439694 -0.0015122073 -0.039456695
-0.034505095 -0.01841016 0.09173834 0.40786096 0.53245115 0.25752917 0.049872875 0.014033346
0.20306544 0.34443736 0.23505561 0.062227916 -0.10711813 -0.36200666 -0.44871587 -0.20800965
-0.023219187 -0.031967014 -0.1911238 -0.28876135 -0.1781061 -0.013948883 -0.02397537 -0.01967212
0.05915155 0.10069398 0.039266486 -0.26624396 -0.2563427 0.23958506 0.37881324 0.12773675
-0.5740011 -0.67030054 0.3646223 0.72893196 0.2936728 -0.51668465 -0.73881537 0.25985935
0.730723 0.39794192 -0.22191079 -0.35950506 0.053011075 0.32387355 0.2693895 -0.05938431
-0.05903757 -0.006773109 0.023685355 -0.001352731 -0.22892217 -0.21573047 0.09110859 0.16424851
0.046849772 -0.4554698 -0.49595034 0.16521887 0.31954908 0.12245527 -0.38019454 -0.5031562
0.10410365 0.30090806 0.15566774 -0.14237759 -0.22184505 -0.0029616186 0.11380406 0.093595184
-0.030861733 -0.029256014 0.018605884 0.034579083 -0.017757894 -0.1870233 -0.19524942 0.15355784
0.25527665 0.05134202 -0.3561 -0.47556794 0.24765877 0.530666 0.18014482 -0.29388723
-0.4905897 0.16675098 0.4923196 0.22747344 -0.09402437 -0.20404412 0.021137813 0.17600906
0.1257237 0.018265419 0.035989303 0.040303253 0.03874663 0.014453297 0.04305326 0.09346198
0.111198455 0.09250347 0.035940975 0.057402503 0.12667805 0.14908615 0.12035804 0.048485197
0.06290477 0.1207137 0.13987653 0.10584021 0.04368499 0.04981652 0.068932004 0.071670935
0.061070975 0.03441766 0.019237848 0.031958055 0.030044373 0.022334369 0.0045700236 0.03552201
00000000: c68b 9e3d 5c0e d5bd e162 6abd 2aad 94bb
00000010: cbc8 e63c 5094 0e3d d534 b0bc 9ab1 bb3d
00000020: 5565 83bc a01d 55bd 0c10 dcbd 3c44 2f3d
00000030: d770 b3bb 4a34 8e3d 9f4c 63bd f711 6abd
00000040: 1334 d5bc ea4b 703b 2154 ffbd 54fe f2bd
00000050: babc 2a3d f932 853d ae47 8d3d 9a65 6fbd
00000060: 4227 b0bc 0756 cdbd 2ac1 a1bd cfe3 d2bc
00000070: 9af2 cdbd 2c8f babd 772a e2bd feca ad3d
00000080: 202f 8a3d f148 d2bc dd79 6d3d 59c9 aa3b
00000090: 7917 c1bd 23d2 803d f233 a03c 3b4a 5a3c
000000a0: d382 8ebd 33e7 fbbc 97b5 cc3c 32dc c53d
000000b0: 68a1 06bd 8c9f c7bd cf3b 83bd a730 f9bb
000000c0: 015b 15bd ec65 bbbd 6586 263d 5413 4ebd
000000d0: f34a 913d bf40 303c 352b 433d 46f2 3f3c
000000e0: a7d4 9bbd 3ca1 aebd b05b 1d3d 3f2a a43d
000000f0: 31d2 883d 10d5 c13d 82bc bb3a bf4f 6b3c
00000100: 9943 4d3d f6df 09bd 9852 c1b9 c327 c33c
00000110: 8fbb 583d ad75 80bd 8213 333d afff e6bd
00000120: 6c46 973d 4e05 d8bc c9fe 873c af76 913d
00000130: 2fbd da3d 219f 9c3d c8a2 143d f4cf 2cba
00000140: 38cc 253e 8b20 1b3f 1352 453f 327f c83e
00000150: fa82 b43d f7b4 3d3d 2959 b03e 009b 0d3f
00000160: c3e5 c13e a882 e13d f2ff 47be b25c 20bf
00000170: 8339 47bf 3290 b6be 1856 37bd 82be 06be
00000180: 7ee2 0dbf dc0a 57bf 2209 fabe cc04 96bd
00000190: 8dfd 263d a9fc 513d a0d7 0c3d f0b7 c73c
000001a0: 7c32 4d3c e600 a43d 6534 9b3e 9232 c43e
000001b0: ca43 4f3e a85b 633d 0a50 8e3c 5f0e 333e
000001c0: 66bf 903e e6c5 483e 38a2 653d e797 b1bd
000001d0: ecaf 9fbe 2f5e c9be c7ca 2dbe 7758 47bc
000001e0: 3f98 39bd 30e3 87be d9cd d0be 075d 60be
000001f0: bc04 5abc fe3f 9f3c 4235 c6ba 589d 21bd
00000200: 3755 0dbd e7d0 96bc 50e1 bb3d 27d3 d03e
00000210: b84e 083f ddda 833e 8047 4c3d 1fec 653c
00000220: 63f0 4f3e 185a b03e 6bb2 703e b3e2 7e3d
00000230: c060 dbbd f058 b9be 16be e5be 7b00 55be
00000240: 2a36 bebc d8ef 02bd f5b5 43be 87d8 93be
00000250: 7261 36be db89 64bc ff67 c4bc 6d27 a1bc
00000260: e548 723d a538 ce3d e5d5 203d 2151 88be
00000270: 5a3f 83be c955 753e cff3 c13e 6ccd 023e
00000280: bcf1 12bf d198 2bbf c6af ba3e 499b 3a3f
00000290: 485c 963e 7245 04bf 0123 3dbf 490c 853e
000002a0: aa10 3b3f 0bbf cb3e 953c 63be 0c11 b8be
000002b0: 2422 593d c1d2 a53e 6ced 893e f63c 73bd
000002c0: 61d1 71bd f5f0 ddbb ca07 c23c 1f4e b1ba
000002d0: 936a 6abe 73e8 5cbe 2497 ba3d c330 283e
000002e0: 8ce5 3f3d 5633 e9be 34ed fdbe 232f 293e
000002f0: f09b a33e d4c9 fa3d dca8 c2be d8ce 00bf
00000300: 4b34 d53d 9f10 9a3e 5d67 1f3e 6ecb 11be
00000310: 592b 63be b717 42bb 1a12 e93d d5ae bf3d
00000320: bfd1 fcbc 4faa efbc 5e6b 983c cca2 0d3d
00000330: 0179 91bc 0983 3fbe 77ef 47be 443e 1d3e
00000340: 9fb3 823e 034c 523d bd52 b6be a47d f3be
00000350: 439a 7d3e bad9 073f e277 383e 6378 96be
00000360: 932e fbbe c5c0 2a3e 5111 fc3e ccee 683e
00000370: d98f c0bd f1f0 50be 3529 ad3c b83b 343e
00000380: b7bd 003e 5ca1 953c 8569 133d 0615 253d
00000390: c9b4 1e3d 85cd 6c3c 9d58 303d ff68 bf3d
000003a0: 04bc e33d 7672 bd3d d836 133d e31e 6b3d
000003b0: e4b7 013e 0aaa 183e 477e f63d 6a98 463d
000003c0: 37d4 803d bf38 f73d cb3b 0f3e c1c2 d83d
000003d0: 08ef 323d 680c 4c3d 392c 8d3d 36c8 923d
000003e0: 8f25 7a3d 88f9 0c3d b198 9d3c 73e6 023d
000003f0: 9e1f f63c 91f6 b63c 23c0 953b 877f 113d

conv1.bias f4 [6]
-0.09785785 -0.21370491 -0.1824063 -0.5166812 -0.64474314 -0.17685978
00000000: b269 c8bd 76d5 5abe b8c8 3abe 3845 04bf
00000010: e30d 25bf bb1a 35be

conv2.weight f4 [16, 6, 5, 5]
-0.08023025 0.050770346 -0.008284421 0.01679591 -0.03415464 -0.041106828 -0.07390187 -0.051656358
0.062408864 0.07068737 -0.078759685 -0.047695022 0.06604529 0.011787283 0.048926424 -0.0028958423
-0.039488368 -0.034007825 -0.041296404 -0.023696152 0.03786606 -0.072840005 0.01966691 0.040889017
0.0746796 -0.020160925 -0.026628116 -0.03896522 0.003412086 0.010595328 0.021573002 -0.013137764
-0.09662986 -0.047283966 0.03290317 0.021365948 -0.08491029 -0.18476285 -0.13509649 -0.0035664507
0.024513409 -0.1362629 -0.20560145 -0.14876541 -0.018015299 0.033522904 -0.041406743 -0.084798776
-0.0727177 -0.009501154 -0.036043394 0.02669986 0.057660874 0.092935815 0.034033906 -0.014065142
0.017027019 0.20989265 0.057153285 0.08433903 0.010145141 -0.056611385 0.44286054 0.028671421
0.19083124 0.014010184 -0.0028705236 0.51980406 0.052899286 0.21157768 -0.09677215 0.007505975
0.3227748 0.032212514 0.119772956 0.27778697 0.19785398 0.054677974 0.051027495 0.079892926
0.1358018 -0.20621671 -0.08903815 -0.113041975 -0.24343471 0.55214167 -0.25802287 0.2572042
0.16512235 -0.28489336 0.52862823 -0.3245362 0.20895344 0.07073577 -0.42372423 0.38596866
-0.26105276 0.0593268 -0.03340861 -0.42547122 0.060469747 0.011737597 0.008016835 0.05373364
0.04720847 0.04884623 -0.06040622 0.009914427 -0.026259717 -0.052743185 0.16835593 -0.1733744
0.17491034 0.00034483988 -0.03966485 0.16760273 -0.23785625 0.20669232 -0.02386057 -0.07605339
0.06799273 -0.2278352 0.07979244 -0.041561566 -0.13472325 0.001160031 -0.0009182148 0.04281616
-0.010031146 -0.01111286 0.09863386 -0.055987187 0.0403714 -0.027983416 0.0053389557 0.118738644
-0.095838286 0.07675692 -0.07466458 0.010693257 -0.025899606 -0.13214366 -0.08991609 -0.12748349
-0.027110266 0.026503444 -0.013518586 -0.015748816 -0.022888208 0.06453133 0.055864148 0.04787406
0.0020174014 -0.020176234 0.02133556 -0.019181257 0.04650133 -0.008659577 -0.045536786 -0.006219397
-0.017282337 -0.032055315 0.003848703 -0.044366285 0.003109498 0.035078734 -0.051161308 0.063096836
-0.0013768349 -0.032031883 -0.03994845 0.06377096 -0.020006614 0.04101082 -0.032275785 -0.009366553
0.010398407 0.00999148 0.004155862 -0.0008336214 0.001092417 0.014712654 0.017738799 0.020532822
-0.0350276 0.020298643 -0.025440583 0.012833262 -0.017359179 -0.07163425 0.008996566 -0.019300794
0.045037627 -0.037478458 -0.05453352 -0.018206188 -0.05332783 -0.07485899 -0.07108862 -0.049093008
-0.012190346 -0.024050443 -0.023807684 0.008142037 0.05279674 -0.0069355825 -0.04609726 -0.005407461
0.050692726 0.056467704 0.02615854 0.011929578 0.07609322 0.05966996 0.0141638275 0.0690533
0.084498875 0.072923385 -0.017064936 -0.050234377 0.079474226 0.058807097 -0.013119968 -0.100049466
-0.08306748 0.008124643 -0.09414612 -0.29638162 -0.26420772 0.008042424 -0.049086694 -0.32341662
-0.42873153 -0.15611337 0.3047709 -0.48813784 -0.6788243 -0.32724354 0.27957767 0.4983483
-0.6565806 -0.3760744 0.2008537 0.37372252 0.46914852 -0.051120047 0.3247646 0.54669124
0.5221894 0.36038288 0.0073649744 -0.03321268 -0.05630123 -0.09220107 0.017206363 0.038350385
00000000: c24f a4bd 91f4 4f3d 61bb 07bc 9497 893c
00000010: bce5 0bbd a25f 28bd dd59 97bd 9e95 53bd
00000020: 70a0 7f3d 8ac4 903d c24c a1bd db5b 43bd
00000030: c142 873d 731f 413c 1367 483d 2cc8 3dbb
00000040: 8ebe 21bd ca4b 0bbd 6b26 29bd 6f1e c2bc
00000050: 7119 1b3d 242d 95bd 801c a13c 3e7b 273d
00000060: 9ef1 983d 8628 a5bc 3523 dabc ff99 1fbd
00000070: 4e9d 5f3b 0798 2d3c ddb9 b03c c73f 57bc
00000080: e0e5 c5bd d5ac 41bd 79c5 063d a407 af3c
00000090: 72e5 adbd 7932 3dbe bc56 0abe 1dbb 69bb
000000a0: 58d0 c83c 8088 0bbe 3089 52be f655 18be
000000b0: d294 93bc 504f 093d 1e9a 29bd fbaa adbd
000000c0: 04ed 94bd baaa 1bbc 3da2 13bd aab9 da3c
000000d0: cf2d 6c3d 2255 be3d 2367 0b3d 7b71 66bc
000000e0: 3f7c 8b3c 19ee 563e 9019 6a3d f1b9 ac3d
000000f0: ce37 263c 57e1 67bd 9ebe e23e 54e0 ea3c
00000100: 4469 433e f98a 653c 651f 3cbb e111 053f
00000110: ecac 583d d2a7 583e 7a30 c6bd aff4 f53b
00000120: bd42 a53e 45f1 033d 864b f53d 183a 8e3e
00000130: 3c9a 4a3e 03f6 5f3d 3502 513d e79e a33d
00000140: a10f 0b3e 792a 53be a259 b6bd 8d82 e7bd
00000150: f346 79be 2859 0d3f 931b 84be 45b0 833e
00000160: d515 293e 8bdd 91be 2e54 073f 9c29 a6be
00000170: e4f7 553e eadd 903d 62f2 d8be af9d c53e
00000180: b5a8 85be a900 733d 77d7 08bd 5dd7 d9be
00000190: 20af 773d 0d4f 403c 0b59 033c ce17 5c3d
000001a0: ab5d 413d fc12 483d 836c 77bd 1f70 223c
000001b0: 9e1e d7bc 3d09 58bd 7f65 2c3e 0f89 31be
000001c0: b21b 333e a0cb b439 9c77 22bd 0da0 2b3e
000001d0: 9790 73be 27a7 533e 3e77 c3bc e1c1 9bbd
000001e0: c63f 8b3d a14d 69be 386a a33d 763c 2abd
000001f0: e4f4 09be 2e0c 983a 5ab4 70ba ff5f 2f3d
00000200: ad59 24bc b712 36bc 8d00 ca3d d252 65bd
00000210: 7b5c 253d 7a3d e5bc 68f2 ae3b 3f2d f33d
00000220: dd46 c4bd bb32 9d3d bee9 98bd c532 2f3c
00000230: 692b d4bc ab50 07be ed25 b8bd 088b 02be
00000240: 5916 debc c01d d93c 0f7d 5dbc a903 81bc
00000250: 0d80 bbbc 0029 843d ced1 643d 9717 443d
00000260: 6136 043b a148 a5bc eac7 ae3c 0322 9dbc
00000270: 2e78 3e3d e6e0 0dbc c884 3abd 15cc cbbb
00000280: b093 8dbc 6f4c 03bd 863a 7c3b 6cb9 35bd
00000290: b8c8 4b3b b8ae 0f3d 858e 51bd ea38 813d
000002a0: ea76 b4ba dd33 03bd fca0 23bd 599a 823d
000002b0: e9e4 a3bc f6fa 273d 9d33 04bd 2c76 19bc
000002c0: 145e 2a3c 4eb3 233c e62d 883b 6387 5aba
000002d0: 6f2f 8f3a 580d 713c f550 913c 7334 a83c
000002e0: 1a79 0fbd 5749 a63c c568 d0bc 9a42 523c
000002f0: d634 8ebc fab4 92bd 5566 133c b31c 9ebc
00000300: 6079 383d 0383 19bd 8a5e 5fbd 2525 95bc
00000310: 486e 5abd ac4f 99bd e996 91bd c015 49bd
00000320: 04ba 47bc 6f05 c5bc 5508 c3bc 2e66 053c
00000330: 6541 583d e243 e3bb 7bd0 3cbd 1231 b1bb
00000340: 2da3 4f3d ae4a 673d 6f4a d63c 4774 433c
00000350: c3d6 9b3d 7d68 743d 660f 683c d16b 8d3d
00000360: bf0d ad3d db58 953d c4cb 8bbc 90c2 4dbd
00000370: 62c3 a23d b6df 703d 22f5 56bc bce6 ccbd
00000380: 481f aabd 391d 053c aecf c0bd 55bf 97be
00000390: 3c46 87be 5fc4 033c 210f 49bd dd96 a5be
000003a0: b382 dbbe 2fdc 1fbe ee0a 9c3e 34ed f9be
000003b0: 6ec7 2dbf 778c a7be ce24 8f3e 8227 ff3e
000003c0: ab15 28bf d38c c0be 98ac 4d3e 8f58 bf3e
000003d0: 3c34 f03e 4163 51bd 8c47 a63e f5f3 0b3f
000003e0: 34ae 053f 1b84 b83e e255 f13b 050a 08bd
000003f0: 1e9c 66bd ead3 bcbd 5cf4 8c3c 4b15 1d3d

conv2.bias f4 [16]
-0.7754685 -0.500993 -0.10822008 0.53033817 1.9302772 -0.22919895 -0.3621373 -0.06589208
0.8107285 -0.14932738 -0.2622595 -0.54539794 0.8183324 0.57126737 -0.48027757 -1.5417726
00000000: 1b85 46bf 1441 00bf 7da2 ddbd 3ec4 073f
00000010: 5313 f73f 21b3 6abe 0f6a b9be 6df2 86bd
00000020: e78b 4f3f 47e9 18be e146 86be 339f 0bbf
00000030: 3b7e 513f 943e 123f f1e6 f5be ce58 c5bf

fc1.weight f4 [120, 400]
0.042246856 0.06481149 0.026235424 0.013945297 -0.043526433 -0.06905109 -0.052440554 -0.019404843
-0.009283605 -0.05767402 0.0057108584 -0.004798067 -0.016199013 0.06259039 -0.0130724525 -0.007140198
-0.025501257 -0.007889364 0.010612997 -0.027476676 0.027274437 -0.014019863 -0.020307282 0.05240167
-0.0014279388 0.02047564 0.0024114205 0.034358006 0.016314976 -0.028408414 -0.015279183 -0.08737035
-0.039965514 0.06730756 -0.054202545 0.17446464 0.14432573 0.024380496 -0.028885044 -0.10929962
0.08672471 0.09351848 -0.03957371 -0.002255026 -0.028862905 0.051287882 0.053044233 -0.062161997
0.030088237 -0.1041125 0.10977193 0.05657386 0.03391054 0.05413222 -0.047145944 -0.027226584
-0.02988079 -0.07421682 -0.06986246 -0.05289233 -0.06426661 -0.0893579 0.031620346 0.077252574
0.033120528 -0.18608129 -0.053925533 -0.009835417 -0.108149074 -0.008587595 -0.06381319 -0.006505347
-0.008401556 -0.010901106 0.049646854 0.118618056 0.13895383 0.09100302 0.04979556 0.17120118
0.05725238 0.09045575 0.09919147 0.1336029 0.23939398 -0.15856588 -0.0983404 -0.07334621
-0.012280488 -0.027693465 -0.16866058 -0.101976626 -0.05338112 -0.06956755 -0.07794473 0.075584814
0.018292243 0.05640122 -0.027689517 -0.09666047 0.056698546 0.072258934 0.007894447 -0.04474271
-0.026744723 -0.026834287 0.12126313 0.042735923 -0.09121696 -0.08258068 0.040938836 0.021336732
0.08509131 -0.07666558 -0.06025454 0.06434246 0.10884801 0.095353134 0.007874205 -0.11027766
-0.14610772 -0.009913854 0.01823644 -0.012992236 -0.021879567 0.011771707 -0.051849633 -0.045663092
0.07884644 -0.002759108 -0.16870376 -0.024478886 -0.07314469 -0.084270306 -0.048024844 -0.16749577
0.005760485 0.104882404 -0.017369267 -0.0411594 -0.106055096 0.1722141 0.1504486 0.08553587
0.035285726 -0.12571745 -0.0688633 0.023330366 -0.007933086 -0.025996793 -0.008724024 0.02703294
-0.06876591 0.0016643924 0.10009811 0.054027654 -0.0542894 0.08278248 0.07306112 0.057989854
0.039566174 0.03453269 0.021629686 -0.006524168 -0.05363695 0.0013650167 0.03668866 0.052580774
0.12230013 0.15128931 -0.03408808 0.03964903 -0.0025319345 -0.045370027 -0.038552668 -0.0045135138
0.021110857 -0.03097668 0.019477384 -0.003607752 -0.101179905 -0.14848211 -0.028169146 -0.081818715
-0.01433292 -0.031916898 0.0034407328 0.03967793 0.09296867 0.05499995 0.027382022 0.038264282
0.0949683 0.02993456 0.0033955986 -0.04393699 0.027018664 0.08968104 0.0063681444 0.08170097
0.04492418 0.014855379 0.046119023 0.050965086 0.07023705 0.048120324 -0.022842908 0.029618429
-0.037149906 0.11561042 -0.040381577 0.0079034725 -0.016535508 -0.014697716 0.018086275 0.028335776
0.04198104 0.0063220747 -0.08254934 -0.040503185 -0.025231501 0.011977556 -0.0697575 -0.059219535
-0.03638109 0.029687736 -0.03073803 -0.0058562397 0.042819053 0.006422604 -0.06798466 -0.034142345
-0.051428866 -0.05220183 -0.045260392 -0.039412525 -0.011677852 0.055882074 -0.0111915935 0.04320373
0.096886374 0.013342559 0.009478932 0.0051631546 -0.032918308 0.017558448 0.01708295 0.038084205
0.037705358 0.009875882 -0.06472961 0.0067035924 -0.024917582 -0.025599902 0.08387299 -0.16866416
00000000: 0a0b 2d3d e3bb 843d aceb d63c d17a 643c
00000010: c648 32bd a86a 8dbd e8cb 56bd e8f6 9ebc
00000020: 431a 18bc 983b 6cbd 2722 bb3b 1a39 9dbb
00000030: cbb3 84bc 642f 803d d72d 56bc 52f8 e9bb
00000040: 03e8 d0bc 6442 01bc 23e2 2d3c c416 e1bc
00000050: a46e df3c 91b3 65bc 755b a6bc 22a3 563d
00000060: ad29 bbba 88bc a73c ec08 1e3b fbba 0c3d
00000070: fca6 853c c3b8 e8bc 8a55 7abc 3aef b2bd
00000080: e1b2 23bd 8cd8 893d 7d03 5ebd dca6 323e
00000090: 20ca 133e 9bb9 c73c 54a0 ecbc 7bd8 dfbd
000000a0: ba9c b13d 9e86 bf3d 0b18 22bd 0fc9 13bb
000000b0: e671 ecbc 3e13 523d e944 593d 949d 7ebd
000000c0: 9b7b f63c ef38 d5bd 1bd0 e03d feb9 673d
000000d0: c7e5 0a3d bfb9 5d3d 1b1c 41bd 490a dfbc
000000e0: 8fc8 f4bc fdfe 97bd 0d14 8fbd a1a5 58bd
000000f0: 369e 83bd 4601 b7bd 5684 013d 9936 9e3d
00000100: 64a9 073d 188c 3ebe 05e1 5cbd bb24 21bc
00000110: 437d ddbd fcb2 0cbc 7db0 82bd ce2a d5bb
00000120: aea6 09bc 8d9a 32bc 805a 4b3d 06ee f23d
00000130: ea49 0e3e cb5f ba3d 6ef6 4b3d 5d4f 2f3e
00000140: 7981 6a3d dd40 b93d e624 cb3d 33cf 083e
00000150: b223 753e 185f 22be b166 c9bd 8a36 96bd
00000160: 1a34 49bc 68dd e2bc 5cb5 2cbe 1fd9 d0bd
00000170: 29a6 5abd 6f79 8ebd 7da1 9fbd 36cc 9a3d
00000180: 9dd9 953c f704 673d 20d5 e2bc edf5 c5bd
00000190: bc3c 683d 7efc 933d b657 013c 2244 37bd
000001a0: c017 dbbc 94d3 dbbc ce58 f83d dd0b 2f3d
000001b0: f5cf babd 0f20 a9bd 7baf 273d 5fca ae3c
000001c0: 5a44 ae3d d802 9dbd 77cd 76bd fbc5 833d
000001d0: b5eb de3d 8148 c33d cf02 013c 41d9 e1bd
000001e0: 439d 15be b86d 22bc 9664 953c 63dd 54bc
000001f0: c73c b3bc 1ede 403c 4860 54bd 3909 3bbd
00000200: 3e7a a13d 27d2 34bb aec0 2cbe f287 c8bc
00000210: e2cc 95bd e995 acbd b3b5 44bd 0384 2bbe
00000220: 73c2 bc3b 96cc d63d fe49 8ebc c296 28bd
00000230: 6a33 d9bd e558 303e 330f 1a3e 6e2d af3d
00000240: c487 103d 13bc 00be 3408 8dbd 531f bf3c
00000250: c6f9 01bc 3af7 d4bc 35ef 0ebc 2f74 dd3c
00000260: 24d5 8cbd be27 da3a 3d00 cd3d 1a4c 5d3d
00000270: 905e 5ebd dc89 a93d 12a1 953d c586 6d3d
00000280: 2410 223d 2672 0d3d bd30 b13c b0c8 d5bb
00000290: 6bb2 5bbd 5cea b23a d946 163d f05e 573d
000002a0: 7e78 fa3d 96eb 1a3e f19f 0bbd 0567 223d
000002b0: d0ee 25bb ecd5 39bd 67e9 1dbd 19e6 93bb
000002c0: adf0 ac3c cec2 fdbc 098f 9f3c 0970 6cbb
000002d0: 6937 cfbd b20b 18be fbc2 e6bc 9290 a7bd
000002e0: a0d4 6abc 4bbb 02bd eb7d 613b 5385 223d
000002f0: 5c66 be3d a147 613d 4350 e03c 02bb 1c3d
00000300: bd7e c23d 5339 f53c b188 5e3b 46f7 33bd
00000310: 3f56 dd3c b1aa b73d deab d03b d752 a73d
00000320: 6b02 383d fa63 733c 4de7 3c3d c4c0 503d
00000330: 71d8 8f3d d119 453d 0d21 bbbc 59a2 f23c
00000340: 802a 18bd 28c5 ec3d 2767 25bd 917d 013c
00000350: 7975 87bc b0ce 70bc ab29 943c 6e20 e83c
00000360: 50f4 2b3d 6829 cf3b a10f a9bd abe6 25bd
00000370: 4bb2 cebc 833d 443c 05dd 8ebd 2f90 72bd
00000380: 5604 15bd b233 f33c 52ce fbbc b3e5 bfbb
00000390: 0863 2f3d b574 d23b 8b3b 8bbd d8d8 0bbd
000003a0: 13a7 52bd 96d1 55bd f662 39bd 076f 21bd
000003b0: 7654 3fbc 9ae4 643d f25c 37bc 65f6 303d
000003c0: 5d6c c63d c09a 5a3c 864d 1b3c ae2f a93b
000003d0: 59d5 06bd bcd6 8f3c 8bf1 8b3c 2ffe 1b3d
000003e0: ef70 1a3d 74ce 213c f590 84bd cfa9 db3b
000003f0: f51f ccbc e3b6 d1bc 9ac5 ab3d 4cb6 2cbe

fc1.bias f4 [120]
0.0075499606 -0.2399801 -0.1691589 -0.06239745 0.1295197 -0.038576804 -0.19034478 0.09020556
0.13652888 0.25323096 0.30028087 -0.16782518 -0.32580435 0.005677999 -0.39466968 -0.15577266
0.028299427 0.099944726 0.010017354 0.18519223 0.34610817 -0.10426364 -0.03750709 -0.0137203
0.26583862 -0.08392483 0.25000134 0.13621391 0.014365277 0.3418359 0.014797657 0.16154435
-0.1921792 0.072578 -0.17014001 0.015862525 -0.022553572 -0.027220046 0.45441678 0.45083937
-0.044867694 -0.017774109 0.07336221 -0.2324788 -0.0053089387 0.25732988 0.10329131 0.07728945
-0.062050126 0.30100974 -0.04258036 -0.034503147 -0.0062364135 0.39591175 0.0029320149 -0.02006683
-0.0027455068 0.07540982 0.051030606 -0.12262828 -0.20615216 0.45974407 0.13118263 0.52953583
0.29266447 -0.18303385 -0.15611038 0.028695142 0.14579833 0.34554312 -0.056932684 0.41900498
0.18432134 0.14209937 0.57331574 0.105686046 -0.07468416 0.25677603 0.21806505 0.3222164
0.02033617 -0.18758893 -0.09855544 -0.0027398737 -0.02706061 0.08235555 0.18164647 -0.006830162
0.16311929 -0.018631756 0.0005824307 0.37870863 -0.15158135 -0.098026074 -0.14918971 0.052826732
-0.11844974 0.2796053 -0.041125532 0.028603228 -0.10058983 0.17119174 0.18152313 0.091142535
0.039994776 -0.053258494 -0.12063785 0.112534605 -0.16262081 -0.24491356 -0.08022802 0.06920774
-0.010522594 -0.1591189 0.07443025 -0.26192757 0.086168356 -0.05055103 -0.19515754 0.10025028
00000000: a965 f73b 58bd 75be fe37 2dbe 7894 7fbd
00000010: d0a0 043e b602 1ebd bee9 42be b1bd b83d
00000020: 3ace 0b3e 7da7 813e 6abe 993e 5dda 2bbe
00000030: d4cf a6be 820e ba3b 2512 cabe de82 1fbe
00000040: 33d4 e73c d2af cc3d d41f 243c 08a3 3d3e
00000050: 1735 b13e 2d88 d5bd 09a1 19bd 1ccb 60bc
00000060: 001c 883e c8e0 abbd 2d00 803e a97b 0b3e
00000070: 575c 6b3c 1d05 af3e df71 723c e26b 253e
00000080: a0ca 44be c6a3 943d 2f39 2ebe 20f2 813c
00000090: 45c2 b8bc 93fc debc 51a9 e83e 6bd4 e63e
000000a0: 30c7 37bd 029b 91bc ed3e 963d ec0e 6ebe
000000b0: 9bf6 adbb bec0 833e 658a d33d ee49 9e3d
000000c0: 4628 7ebd f31d 9a3e be68 2ebd 2c53 0dbd
000000d0: d45a ccbb f2b4 ca3e 0c27 403b 3163 a4bc
000000e0: f6ed 33bb 7770 9a3d 7805 513d 8924 fbbd
000000f0: 8d19 53be 9363 eb3e bd54 063e a98f 073f
00000100: 1ed8 953e 3a6d 3bbe 66db 1fbe 1312 eb3c
00000110: 284c 153e 07eb b03e 3f32 69bd d287 d63e
00000120: bcbe 3c3e 7f82 113e d2c4 123f ed71 d83d
00000130: 02f4 98bd 2678 833e 724c 5f3e 8cf9 a43e
00000140: 0a98 a63c 5017 40be 6fd7 c9bd 748f 33bb
00000150: 36ae ddbc 07aa a83d 8801 3a3e 8dcf dfbb
00000160: be08 273e a0a1 98bc 43ae 183a 19e6 c13e
00000170: 2438 1bbe e5c1 c8bd 30c5 18be d860 583d
00000180: c795 f2bd 6d28 8f3e 3f73 28bd 5151 ea3c
00000190: 0a02 cebd e34c 2f3e 33e1 393e f0a8 ba3d
000001a0: 90d1 233d 9425 5abd fa10 f7bd 8b78 e63d
000001b0: 1286 26be 9fca 7abe 974e a4bd cabc 8d3d
000001c0: f566 2cbc 11f0 22be e36e 983d 5f1b 86be
000001d0: 0979 b03d 990e 4fbd 61d7 47be 0550 cd3d

fc2.weight f4 [84, 120]
-0.034426607 -0.11678589 0.018988065 -0.034538176 0.04567606 0.06878278 0.09192821 0.030171879
0.12630552 0.090603694 -0.13072707 -0.0815649 -0.05557892 0.041435476 -0.03408065 0.11569298
0.042678695 -0.06317078 0.007889765 -0.02772391 -0.0628634 0.027806764 0.07843563 0.052328497
-0.041893218 0.13677351 -0.01246608 0.1058739 0.0919279 -0.091256365 -0.02463034 -0.026435731
-0.065130286 -0.08012288 -0.0112788845 -0.042005222 0.021507062 0.049067155 0.038910393 -0.11983549
-0.08335136 -0.017315527 0.0258909 0.028591888 0.21278211 -0.16349967 0.045339 0.01982364
-0.10102473 -0.01512111 -0.049948197 0.01634515 -0.18390381 0.020259926 -0.110374875 -0.06728075
0.0021718533 0.08254378 -0.16172405 0.035236478 0.1035083 -0.059637025 0.036821526 -0.08044144
0.037789162 -0.03560546 -0.11248448 -0.027648993 -0.028370986 -0.014570021 -0.10488477 0.033600803
-0.10700949 -0.20704225 0.08936375 -0.23405872 0.09791368 -0.14296137 0.16686244 0.0060203644
-0.1395183 0.05888117 -0.06933102 -0.10462372 0.079097435 0.056700997 0.030245459 -0.036812197
-0.1410705 -0.035874948 0.006993575 -0.021458626 -0.056324776 0.19068623 0.038578708 0.09251834
-0.15086097 -0.0045635724 -0.06216197 -0.12511069 -0.07656874 0.05645621 0.17252229 -0.02346353
-0.009117198 0.062341742 -0.06816838 0.13430746 0.18737821 0.03927432 0.077018045 -0.010144654
0.16974366 -0.030085906 0.26020846 0.03817496 -0.072645724 -0.050983083 -0.09442877 -0.041257273
0.0010862773 0.036981955 -0.1564973 0.0024619685 -0.009080115 -0.031953536 -0.13501783 -0.13804393
-0.032426417 -0.028587097 0.018462801 0.010854192 -0.08414622 -0.09495654 0.023659937 -0.10777006
-0.06592385 -0.03054487 -0.07253797 0.08768186 0.005289917 -0.056865502 -0.03928228 -0.06462706
-0.03453481 -0.034667835 0.05538663 0.035701387 0.091949575 -0.031456973 -0.02841956 -0.008521118
-0.058192573 0.07357171 0.012182792 0.03298218 0.03612634 0.014747033 -0.07137796 -0.0015341798
0.057081528 0.061869975 0.08865262 -0.18406704 -0.044938557 -0.06680352 -0.00980173 0.041124884
0.03181286 -0.081223294 0.06933399 -0.1299868 -0.13545029 -0.072368346 0.023265118 0.016502751
0.033564106 -0.1383987 -0.07163165 0.0107146045 0.020360086 0.09677174 0.11740821 -0.084931314
-0.04610868 -0.00713988 0.01444034 -0.04950774 -0.024934117 -0.11362243 0.110890865 -0.0062364424
0.055893086 -0.04661967 -0.0049785133 0.11248477 -0.048353646 -0.032991685 0.08992029 -0.09661558
-0.055393647 0.03423146 -0.05731053 -0.0613241 -0.039059564 -0.013929848 0.06347747 -0.12982723
-0.088825956 0.07188133 -0.01954238 0.034907646 -0.02095299 -0.0651703 -0.025257342 0.09204352
-0.09437041 -0.007779586 -0.08344409 0.22215565 -0.03537296 -0.04577172 0.15845619 -0.09242012
0.024146238 -0.030636441 0.09915332 0.05282534 0.12221168 0.07784148 -0.056939907 0.027021756
0.009431697 0.019018255 -0.11749507 -0.1532582 -0.015721686 -0.0940643 0.030632308 -0.03384783
-0.0004691059 -0.0054400233 0.00051564525 -0.13458127 -0.057484705 -0.13325661 0.09311659 0.0008703532
-0.09884049 -0.08799883 0.17236362 0.14287037 0.10935113 0.043844763 0.0897666 0.15353961
00000000: ea02 0dbd 712d efbd dc8c 9b3c e777 0dbd
00000010: d216 3b3d fcdd 8c3d db44 bc3d 042b f73c
00000020: 3c56 013e 6e8e b93d 51dd 05be 800b a7bd
00000030: b9a6 63bd 3fb8 293d 2798 0bbd 71f0 ec3d
00000040: dbcf 2e3d af5f 81bd 1344 013c 411d e3bc
00000050: 87be 80bd 03cb e33c dca2 a03d 6856 563d
00000060: 3998 2bbd 5b0e 0c3e 873e 4cbc 6ad4 d83d
00000070: b244 bc3d 9ee4 babd 91c5 c9bc bf8f d8bc
00000080: 0763 85bd 7717 a4bd 12cb 38bc ab0d 2cbd
00000090: 942f b03c a4fa 483d 8160 1f3d 4f6c f5bd
000000a0: 1eb4 aabd 4bd9 8dbc 2719 d43c 8939 ea3c
000000b0: 8ee3 593e 756c 27be 63b5 393d 3065 a23c
000000c0: 0ee6 cebd 88be 77bc 7b96 4cbd 44e6 853c
000000d0: 4851 3cbe 25f8 a53c 390c e2bd 7dca 89bd
000000e0: a755 0e3b b70c a93d fd9a 25be 2054 103d
000000f0: 29fc d33d f445 74bd 2bd2 163d 7bbe a4bd
00000100: cfc8 1a3d 08d7 11bd 435e e6bd 2480 e2bc
00000110: 456a e8bc 19b7 6ebc d4cd d6bd ffa0 093d
00000120: cb27 dbbd e202 54be 5704 b73d 17ad 6fbe
00000130: f886 c83d 7764 12be fddd 2a3e 7a46 c53b
00000140: e3dd 0ebe 622d 713d 6cfd 8dbd f644 d6bd
00000150: d6fd a13d 4e3f 683d 53c5 f73c 63c8 16bd
00000160: c974 10be 9cf1 12bd 5c2a e53b 00ca afbc
00000170: cfb4 66bd 4043 433e b504 1e3d 417a bd3d
00000180: 4c7b 1abe 058a 95bb 8d9d 7ebd 041d 00be
00000190: 12d0 9cbd a03e 673d afa9 303e 9736 c0bc
000001a0: 4d60 15bc 0e5a 7f3d dd9b 8bbd e587 093e
000001b0: 13e0 3f3e 1cde 203d a3bb 9d3d c335 26bc
000001c0: 48d1 2d3e b876 f6bc 0b3a 853e 595d 1c3d
000001d0: 48c7 94bd a3d3 50bd df63 c1bd 63fd 28bd
000001e0: 6b61 8e3a 647a 173d d440 20be fa58 213b
000001f0: c3c4 14bc b6e1 02bd 1d42 0abe 635b 0dbe
00000200: 90d1 04bd 7d2f eabc 4d3f 973c c8d5 313c
00000210: da54 acbd 9378 c2bd 7cd2 c13c 8db6 dcbd
00000220: 1503 87bd 3c39 fabc ca8e 94bd 8c92 b33d
00000230: 0a57 ad3b cdeb 68bd 75e6 20bd 315b 84bd
00000240: 5f74 0dbd dcff 0dbd 17dd 623d 9e3b 123d
00000250: 0f50 bc3d 07d9 00bd 23d0 e8bc 299c 0bbc
00000260: 565b 6ebd c4ac 963d 559a 473c 5318 073d
00000270: 37f9 133d 8a9d 713c 9c2e 92bd 8816 c9ba
00000280: 52ce 693d 5f6b 7d3d 818f b53d 127c 3cbe
00000290: 7e11 38bd 49d0 88bd 6f97 20bc 9172 283d
000002a0: 344e 023d 6658 a6bd fbfe 8d3d 421b 05be
000002b0: 7bb3 0abe db35 94bd 7d96 be3c c730 873c
000002c0: 847a 093d 64b8 0dbe 9db3 92bd 4f8c 2f3c
000002d0: 32ca a63c 4330 c63d b773 f03d 78f0 adbd
000002e0: 75dc 3cbd a8f5 e9bb 2d97 6c3c a1c8 4abd
000002f0: a242 ccbc e0b2 e8bd c01a e33d 125b ccbb
00000300: 26f0 643d 44f4 3ebd cc22 a3bb 6a5e e63d
00000310: 790e 46bd 4a22 07bd 2128 b83d 64de c5bd
00000320: 73e4 62bd 4a36 0c3d 72be 6abd fb2e 7bbd
00000330: ecfc 1fbd 043a 64bc 7a00 823d 6ef1 04be
00000340: 62ea b5bd 8536 933d 5717 a0bc 52fb 0e3d
00000350: 9ba5 abbc 0278 85bd 7ce8 cebc 5081 bc3d
00000360: 4645 c1bd e6eb febb bce4 aabd c57c 633e
00000370: 3de3 10bd 217b 3bbd 5742 223e c346 bdbd
00000380: 55ce c53c 46f9 fabc e510 cb3d 625f 583d
00000390: 1e4a fa3d 5b6b 9f3d d239 69bd bb5c dd3c
000003a0: 6887 1a3c 2ccc 9b3c 41a1 f0bd b8ef 1cbe
000003b0: c4ca 80bc c9a4 c0bd 9bf0 fa3c 06a4 0abd
000003c0: 54f2 f5b9 3942 b2bb 5e2c 073a accf 09be
000003d0: 1575 6bbd 6c74 08be e9b3 be3d 6a28 643a
000003e0: e26c cabd bb38 b4bd 1780 303e 9c4c 123e
000003f0: 7cf3 df3d 9196 333d 8dd7 b73d 7d39 1d3e

fc2.bias f4 [84]
0.2801676 -0.027145006 0.042560328 -0.15675351 0.33126253 0.07835331 -0.025731398 0.2638209
0.36032537 0.16703661 0.34632805 0.17631659 0.043666203 0.22478825 0.018536188 0.0200242
-0.027832348 0.5469232 0.15022501 0.13220015 0.84525603 0.5285704 -0.29595098 0.012580793
0.122221395 0.099435054 -0.055669725 0.009130324 0.0462723 0.017693985 0.28291407 0.3110214
0.13882947 0.19616552 -0.017164133 0.25109568 -0.047000743 -0.12580399 -0.017553087 -0.21490994
0.675541 0.31431878 0.29745358 0.05799915 0.6494568 0.670142 0.21682712 -0.20303084
0.9877575 -0.13118353 0.51395077 0.3332744 0.10085006 -0.08720161 0.20754498 0.56750923
0.09093681 0.19004865 0.867112 -0.18868585 0.1882746 0.7573514 -0.19707236 -0.060514104
0.28164908 0.13781445 -0.046735577 0.42926776 -0.047631145 0.38695288 -0.08099195 0.40338972
-0.08317234 0.04245789 0.77448595 0.20037547 0.029111657 0.2636339 0.118825376 0.22377999
0.9245362 -0.1315722 0.73296386 0.31379408
00000000: 2172 8f3e 345f debc bd53 2e3d fe83 20be
00000010: 3e9b a93e b377 a03d a7ca d2bc 8813 873e
00000020: 917c b83e a50b 2b3e e951 b13e 568c 343e
00000030: 55db 323d e42e 663e 34d9 973c cb09 a43c
00000040: aa00 e4bc 2903 0c3f 96d4 193e 7a5f 073e
00000050: b362 583f 6450 073f e386 97be ac1f 4e3c
00000060: 364f fa3d 9ba4 cb3d f005 64bd 5b97 153c
00000070: 0688 3d3d faf2 903c 1dda 903e 323e 9f3e
00000080: 5029 0e3e 9ddf 483e cc9b 8cbc 9d8f 803e
00000090: da83 40bd c3d2 00be 7ecb 8fbc 5a11 5cbe
000000a0: 41f0 2c3f 64ee a03e d64b 983e 8490 6d3d
000000b0: cd42 263f 6d8e 2b3f ee07 5e3e 51e7 4fbe
000000c0: addd 7c3f fa54 06be 4792 033f f1a2 aa3e
000000d0: 7a8a ce3d c296 b2bd ac86 543e 4948 113f
000000e0: 143d ba3d 1d9c 423e 0dfb 5d3f dd36 41be
000000f0: 0fcb 403e c8e1 413f 56cd 49be a3dd 77bd
00000100: 4f34 903e 3b1f 0d3e ce6d 3fbd fcc8 db3e
00000110: e018 43bd b01e c63e 1cdf a5bd 1989 ce3e
00000120: 4356 aabd 53e8 2d3d b644 463f 3a2f 4d3e
00000130: 927b ee3c 06fb 863e b85a f33d 9526 653e
00000140: 68ae 6c3f ddba 06be 85a3 3b3f 9ea9 a03e

fc3.weight f4 [10, 84]
-0.14513537 0.12721896 0.004419676 0.054229595 -0.060242184 -0.011598998 -0.09445833 0.078444906
-0.18667151 -0.03154115 -0.051551126 -0.14393668 0.18410514 0.034203682 0.028833505 0.16280709
0.15901826 0.12649003 -0.032376375 -0.024226228 -0.37952948 0.1321577 0.01913857 -0.0351194
-0.03137529 0.1104909 -0.1150011 0.055591054 0.100450926 -0.26752597 0.057294447 0.023103077
-0.13476382 0.112660244 0.06451244 0.024525966 0.19642673 -0.04124822 -0.12072435 0.21842782
0.087935805 0.24798806 0.07518213 0.24426952 -0.060708907 -0.013285385 -0.015171991 0.38253865
-0.11787064 -0.15475418 0.022727653 0.20439832 -0.03734541 -0.14618202 0.21837741 0.076529294
0.05956457 -0.108703725 0.09648619 -0.06396257 -0.32128948 -0.19191493 -0.0056520533 -0.045110475
0.023737062 -0.040778376 -0.0920716 -0.121284865 -0.10417703 0.16034304 0.05636656 0.14908868
0.023169925 -0.005422241 -0.10973382 0.08028013 0.10429779 -0.14376354 0.047395524 0.0056017777
-0.11216341 -0.13725187 0.008333047 0.06007757 0.03920645 -0.15732312 -0.12875198 -0.030143155
-0.056537244 0.13027681 0.025970452 0.19487427 -0.23203723 -6.505555e-05 -0.026922269 0.10418399
-0.017024243 -0.054859363 0.1852495 -0.1011183 -0.09410956 -0.15844437 0.023610828 -0.03808572
0.020199034 -0.19747053 -0.12235622 0.12827386 0.31492248 0.0014609292 -0.097076066 -0.12832771
0.25969088 0.16099976 -0.14538309 -0.23059823 -0.041553494 0.15196115 0.18402027 0.11330082
0.068793945 0.16203898 -0.009167729 -0.030640092 -0.11764959 0.026865358 0.043021426 -0.17515415
-0.34954357 -0.11575187 0.08065516 -0.069863744 0.057590593 0.112679094 -0.0052221054 0.14257501
-0.06656707 -0.004425305 0.111815825 0.10616189 -0.04898668 0.07365507 -0.61671215 0.32991087
0.07985111 0.08687747 -0.04469037 -0.035164777 -0.01365747 -0.06869749 -0.038615804 0.030458728
-0.09676032 0.16737305 -0.1694989 -0.20204069 0.24184622 -0.0074849757 -0.08429438 0.035510864
-0.093319856 0.002604779 0.011221423 0.1320088 -0.3451616 -0.0038465136 -0.1373419 -0.13802633
-0.005835008 0.26818746 -0.053284373 0.040135052 -0.012649805 -0.17471837 -0.11335467 0.071127996
0.13590844 -0.13824084 -0.17267513 0.040059112 -0.019742709 0.18865262 -0.0065435283 0.14101128
0.1596795 0.023000447 -0.037579 -0.074344784 0.1155116 0.1610729 0.155124 -0.10120887
-0.10798276 -0.13110276 0.19069077 -0.035992313 -0.03771318 0.14948702 0.22357188 0.12850606
0.10774593 -0.115054764 -0.06358859 -0.17089584 0.046380464 0.09854044 0.073231384 0.034372192
0.024462365 -0.10876716 0.07215614 0.10452967 0.027085166 0.04044195 -0.17894033 0.037857294
0.15046024 0.086667486 -0.019313619 0.046869226 0.00420506 -0.060991306 -0.036164578 -0.12725306
-0.06883496 0.11463681 0.09370616 -0.1536328 -0.10821113 -0.010407777 -0.075248696 -0.0607013
0.038352165 -0.10424569 0.24498238 0.06971418 -0.019123962 -0.12173844 -0.032607414 -0.030836795
0.115933456 0.043998312 -0.054742023 0.06047565 0.051528968 0.115203306 0.07946247 0.038851336
0.15295586 0.1548692 0.038394384 0.09853226 0.1401748 0.11731353 0.065617315 0.17301089
00000000: 5e9e 14be b045 023e eed2 903b da1f 5e3d
00000010: 82c0 76bd b909 3ebc 5e73 c1bd b9a7 a03d
00000020: d126 3fbe 4b31 01bd 4627 53bd 2364 13be
00000030: 0f86 3c3e 2919 0c3d 3e34 ec3c e7b6 263e
00000040: afd5 223e 9a86 013e 179d 04bd 1576 c6bc
00000050: b051 c2be 5954 073e 7ec8 9c3c 5cd9 0fbd
00000060: 6083 00bd 0e49 e23d b285 ebbd 72b3 633d
00000070: 37b9 cd3d 2af9 88be 95ad 6a3d aa42 bd3c
00000080: 87ff 09be 6aba e63d 191f 843d aeea c83c
00000090: 1724 493e e5f3 28bd 543e f7bd 8bab 5f3e
000000a0: b017 b43d 95f0 7d3e 17f9 993d ca21 7a3e
000000b0: e7a9 78bd f2aa 59bc f193 78bc 1bdc c33e
000000c0: 2966 f1bd e177 1ebe 582f ba3c cb4d 513e
000000d0: 80f7 18bd bdb0 15be 549e 5f3e 64bb 9c3d
000000e0: fbf9 733d 0fa0 debd 8d9a c53d cffe 82bd
000000f0: 0e80 a4be 5985 44be dc34 b9bb c3c5 38bd
00000100: 3a74 c23c 3a07 27bd 0990 bcbd 3364 f8bd
00000110: c45a d5bd f730 243e 9fe0 663d b4aa 183e
00000120: dbce bd3c 0ead b1bb 20bc e0bd e969 a43d
00000130: 149a d53d c036 13be cf21 423d 1e8f b73b
00000140: eeb5 e5bd c18b 0cbe 5587 083c e613 763d
00000150: f196 203d 5019 21be 8fd7 03be c7ee f6bc
00000160: 9993 67bd 4967 053e fcbf d43c 1f8d 473e
00000170: 2b9b 6dbe 6f6e 88b8 178c dcbc 6a5e d53d
00000180: 6d76 8bbc 36b4 60bd 0cb2 3d3e 1c17 cfbd
00000190: 83bc c0bd 3e3f 22be 7f6b c13c c6ff 1bbd
000001a0: 7278 a53c b735 4abe e695 fabd 395a 033e
000001b0: 853d a13e a67c bf3a d1cf c6bd 5768 03be
000001c0: 34f6 843e 1fdd 243e 4edf 14be f121 6cbe
000001d0: ff33 2abd b49b 1b3e cf6f 3c3e 430a e83d
000001e0: d7e3 8c3d 8ced 253e 3e34 16bc ee00 fbbc
000001f0: 45f2 f0bd bd14 dc3c 3c37 303d 9c5b 33be
00000200: 60f7 b2be 510f edbd 882e a53d b914 8fbd
00000210: 1de4 6b3d 4cc4 e63d 321e abbb 2fff 113e
00000220: 5154 88bd 2602 91bb b2ff e43d 686b d93d
00000230: 42a6 48bd 78d8 963d d9e0 1dbf 14ea a83e
00000240: fb88 a33d d1ec b13d 400d 37bd f108 10bd
00000250: 95c3 5fbc 45b1 8cbd 9b2b 1ebd 9584 f93c
00000260: 462a c6bd d763 2b3e 1f91 2dbe c1e3 4ebe
00000270: 89a6 773e 8744 f5bb 88a2 acbd d773 113d
00000280: 7b1e bfbd f1b4 2a3b 0fda 373c 512d 073e
00000290: 05b9 b0be ca15 7cbb 5ba3 0cbe c656 0dbe
000002a0: 9833 bfbb de4f 893e b740 5abd a764 243d
000002b0: 2141 4fbc 5fe9 32be 7e26 e8bd 8eab 913d
000002c0: 952b 0b3e 028f 0dbe c0d1 30be 0615 243d
000002d0: 76bb a1bc 272e 413e 186b d6bb 4365 103e
000002e0: 0683 233e 6f6b bc3c 70ec 19bd 1442 98bd
000002f0: 5991 ec3d 4bf0 243e d3d8 1e3e 9946 cfbd
00000300: 1126 ddbd cd3f 06be 7144 433e ad6c 13bd
00000310: 2379 1abd 2013 193e 07f0 643e 1897 033e
00000320: e6a9 dc3d d5a1 ebbd bc3a 82bd 52ff 2ebe
00000330: 71f9 3d3d 92cf c93d 56fa 953d dbc9 0c3d
00000340: 4c65 c83c 51c1 debd 99c6 933d a713 d63d
00000350: b6e1 dd3c 75a6 253d 223c 37be 4010 1b3d
00000360: 4012 1a3e b97e b13d 9837 9ebc f2f9 3f3d
00000370: 9aca 893b 05d2 79bd 4f21 14bd a04e 02be
00000380: 58f9 8cbd b4c6 ea3d 04e9 bf3d eb51 1dbe
00000390: cc9d ddbd 6185 2abc fd1b 9abd eda1 78bd
000003a0: 2917 1d3d c47e d5bd a9dc 7a3e 4fc6 8e3d
000003b0: dba9 9cbc 0152 f9bd 5a8f 05bd 729d fcbc
000003c0: 856e ed3d 9337 343d 2c39 60bd 51b5 773d
000003d0: 0a10 533d b6ef eb3d 38bd a23d 9422 1f3d
000003e0: 76a0 1c3e 0896 1e3e 6e43 1d3d 48cb c93d
000003f0: fc89 0f3e 1342 f03d 5f62 863d c429 313e

fc3.bias f4 [10]
-0.3144675 -0.09159675 -0.35120517 -0.04834775 0.31637326 0.088611014 0.38379696 -0.077445656
0.10292281 -0.1353975
00000000: e201 a1be 1497 bbbd 2ad1 b3be 4a08 46bd
00000010: adfb a13e b179 b53d 0981 c43e d49b 9ebd
00000020: 32c9 d23d a4a5 0abe
