models/DVERGEadv_submodel_3_25epochs.pth (torch, 252076 bytes, 10 tensors)

conv1.weight f4 [6, 3, 5, 5]
0	0x3c30cadf	0.010790556
1	0x3d0bf0a4	0.03416504
2	0x3d76b99a	0.060235597
3	0x3d81e54f	0.06342565
4	0x3d53aa5e	0.051676147
5	0x3d60e87d	0.054909218
6	0x3e02b4f5	0.12764342
7	0x3e3e1e41	0.18566228
8	0x3e459972	0.19296816
9	0x3e10fcb6	0.14158902
10	0x3dc60d94	0.096705586
11	0x3e5a1ded	0.21300478
12	0x3e9be8f7	0.30451176
13	0x3ea0119b	0.31263432
14	0x3e5e062f	0.21682046
15	0x3d939de4	0.072078496
16	0x3e4154cc	0.18880004
17	0x3e97de2b	0.29661688
18	0x3ea2bcbe	0.31784624
19	0x3e564746	0.20925626
20	0x3d3c48c7	0.045967843
21	0x3de8de06	0.113704726
22	0x3e371812	0.17880276
23	0x3e4c5453	0.19954042
24	0x3e0eb455	0.13935979
25	0xbd307667	-0.043081667
26	0xbd4280b5	-0.047486026
27	0xbd13bec1	-0.03607059
28	0xbd14878c	-0.03626208
29	0xbcd4b60a	-0.02596571
30	0xbd1cfbfc	-0.03832625
31	0xbd27c0c4	-0.04095532
32	0xbd18d554	-0.03731282
33	0xbd2cc1db	-0.042177062
34	0xbce278d1	-0.0276455
35	0xbca7c767	-0.020480825
36	0xbcc83c11	-0.024442704
37	0xbd0e81a8	-0.03479162
38	0xbd3e6076	-0.04647871
39	0xbd04451e	-0.032292478
40	0xbcdb8b36	-0.02679978
41	0xbcea1ae2	-0.028577272
42	0xbd0c995d	-0.034325946
43	0xbd3b892d	-0.045785118
44	0xbd0fa8a1	-0.035072926
45	0xbc9d9097	-0.019233985
46	0xbca1b0ed	-0.019737685
47	0xbc9fc85f	-0.019504724
48	0xbcc607e9	-0.024173694
49	0xbc9502bb	-0.018189779
50	0xbcfcea5b	-0.030873468
51	0xbd0e7c19	-0.034786317
52	0xbcd26286	-0.025681745
53	0xbca865f2	-0.020556424
54	0xbc471adb	-0.012152399
55	0xbcd47f84	-0.02593971
56	0xbcf85948	-0.03031601
57	0xbcf87ca2	-0.030332867
58	0xbd10a51c	-0.03531371
59	0xbcc1846f	-0.02362272
60	0xbc0bf7e2	-0.008542987
61	0xbc2792fc	-0.010227915
62	0xbca83a65	-0.020535657
63	0xbd1a5ece	-0.03768807
64	0xbd009055	-0.031387646
65	0xbc29a98f	-0.010355367
66	0xbc4d8777	-0.012544504
67	0xbc983c16	-0.018583339
68	0xbd1673be	-0.036731474
69	0xbd08395b	-0.033257823
70	0xbb9d0006	-0.0047912626
71	0xbc0d33f3	-0.008618343
72	0xbc4d1042	-0.012516083
73	0xbca8ac2d	-0.020589912
74	0xbc8d97e4	-0.017284341
75	0x3c14edfa	0.009089941
76	0xbde55067	-0.11196976
77	0xbe2e5522	-0.17024663
78	0x3d57ece1	0.05271614
79	0x3e1a7718	0.15084493
80	0x3e4cebd7	0.20011841
81	0xbbb2eae7	-0.0054601314
82	0xbef4dbac	-0.47823846
83	0xbeb839a0	-0.35981464
84	0x3dd0ae86	0.10189538
85	0x3ea86ea0	0.328969
86	0x3ebb3a59	0.36567953
87	0xbdfcaf9e	-0.12338184
88	0xbf2347b8	-0.6378131
89	0xbe8d3141	-0.2757664
90	0x3e20fcdf	0.15721463
91	0x3ef70110	0.48242998
92	0x3ed9a57e	0.42509073
93	0xbdc28d83	-0.094996475
94	0xbe8eb2ce	-0.27870792
95	0xbc5964a9	-0.013268628
96	0x3dfb3895	0.122666515
97	0x3eb24cef	0.3482432
98	0x3e6f47ba	0.23367205
99	0x3d1215e4	0.035665408
100	0xbc9e4948	-0.019322053
101	0xbdf87137	-0.12130969
102	0xbe43f8e2	-0.1913791
103	0xbade2339	-0.0016947753
104	0x3d98d704	0.07462886
105	0x3dede8a1	0.11616636
106	0xbc741f8b	-0.014900099
107	0xbeca7b0a	-0.39546996
108	0xbeaf2597	-0.34208366
109	0x3d1b9d74	0.037991956
110	0x3e4e373a	0.20138255
111	0x3e749a99	0.238871
112	0xbdb2bed0	-0.08727801
113	0xbf0b1a8d	-0.5433739
114	0xbe859bdb	-0.2609547
115	0x3dc72a60	0.09724879
116	0x3e985a26	0.29756278
117	0x3e8d6219	0.27613905
118	0xbdb3a77c	-0.087721795
119	0xbe7cdef9	-0.24694432
120	0xbc758d10	-0.014987245
121	0x3d9cef13	0.07662787
122	0x3e5cb5f3	0.21553783
123	0x3e119f64	0.14220959
124	0x3aa0e210	0.0012274403
125	0xbd0ca8e6	-0.03434076
126	0xbe292e1d	-0.16521497
127	0xbe6badf7	-0.23015581
128	0x3bf310c0	0.0074177682
129	0x3db07634	0.086162955
130	0x3e1dfd35	0.15428622
131	0xbc73302a	-0.014843026
132	0xbee5ee98	-0.44908595
133	0xbeb3fd2e	-0.35154098
134	0x3d8b1fd0	0.06793177
135	0x3e918cc5	0.2842771
136	0x3ea48c75	0.3213841
137	0xbdc85462	-0.0978172
138	0xbf1301c4	-0.5742457
139	0xbe834a83	-0.25642785
140	0x3e11a4ba	0.14222994
141	0x3ee5bb59	0.44869497
142	0x3ec80334	0.39064944
143	0xbd9d0e81	-0.07668782
144	0xbe8511bc	-0.25990093
145	0xbc4719ab	-0.012152116
146	0x3df0f1b1	0.11764849
147	0x3ea6123d	0.3243579
148	0x3e575182	0.21027187
149	0x3cc466bc	0.023974769
150	0xbe51f8f6	-0.20505127
151	0xbe120c84	-0.14262587
152	0x3eb145b9	0.34623507
153	0x3d9c62e3	0.07636049
154	0xbdb590d6	-0.08865516
155	0xbeca7e4f	-0.3954949
156	0xbded222c	-0.115787834
157	0x3f521e87	0.8207783
158	0x3dc5cf74	0.09658709
159	0xbeb440c3	-0.3520566
160	0xbec3a7bf	-0.38213918
161	0x3d6798d6	0.05654224
162	0x3f6f9242	0.93582547
163	0xbd09d235	-0.033647735
164	0xbf06c129	-0.5263849
165	0xbe3539f3	-0.17697887
166	0x3e1d0621	0.15334369
167	0x3f11a345	0.56889755
168	0xbdf94dfd	-0.12173078
169	0xbec8e299	-0.3923538
170	0xbbfd505c	-0.007730527
171	0x3df21a3e	0.118214116
172	0x3e69a534	0.22816926
173	0xbd82a4a1	-0.06379057
174	0xbe2e962c	-0.17049474
175	0xbe362029	-0.17785706
176	0xbdd6d29d	-0.1048939
177	0x3e5bfe97	0.21483837
178	0x3d18880f	0.03723913
179	0xbdcbc9b9	-0.09950585
180	0xbe94cad2	-0.2906099
181	0xbd838db4	-0.06423512
182	0x3f034124	0.5127127
183	0x3d95bef1	0.0731181
184	0xbe901b46	-0.28145808
185	0xbe89bae9	-0.26900414
186	0x3d510234	0.05102749
187	0x3f15b894	0.5848477
188	0xbc9e6cad	-0.01933893
189	0xbed62d9f	-0.4183168
190	0xbe0c07a5	-0.13674791
191	0x3dbb324a	0.09140451
192	0x3ead53da	0.33853036
193	0xbdc35232	-0.09537162
194	0xbea50a1f	-0.32234284
195	0xbd0d21e1	-0.034456138
196	0x3d5d2dc7	0.053998735
197	0x3dfe1ae6	0.12407474
198	0xbd809a50	-0.06279433
199	0xbe211820	-0.15731859
200	0xbe62b97a	-0.22141066
201	0xbe10e566	-0.14150009
202	0x3ea1ebe4	0.31625283
203	0x3d831c40	0.06401873
204	0xbdb96dcb	-0.090541445
205	0xbec187bf	-0.3779888
206	0xbd98eb2e	-0.07466732
207	0x3f49798d	0.78701097
208	0x3ddb1cff	0.1069889
209	0xbe9dda4d	-0.30830613
210	0xbeb08c24	-0.3448192
211	0x3db20508	0.08692366
212	0x3f66d263	0.90164775
213	0xbc72dd50	-0.014823273
214	0xbeeaf22b	-0.45887884
215	0xbe255fce	-0.16149828
216	0x3e0d99cd	0.13828202
217	0x3eff14cc	0.49820554
218	0xbdd32c51	-0.10311187
219	0xbeb1e76a	-0.34746867
220	0xbcf98370	-0.030458182
221	0x3d9ad151	0.07559455
222	0x3e2a8049	0.166505
223	0xbd8fc45a	-0.07019873
224	0xbe31d45a	-0.17366162
225	0xbba360ef	-0.0049859206
226	0xbc3399e5	-0.010961984
227	0xbc10892a	-0.008821765
228	0xbc78791d	-0.015165594
229	0xbbf099eb	-0.007342567
230	0xbc782f5a	-0.015148008
231	0xbcbf38b3	-0.023342466
232	0xbcf08c8f	-0.029363899
233	0xbd1586be	-0.036505453
234	0xbcad0d6e	-0.021124568
235	0xbc8bcc1d	-0.017065102
236	0xbcdeee2c	-0.027213179
237	0xbd1d9794	-0.038474634
238	0xbd30647f	-0.04306459
239	0xbcbf8c31	-0.023382278
240	0xbc89aeb0	-0.01680693
241	0xbccc9270	-0.02497217
242	0xbced7567	-0.028986646
243	0xbcec7b21	-0.028867306
244	0xbcae12eb	-0.021249255
245	0xbc30cd1e	-0.010791091
246	0xbc72831b	-0.014801766
247	0xbc31d7fe	-0.010854719
248	0xbc814f4e	-0.015784886
249	0xbc99f417	-0.018793149
250	0xbcfa3b75	-0.03054593
251	0xbd2ec51d	-0.04266845
252	0xbd2b239f	-0.041782018
253	0xbd3f7d8c	-0.04675059
254	0xbd056661	-0.03256834
255	0xbd4464b2	-0.047947593

conv1.bias f4 [6]
0	0xbef6bf2f	-0.48192737
1	0xbe0b3a84	-0.1359654
2	0xbe9cde2a	-0.30638248
3	0xbf58c407	-0.84674114
4	0xbe8e811d	-0.2783288
5	0xbee800a7	-0.45312998

conv2.weight f4 [16, 6, 5, 5]
0	0x3d40da96	0.04708346
1	0x3cc1fa47	0.023678912
2	0x3d3281e3	0.0435809
3	0x3d875e46	0.06609778
4	0x3d13ce9e	0.036085717
5	0x3d5f3566	0.054494284
6	0x3d1c5564	0.038167372
7	0x3e123d92	0.142813
8	0x3e4c731b	0.19965784
9	0x3d16f016	0.036850058
10	0x3e574e7b	0.21026032
11	0x3e92c6bf	0.28667256
12	0x3ec951f5	0.3932034
13	0x3e4743f2	0.19459513
14	0xbdad1d3b	-0.08452841
15	0x3e809c32	0.25119168
16	0x3e30b91b	0.17258112
17	0xbdb85c2b	-0.09001955
18	0xbecb6db3	-0.3973213
19	0xbe8b0361	-0.27151015
20	0xbd80c99f	-0.06288456
21	0xbed3f9dc	-0.41401565
22	0xbf0effb6	-0.55858934
23	0xbecfacce	-0.40561527
24	0xbe05a6da	-0.1305193
25	0xbcb323c6	-0.021867644
26	0xbd378a8a	-0.044809856
27	0xbd0c9840	-0.034324884
28	0xbd3fb47b	-0.04680298
29	0xbd0903ae	-0.033450775
30	0xb920f124	-0.00015348621
31	0xbc3eae4d	-0.011638236
32	0xbd48cdea	-0.0490245
33	0xbd4524df	-0.048130866
34	0x3c2fbf67	0.010726786
35	0xb9cc1c41	-0.00038930963
36	0xbd84a22d	-0.06476245
37	0xbd37a9cd	-0.04483967
38	0xbd508805	-0.05091097
39	0xbbc84752	-0.0061120177
40	0xbc2cbd8e	-0.01054324
41	0xbd03dcc7	-0.03219297
42	0xbd4cb752	-0.049979515
43	0xbd9aaa34	-0.07551995
44	0xbd18abe0	-0.037273288
45	0xbc30a50a	-0.010781536
46	0xbdc739b2	-0.097278014
47	0xbd5f1f9c	-0.054473504
48	0xbd1449c1	-0.03620315
49	0x3bec1595	0.007204721
50	0xbc106a61	-0.008814425
51	0xbaaec7a9	-0.001333465
52	0x3d108ea0	0.035292268
53	0x3d0dd418	0.034626096
54	0x3d0c97c4	0.034324422
55	0x3bae6b79	0.0053228703
56	0xbca416fe	-0.020030495
57	0x3c4e6314	0.012596864
58	0x3d561b60	0.0522722
59	0x3d2d6eb8	0.042341918
60	0xbc319a2f	-0.010839983
61	0xbd49d62d	-0.04927652
62	0x3ce54f8e	0.027992036
63	0x3d7cbeb5	0.06170531
64	0x3cfd65d1	0.030932339
65	0x3b5e0f35	0.0033883576
66	0x3cdfa784	0.027301557
67	0x3d0a1a92	0.033716746
68	0xbd0f6c31	-0.03501529
69	0xbb048bab	-0.002022485
70	0x3c27f9c2	0.010252418
71	0xbc7e9ac1	-0.015539826
72	0xbd62c006	-0.05535891
73	0xbd3a7827	-0.045524742
74	0x3a95781e	0.0011403596
75	0x3d08744c	0.033314034
76	0x3b90e385	0.0044216537
77	0x3c074316	0.008255741
78	0xbc79bbe2	-0.015242549
79	0x3d93ddf4	0.072200686
80	0xbd8507dd	-0.064956404
81	0xbddaad6c	-0.10677609
82	0xbd88796b	-0.06663784
83	0xbd46cf6b	-0.048537653
84	0xbd906c88	-0.07051951
85	0x3d9aa1e5	0.0755041
86	0x3db0334d	0.08603535
87	0x3e0cedae	0.13762543
88	0x3e13c0a0	0.1442895
89	0x3ce47518	0.027887866
90	0x3e208289	0.15674795
91	0x3e2d42ba	0.16919985
92	0x3e0bcdd2	0.13652733
93	0xbc8ac8c7	-0.016941441
94	0xbdf3cbfb	-0.119041406
95	0xbc9bd438	-0.019022092
96	0xbe128ade	-0.14310786
97	0xbe49f27e	-0.1972141
98	0xbe5e497a	-0.21707717
99	0xbcc1bba8	-0.023649052
100	0x3c8bbde1	0.017058315
101	0x3c9dcf24	0.019263811
102	0x3c7eab2f	0.015543743
103	0x3b0e0c50	0.002167482
104	0xbbfc5fb6	-0.0077018393
105	0x3ce7dc34	0.028303243
106	0x3d371fe6	0.044708155
107	0x3cb19649	0.021678107
108	0x3c9247d6	0.01785652
109	0x3ce229f7	0.027607901
110	0x3de3574b	0.11100634
111	0x3debb565	0.11509208
112	0x3e0cd779	0.13754071
113	0x3e118c21	0.14213611
114	0x3e0149ce	0.1262581
115	0x3e22696f	0.15860532
116	0x3e42b7b4	0.1901539
117	0x3e541800	0.2071228
118	0x3e25c282	0.1618748
119	0x3d6b8461	0.057499293
120	0x3e05ba03	0.13059239
121	0x3dc25775	0.09489337
122	0x3da927c2	0.08259536
123	0x3cb80285	0.022462139
124	0x3b87e813	0.0041475384
125	0x3d32b12a	0.043625988
126	0xbc125262	-0.008930774
127	0x3c20eb2c	0.009821694
128	0x3b82348d	0.0039735497
129	0x3d5e11a6	0.05421605
130	0xbdab07e6	-0.08351116
131	0xbdb0d017	-0.0863344
132	0x3c71c7ba	0.014757091
133	0xbb3857bd	-0.0028128468
134	0xbcd71d26	-0.026259016
135	0x3e982e05	0.2972261
136	0x3ea7582b	0.32684454
137	0x3ede1aa3	0.43379697
138	0x3e9fe7d3	0.31231555
139	0x3c828b34	0.015935518
140	0x3ec7bb27	0.39009973
141	0x3eadb1b2	0.33924633
142	0x3e994191	0.29932836
143	0xbd4076ee	-0.04698842
144	0xbec5ecd7	-0.38657257
145	0xbbc00867	-0.0058603766
146	0xbea2fbd7	-0.31832764
147	0xbf20b6bf	-0.6277885
148	0xbf34cc26	-0.70624006
149	0xbe7262c8	-0.23670495
150	0xbde1fe57	-0.110348396
151	0xbdb3bbae	-0.087760314
152	0xbc9b762e	-0.01897725
153	0xbd343fba	-0.044006087
154	0xbccd4ccd	-0.025061036
155	0x3c50129a	0.012699747
156	0xbd84a15c	-0.06476089
157	0xbda364b7	-0.07978194
158	0xbcfcf484	-0.030878313
159	0x3c9ae8dd	0.018909866
160	0x3c953e60	0.01821822
161	0xbc4d6f29	-0.01253871
162	0xbd63866c	-0.055548117
163	0xbc38b389	-0.011273273
164	0x3cdfce41	0.02732003
165	0xbd82668a	-0.06367214
166	0xbd35aeae	-0.04435604
167	0xbdbdac55	-0.09261385
168	0xbd443bb8	-0.047908515
169	0xbd868fab	-0.06570371
170	0x3d1a7d88	0.037717372
171	0x3d03f34c	0.032214448
172	0x3d35e6b7	0.04440948
173	0xbd6b48b7	-0.057442393
174	0x3bba3af0	0.0056832954
175	0xb992abe1	-0.0002797535
176	0x3c9603b9	0.018312322
177	0x3bcd9a4a	0.006274496
178	0x3b2daf83	0.0026502318
179	0xbc68ff20	-0.014220983
180	0xbc02d9b4	-0.007986475
181	0x3ca557c1	0.020183446
182	0x3b2851a6	0.0025683432
183	0x3c6cd06b	0.014453988
184	0xbd33d588	-0.04390481
185	0xbd73ff8b	-0.059569877
186	0xbc959175	-0.018257836
187	0x3ba65934	0.005076552
188	0xbd347be4	-0.044063464
189	0xbd07b641	-0.033132795
190	0xbd62c546	-0.055363916
191	0xbd249123	-0.040177476
192	0x3c89ae38	0.016806707
193	0xbd201409	-0.039081607
194	0xbd4568f6	-0.0481958
195	0xbd463f6c	-0.048400328
196	0xbd03b649	-0.032156263
197	0xbd39f776	-0.045402013
198	0xbc2a1905	-0.010381942
199	0xbc52a38f	-0.012856378
200	0xbcd8042f	-0.026369182
201	0xbc636e62	-0.013881298
202	0xbcd2b1db	-0.025719574
203	0xbcba204f	-0.022720484
204	0xbc9372b8	-0.017999038
205	0xbd1137f0	-0.035453737
206	0xbbdf464c	-0.0068138
207	0xbc0a269a	-0.008432055
208	0xbcfeddf3	-0.031111693
209	0xbcfbf930	-0.03075847
210	0xbd590914	-0.052987173
211	0xbc87c392	-0.016572747
212	0xbd38d1cc	-0.045121953
213	0x3bc937fe	0.006140708
214	0xbcd9e1e7	-0.026596976
215	0xbd074ab4	-0.033030227
216	0xbd3f8c0f	-0.04676443
217	0xbcb17d8f	-0.021666316
218	0xbb3deca7	-0.0028980167
219	0xbc8f9b15	-0.017530004
220	0x3b00bbc2	0.0019643162
221	0xbc1d0d99	-0.009585761
222	0x3c69e8bd	0.014276681
223	0xbb6b182d	-0.0035872564
224	0x3c12e73f	0.008966266
225	0xbdeb2366	-0.11481361
226	0xbd9aad4b	-0.07552584
227	0xbe073695	-0.13204415
228	0xbc0ac39c	-0.0084694885
229	0xbdab771e	-0.08372329
230	0xbd146a26	-0.036234044
231	0xbdbc03d8	-0.09180421
232	0xbe13ed25	-0.14445932
233	0xbc5b8146	-0.01339752
234	0xbd0e7264	-0.03477706
235	0xbe148515	-0.14503892
236	0xbde5c793	-0.112197064
237	0xbe63d79a	-0.22250214
238	0xbdef3210	-0.116794705
239	0xbe1fc9b7	-0.15604292
240	0xbdf889bc	-0.12135646
241	0xbe0a0cfb	-0.13481514
242	0xbe34dc0d	-0.17662068
243	0xbded1854	-0.11576906
244	0xbe2a3a45	-0.1662379
245	0xbe44500c	-0.1917116
246	0xbe0d6b5f	-0.1381049
247	0xbe39be7b	-0.18139069
248	0xbe2a61ab	-0.1663882
249	0xbe852a36	-0.26008767
250	0x3ca86cf7	0.020559771
251	0xbc638f1f	-0.013889103
252	0xbc98a66f	-0.01863405
253	0x3ae944f4	0.0017797039
254	0x3b8921d5	0.0041849413
255	0x3b380b06	0.0028082742

conv2.bias f4 [16]
0	0xbd8f6744	-0.07002118
1	0x3e86797f	0.2626457
2	0x3e2f5d0c	0.17125338
3	0xbe945e5a	-0.28978235
4	0xbf86221a	-1.0479157
5	0x3f2cae70	0.6745367
6	0xbeacef7c	-0.33776462
7	0x3ec208d4	0.3789736
8	0xbf8926b2	-1.0714934
9	0xbe60e4e7	-0.2196232
10	0x3fb47dfa	1.4100945
11	0x3d6988f4	0.057015374
12	0x3f5abdaa	0.85445654
13	0xbe95f61b	-0.29289326
14	0x3e9bdc0b	0.30441317
15	0xbe85a0cb	-0.26099238

fc1.weight f4 [120, 400]
0	0x3d2cfa62	0.04223097
1	0x3b706d06	0.0036686077
2	0x3990165d	0.00027482482
3	0x3d6066e8	0.05478564
4	0x3bb78733	0.005600834
5	0xbc9cf2f3	-0.019158816
6	0xbaad3f64	-0.0013217744
7	0xbd32bb49	-0.04363564
8	0xbd34f341	-0.044177298
9	0x3cbca7ef	0.023029296
10	0xbe09995a	-0.13437405
11	0xbd5bd8f0	-0.053673685
12	0xbcdd3e0e	-0.027007129
13	0xbd521feb	-0.05129997
14	0xbe076bdd	-0.1322474
15	0xbb8a5854	-0.0042219553
16	0x3e03464b	0.12819783
17	0x3be8db12	0.0071061933
18	0x3d5f7a79	0.05456016
19	0xbc3cb7b2	-0.011518406
20	0xbcd1c194	-0.025605
21	0xbd350c70	-0.044201314
22	0xbde56f3f	-0.11202859
23	0xbdb4be71	-0.08825386
24	0xbd976fbc	-0.073943585
25	0xbdd290a9	-0.10281498
26	0xbc962de0	-0.018332422
27	0x3ccb2fe5	0.024803111
28	0xbda458c3	-0.080247425
29	0xbdb2d8dc	-0.08732769
30	0xbd85fafd	-0.06542013
31	0xbd71c125	-0.059022088
32	0x3d2eadc8	0.0426462
33	0x3baa76a4	0.0052021313
34	0xbd72dfa8	-0.059295326
35	0xbc019e4e	-0.007911278
36	0x3bb632c7	0.0055602523
37	0xbc7b6242	-0.015343251
38	0x3a997a39	0.0011709399
39	0x3dda5b99	0.10662002
40	0xbd38f770	-0.04515785
41	0x3d9f6ffa	0.0778503
42	0xbcdcc2bb	-0.026948323
43	0xbd0e4197	-0.03473052
44	0x3d190215	0.0373555
45	0x3d681587	0.056661155
46	0x3ca1c570	0.019747466
47	0xba264da5	-0.00063439674
48	0x3c86c338	0.01645051
49	0x3cdf8e69	0.027289586
50	0xbd0f8004	-0.035034195
51	0xbd0274b5	-0.03184958
52	0xbd8c7082	-0.06857397
53	0xbcbd6f18	-0.023124263
54	0xbcdb470e	-0.02676728
55	0xbc8256d5	-0.015910545
56	0xbcd25ffa	-0.02568053
57	0x3c5a5591	0.013326065
58	0x3c8b16ca	0.01697864
59	0xbc909b38	-0.017652139
60	0xbb80b684	-0.0039280076
61	0xbcaad769	-0.020854669
62	0x3cbce85a	0.023060013
63	0x3db0b91a	0.08629055
64	0x3b0bccaa	0.0021331706
65	0xbcd49fc6	-0.025955092
66	0xbd133093	-0.035934996
67	0xbc81d9dd	-0.015850956
68	0xbc0a76f4	-0.008451212
69	0xbca5ac99	-0.020223903
70	0x3d7607c7	0.06006601
71	0xbbb20839	-0.005433109
72	0xbce94cf6	-0.02847908
73	0x3cee942f	0.029123394
74	0x3d0c5cfd	0.034268368
75	0x3bbea0c8	0.0058175065
76	0x3c612f8a	0.013744244
77	0x3cb627c4	0.022235759
78	0x3cce8ffe	0.025215145
79	0x3bacc0fa	0.005272028
80	0x3d05d03a	0.032669283
81	0x3da9c853	0.08290162
82	0x3d36f222	0.04466451
83	0xbd4c12cc	-0.049822614
84	0xbc92bb1d	-0.017911488
85	0x3c32165e	0.010869591
86	0x3d1682ba	0.036745764
87	0x3c0f3db2	0.008742737
88	0xbc97d918	-0.018536136
89	0xbc4b3052	-0.012401657
90	0x3d091749	0.033469472
91	0x3ccaa910	0.024738818
92	0x3c996e90	0.018729478
93	0xbd34c4d7	-0.044133034
94	0x3d058adf	0.03260314
95	0xbb4292c2	-0.0029689525
96	0x3c0db0c2	0.008648099
97	0x3c8d4a30	0.01724729
98	0xbc498f2c	-0.012302201
99	0x3c8e48a8	0.01736863
100	0x3d95309d	0.07284663
101	0x3d705140	0.058671236
102	0xbd591262	-0.052996047
103	0xbb5d9c86	-0.003381522
104	0xb5f5bda3	-1.8309114e-06
105	0xbdead25b	-0.11465903
106	0x3c0f1bfd	0.0087347
107	0x3d84b328	0.06479484
108	0xbc80fc61	-0.015745344
109	0xbd9f886e	-0.07789694
110	0x3cb4a1ee	0.02204987
111	0x3d19f9ef	0.03759187
112	0x3d4208cb	0.047371667
113	0xbd50b3ba	-0.05095265
114	0xbd8d621d	-0.06903479
115	0x3c169683	0.009191158
116	0x3c760d7a	0.0150178615
117	0x3d89a6b3	0.067212485
118	0x3d86bcad	0.06578956
119	0x3c98afa2	0.018638436
120	0x3c03af9f	0.008037477
121	0x3d36de21	0.044645432
122	0x3d967c72	0.07347955
123	0xbd89b5b6	-0.06724112
124	0xbc1ef426	-0.009701764
125	0x3c2abb9b	0.010420705
126	0x3d1b1a3b	0.037866812
127	0xbd558523	-0.052128922
128	0xbd57ad75	-0.052655656
129	0xbd9951a4	-0.07486275
130	0x3e1f490a	0.15555206
131	0x3de6f888	0.11277872
132	0x3da6e53b	0.08149191
133	0x3b9f039a	0.0048527243
134	0x3bf9cf3d	0.0076235817
135	0x39def8c1	0.00042528476
136	0x3d99b138	0.07504505
137	0x3d4de92d	0.050271202
138	0x3d7353ec	0.059406206
139	0xbd66000b	-0.056152385
140	0xbd50a0c6	-0.050934575
141	0x3da53dd5	0.08068434
142	0x3c35dab4	0.011099506
143	0xbdc8f407	-0.098121695
144	0xbd90ea05	-0.07075886
145	0x3ca8c6f2	0.020602677
146	0x3d4d6f72	0.05015511
147	0xbc870e7f	-0.016486404
148	0xbd339180	-0.04383993
149	0xbd384512	-0.044987746
150	0xbdd7171b	-0.10502454
151	0xbd722875	-0.059120614
152	0x3dc144c0	0.09436941
153	0xbdc16cc5	-0.09444574
154	0x3ca235bd	0.019801015
155	0x3c86644b	0.016405245
156	0xbd05b346	-0.03264167
157	0x3de94ad9	0.11391229
158	0xbd24cb1a	-0.040232755
159	0x3d59d860	0.053184867
160	0x3d955777	0.07292073
161	0x3be59d3b	0.0070072687
162	0x3c8d301c	0.017234854
163	0xbc75bfdf	-0.014999359
164	0xbce1ca90	-0.02756241
165	0x3e021e14	0.12706786
166	0x3cd5180a	0.02601244
167	0x3c78f3d3	0.015194851
168	0x3d95a530	0.07306898
169	0x3d68a9e1	0.056802634
170	0x3de3156d	0.11088071
171	0x3e27731a	0.16352502
172	0x3ce6da6a	0.02818032
173	0x3e1a36b1	0.15059926
174	0x3cfb6e11	0.030692132
175	0xbd1c0160	-0.03808725
176	0xbe02520c	-0.12726611
177	0xbdc802e4	-0.09766176
178	0xbe0a2e47	-0.13494216
179	0xbb1e6d4a	-0.0024174028
180	0x3bb1355f	0.0054079737
181	0xbc527504	-0.0128452815
182	0xbcf11e83	-0.029433494
183	0xbdc1a313	-0.09454932
184	0x3d9089ea	0.07057555
185	0x3d0437f3	0.03227992
186	0xbd114216	-0.035463415
187	0xbda7c65b	-0.0819213
188	0x3c040876	0.008058658
189	0xbd109e7b	-0.03530739
190	0x3e21310b	0.15741365
191	0x3bb6f6dd	0.0055836276
192	0x3daacd03	0.08339884
193	0x3d8b618a	0.068057135
194	0xbdc09ec7	-0.094052844
195	0x3d06cfd3	0.03291304
196	0xbd2af631	-0.041738693
197	0xbb6b834c	-0.0035936413
198	0x3e159f3d	0.14611526
199	0x3c8ed4b1	0.017435404
200	0xbcecaf1c	-0.028892092
201	0xbded55a7	-0.115886025
202	0xbd876a5b	-0.066120826
203	0x3d16bdc2	0.03680206
204	0xbd4d57ee	-0.050132684
205	0x3c108c8d	0.008822572
206	0x3d012cfb	0.031537037
207	0x3dd965ac	0.106150955
208	0x3d2ddf55	0.042449314
209	0xbbc9bc56	-0.0061564846
210	0x3dad661b	0.08466741
211	0x3e1f45bb	0.15553944
212	0x3e0d9bf9	0.1382903
213	0x3d64cb51	0.05585796
214	0x3d2d21df	0.04226863
215	0xbd6b502d	-0.05744951
216	0xbd9d4bd8	-0.07680482
217	0xbd2c235b	-0.042025905
218	0xbc70cdbc	-0.014697488
219	0xbce453a9	-0.027871924
220	0xbe08765b	-0.13326399
221	0xbde7a925	-0.11311559
222	0xbe651b2a	-0.22373644
223	0xbddce1a1	-0.10785223
224	0xbe045337	-0.12922369
225	0xbdeb8229	-0.114994355
226	0xbe00cde3	-0.1257854
227	0xbd9a8091	-0.07544053
228	0xbdb603e7	-0.08887463
229	0xbc88341c	-0.01662641
230	0x3d2a5443	0.041584264
231	0x3d77dbad	0.060512234
232	0xbd5ad846	-0.05342891
233	0xbd1f5f7d	-0.038909424
234	0x3d28d51b	0.04121886
235	0x3c010dff	0.007876872
236	0x3b563666	0.0032686233
237	0x3d2db906	0.04241278
238	0x3ced3e0d	0.028960252
239	0x3d84fb5b	0.06493255
240	0x3c8f8cad	0.017523134
241	0x3bf89632	0.007586264
242	0xbd333641	-0.043752912
243	0x3cb34f02	0.02188826
244	0x3dc1461d	0.09437201
245	0x3bbe2a20	0.0058033615
246	0x3dcddc0d	0.10051737
247	0x3db4b021	0.088226564
248	0x3e33fe94	0.17577583
249	0x3dd968e8	0.106157124
250	0xbd878d6f	-0.06618773
251	0xbd7a9f8d	-0.061187316
252	0xbd95f9fc	-0.07323071
253	0x39f4c95a	0.00046689325
254	0xbc03de4b	-0.008048604
255	0xbd821620	-0.06351876

fc1.bias f4 [120]
0	0x3d505fcc	0.05087261
1	0xbd9a958e	-0.075480565
2	0x3d172f6d	0.036910463
3	0xbcc615bd	-0.024180287
4	0xbdd61667	-0.10453492
5	0xbe2ef95c	-0.1708731
6	0x3ee62be6	0.44955367
7	0x3ba17ffb	0.0049285865
8	0xbe4519d9	-0.19248141
9	0x3d7b0d6b	0.061292093
10	0xbe1caaeb	-0.15299575
11	0xbe215c5c	-0.15757889
12	0x3d6c9b67	0.05776539
13	0xbd16407f	-0.036682602
14	0x3d90ca6f	0.07069861
15	0xbde0d3d0	-0.109779
16	0x3d7e9923	0.06215776
17	0xbce3a535	-0.027788738
18	0xba257d23	-0.00063128973
19	0x3efdb795	0.49554124
20	0x3e447046	0.19183454
21	0x3dc95009	0.098297186
22	0x3c58f8b9	0.013242894
23	0xbd848356	-0.06470363
24	0xbbb4af4e	-0.005514062
25	0x3cbbadad	0.022909964
26	0x3d8020f4	0.06256285
27	0xbdad337c	-0.084570855
28	0xbd3cba05	-0.04607584
29	0x3b639600	0.0034726858
30	0x3e57c726	0.21072063
31	0xbdd02726	-0.10163717
32	0x3dbb8b6e	0.091574535
33	0x3db398eb	0.08769401
34	0xbcea5dad	-0.028609121
35	0xbd5b99d5	-0.053613503
36	0xbe07301d	-0.13201948
37	0xbd27d521	-0.04097474
38	0x3e948b7a	0.29012662
39	0xbd6daf6e	-0.05802863
40	0x3e79559f	0.24349068
41	0x3e29c2a4	0.16578156
42	0xbda62992	-0.08113398
43	0xbcc7f51e	-0.024408873
44	0xbe0df40e	-0.1386263
45	0x3e802f2a	0.25035983
46	0x3efe07c7	0.4961531
47	0x3d0fd243	0.03511263
48	0xbcdb50e1	-0.026771965
49	0x3d5d5fc0	0.054046392
50	0xbd077f9c	-0.033080682
51	0xbce14ad9	-0.02750151
52	0x3d06d04a	0.032913484
53	0x3cd6a238	0.026200399
54	0x3d825cec	0.0636538
55	0x3cc47e21	0.023985924
56	0x3e571af7	0.2100638
57	0x3da110ea	0.07864554
58	0x3be32de6	0.0069329618
59	0x3d3b35f6	0.045705758
60	0xbeaea5d1	-0.34110883
61	0x3e683953	0.22678117
62	0xbd012459	-0.031528804
63	0x3b00aa16	0.001963263
64	0xbdd3f25a	-0.10348959
65	0x3d853c05	0.065055884
66	0x3c7a9d9b	0.015296365
67	0x3e697a1f	0.22800492
68	0x3d7da131	0.061921302
69	0x3d219b93	0.039455008
70	0x3d9b4f71	0.075835116
71	0x3bf9da0c	0.00762487
72	0xbc953b4a	-0.018216748
73	0x3d39a635	0.045324523
74	0x3df657e0	0.120284796
75	0xbe89a2e0	-0.26882076
76	0x3f2148a5	0.6300147
77	0x3d599078	0.05311629
78	0xbe97ee45	-0.29673973
79	0xbd61cdf7	-0.055128064
80	0xbe7b622d	-0.2454917
81	0x3d9efb0d	0.07762728
82	0x3c72e4ae	0.014825029
83	0x3d4db4e7	0.05022135
84	0xbe16f686	-0.14742479
85	0x3de8ac88	0.11361033
86	0x3e608f4e	0.21929666
87	0xbd2119db	-0.0393313
88	0x3e1d5f02	0.15368274
89	0xbde44188	-0.111453116
90	0x3eacc757	0.33745834
91	0x3dfba648	0.12287575
92	0xbd6ac3e9	-0.05731574
93	0x3c9555bf	0.018229363
94	0x3eefc850	0.46832514
95	0xbe74cf50	-0.23907208
96	0x3e4b2d64	0.19841534
97	0xbc24d61c	-0.010060813
98	0xbdb6275a	-0.088942245
99	0xbca1da9e	-0.019757565
100	0xbe27e05c	-0.1639418
101	0x3dfe29d9	0.124103256
102	0x3d3ec3a7	0.046573307
103	0xbe9cd9dc	-0.30634964
104	0x3da3a595	0.07990567
105	0xbde6e1a7	-0.112735085
106	0xbde339f9	-0.11095042
107	0x3e22acfa	0.15886298
108	0xbda0a6a7	-0.078442864
109	0xbce49ba9	-0.027906256
110	0xbda483b1	-0.08032931
111	0xbe906f5f	-0.2820997
112	0x3e2e8632	0.17043379
113	0xbd1f97cc	-0.038963124
114	0x3e7de0bd	0.24792762
115	0xbeb33a89	-0.35005596
116	0xbd34faae	-0.04418438
117	0x3d02e0a9	0.031952534
118	0xbd80707e	-0.06271456
119	0xbd8aa81a	-0.06770344

fc2.weight f4 [84, 120]
0	0xbd6eae4c	-0.05827169
1	0xbd20603d	-0.03915428
2	0x3de326f3	0.11091413
3	0xbd80b5d2	-0.062846795
4	0x3dfbde69	0.12298281
5	0x3c9fbbfa	0.019498814
6	0xbcaa7cdc	-0.02081149
7	0x3db7b023	0.08969142
8	0xbcba9d56	-0.022780102
9	0x3d944be4	0.072410375
10	0xbd4322f4	-0.047640756
11	0xbdd7ba4b	-0.105335794
12	0xbd4d64cd	-0.05014496
13	0xbdd81bdc	-0.10552189
14	0x3d55e1a2	0.052217133
15	0xbdc7c642	-0.097546116
16	0x3d32d25c	0.043657646
17	0xbdf897f7	-0.1213836
18	0xbd1da35a	-0.038485862
19	0x3c3fffc6	0.011718696
20	0x3be29f67	0.006915975
21	0x3de4c585	0.11170486
22	0xbc926696	-0.017871182
23	0xbd950e28	-0.07278091
24	0x3dd604fe	0.10450171
25	0xbd99890b	-0.07496842
26	0xbd95cc8b	-0.07314404
27	0xbdcf339f	-0.10117268
28	0xbe0b6c73	-0.13615589
29	0xbd9ee8bb	-0.077592336
30	0xbda602cb	-0.081060015
31	0xbdfbf50b	-0.123025976
32	0x3ebf943a	0.37417775
33	0x3e773454	0.24141055
34	0xbd8ea00b	-0.069641195
35	0x3e0b4fff	0.13604735
36	0x3c7439b8	0.014906339
37	0xbd32762e	-0.043569736
38	0x3c0fd408	0.0087785795
39	0x3df5f5d1	0.120097764
40	0xbdba61c4	-0.091006786
41	0x3d71397c	0.058892712
42	0x3c98cd30	0.018652529
43	0x3d5f2b75	0.054484803
44	0x3def5fb3	0.11688175
45	0x3d1edcbf	0.03878474
46	0x3cd2897b	0.025700321
47	0xbba2bffd	-0.0049667344
48	0xbd3cd6de	-0.04610335
49	0x3c6ad61f	0.014333277
50	0xbcece112	-0.028915916
51	0xbb174be9	-0.0023086017
52	0x3e793442	0.24336341
53	0x3d26a696	0.040686212
54	0x3d3fc6ea	0.04682056
55	0xbb83ba2e	-0.004019997
56	0xbd465593	-0.048421454
57	0xbda4be86	-0.08044152
58	0xbd123d34	-0.0357029
59	0xbd352974	-0.044228986
60	0xbd6a3f66	-0.057189368
61	0xbd820820	-0.06349206
62	0xbd00a7f2	-0.031410165
63	0x3da9f3f3	0.08298483
64	0xbdbe56d6	-0.092939064
65	0x3e0c5d69	0.13707508
66	0xbd4bb143	-0.049729597
67	0x3d30e44b	0.043186467
68	0x3ddbbcc3	0.10729363
69	0x3c77d6fa	0.015126938
70	0x3c933210	0.017968208
71	0xba17ff3f	-0.00057982275
72	0x3d2fdd48	0.04293564
73	0xbdc9f60e	-0.09861384
74	0x3e91fe7a	0.28514463
75	0x3d8754cf	0.06607973
76	0x3ca67054	0.020317234
77	0xbd8583f2	-0.06519307
78	0xbbb57b7e	-0.005538403
79	0xbe25b6a7	-0.16182958
80	0x3d6617f1	0.056175176
81	0x3c650775	0.013978829
82	0xbd4ac438	-0.049503535
83	0xbe28f512	-0.16499737
84	0x3d437ab4	0.04772444
85	0x3d56a309	0.052401576
86	0xbca6265d	-0.020281965
87	0x3e02d860	0.12777853
88	0xbd99e587	-0.07514482
89	0x3ce40204	0.027832992
90	0x3d5b79dd	0.053583015
91	0x3de6a2f2	0.11261548
92	0xbd0d6687	-0.034521606
93	0xbdab0d0a	-0.083520964
94	0xbe041c7e	-0.12901494
95	0xbbfd3b1b	-0.007727993
96	0xbd820093	-0.06347766
97	0x3d9da2df	0.07697081
98	0x3d6f8408	0.058475524
99	0xbda457c1	-0.0802455
100	0xbd7f253f	-0.06229138
101	0x3d886b4a	0.06661089
102	0xbdd6bdd3	-0.10485425
103	0xbe106f9a	-0.14105073
104	0x3c88986d	0.016674245
105	0xbe05f13c	-0.13080305
106	0xbde294a7	-0.110635094
107	0xbd239fd5	-0.03994735
108	0xbe07654f	-0.1322224
109	0xbe15095f	-0.14554356
110	0xbb139c96	-0.0022523752
111	0xbe0d27b3	-0.13784675
112	0x3de2dfba	0.11077829
113	0xbd8cd80e	-0.06877147
114	0xbe1241b9	-0.14282884
115	0xbd522386	-0.05130341
116	0xbd90b659	-0.0706603
117	0xbe2a50cb	-0.16632383
118	0x3d98a01e	0.07452415
119	0xbd3bd1b6	-0.045854293
120	0x3d45c143	0.04828001
121	0xbcd2c39a	-0.025728036
122	0x3d0ebae1	0.03484619
123	0xbe3e20c0	-0.1856718
124	0xbdda4546	-0.10657744
125	0x3e29b3e0	0.16572523
126	0x3d9908c8	0.07472378
127	0xbcfe698d	-0.03105619
128	0x3ca83a5b	0.020535639
129	0x3e08f57f	0.133749
130	0xbc8fa04f	-0.017532496
131	0xbdc4286b	-0.095780216
132	0xbda3291a	-0.07966824
133	0xbdeac290	-0.11462891
134	0xbe649002	-0.2232056
135	0xbcd9ecc2	-0.026602153
136	0x3bcdc396	0.006279419
137	0xbe25bb92	-0.16184834
138	0xbdeae796	-0.11469953
139	0xbacb0914	-0.0015490376
140	0xbdb917c4	-0.09037736
141	0xbdea08e2	-0.114274755
142	0x3d522ed8	0.051314205
143	0x3d588c2f	0.052868064
144	0x3d8e22b7	0.06940215
145	0x3cf111dc	0.029427461
146	0x3c898566	0.016787242
147	0xbe0b0169	-0.13574757
148	0x3dbfb0f4	0.09359923
149	0xbd4b552a	-0.049641766
150	0x3b4bfb6d	0.0031125203
151	0x3cf1776b	0.029475888
152	0x3da619ab	0.081103645
153	0xbcd7c63d	-0.026339645
154	0xbd3eed50	-0.046613038
155	0x3d3a180c	0.04543309
156	0x3d02cbfa	0.03193281
157	0x3c6c5802	0.01442528
158	0xbd185eb7	-0.037199702
159	0x3ccb1eb6	0.024794918
160	0xbd414abb	-0.04719041
161	0xbd2d2aa2	-0.042276986
162	0x3d56dfee	0.05245965
163	0x3d1affeb	0.03784172
164	0xbc92fa02	-0.017941479
165	0x3e0181d9	0.12647189
166	0x3d2cd867	0.042198565
167	0x3d54351f	0.051808473
168	0xbd4404c2	-0.0478561
169	0x3cc32c3e	0.023824807
170	0x3bf035e8	0.007330645
171	0xbcfec051	-0.031097563
172	0xbb43fc27	-0.0029904933
173	0xbd2f4188	-0.042787105
174	0x3d3995f6	0.04530903
175	0x3dc0f7ac	0.0942224
176	0x3d88c633	0.066784285
177	0xbd18a74e	-0.03726893
178	0x3df3ff7b	0.119139634
179	0x3d41380f	0.047172602
180	0xbd1b9bdc	-0.037990436
181	0x3d6ab1f4	0.057298616
182	0x3dcda7a1	0.10041738
183	0xbde0ab6b	-0.109701954
184	0xbd5cbdcd	-0.053891946
185	0x3c2fed09	0.010737666
186	0x3db0b052	0.086273804
187	0xbe11f9b7	-0.14255415
188	0x3e806eda	0.25084573
189	0xbbf58e74	-0.0074937884
190	0x3dfe87af	0.12428223
191	0x3d354d50	0.044263184
192	0xbdbcfbfe	-0.09227751
193	0x3c95e8dc	0.018299513
194	0xbd1ecedb	-0.03877149
195	0xbe1178c4	-0.14206225
196	0x3d1d95e4	0.038473025
197	0xbc203103	-0.00977731
198	0x3d1ad204	0.037797943
199	0x3d8db1df	0.06918692
200	0x3d541722	0.051779874
201	0x3cbc3798	0.022975728
202	0xbc402bcb	-0.011729191
203	0xbda3f31b	-0.08005353
204	0xbd7227f9	-0.059120152
205	0x3d207a58	0.039179176
206	0xbd4d5206	-0.05012705
207	0xbd0175e5	-0.031606574
208	0xbc8d838e	-0.017274644
209	0xbc3ae6a3	-0.011407527
210	0xbd312f12	-0.04325778
211	0xbd96fbc9	-0.07372243
212	0xbca8edc0	-0.02062118
213	0xbd271021	-0.040786866
214	0xbce17c46	-0.027525079
215	0xbda9f730	-0.082991004
216	0xbdb2f49f	-0.08738064
217	0xbde2ccac	-0.11074194
218	0x3bf2835f	0.0074009146
219	0x3cdd93ed	0.027048076
220	0xbcb3bda6	-0.021941017
221	0x3d86f2c0	0.0658927
222	0xbc290a24	-0.010317359
223	0xbdc10eda	-0.09426661
224	0x3cb8ec3d	0.022573585
225	0xbc1a0881	-0.009401442
226	0x3d3f612f	0.04672354
227	0xbcf0864f	-0.029360918
228	0x3dfd8103	0.12378123
229	0x3c6a87c5	0.014314597
230	0xbc41104f	-0.011783673
231	0x3d5c86c1	0.05383945
232	0x3d96dc9a	0.07366295
233	0xbd205ca9	-0.039150868
234	0x3e0f49f3	0.13993053
235	0xbd1129c4	-0.03544022
236	0xbd64a914	-0.055825308
237	0xbb96798c	-0.0045921262
238	0xbdc4f456	-0.09616916
239	0xbdd3a0c8	-0.10333401
240	0xbcf5153c	-0.029917352
241	0xbdfee69b	-0.12446328
242	0x3d38950c	0.045064017
243	0x3d3ca6d7	0.04605755
244	0x3d9327c5	0.0718532
245	0xbd3ba1c3	-0.045808565
246	0x3d585f42	0.05282522
247	0xbd0613e3	-0.03273381
248	0x3e4b38ac	0.19845837
249	0xbdbedf90	-0.09319985
250	0xbdc3d0aa	-0.09561284
251	0xbd3ee16e	-0.046601705
252	0x3d3108d5	0.043221314
253	0x3e18244e	0.14857599
254	0xbdf5d03c	-0.12002608
255	0xbc936988	-0.017994657

fc2.bias f4 [84]
0	0x3e449d9f	0.19200753
1	0x3ee72c58	0.4515102
2	0x3d9ce860	0.076615095
3	0xbdc37092	-0.095429555
4	0x3d4c1da9	0.049832974
5	0xbda0f7f6	-0.07859795
6	0x3e1a96c8	0.15096581
7	0x3e85880b	0.26080355
8	0x3e08f6d1	0.13375403
9	0x3f05e792	0.52306473
10	0x3db10c3f	0.08644914
11	0x3e502e4d	0.20330162
12	0x3f00458b	0.50106114
13	0x3f370bec	0.71502566
14	0x3c9d6d8f	0.01921728
15	0x3df74e0e	0.120754346
16	0xbea3a9d7	-0.31965515
17	0x3deb12fc	0.1147823
18	0xbe40ff11	-0.188473
19	0x3eb09c99	0.34494475
20	0x3e17ef73	0.14837436
21	0x3efe4110	0.49659014
22	0x3ee5896d	0.4483141
23	0xbea1c62c	-0.31596506
24	0x3de44d62	0.11147572
25	0x3d4fa12e	0.050690822
26	0x3ea9a6c0	0.33135033
27	0x3e35df26	0.17760906
28	0x3ec7f165	0.39051357
29	0xbc910018	-0.01770024
30	0x3ee4ed01	0.4471207
31	0x3d0b5d28	0.034024388
32	0x3dc8f4ce	0.09812318
33	0xbdb94ffe	-0.090484604
34	0x3e93e94b	0.28888926
35	0xbd0eff7b	-0.034911614
36	0x3ea1a8eb	0.31574187
37	0x3da92925	0.08259801
38	0xbe657a29	-0.22409882
39	0x3e874bb4	0.26424944
40	0x3d88d5bd	0.06681392
41	0x3e18c30d	0.14918156
42	0xbd418599	-0.04724655
43	0x3ecd22d6	0.4006564
44	0x3ee3700e	0.44421428
45	0x3e85ffa1	0.26171592
46	0x3f0893cc	0.5335052
47	0xbe8a0e29	-0.26963928
48	0xbe09fbf4	-0.13475019
49	0x3f7d72c6	0.99003255
50	0xbcf661a6	-0.03007586
51	0x3e9f76a2	0.31145197
52	0xbc53e743	-0.012933555
53	0x3d9ffc44	0.07811788
54	0xbd633f28	-0.055480152
55	0x3c4bf763	0.012449118
56	0x3e28b911	0.16476847
57	0x3cccc085	0.024994144
58	0x3ed878a6	0.42279547
59	0x3f2bafae	0.6706494
60	0x3e512855	0.20425542
61	0x3e4bcdd8	0.19902742
62	0x3da8b56f	0.08237731
63	0x3d3313a3	0.0437199
64	0xbddd1879	-0.107956834
65	0x3ece415e	0.40284246
66	0x3da83e90	0.08215058
67	0x3ed5debf	0.41771504
68	0x3d393a43	0.04522158
69	0x3dbc9ad4	0.092092186
70	0xbdc27da0	-0.09496617
71	0x3e7b46ab	0.24538676
72	0x3e827025	0.25476184
73	0x3e699e2f	0.22814249
74	0xbdd0f9a5	-0.10203866
75	0x3f19bef3	0.6005699
76	0x3e111a06	0.14170083
77	0x3decabfe	0.115562424
78	0x3dd00d04	0.101587325
79	0x3dc0a331	0.09406126
80	0x3e3368d7	0.17520462
81	0x3c997a72	0.018735144
82	0xbe05801f	-0.13037156
83	0xbdbed6f4	-0.09318343

fc3.weight f4 [10, 84]
0	0x3e0780a4	0.13232666
1	0xbe7e8886	-0.24856767
2	0xbdf457d4	-0.119308144
3	0x3d9c8a8d	0.07643614
4	0x3e023bf3	0.12718181
5	0x3d87b19f	0.066256754
6	0x3d9d06b1	0.07667292
7	0xbdcc01ac	-0.099612564
8	0xbda31793	-0.07963481
9	0xbd200b1d	-0.0390731
10	0x3cf44b74	0.029821135
11	0xbdf236df	-0.11826872
12	0x3ded513d	0.115877606
13	0x3e690a35	0.227578
14	0x3d4c7910	0.04992014
15	0x3b4bc4a0	0.003109254
16	0xbd676c81	-0.05649996
17	0x3de26b42	0.11055614
18	0x3d5ae205	0.053438205
19	0x3dfbcf82	0.12295438
20	0x3cbd9c9c	0.023145966
21	0x3d91e7d1	0.071242936
22	0x3d2befdf	0.041976806
23	0x3da22376	0.0791692
24	0x3d8371b3	0.06418171
25	0xbd334cc1	-0.04377437
26	0xbdc79e9c	-0.09747049
27	0x3df2e552	0.11860146
28	0xbdf591ed	-0.11990724
29	0xbe1b2b8c	-0.1515333
30	0xbd5c3e67	-0.05377045
31	0x3d91e543	0.07123806
32	0x3ebc2289	0.36745098
33	0x3c7bf7dd	0.015378919
34	0xbcda6ae5	-0.0266623
35	0xbdbc3fb5	-0.09191839
36	0xbdf79633	-0.12089195
37	0x3cbe0346	0.02319492
38	0xbcb3ce7c	-0.021949045
39	0x3e09bad7	0.1345018
40	0x3da49ea7	0.08038073
41	0x3de095e8	0.10966092
42	0x3dd64973	0.10463228
43	0x3d9a2d54	0.07528177
44	0xbeb688cf	-0.35651252
45	0xbd4c011b	-0.04980574
46	0xbddaa513	-0.10676017
47	0xbbe16e59	-0.0068796095
48	0xbd597e45	-0.053098936
49	0xbd9590f1	-0.07303036
50	0x3d75b1df	0.059984084
51	0x3d2fc38e	0.042911105
52	0x3d4e0d32	0.050305553
53	0x3c6649e0	0.014055699
54	0x3c9ba0ce	0.018997576
55	0x3d632aa9	0.055460606
56	0x3cca0032	0.024658296
57	0xbe2ecf97	-0.17071377
58	0x3c7bd862	0.015371414
59	0x3cb97039	0.02263652
60	0xbd9d6971	-0.07686127
61	0xbe2d1fc4	-0.16906649
62	0x3e841e32	0.25804287
63	0xbe040c67	-0.12895356
64	0x3dcfeb68	0.10152322
65	0xbe441a25	-0.19150598
66	0xbd710d08	-0.05885032
67	0xbe8f8f05	-0.28038803
68	0x3c9ae114	0.018906154
69	0xbcfab6c1	-0.030604722
70	0x3db2051b	0.0869238
71	0x3e5fe4ab	0.21864574
72	0x3c8b3885	0.016994724
73	0x3e402b47	0.18766509
74	0x3e2e2268	0.17005312
75	0xbe997e1f	-0.29979035
76	0xbcfa2794	-0.03053645
77	0x3e38e37c	0.18055528
78	0x3c0f02b8	0.008728676
79	0xbd6d84c5	-0.057987947
80	0x3d8e965b	0.06962272
81	0x3d1d8826	0.03845992
82	0x3da0ef88	0.07858187
83	0x3ca149c5	0.019688496
84	0x3d35669b	0.044287305
85	0x3d07b9d0	0.03313619
86	0xbde7be9d	-0.113156535
87	0xbe0b56cd	-0.1360733
88	0xbddfbd03	-0.10924723
89	0x3e13ed25	0.14445932
90	0xbe2789f7	-0.16361223
91	0xbe3dad2f	-0.18523096
92	0x3e40340d	0.18769856
93	0x3ceb33e3	0.028711265
94	0x3d46ac98	0.048504442
95	0x3d9fa0e1	0.07794357
96	0xbe4714a9	-0.19441475
97	0x3cec6f02	0.028861526
98	0x3dab1629	0.08353836
99	0xbc83f549	-0.016108172
100	0xbda435e7	-0.080180936
101	0xbda60ec4	-0.08108285
102	0xbe1a7570	-0.15083861
103	0x3d3755df	0.044759627
104	0xbd139598	-0.036031336
105	0xbee5cef6	-0.4488446
106	0x3c590d1f	0.013247757
107	0xbd1a356d	-0.037648607
108	0xbdb7485a	-0.08949347
109	0xbdb4b110	-0.088228345
110	0xbdc62c79	-0.09676451
111	0x3e3d65d7	0.1849588
112	0xbe5d7655	-0.21627171
113	0xbdde3dd5	-0.10851637
114	0xbec30a12	-0.3809362
115	0x3e81947f	0.25308606
116	0xbd9507fa	-0.07276912
117	0xbdfa1b0c	-0.1221219
118	0x3e4c9f0a	0.19982544
119	0x3e2aca60	0.16678762
120	0x3c5be82a	0.013422051
121	0x3e9cf121	0.30652717
122	0x3e151fdf	0.14562939
123	0x3de1616b	0.11004909
124	0x3dd37e39	0.103268094
125	0x3d1e6953	0.038674664
126	0xbcae2dcf	-0.021262078
127	0xbe6873be	-0.22700402
128	0x3caa5113	0.020790612
129	0xbd6cf6a9	-0.05785242
130	0xbecfb784	-0.405697
131	0xbd7b0bc5	-0.06129052
132	0x3ea51bfe	0.3224792
133	0xbe448d79	-0.19194593
134	0x3e069139	0.13141336
135	0xbde13e75	-0.10998241
136	0x3df6563e	0.12028168
137	0x3b4bedc7	0.0031117068
138	0xbd18d4dc	-0.037312374
139	0xbdeadc94	-0.11467853
140	0x3e1918a4	0.14950806
141	0x3d42d702	0.04756833
142	0xbdb2988c	-0.08720502
143	0x3d5cf2ea	0.0539426
144	0x3df2ff59	0.1186511
145	0x3d6d8971	0.057992402
146	0xbe3dc22e	-0.18531105
147	0xbe03a1f9	-0.12854756
148	0x3d137ab3	0.036005687
149	0x3e80eab4	0.25179064
150	0xbded6a00	-0.115924835
151	0xbaeaf9a6	-0.0017927184
152	0xbd8e00c1	-0.069337375
153	0x3e03cacd	0.12870331
154	0xbbd9640d	-0.0066342414
155	0x3da68b3b	0.08132025
156	0x3d730566	0.05933132
157	0x3d95e3fb	0.073188744
158	0xbca20da6	-0.019781899
159	0xbd4db69f	-0.05022299
160	0xbdaa7f28	-0.083250344
161	0xbd47aeab	-0.04875056
162	0x3d04cf88	0.03242448
163	0xbe00a386	-0.12562379
164	0x3e35b53f	0.17744921
165	0x3dab29b4	0.083575636
166	0x3dc55510	0.09635365
167	0xbe56018e	-0.2089903
168	0x3e9accdc	0.3023442
169	0x3e039352	0.12849167
170	0x3ccfa5f5	0.02534769
171	0x3c72f47f	0.0148288
172	0xbd84127c	-0.06448838
173	0x3d30f52d	0.043202568
174	0xbd4385f9	-0.04773519
175	0x3e167148	0.14691651
176	0xbd9daa93	-0.0769855
177	0x3d753a65	0.059870142
178	0xbce9dc41	-0.028547408
179	0xbe27c9a7	-0.16385518
180	0xba478f5b	-0.0007612609
181	0x3c9aeae4	0.018910833
182	0xbcfd284d	-0.030903006
183	0x3cfd8ec2	0.030951861
184	0x3e3e4e0a	0.18584457
185	0xbd84409f	-0.06457638
186	0x3d94b239	0.07260556
187	0xbe4c5e34	-0.1995781
188	0xbe6ca654	-0.23110324
189	0x3de5e797	0.11225813
190	0xbbda8110	-0.0066682175
191	0xbdda47e6	-0.10658245
192	0xbc85b1f2	-0.016320202
193	0x3c67794a	0.014128039
194	0x3d26a230	0.040682018
195	0xbd8a419c	-0.06750795
196	0xbc67175c	-0.01410469
197	0x3e177a69	0.1479279
198	0x3d276292	0.04086549
199	0xbc323425	-0.01087669
200	0x3ded8da1	0.11599279
201	0x3e1f8ea0	0.15581751
202	0x3d000be2	0.031261332
203	0x3d059344	0.032611147
204	0xbd1127b3	-0.03543825
205	0xbd533876	-0.051567517
206	0xbd29cc31	-0.041454498
207	0x3c6b6bda	0.014368976
208	0x3cb4f43c	0.022089116
209	0xbc9936da	-0.018702913
210	0x3e965e0a	0.2936862
211	0x3e3f4500	0.18678665
212	0x3d9bb956	0.076037094
213	0xbc536e88	-0.012904771
214	0x3db73400	0.08945465
215	0x3ce4fd89	0.027952926
216	0x3d236dc9	0.03989962
217	0x3dcbd441	0.099525936
218	0xbdaf01e5	-0.08545283
219	0x3e6a7226	0.22895107
220	0xbe0c8546	-0.13722715
221	0xbda279df	-0.07933401
222	0xbda9a254	-0.08282915
223	0xbdb8b6c3	-0.09019234
224	0x3d934e74	0.07192698
225	0x3d0eb7bb	0.034843188
226	0xbc89a40b	-0.016801855
227	0x3e66d31f	0.22541474
228	0x3e726e7e	0.23674962
229	0x3cb43082	0.021995787
230	0x3dc29582	0.095011726
231	0x3e00b06f	0.12567304
232	0xbdb653bc	-0.0890269
233	0xbd86bffe	-0.06579588
234	0xbcae71cc	-0.021294497
235	0xb9dc7297	-0.00042047046
236	0xbd1b1f32	-0.037871547
237	0xbbe49648	-0.0069759227
238	0xbdccaf07	-0.09994321
239	0xbe173639	-0.14766778
240	0x3d571007	0.05250552
241	0x39ec2655	0.00045041987
242	0xbd84a23f	-0.064762585
243	0x3d12e9d9	0.035867546
244	0xbb00569c	-0.0019582873
245	0x3cc873e1	0.024469318
246	0xbdf6d9d8	-0.12053269
247	0xbd89fdbe	-0.067378506
248	0xbd66a7b8	-0.056312293
249	0x3dcf8420	0.10132623
250	0x3dedfb8c	0.116202444
251	0xbc4b8385	-0.012421493
252	0x3c29929a	0.010349894
253	0x3dac7b7c	0.0842199
254	0xbc7a9f83	-0.01529682
255	0xbcba9046	-0.022773873

fc3.bias f4 [10]
0	0xbebba2d9	-0.3664768
1	0xbdccc10b	-0.099977575
2	0xbd9845c8	-0.07435185
3	0x3de69178	0.11258215
4	0x3eaaa261	0.3332701
5	0xbe1bb885	-0.15207107
6	0x3f19c12e	0.60060394
7	0xbe7c51dc	-0.24640602
8	0x3e3ff57a	0.18745986
9	0xbdff630f	-0.12470066
