models/DVERGEadv_submodel_1_25epochs.pth (torch, 252076 bytes, 10 tensors)

conv1.weight f4 [6, 3, 5, 5]
00000000: 1bbc 713e ae65 e73e 78a4 f93e f534 a03e
00000010: 2eb5 fd3d 1f32 c63e 4b3d 1d3f 5fd5 fa3e
00000020: 792b 913e d8dc 263e ceda 963e c39a 7c3e
00000030: a592 983d b1c2 523d 4003 993d 2300 8a3c
00000040: 834a 4cbe 5918 84be 1ca4 a9bd 45c5 0cbc
00000050: cbda 0bbe ac3e 66be a9d5 9bbd 9415 c9bc
00000060: dd2e 77bd 32ea 31bc 1f14 6a3d 0bf1 c43d
00000070: eb6c 173d c87d b4bc ab84 343d cd1e 043e
00000080: 8bd6 d33d 6e5d 7b3c bcd6 d5bc 525b a23c
00000090: f918 5fbd 223e 6abe 50ce 7bbe fc06 fdbd
000000a0: 2a42 05be 1161 14bf 4569 49bf 8d2f bebe
000000b0: 34c1 1fbe df82 38be cca2 a5be 55c7 2cbe
000000c0: 07a4 e8bd 8b9d e2bd 4d66 493d a752 113e
000000d0: 4ab7 403e 92e7 d23d 7228 ce3c 9429 df3d
000000e0: b3af 403e 7ccb d33d 9acd 5abc e09b b2bb
000000f0: 1335 bb3d 9ba7 9abd 7bd6 98be 4acf 75be
00000100: 5a66 56bd 2124 cdbc d0a0 a2be e3b7 c6be
00000110: 6409 1fbe 8c2c 59bc da71 34bd 4762 acbd
00000120: be30 e73c ba38 773d c326 cc3c 4aba e33d
00000130: bef5 993d 4799 a0be 5dd2 86be 041c 3d3d
00000140: e35f 0b3e 7751 80be 45b4 48bf f5d1 bfbd
00000150: b7c0 d43e 6d1a f9bd 0ac4 f8be d86d d3be
00000160: 09a6 b03e c881 da3e fe22 1cbe 0a07 40be
00000170: bcb3 b83d 93cc a93e cfd5 fc3d e7a2 77ba
00000180: a4ae e83c 8969 cb3d 9d9b 933d 69f7 af3c
00000190: 3593 1c3e 2db7 063e c583 ddbd 7dc7 c0bd
000001a0: 7861 8a3d c502 3e3e 8a74 9abd 421f d4be
000001b0: 4665 153c 640b a93e 3ef9 20bc a18a 7dbe
000001c0: dd5f 4fbe 5ed2 8d3e cc95 a13e 4752 53bd
000001d0: 90ff a2bd a07c b33d dd54 663e ec8a b83d
000001e0: 1ea4 a03c d535 073d f9a4 9f3d c61a 5c3d
000001f0: e969 e43c 02cb 043e 7c91 163e 1e49 93be
00000200: f048 88be ce32 033d 64d3 483e 4bd7 27be
00000210: 0f11 55bf 295c 8ebd 6375 b93e aaee 9cbd
00000220: 8c8b debe a20e c3be 541e ad3e 6880 b03e
00000230: a743 38be 17e4 2abe ba2b b23d 46d9 8c3e
00000240: 2e44 363d 6052 82bd b6ab 78bc f7af 203d
00000250: 322b 5c3c 03d2 48bd bd77 09be d5da 81be
00000260: 0046 90be 3ca2 53be bf9b f0bd f4c3 2fbe
00000270: 5c06 f2be b485 1bbf bd1e d6be c963 47be
00000280: 95c8 7d3c 8053 c93b d6d2 13bc d1bd 14bd
00000290: 86d3 32bd 1535 5d3e e1ff c73e e489 f33e
000002a0: 8f12 b73e 46a8 2d3e 5965 3b3e 044e 843e
000002b0: 7194 973e 182c 853e f153 2c3e 22af 77bd
000002c0: 407a 04be 8506 16be 4f81 d6bd 22aa 59bd
000002d0: 1788 a8bd bdd8 82be 4c32 acbe f5ee 6cbe
000002e0: 820b c8bd 70fe 813c 8865 a63c e77f 5f3c
000002f0: 6483 96bb b31d 4fbc 83e4 dd3d c54c 573e
00000300: 91f0 8a3e 4a51 4e3e 0ffe c13d e72a ae3d
00000310: efa0 023e 8d20 223e 3301 103e 58e9 ba3d
00000320: 1674 c4bd d28e 2ebe 0b56 3bbe fa80 06be
00000330: 746d a7bd 4afe 1fbe 1203 cebe 27c8 ffbe
00000340: c679 adbe e190 24be dfe0 163b 5d9c 83bb
00000350: 970b 05bc 6f4b 04bd e9a1 2cbd 6d74 393e
00000360: 632b c53e 5bca fa3e bff4 b33e 6fe4 113e
00000370: e859 0a3e 342f 5e3e b41a 823e aa99 5b3e
00000380: 7e2b f93d 48f1 d2bc b0b3 d3bc a11a 823d
00000390: a9bf aa3b 26a9 b93d 7607 1bbd 0dd2 98bd
000003a0: a0df 533d ec56 d2bd 6d40 dfbd 7924 b23d
000003b0: a095 4fbd 9366 9ebd 1664 75bd e4a4 c9bd
000003c0: 10a9 813d 57e4 b0bd 9b85 dbbd 0088 eabd
000003d0: cacb 97bd 309d a63d d4d2 0b3d 9646 b8bd
000003e0: 955c 77bd 046d 1ebd 708d ed3c 25b7 b6bd
000003f0: 321a 83bc 745f aabd 031f 30bd cf90 bbbd
0.23606913 0.45194763 0.48758292 0.31290403 0.12388073 0.38710114 0.6142165 0.48990914
0.2835348 0.16295183 0.2946381 0.24668412 0.07449845 0.051455203 0.07471323 0.016845768
-0.19950299 -0.25799826 -0.082832545 -0.008591955 -0.13657682 -0.22484845 -0.07609112 -0.024546422
-0.060347427 -0.010859059 0.057148095 0.09616288 0.036969107 -0.022032633 0.044071835 0.12902375
0.10343655 0.0153421 -0.02610337 0.019818936 -0.054467175 -0.22875264 -0.2459042 -0.12354848
-0.13013521 -0.5796061 -0.78676254 -0.37145653 -0.15601045 -0.18018673 -0.32350767 -0.16872914
-0.11359411 -0.11065205 0.049169827 0.14191686 0.18819919 0.10298075 0.02516577 0.10896602
0.18817024 0.10341546 -0.013354683 -0.0054507107 0.091409825 -0.075514995 -0.29851136 -0.24004856
-0.052343704 -0.025041642 -0.31763315 -0.3881217 -0.15530926 -0.01325525 -0.04405389 -0.084171824
0.028221484 0.060356833 0.024920827 0.11119516 0.07517575 -0.3136694 -0.2633237 0.046169296
0.13610797 -0.25062153 -0.7840007 -0.09366218 0.4155328 -0.121632434 -0.48587066 -0.41294742
0.34501675 0.4267714 -0.15247723 -0.18752685 0.090186566 0.3316389 0.12345468 -0.00094465766
0.028403588 0.099322386 0.07207415 0.021480279 0.1529053 0.13155814 -0.10816149 -0.09413049
0.06756872 0.18555744 -0.07541759 -0.41430098 0.009118384 0.33016503 -0.009825049 -0.24759914
-0.20251413 0.2769956 0.31559598 -0.051592138 -0.07958901 0.08764005 0.2249331 0.09010872
0.019609507 0.033010323 0.07795138 0.05373647 0.027882533 0.12968066 0.14703935 -0.2876672
-0.26618147 0.032030873 0.19611889 -0.16390721 -0.83229154 -0.06951172 0.3622237 -0.07662709
-0.4346584 -0.380971 0.338122 0.34472966 -0.17994557 -0.16688572 0.086997464 0.27509516
0.044498615 -0.06363368 -0.015177658 0.039230313 0.013438033 -0.049028408 -0.13424583 -0.25362268
-0.28178406 -0.20667356 -0.11748456 -0.17164594 -0.47270477 -0.6075089 -0.41820326 -0.19471659
0.015489717 0.006143987 -0.009022435 -0.036313836 -0.043658756 0.2160228 0.39062408 0.4756614
0.35756347 0.16958722 0.1830038 0.2584077 0.2960544 0.26010203 0.16828896 -0.060469754
-0.1293726 -0.14650925 -0.104738824 -0.053140767 -0.08229082 -0.25555983 -0.33632123 -0.2313803
-0.0976782 0.015868396 0.020312086 0.013641334 -0.0045932997 -0.012641358 0.10834601 0.21025379
0.27136663 0.20148197 0.09472286 0.08504277 0.12756704 0.1583273 0.14062957 0.09126538
-0.09592454 -0.17046669 -0.18294542 -0.13135138 -0.081751734 -0.15624347 -0.40236717 -0.49957392
-0.33881968 -0.16070892 0.0023022217 -0.0040164427 -0.008120439 -0.0322985 -0.042146597 0.18110819
0.38509664 0.4898251 0.35147664 0.14247297 0.13510859 0.21697694 0.25410998 0.21445337
0.121664986 -0.025749817 -0.025842518 0.06352735 0.005210836 0.09065466 -0.037848912 -0.07461939
0.051726937 -0.10270485 -0.1090096 0.08698363 -0.050679803 -0.07734408 -0.059909903 -0.098459035
0.06331074 -0.08637302 -0.107188426 -0.11451721 -0.074119166 0.0813545 0.03413661 -0.08997838
-0.060391027 -0.038678184 0.028998107 -0.08921651 -0.016003702 -0.083189875 -0.042998325 -0.091584794

conv1.bias f4 [6]
00000000: 5d62 a73a 7673 973e 9176 8bbe 3268 5dbd
00000010: f4b8 8e3e b0a4 17bf
0.0012770403 0.29580277 -0.27238896 -0.054054447 0.27875483 -0.5923567

conv2.weight f4 [16, 6, 5, 5]
00000000: ba1e 6d3d db40 863d d9d3 50bc a81a 53bd
00000010: 485e bc3c 6acb 693b e004 153e 7b5f 8e3d
00000020: 608d ddbd d7bb 81bd 8b02 41bd bbd8 8b3b
00000030: 3fee 0a3e dc7d c23d 47a3 49bd 0c68 cfb9
00000040: b417 8fbd 5fd9 82bd 7d79 9c3d e1e2 5c3d
00000050: c6ed 32bd 3f20 3abd dfac cdbb 47cf 96bc
00000060: c3c9 c73d fa8a c23c 5806 98bc bce9 cabc
00000070: 560f 91bc 6b17 52bb bd41 943c ad30 373c
00000080: 1bf0 0cbc cca2 c7bc a7b8 99bc 8472 573c
00000090: 074e 033d 203a 173d e98b 123c 602c e8bb
000000a0: fb92 7e3c cf60 86bb 6876 093c 3a86 6d3c
000000b0: f487 c83c 6b5f eebc 9781 093c 31bc e7ba
000000c0: 0bdd 7c3c af92 a43b 2529 663b 5bd6 c9bc
000000d0: 47b9 4a3c 36ef b43c fa54 50bc 8c12 c53b
000000e0: 0090 febd 1d32 09be d30d 1c3c e983 503c
000000f0: 5820 f93d 6c8d bcba 23e6 69be 9d23 6dbe
00000100: 49c1 e83a 5efd a33d 5f2a 283e 1132 ff3d
00000110: f7bd f5bd 4ab9 28be ba6f a53c 1c2f 463d
00000120: b911 043e 40a7 043e 4dbb 513d 1689 29bd
00000130: 95dc 22bd a6bf 5d3d 19af e5bc a15b 5e3d
00000140: 1261 113d 50b0 443d 9109 8a3d f559 87bb
00000150: 1804 8f3d e7bc 543a 9f01 25bc 9e22 02bd
00000160: fde4 08bd 25b5 42bd e93a 5dbd fb16 99bd
00000170: c8e1 4cbc d19f debc 291b 00bc 13d0 a8bb
00000180: b054 6dbd bbfe 9e3d 9dab 2d3d 79eb f2bc
00000190: 2806 ea3c 74cf 823d dec5 203c fef4 33bb
000001a0: b368 70ba d882 81bc 3042 b73d 9157 ca3c
000001b0: 20f8 febc c6b4 96bc bf26 9bbd 7171 11bc
000001c0: 7ad5 e43d 6b34 4b3d 401b 51bd 863b a0bc
000001d0: 244b 1fbe dcc8 a1bd 1ad5 0e3e 81e0 573d
000001e0: 7076 2d3d 32f1 0d3c b7c7 e9bd 0b4e 6abd
000001f0: af4a e33c 5995 4dbe 4e75 263e 6eec bf3e
00000200: 0db5 883e 2af5 253e a66e 0ebf 3eda ddbe
00000210: 8032 ac3e d546 fc3e c600 253e 40e4 c5bd
00000220: 61f6 83bf 446f c9be bb62 313f 1130 1a3f
00000230: 0d07 003f 8b3a 07bf 4e85 87bf cfa7 b3bd
00000240: d56f 203f f286 163f eb38 ab3d cb9b 03bf
00000250: 3f1b 02bf 6142 25bd 7bc9 78bb 79ca 3dbd
00000260: e970 9dbd 55c1 3abc f92e 573d 19e9 c0bc
00000270: 189c 463d beaf b93c ded3 9e3d fa73 073e
00000280: a6f3 843d d2bc c33d 87b8 063e 22a2 243e
00000290: 1b57 ce3d 2833 28bb 1e26 173d 3afc fb3c
000002a0: de61 8ebd 6981 debc 2eb5 f83d 9c42 6a3d
000002b0: a793 0e3d 7bb4 123c 95b2 bd3d 7aa9 da3c
000002c0: ee58 f53c 76d2 353d 9cde 8b3d 029f 253d
000002d0: 830c ff3b 00e5 5b3d ee58 613d cf83 8f3d
000002e0: 30ef a33d 2147 123b 83b0 d0bc 23e0 f13b
000002f0: 332c a43d 78a5 623d 3a0a 9bbc 1b58 babc
00000300: 26e8 2d3d 13a0 be3d b6b7 c43d 16e0 d0bc
00000310: 1520 123b c52d b53d 2664 233e e832 7a3d
00000320: 9ee1 1f3d f9ec c53d f44a 093e d484 043e
00000330: 059a 033e 3dab a03d 36b8 ed3b 32cc e43d
00000340: c69e 3a3d 2d12 2e3d 756d e03d 2433 263d
00000350: 02c4 903d afb4 863d 318f e53d 1d20 123d
00000360: 3505 d7bc dd37 b23d 44f5 133e 9b36 173e
00000370: 80a1 1b3e d5e8 523e 4bad 843e daf9 733e
00000380: 8d9f 213e 5fd0 363d 6fd8 6cba e513 8c3b
00000390: a194 9a3d b91c 563d 1de9 81bd a9ec 123d
000003a0: e191 82bd 2f41 8c3c 16fe 043d 6831 81bd
000003b0: 2473 5cbc ee69 70bd 972a 223c f0dc ca3c
000003c0: 72a0 9e3d df21 a6bd a285 883d 975f 9dbd
000003d0: 8c3b a3bd fc67 023d 9516 1a3d 6835 d3bc
000003e0: 4fc7 873c a2e7 febc 47e8 0fbd 7dc4 873c
000003f0: 5725 79bd 0315 083d 090d 0c3b c534 f4bc
0.05789063 0.06555339 -0.012745821 -0.051539093 0.022994176 0.0035674223 0.14552641 0.06951805
-0.10817981 -0.06334656 -0.047121566 0.0042677796 0.13567446 0.09496662 -0.04922798 -0.00039559638
-0.06986943 -0.063891165 0.076403596 0.053927306 -0.04368379 -0.04544091 -0.0062767114 -0.018409384
0.0975528 0.02374791 -0.018557712 -0.024769656 -0.017707508 -0.0032057415 0.018097753 0.011181039
-0.0086021675 -0.02436962 -0.018764807 0.013149861 0.032056835 0.036920667 0.00894449 -0.007085368
0.015537973 -0.004100896 0.008390047 0.014497334 0.02447889 -0.029098233 0.008392713 -0.0017679987
0.01543356 0.005022369 0.003511974 -0.024638345 0.012373275 0.02208672 -0.0127155725 0.006014174
-0.124298096 -0.13398023 0.00952478 0.012726762 0.12164372 -0.0014385409 -0.22841696 -0.23158117
0.0017757799 0.0800731 0.16422413 0.12460721 -0.119991235 -0.16476932 0.020194877 0.04838477
0.12897386 0.12954426 0.051204015 -0.0413905 -0.039761145 0.05413785 -0.028037595 0.054286603
0.035492964 0.048019707 0.06740106 -0.0041305968 0.06983203 0.0008115307 -0.010071187 -0.031771295
-0.033421505 -0.047536034 -0.05401126 -0.07475086 -0.012505002 -0.027175816 -0.0078189755 -0.0051517575
-0.057942092 0.0776343 0.04239999 -0.029653298 0.028567389 0.06387225 0.0098128 -0.002745926
-0.0009170875 -0.015809461 0.08948171 0.024699958 -0.031124175 -0.018396746 -0.075757496 -0.008877144
0.1117353 0.049610537 -0.05105138 -0.019559633 -0.15556008 -0.07899639 0.1394848 0.052704338
0.04234928 0.0086634625 -0.11415046 -0.057203334 0.027745573 -0.20076503 0.16255686 0.3748507
0.2670063 0.16206804 -0.55637586 -0.43330568 0.33632278 0.4927279 0.16113576 -0.09662676
-1.0309564 -0.393427 0.69291276 0.60229594 0.5001076 -0.52823704 -1.0587556 -0.08772241
0.6267064 0.5879966 0.083604656 -0.51409596 -0.50822824 -0.040346507 -0.0037961889 -0.04633567
-0.076875515 -0.011398633 0.05253503 -0.02354865 0.048488706 0.022666808 0.07755254 0.13227835
0.06491785 0.09557499 0.13156329 0.16077474 0.10075208 -0.0025665257 0.036901586 0.03075992
-0.069522604 -0.027161317 0.12143932 0.05719243 0.03480878 0.008954163 0.092625774 0.02669214
0.029949632 0.044390164 0.06829569 0.040434845 0.007783474 0.05368519 0.05501645 0.07007562
0.08004606 0.0022320228 -0.025474792 0.0073814555 0.08016243 0.055333585 -0.018925775 -0.02274709
0.042457722 0.093078755 0.096053526 -0.025497478 0.0022296954 0.088466205 0.15956172 0.061083704
0.039033525 0.096643396 0.13407499 0.12941295 0.12851723 0.07845161 0.0072546257 0.1117176
0.045561574 0.042497803 0.10958377 0.040576115 0.070686355 0.065774314 0.11208952 0.035675157
-0.0262476 0.08702061 0.1444903 0.14766924 0.15198326 0.20596631 0.25913462 0.2382578
0.1578352 0.044632312 -0.00090349367 0.0042748326 0.0754788 0.052273486 -0.06343291 0.035870228
-0.063754804 0.017120926 0.032468878 -0.063082516 -0.013455186 -0.058694772 0.0098978495 0.024763554
0.07745446 -0.08111929 0.066661134 -0.07684248 -0.07970342 0.03183745 0.037619192 -0.025782302
0.01657453 -0.03111631 -0.035133626 0.016573185 -0.060826626 0.033223163 0.0021370074 -0.029810319

conv2.bias f4 [16]
00000000: 7a9f 59be ce9c 983e 966f 78bc 6583 d4be
00000010: 8e46 f63d 8954 e03e 8997 f9be 53d1 0440
00000020: bfcd c9be 936e 0c3f fe35 9cbf 0b4a 0a3e
00000030: 955c 94bf a585 b03d 0c76 0cbf ad2f 04bf
-0.21252242 0.29807132 -0.015163323 -0.41506496 0.12025176 0.43814495 -0.48748425 2.0752761
-0.39414784 0.5485622 -1.2203977 0.13504808 -1.1590754 0.08619241 -0.54867625 -0.5163525

fc1.weight f4 [120, 400]
00000000: 56c0 80bc ea92 56bd e1c5 8938 f31e bebc
00000010: 333b 06bc 55ff 2c3d 1b8d 26bc 6597 7abd
00000020: 0e52 963c c575 c4bc f4c3 b2bb b238 a53d
00000030: 5aa0 6cbd 307b 0abd d93c 5abd c565 4cbd
00000040: cc19 1cbd e426 8cbd 4414 f2bc 463f c4bc
00000050: 657f 8bbd 7a24 b2bd 27b2 2cbd 3f21 073b
00000060: 15ed 373d cb16 f33c a673 4dbc 9ddd af3c
00000070: 097c 653c 6769 c53b 216e a53d dc60 683d
00000080: 37fe b53c 56cb e73d 7730 da3c ce2d 913c
00000090: 994e 7b3d 7f55 903d b90d 313d ab61 653d
000000a0: a4a6 963c 6e8b 9b3c 6aed 293d a2a1 113d
000000b0: 4a1e 003d 5414 0d3d d663 0ebd 85e1 a33c
000000c0: 42c8 dcbc 11d0 c03c 3610 c8bc 5e3d 4abd
000000d0: 8cb6 cc3b bd75 ea3b 210d bebb b475 b03c
000000e0: 3e39 59bc 092c 943c 56db 3fbc a16f d73c
000000f0: cfe8 25ba f6b2 243d 8a3b 1bbd 6655 83bc
00000100: 942f ae3b efe3 dd3c b7ed 62bc fadc 8abb
00000110: ee63 8abc 5d42 423d c380 2abd c221 13bd
00000120: da9b 473c b3be f2ba 6674 a6bc 0743 8cbd
00000130: 5ec8 a1bd 368f 46bc 68e5 8dbd d3da 03be
00000140: d837 1fbc b95b 67bd 9c22 ac3c 5e36 5dbd
00000150: 685e 77bc fe0f 29bd 4ede e03c cb38 163d
00000160: 44cf 573d 0a05 973c 51f6 e83c 7427 08bd
00000170: d906 33bc 714d 44bc a3e5 02bd cae6 713c
00000180: 825d 74bd 01f7 06bd 3b20 adbb 165c 443c
00000190: c25e 5fbd 0f1f 0dbd 53cd b9bd 1154 dabd
000001a0: 9e0a 8cbd 6bd8 e5bc e0c0 babd 4d4f 74bd
000001b0: 5396 3cbd 0e82 22bd d04c 08bd c211 ccbb
000001c0: b5d7 c03c 1338 9ebd 6e74 bbbd 0a57 743b
000001d0: 87c9 efba a43b 9bbc 571a 62bc cf52 8dbd
000001e0: 07d2 45bd 457d b33b 6a6b 3d3d 5747 e4bc
000001f0: c203 58bd f32d 60bd 2a48 293d ab89 35bc
00000200: e4f2 9fbc a51e b6bc 879e 263c 1d51 ad3d
00000210: a12b c93c 9732 5ebb 8768 383d 4f4c a43d
00000220: 3ace 633d 0523 353d f627 973c 9e3b db3d
00000230: b482 e239 b589 723d d4e9 553d 4d94 a03d
00000240: 33b9 3d3c 3fe1 28bc 6ebe 913d c001 a43c
00000250: 363a 8d3c 2de3 01bb 0d6c 133b 891f d9bc
00000260: 9d7e 93bd d800 e6bc 4ffa d6bc a66d f7bc
00000270: b48e 1bbe 5db3 a5bd a105 09bd 98fc 6dbd
00000280: cfe8 86bd 2c4e 24bc 765b 38bd a787 8abd
00000290: c3c8 8abd 9352 d73c e5ec 773d d695 09bd
000002a0: 7514 0fbe 0dd1 70bd 712e 0d3d 1bad 51bd
000002b0: 9ad8 83bd c44b a5bd 37e3 f0bc eef6 1bbb
000002c0: bbdd dd3c 9d8e 26bd 3dbf d1bc 0203 9a3d
000002d0: a798 073d 7a83 7cbd 1766 4e3d 8746 423d
000002e0: c11a a9bc fb61 473d 36b8 c73d c2c1 b73c
000002f0: 5c73 c9ba 95b0 493d dfd7 a83d 2477 e23d
00000300: 102a 613d 12e1 583d d338 a53d 7bca c43d
00000310: ac59 e33d 9ba4 e63d 80fb 913d 8468 b73d
00000320: 4f37 933c cf0a 7a3d 21d4 7ebd 1d9a 6d3c
00000330: 8bcd f3bc 9225 95bb 8cef 5e3c 0244 fbbc
00000340: a9ac f4bb 5483 ac3c fa73 a13b 7891 dd3c
00000350: d3f5 c13c 34e8 f03c 9c39 4fbc dccb 02bd
00000360: ac24 85bd d02f 90bd a6ee d6bd 7b10 d3bd
00000370: dd04 cabc 9104 eebb e33f f3bd 25a3 b7bd
00000380: ec28 9dbd 558d ffbb ef8a b0bd 5ca0 19bd
00000390: f944 063c abe8 8cbc 8a42 52bd a617 92bd
000003a0: d9c8 9d3c 6c59 483c 1cf3 9bbb 56d0 7a3d
000003b0: ac78 743c 166f ccbb 081b 5d3b 700d bebd
000003c0: 1ca7 863d 2ce6 463d cbfa 59bc 0382 453d
000003d0: f207 c13b 5526 f6bc 5949 0939 8ed8 623c
000003e0: 6bad 983d 1e05 773b 7aff 2b3d dd46 21bd
000003f0: 3cc8 64bd 13ff 02bd fa45 83bd 541b 683d
-0.015716713 -0.052386202 6.569527e-05 -0.023208117 -0.008192825 0.04223569 -0.010165478 -0.061179537
0.018349674 -0.023981938 -0.0054554883 0.080674544 -0.05777011 -0.033808887 -0.053280685 -0.049901742
-0.03811054 -0.06843355 -0.029550679 -0.023955952 -0.06811408 -0.086983636 -0.042162087 0.0020619181
0.044903833 0.029673954 -0.01253978 0.021467978 0.014006623 0.006024528 0.08077646 0.056732997
0.022215946 0.1131808 0.026634438 0.017722037 0.061354253 0.07047557 0.043225978 0.056001347
0.018390007 0.018987384 0.04148618 0.035554536 0.031278886 0.034443215 -0.03476318 0.020004997
-0.02695096 0.023536714 -0.024421792 -0.04937493 0.006247347 0.007155149 -0.005799905 0.0215405
-0.0132582765 0.018087404 -0.011710009 0.026298346 -0.00063289417 0.040209733 -0.037898578 -0.016031932
0.0053157303 0.027086226 -0.013850621 -0.0042377682 -0.016893353 0.04742657 -0.041626703 -0.035920866
0.012183154 -0.0018519968 -0.020319175 -0.06848722 -0.07899545 -0.012119105 -0.069285214 -0.12876444
-0.009717904 -0.056483958 0.021012597 -0.054006927 -0.015098192 -0.041275017 0.027449753 0.036675256
0.0526879 0.01843502 0.028437765 -0.03324075 -0.010926926 -0.011981354 -0.03195728 0.014764497
-0.05965949 -0.032950405 -0.005283383 0.011984846 -0.054533727 -0.034453448 -0.090723656 -0.10660566
-0.068379626 -0.028057298 -0.09118819 -0.05964594 -0.046041798 -0.03967481 -0.03327638 -0.006227703
0.023540357 -0.07725539 -0.091530666 0.0037283325 -0.0018294313 -0.018949337 -0.013800225 -0.0690056
-0.048296 0.00547758 0.046245016 -0.027866049 -0.05273796 -0.05473132 0.041328587 -0.011080186
-0.019524999 -0.02223141 0.010169632 0.08462737 0.024556937 -0.0033904666 0.04502156 0.08022367
0.055616595 0.04422285 0.018451672 0.107047305 0.0004320346 0.05921336 0.05222495 0.07840786
0.0115797995 -0.010307609 0.071164 0.020020366 0.017239671 -0.0019819245 0.0022494823 -0.026504295
-0.07201884 -0.028076574 -0.026242403 -0.030203652 -0.15191156 -0.080908515 -0.033452634 -0.05810222
-0.065873735 -0.010028403 -0.0450091 -0.06764155 -0.067765735 0.026284492 0.060528655 -0.03359016
-0.13972647 -0.058793116 0.034468118 -0.051190477 -0.06437798 -0.08071092 -0.02940522 -0.0023798305
0.027083268 -0.04066335 -0.025603885 0.07520105 0.033104565 -0.061648823 0.05039033 0.04743054
-0.02064264 0.048677426 0.09751932 0.022431258 -0.0015369463 0.049240667 0.08244299 0.110578805
0.054971755 0.05294902 0.08067479 0.096089326 0.11101088 0.11261865 0.07128048 0.08955482
0.01797071 0.061045464 -0.06221402 0.0145020755 -0.029761096 -0.004551598 0.013606917 -0.030672077
-0.0074668718 0.021058716 0.0049271556 0.027046904 0.023676788 0.029407598 -0.0126480125 -0.031932697
-0.06501135 -0.070403695 -0.10494737 -0.10305878 -0.024660522 -0.007263728 -0.1187742 -0.08966664
-0.07673821 -0.0077988305 -0.086202495 -0.037506446 0.008195155 -0.017200788 -0.051332988 -0.07133417
0.01926081 0.012228351 -0.0047592055 0.06123384 0.014921349 -0.0062388284 0.0033738036 -0.09279907
0.06574842 0.048559353 -0.013304423 0.048219692 0.0058908397 -0.030047575 0.00013092662 0.013845576
0.07454952 0.003769226 0.04199169 -0.03937422 -0.05585502 -0.03198154 -0.06409831 0.056666687

fc1.bias f4 [120]
00000000: 4dd9 05bc 9a58 003e e323 873e 6603 47be
00000010: 08b8 7ebd 7a03 8bbd b937 56bb d5af ac3c
00000020: 2ac0 ed3e bcf3 42bd b51d f43d df83 b8bd
00000030: d530 f43d a57d 633d 1072 ae3c dda1 2abd
00000040: 5f14 c73d 3b5f 73bb f958 3bbb 013e 863d
00000050: 1bbc 8a3e 072b c8bc 74c4 2d3d ddf4 d6bc
00000060: f4bc 38bd cb0d 9fbd 6c2c b9bd 22e0 0ebd
00000070: bd12 b4be 36da c63d 0ef6 61bd 2b31 d93e
00000080: 39c3 663e c8e2 b4bc 4b35 483b c05b 0cbe
00000090: 3d1f cabd dd93 4f3d 6da9 8fbc b0fa 7f3d
000000a0: 6e50 003c 8362 313d 158c b4bc 64d7 f8bd
000000b0: dbb4 ed3d 66c7 023e 2d51 913d 9525 023e
000000c0: 5624 e03d f0ad 20be cf19 073e 1e19 873d
000000d0: a0ae 373e b21c 103d badf 89bc c247 e73b
000000e0: 6695 76be dcd2 263e c64c 1dbc 8d04 dc3c
000000f0: 893f ee3d da48 083d 3bbe debc aa4d 733d
00000100: f175 4d3e 0c19 86bd 9d45 683e 1d59 5c3d
00000110: bf56 993d e1b0 9b3d 55a0 3c3d a9c9 91bd
00000120: 1833 203e a92a b23d d0c8 1c3e ca44 05be
00000130: 722f e83d 84a9 0abe a95f c9bd aaa6 c9bd
00000140: f9ea 9b3d 4f09 53bc 65f9 de3c a967 823e
00000150: 679e 70be af48 b23e c373 73be a7a1 adbd
00000160: a7e3 96bd a99c d33c 7646 983e 4eea dfbd
00000170: 7d76 d63b 1498 523d 6e05 1b3e 0188 103e
00000180: e3c2 543e bab2 453e 01ec 093e 2c0c bcbd
00000190: d994 66bd 8337 2f3d ccb1 02be b4da 883e
000001a0: 2826 233d a62e b23d 30b9 febc f419 84bd
000001b0: 76f9 07bc bf5c fa3b cbbb 853e c95d 69bd
000001c0: 2044 ef3d 3e08 b13e 6045 d1bc 05ab 1abd
000001d0: e5d7 9ebd 59f9 c53b a3e0 79be cbda b1ba
-0.008169484 0.12533799 0.26394567 -0.1943489 -0.062187225 -0.067877725 -0.0032687022 0.021079937
0.46435672 -0.047595724 0.11919729 -0.090095274 0.119233765 0.055539746 0.021294624 -0.04165827
0.09720682 -0.003713562 -0.0028586967 0.06554795 0.27096638 -0.02443458 0.04242368 -0.026239807
-0.045102075 -0.07766303 -0.09041676 -0.03488172 -0.35170546 0.09709589 -0.055166297 0.42420325
0.22535409 -0.022080794 0.0030549343 -0.13706875 -0.098692395 0.050678123 -0.017536843 0.062494934
0.007831676 0.04330684 -0.022039453 -0.121504575 0.11606761 0.12771377 0.07095561 0.12709649
0.109444305 -0.15691352 0.13193439 0.065965876 0.17937708 0.035183616 -0.016830314 0.0070581147
-0.24080428 0.16291374 -0.009600824 0.026857639 0.11633212 0.0332726 -0.027190318 0.059400238
0.20064522 -0.06547746 0.22682805 0.053795923 0.07487249 0.07602096 0.046051342 -0.07118542
0.1564449 0.08699543 0.15310979 -0.13014522 0.113371745 -0.13541228 -0.09832699 -0.09846242
0.07613177 -0.012880637 0.02721853 0.2546971 -0.23497926 0.34821078 -0.23774628 -0.08478098
-0.0736764 0.025831537 0.29741257 -0.10933362 0.0065448866 0.051414564 0.1513879 0.14114381
0.20777468 0.1930646 0.13468935 -0.09182009 -0.056294296 0.04277755 -0.12763137 0.26729357
0.03983131 0.08700304 -0.031094164 -0.06450263 -0.008299222 0.0076404507 0.26119837 -0.056974206
0.11682916 0.345766 -0.025545776 -0.037760753 -0.07756022 0.0060416874 -0.24402098 -0.0013569234

fc2.weight f4 [84, 120]
00000000: 92f0 13bd 89f6 033d 4c1d 23be 0689 16bc
00000010: ea1c a1bc 2ad2 e53c 1d1f 57bd 8409 9abd
00000020: 1a0f 1e3e 2f6c 083d 9c56 03bd 9064 893b
00000030: 41f6 20bc 955f 893d 264e 843d 5815 363d
00000040: 3fbf 723c de42 a2bd 43fd 0e3c 3290 183e
00000050: aa53 26bd d13e c0bc b0f1 9c3d c128 08bd
00000060: d2da 043e ce9f c53c 472c 95bd 4d17 a33d
00000070: bfbc 0dbc 02d4 24bd bb40 a73d 03ff 99bd
00000080: 2280 2f3d 50cf 0a3d 8a22 aebd 0ccb 703d
00000090: 4255 02be 7fab 4abd 36f4 eb3d 7a64 adbd
000000a0: 1de1 f9bc 6b57 683c bf04 0fbd 5cdb b93c
000000b0: a094 f33c 4fc4 a6bd a042 17bd 926b 333c
000000c0: cc8e fbbd d021 80bd 0eaa 4dbd 01a0 b13d
000000d0: bfac 03be 1db5 e6bc be24 e13d afbc 03be
000000e0: 44a4 89bc 72e5 63bd e9bb 963d 64d3 87bd
000000f0: 3774 d33d 46c9 393e 9574 6ebd 9525 94bd
00000100: cfa1 0abe d351 983d 592b 3a3e a8f3 89bd
00000110: c4d7 5b3d 3cd5 54bc 8edc 71bd fa99 353d
00000120: ea7c 2b3d 4ba8 78bd 115b 80bd 9e38 ddbd
00000130: cd9b afbd a59b 4bbd 10da d7bc ed39 18be
00000140: b9d2 5f3e ccf8 af3d 1c73 133d 6f30 713d
00000150: c79a cfbb b8fd d6bd 0777 05bd 8a31 2cbc
00000160: 26a9 263b fd83 0f3c d488 c9bc 4bc1 963d
00000170: fce9 f5bc 5cf3 37bd 4f2d 38bd 70c1 c03d
00000180: 57e5 8c3c 14bd e83c 9dff 753c ee48 4abd
00000190: 73d1 ff3d 8f2f 653d 1639 1e3d 164d 63bc
000001a0: e431 033d 9b3d bd3d 5d77 57bd 5ec0 c6bc
000001b0: 9f84 f7bd 9f74 cdbd e2c1 05bc e995 00be
000001c0: dde3 df3d d1e1 1bbd e0a2 a3bd a643 2f3d
000001d0: 1b59 c93d 3fc7 923d 0731 813d 12c9 7d3d
000001e0: ce23 82bd 11e6 e13c 3170 d63d b260 1d3d
000001f0: a58f debd 8364 c3bd cf96 11bd 2b1a 4dbd
00000200: 21c3 99bc 6170 febc 3da4 c23d e6f6 9e3c
00000210: 8309 12bb 186f 1e3d 192b 8dbd 7c43 703d
00000220: 93a7 a2bd 762a 273d 2393 85bd 724e 553d
00000230: abf2 c93d 0d00 fe3b be1e 80bd f02e 73bd
00000240: daee b7bd a8fd 9a3b 416c 88bd a9a5 8bbd
00000250: d28c 9b3d 9922 743d f04c 5b3c cc9d 073e
00000260: 5523 6abc 1980 e3bd 0533 ce3c 5b89 d539
00000270: 97df ef3d f7c0 ed3c 5556 9cbc d244 e93d
00000280: 14fd 95bd 84ab 5fbd e709 bdbd 0f14 333d
00000290: 2109 a53d 3e88 4e3d 9056 3ebc b3c2 003e
000002a0: 9b84 47bd a703 bfbd e60f 143c aeab 723a
000002b0: 42bb f3bc ad5f 233d 1351 c33c 4c7b 18bd
000002c0: 5e68 f9ba 8e67 bdbc 115f 03bd 803a 3cbd
000002d0: 1e2a f1bd 0a96 55bd af9a 353d 51d1 bcbd
000002e0: 0fd5 163b 9edf 0c3d 6488 84bc ba1a b83c
000002f0: dc4f 393e 62c7 69bd f091 3f3d dec9 093d
00000300: 2ec8 38be 2928 2e3d f665 373e 3696 65bd
00000310: a66f 6dbc b261 f13b 0c1f 66bd a8db afbd
00000320: d60d fd39 01a2 893c d445 673d 021c 8cbc
00000330: beaa 59bd e5d5 1ebd 1342 f0bd 5092 d83c
00000340: d520 e33d 67df 6d3c dfed debd baf4 1cbc
00000350: a5bb 55bc 69e9 913a 497c d5bd 1be8 5ebe
00000360: 6c52 573d 7bc9 773b b407 993d 5260 7cbd
00000370: f2bb 82bd 3ad9 c1bd 932b 743d beac 623d
00000380: 2424 04be e886 d73d de2d 85bc dd52 ad3c
00000390: 51cd 283c dab9 aa3d de53 5b3c a967 853d
000003a0: f76e 0b3d 660b 493c 4f49 f33d 7201 22be
000003b0: c2c1 0dbe fd67 753d 6b1f 8e3c 985f de3c
000003c0: 1bcb 8a3d 9190 073e e97e 383c 064f 9d3d
000003d0: 5e50 683d d0ac a13d 4940 f23c 2285 e73c
000003e0: 60d3 d0bd 2b0c 613d 7ceb fcbd ea8b 803d
000003f0: f1f9 5c3c db13 303d 74a4 5d3d 4154 bb3d
-0.036118098 0.032217536 -0.15929145 -0.009187942 -0.019667108 0.028054316 -0.052519906 -0.07521346
0.15435448 0.033306297 -0.03206502 0.004192896 -0.0098243365 0.06707684 0.06460218 0.04445395
0.014816104 -0.0792291 0.0087273745 0.14898756 -0.040607132 -0.023467453 0.07663286 -0.03324199
0.12974098 0.024124052 -0.07283836 0.07963429 -0.008650958 -0.04024125 0.08166643 -0.07519343
0.042846806 0.033889115 -0.085026816 0.05878739 -0.12727836 -0.049479958 0.11521189 -0.0846643
-0.03050285 0.014180998 -0.034916636 0.022687607 0.029733956 -0.08142912 -0.036928773 0.01095094
-0.12283096 -0.06256449 -0.050211005 0.086730964 -0.12858866 -0.028162533 0.10993336 -0.12864946
-0.01680196 -0.055638738 0.0736006 -0.066321164 0.103249006 0.18143186 -0.05821665 -0.07233731
-0.13538288 0.07437482 0.18180598 -0.06735927 0.053672567 -0.012990292 -0.059048228 0.044336297
0.041867174 -0.06070737 -0.062673695 -0.108018145 -0.085746385 -0.04970898 -0.026349097 -0.14865847
0.21857728 0.08592376 0.03599845 0.05888408 -0.0063355896 -0.10497612 -0.032584216 -0.010509858
0.002543041 0.008759496 -0.024601378 0.073610865 -0.030018799 -0.04490982 -0.044965085 0.09411895
0.017199202 0.028410472 0.015014556 -0.049385957 0.12491121 0.05595356 0.03862866 -0.013873359
0.03203 0.09240266 -0.052604068 -0.02426165 -0.12085842 -0.10032009 -0.008163901 -0.12557186
0.10932133 -0.038057152 -0.0799005 0.042789124 0.09831449 0.071669094 0.06308179 0.061959334
-0.063544855 0.027575525 0.104706176 0.038422294 -0.10867242 -0.095406555 -0.035544213 -0.050073784
-0.018769803 -0.031059446 0.09503982 0.01940484 -0.0022283501 0.038680166 -0.06892986 0.058658108
-0.079421185 0.04081198 -0.06522205 0.052076764 0.09860738 0.007751471 -0.062558636 -0.059370935
-0.08981104 0.004729945 -0.06661273 -0.068187065 0.07595219 0.059603307 0.013385043 0.13243788
-0.01429065 -0.11108417 0.025170812 0.00040728864 0.11712568 0.029022677 -0.019084135 0.113900796
-0.073236614 -0.05460693 -0.09230404 0.0437203 0.08058382 0.0504229 -0.011617318 0.12574272
-0.048710447 -0.093268685 0.009036994 0.00092571496 -0.029752377 0.039886165 0.02384237 -0.03722696
-0.0019028296 -0.023120668 -0.032073084 -0.045954227 -0.11775611 -0.05214504 0.04433697 -0.092196114
0.0023015176 0.034392945 -0.016178317 0.022473682 0.1809687 -0.057074912 0.046770036 0.03363978
-0.18045112 0.04251877 0.17909989 -0.056051455 -0.014491951 0.0073663825 -0.056181952 -0.08586818
0.0004826623 0.016800882 0.056463078 -0.017103199 -0.053141348 -0.038778204 -0.11731353 0.026436955
0.110902466 0.014518595 -0.10885214 -0.009579832 -0.013045226 0.0011132184 -0.10424096 -0.21768229
0.052568838 0.00378093 0.074721724 -0.061615296 -0.06383504 -0.09465261 0.059611868 0.05534052
-0.12904412 0.10523778 -0.016257223 0.021157676 0.0103028575 0.083362296 0.013386695 0.06513912
0.03404137 0.012270784 0.11879217 -0.15820864 -0.13843444 0.059913624 0.017348966 0.027145192
0.067770205 0.13238741 0.0112607265 0.07681088 0.05671727 0.078942895 0.02957167 0.028261725
-0.101965666 0.054943245 -0.123496026 0.062766865 0.013487325 0.042987686 0.054111913 0.091469295

fc2.bias f4 [84]
00000000: 34a3 0a3d a857 973e 4f23 eebc 2f2c 3ebc
00000010: e552 983e fda6 7a3c 0119 553c 3631 813e
00000020: 75ce d13d c8c3 e23e 1b29 553e 055a 01be
00000030: b382 053f 4021 c13d 64cb b23d 6897 9cbd
00000040: a8bf d33c 9019 5e3e 9492 da3d b7f0 623d
00000050: 7924 023e ea68 2a3e 2179 a13e 95e3 39bd
00000060: ffe6 c93e 389c de3e 5f28 e93e 5602 623d
00000070: 481d c53e 08af 723c 21a1 0ebc d2cb 2dbc
00000080: ca1f 4cbd d1cc ba3e 7ca1 033e a5a3 6d3e
00000090: 0887 e73e 8115 9c3e 15d1 11bc 1f81 49bd
000000a0: 0898 b33c 5d88 6d3e 6661 30bd 13bc e1bd
000000b0: 52bc 443e bc2e 2ebe 1f71 fd3c d9b2 7c3e
000000c0: 830f 05be ce4a 16bd a32f 573e 35ec 16bd
000000d0: e937 b43d ef72 ae3e b8e1 03be 438a 083d
000000e0: a2f0 483d 1d55 523e 2d86 99bd 92fc ce3d
000000f0: 6637 063f bd91 a7bc 3ee2 b73d 85a1 a63e
00000100: f544 803d a229 2f3f 596f cfbd afe6 34bd
00000110: 3cdd 353f c784 0c3f b586 863e 959e 4f3e
00000120: d357 b13e ff8d 6a3d 1544 d43d 56cf 2f3f
00000130: cef3 873e d1fb 353b cd3c 883e 7bf0 003d
00000140: e793 843d 01f9 a53d 177b 7a3e f392 a6bc
0.03384705 0.29559064 -0.02906957 -0.011607214 0.29750744 0.015298602 0.01300645 0.25232857
0.10244457 0.44289994 0.20816462 -0.12631996 0.52152556 0.0943017 0.087302 -0.07646066
0.025848225 0.21689439 0.10672489 0.055405345 0.12709226 0.16641584 0.31537727 -0.045383055
0.3943405 0.4347856 0.45538613 0.05517801 0.38498902 0.0148122385 -0.008705408 -0.010607677
-0.049835004 0.36484388 0.1285457 0.23206957 0.45220208 0.30485156 -0.008899947 -0.049195405
0.02192308 0.2319655 -0.043061636 -0.110222004 0.19212463 -0.17010015 0.03093773 0.246776
-0.12994199 -0.036692433 0.21014266 -0.03684636 0.087997265 0.34072062 -0.12879074 0.03333498
0.04905761 0.2054028 -0.07496295 0.10106768 0.5242828 -0.020455236 0.08978699 0.32545105
0.062631525 0.684229 -0.1012866 -0.04416531 0.710407 0.548901 0.26274648 0.20275338
0.34637317 0.057264324 0.10364548 0.68675745 0.26553196 0.0027768502 0.26608887 0.03147934
0.06473523 0.08104134 0.24461018 -0.020333743

fc3.weight f4 [10, 84]
00000000: 25d0 0ebe ccbf 1ebe 2e01 623d fbcd a33e
00000010: 701b 53bc a957 8dbd 953d 4abc a73f af3d
00000020: 7661 e63d 67e8 3cbd deed a8bd 357f 20bd
00000030: e5ef 3fbe 4b2d 443e cbd5 2d3e a5aa 7bbc
00000040: ef06 c03d b326 ce3d b5fc 4a3e 487b 50bd
00000050: 484a e83d dd5a c53c eb14 4b3e 90ca bebd
00000060: cd3c f7bd fd47 113e c11f ec3d b7ec 90bd
00000070: f537 f93d 1835 d8bb d37e 943e 6d6a 453e
00000080: 9d47 f13d 6bc6 0bbe 4ca3 94bd 77f7 c73a
00000090: 1c61 81be 6d0e 143c a439 423e 3d9d 963e
000000a0: 99e9 09bd bd8a 3cbd 0e02 213e d1b9 1abe
000000b0: 1148 3b3e eff8 aa3d cc90 ebbd 7d55 063e
000000c0: 0a1a d0bc b758 09bc a4ce 28be a717 bd3c
000000d0: 4538 7c3d c051 9f3c d572 32bd 22a2 11be
000000e0: a819 d6bd 3594 db3d 7d83 5d3c 79de 9d3d
000000f0: 9df7 b6bc 35f5 fe3d e443 5f3d 28d9 093d
00000100: a091 1cbd 0bbe 213c f617 5abd fa80 e03b
00000110: 60a6 00bf 9ab5 893c 4d9b 633e 9920 ab3d
00000120: a0cc 113e 395e 24be d53a 053e 47b8 133d
00000130: 0375 62bd b9da 8fbd 8505 28be 7589 8d3e
00000140: 0377 5fbd e0a5 09be 4265 c6bd a664 103c
00000150: 1038 753d 32ae 09be 551f 313d 5432 85bd
00000160: 412b a8be 4fc6 13be 0dc3 81bd a7ff 22be
00000170: 9200 9fbd db68 4d3e 7e67 9e3b b9e6 18be
00000180: 0e88 0b3e 3e2a 13be eba2 d2bd cb1e e13d
00000190: 71b3 29be 7a32 00be b40d 913e 58d6 8dbd
000001a0: 45d5 b63d 106f 84be 5d56 c53b f97d 30bd
000001b0: a759 183d 3e13 493d aa65 fdbc 707d c1bd
000001c0: 34cb 61be 4d13 06bd 15fc 9a38 a18e 2cbe
000001d0: c88d b5bc e10e 56bd 8b28 dd3d 0c46 b2bd
000001e0: 7965 1dbe bd98 eebe a66b b8bd 7551 27bd
000001f0: 01a7 07be 4d15 9abd 655c 57bb 3c50 b93d
00000200: 2b72 9cbc e6a3 b13d 05e4 173e 6dac 703e
00000210: 772c 59bd d653 f33d 54dc aabd 864c 2fbd
00000220: fead 1e3e e34b 2ebe 21c4 b73c 98f6 183d
00000230: e2ca a8bd 1bda a9bd e058 bd3b ec3f ec3c
00000240: 5763 0c3d 6f65 88bd 539b 12bd 80a8 14bd
00000250: 7c90 a23e b100 d0be 7a9d 8e3c 6b17 213d
00000260: fac0 8f3d 76f0 943d 1b33 883e 277d 4d3d
00000270: 086d 903d 029a 9a3d 8ce2 7dbc 2ce2 87be
00000280: 22b9 ea3d 41b0 623e 970c 913d 277a cabd
00000290: 7ba5 6e3e d872 8dbd 2f06 d63d f6a4 5c3e
000002a0: f381 a9bd dcc5 143e dcb9 683d 7ca6 62bb
000002b0: 1829 a9bc f54d a9bd 47c1 4dbc c96a b03d
000002c0: 2b19 17bd 45fe d9bd 9514 cabd bf2a 0f3e
000002d0: da98 523d b848 49bd 8791 16bd 7662 9e3e
000002e0: c0f4 533e f083 253e c017 ddbd 1479 cb3c
000002f0: d753 7ebc 8bf4 bf3b 70a0 30bc d13e 673d
00000300: f1eb 4fbd cc4c 5c3d 4f61 cabd 6aa9 3c3e
00000310: 1f44 893d 2e10 5b3e b890 c9bb 0847 d93d
00000320: 5cd9 30bc 8936 ec3d 13c2 9bbd 5375 d3bd
00000330: 933f 803d cae1 d73d 8b51 3a3d 070d c0bc
00000340: 7d18 52bd 1d8f 833d dcc6 563d 9f81 2d3e
00000350: 1c7a febc 1f06 07bc 0406 ffbd bd39 9e3d
00000360: 9794 70bd 3574 733d b283 03bd 48f5 ce3c
00000370: 6b7e 3a3d 8c48 7d3e 28a5 833e 3112 c7bd
00000380: 3ef7 6d3d e4dd c63d ef20 c4bd 5f68 18bd
00000390: 26c8 363e 3dc3 943c 3128 853c cd51 ccbd
000003a0: af3b 793c 1b75 223e 8ba9 8f3e fb33 febc
000003b0: 2178 7d3d eadb f3bc e5e8 bbbd 3f66 41be
000003c0: f66c 6b3d 0c3e b73d 4d4e 97bb 4404 4a3e
000003d0: 99af dbbc 5b0b 08be c6f6 553d 247e ac3d
000003e0: 372a 11bd a9ca f5bd d71b 993d 240c d5bb
000003f0: 3af5 133e 079b af3d e596 903c a8bc 2cbd
-0.13946588 -0.15502852 0.055176906 0.31993088 -0.01288496 -0.069014855 -0.012343784 0.085570626
0.11249058 -0.046120074 -0.082484946 -0.039183814 -0.18743856 0.19157903 0.16976087 -0.015360509
0.093763225 0.10065975 0.19822963 -0.05089882 0.11342293 0.024091179 0.19832198 -0.093159795
-0.12072144 0.14187618 0.11529494 -0.070764 0.12168876 -0.006598126 0.2900301 0.1927888
0.11781237 -0.13649909 -0.07257709 0.0015256245 -0.252694 0.0090366425 0.189673 0.29416838
-0.03367004 -0.04603075 0.1572344 -0.15109946 0.1828921 0.083482616 -0.11502227 0.13118549
-0.025403041 -0.008382968 -0.16485077 0.023082567 0.0615771 0.019448161 -0.043566544 -0.14222005
-0.10454112 0.107216276 0.013520119 0.07708449 -0.022334868 0.12449113 0.054508105 0.033654362
-0.038224816 0.00987197 -0.053245507 0.0068513127 -0.5025387 0.016810227 0.22227211 0.08355827
0.14238214 -0.16051568 0.13010724 0.036064412 -0.055287372 -0.0702414 -0.16408356 0.27643934
-0.054556858 -0.13442183 -0.09687282 0.008813059 0.05986792 -0.13445356 0.04324277 -0.0650374
-0.328455 -0.14431117 -0.06336031 -0.15917836 -0.07763781 0.2005953 0.0048341146 -0.14931764
0.1362612 -0.14371583 -0.102849804 0.109922014 -0.16572358 -0.12519255 0.28330767 -0.069256485
0.08927397 -0.25865984 0.006022258 -0.043088887 0.037194874 0.049090616 -0.030932266 -0.094477534
-0.22050172 -0.03273325 7.390246e-05 -0.16851284 -0.022162333 -0.052260283 0.107987486 -0.08704767
-0.1537074 -0.46600905 -0.09004907 -0.040849168 -0.132473 -0.07523594 -0.0032861468 0.090485066
-0.019097408 0.08673839 0.14833076 0.23503275 -0.05302092 0.11881225 -0.083428055 -0.042797588
0.1549606 -0.17021136 0.022432389 0.037344545 -0.08241822 -0.082935534 0.005778417 0.028839074
0.034274425 -0.06659972 -0.03579266 -0.036293507 0.31750858 -0.40625528 0.017409075 0.039328974
0.07019229 0.07272427 0.2660149 0.050168183 0.07052046 0.07548906 -0.0154959075 -0.26539743
0.114610925 0.22137548 0.070824794 -0.0988658 0.23305313 -0.0690667 0.10450398 0.21547303
-0.08276739 0.14528602 0.056817874 -0.0034584096 -0.020649478 -0.08266822 -0.012558288 0.08614118
-0.036889236 -0.10644201 -0.09867207 0.1398115 0.0514153 -0.049141616 -0.03675988 0.30934495
0.20698833 0.16163611 -0.107955456 0.024838008 -0.015522919 0.005858009 -0.010780439 0.05645639
-0.05076212 0.053784177 -0.098818414 0.18424001 0.06702446 0.21392891 -0.006151285 0.10609251
-0.01079401 0.11533839 -0.07605376 -0.10325112 0.06262126 0.10541113 0.04548792 -0.023443712
-0.051292885 0.06423781 0.05243574 0.16943978 -0.031064086 -0.0082412055 -0.12452319 0.077258565
-0.058735456 0.059436996 -0.032108016 0.025263444 0.045530718 0.24734706 0.25711942 -0.097202666
0.058097117 0.09710291 -0.09576594 -0.03720891 0.17849788 0.018159503 0.016254516 -0.0997654
0.015211984 0.15864985 0.2805904 -0.031030646 0.061882142 -0.02976795 -0.091752805 -0.1888666
0.05747696 0.089473814 -0.0046174885 0.1972819 -0.02681713 -0.13285582 0.052237295 0.08422497
-0.03544065 -0.12001545 0.07476013 -0.0065016914 0.14449015 0.08574491 0.017650077 -0.042172104

fc3.bias f4 [10]
00000000: e6bb f4be 26eb 613e a9a5 fcbd 467f 803d
00000010: 5f0c 8c3e d75e d5bc a631 e33e 6e05 953b
00000020: 4371 a13d 5d2b 26be
-0.47799605 0.22062358 -0.12336285 0.062742755 0.27353188 -0.0260462 0.44373816 0.0045477664
0.07882931 -0.1622748
