models/DVERGE_submodel_3.pth (torch, 251844 bytes, 10 tensors)

conv1.weight f4 [6, 3, 5, 5]
00000000: 296e a8be 899f efbd f9aa 063e e6f0 583e
00000010: bf73 1a3e 7f20 5bbe c929 843e c3ef ed3e
00000020: 5773 9e3e f8e0 523e 811f e6bd 02b2 9c3e
00000030: b1f5 8f3e e9a8 053f f462 8d3e 5b06 da3c
00000040: a30c b43e d822 dc3e 8fbc c83e 27fd a13e
00000050: c7b7 2b3e c2f2 a23e dbd7 243e 66b6 033f
00000060: ec3c 013f 592e 50bd 12f9 e1bd 04db 72bd
00000070: fdfc 22bd 6e1e d6bc 792f 9dbe 43ec c2bc
00000080: 70c1 c73e 080a 653e 266c 6dbd 5b9a 44be
00000090: e66d 0d3c 218e 083d bc8f 273e 6197 893d
000000a0: 81d7 a9be b811 c73d 1b1b 893d 5a79 393e
000000b0: 8dd4 373d 1691 053b ba9e 273e 60cc a0bc
000000c0: 14d3 793d 6cbe f1bb 9842 2f3e b77b 82be
000000d0: 6514 b3be 3096 33be d2b3 2dbe d447 8cbd
000000e0: ae3d c8be 46b1 fcbd 852e b1bc 316c 9d3c
000000f0: 789f ed3a f72f acbe ecd3 42be f8d9 28bc
00000100: fb23 733e f131 19be 78be 50be 51b3 74be
00000110: a642 b3be e6a1 b6bd 6e0f 07bd 40b2 94be
00000120: 7ab4 11bd cb2a 99be a396 9fbd 3b3a 043f
00000130: 9a0c c5bd 24b4 89bd 3636 5f3f 67c5 dbbd
00000140: e3f3 103e 5199 66be e150 a8bf 1075 063e
00000150: 2554 d93f 7eda 0c3e c02e 6a3f f1af 2fbf
00000160: 5e12 04c0 1c52 9bbd a4b7 96be 4b32 263f
00000170: ed72 a53f 2ef7 14bf 93bb 57bf 7907 a23e
00000180: d63c 83be 32c6 f43e ab7c 0a3f aa79 553d
00000190: 4dce 6dbe a892 8ebf 9602 39bf cedd a33f
000001a0: 084e f33e e061 3e3f eff4 16bf 589d 1fc0
000001b0: bdac 3fbf 8f22 b83f 6cc4 863f 85ec b83f
000001c0: 6308 81bf a325 2fc0 914d b13b ed42 edbd
000001d0: 7c47 8d3f 816c db3f 6f96 75bf 96ca 39bf
000001e0: 9916 67be 8d02 74bd ec56 8b3f 0340 bd3e
000001f0: ac8f 0fbf 7d2b 79be b787 11bf 5a9c 1ebf
00000200: 20bd b53e 3350 fc3d 99b3 183f b06b 4d3e
00000210: 1c79 c9bf a754 b4bf f269 883c 92fa f73e
00000220: 5607 1240 23ec 843f d9d3 f9bf 5563 89bf
00000230: 22ac 89bf 11d8 f53e 15b6 2d40 837b 613f
00000240: d42a 18bf af03 a2be 8887 b4bf 108d 483e
00000250: 38d7 9a3f 3f73 a13e 6ade 0dbf f185 b6bd
00000260: 40b0 bb3f 6f6c 99be 95cc 1fbf ebff 6dbf
00000270: b9e7 073f 562c 0040 f2c8 89bf c356 1cbf
00000280: df85 49bf 8868 893f 8bfb e63f 2e5e e5bf
00000290: 2816 e0be 6646 7abe 7299 9f3f 54fc e83e
000002a0: c343 bfbf 3024 f43d d75f d53e 510a 443f
000002b0: b6d6 debe 0c88 66bf e9a4 663e e511 fa3c
000002c0: 826a 40be de36 2f3f 0d3f d3be b62a 6dbe
000002d0: e6f5 09bf 0f52 c5be 97a0 e23f 14a0 29bf
000002e0: d874 9cbe b578 4ebf 020a dc3c a95e 1740
000002f0: 669f 51bf 9352 47bf 6626 89bf 6df3 123f
00000300: f93d d03f 5a27 8ebf bcb6 26bf 4b87 97be
00000310: 63ca 5d3f 5f39 443f 0129 67bf 0fbe ebbd
00000320: 57b5 f63d 1286 aebf 7797 b43e 2b42 273f
00000330: e1f0 703e 043a b8be cd29 c4bf f012 9e3f
00000340: ded7 403f dc9c 6fbd 22aa 9abe 1d2f a3bf
00000350: 752c cd3f 819b 103f 4daf 9ebe 040c 1abf
00000360: 31a1 6dbf 3bac 8e3f 0719 1a3f 558a 0cbf
00000370: d868 87be b845 d9be 6cb0 893f 0cc1 c23e
00000380: 5e41 14bf b276 6abe 8669 8b3e 1fbc ee3e
00000390: 1a1d 203e ca3c b53d 4e04 a8be 4d7a 353e
000003a0: 8bcd d43d e062 87be 2281 cabe 6a5f 4abd
000003b0: 2ac3 9ebd 6dd0 3dbe 942b f8be fd3e 07bf
000003c0: 9658 093f 1211 743e c511 be3e d671 723e
000003d0: c013 2f3f 611a b93e f69a 043e ad02 7e3d
000003e0: 875c 80bc d2d4 b53e 205c 1cbf 20a8 4bbf
000003f0: 3347 b9be 831e bfbd 668c 3abd 1c2e 06bf
-0.32896546 -0.11700351 0.13151158 0.21185645 0.15083216 -0.21399115 0.2581313 0.46471986
0.30947372 0.20593631 -0.11236478 0.3060456 0.28117135 0.5221086 0.27614558 0.026614359
0.3516589 0.42995334 0.3920636 0.31638452 0.16769324 0.31825835 0.16097967 0.5145019
0.50483584 -0.05082545 -0.110338345 -0.0592909 -0.03979205 -0.026137557 -0.3070028 -0.023794299
0.3901477 0.22367108 -0.057964467 -0.19199507 0.008632159 0.03333867 0.16363424 0.06718326
-0.3317223 0.097201765 0.06694623 0.18112698 0.04488044 0.0020380667 0.16369143 -0.019628704
0.060992315 -0.0073774364 0.17115247 -0.25485012 -0.34976497 -0.1753776 -0.16963127 -0.06849638
-0.39109558 -0.123385 -0.021628628 0.019216629 0.001812919 -0.33630344 -0.19026154 -0.010305874
0.23744194 -0.14960457 -0.20385158 -0.23896529 -0.35011786 -0.089175984 -0.0329737 -0.29042244
-0.035572506 -0.2991546 -0.077924035 0.5165135 -0.09621544 -0.06723812 0.87192094 -0.10731011
0.14155535 -0.22519423 -1.3149682 0.13130593 1.6978804 0.13755223 0.91477585 -0.6862784
-2.063621 -0.075840205 -0.29436982 0.6492049 1.2925698 -0.58189666 -0.8427059 0.31646326
-0.25632352 0.4780746 0.5409648 0.05211798 -0.23223229 -1.1138506 -0.7226957 1.2802064
0.4752047 0.74368095 -0.5896749 -2.4939785 -0.7487295 1.4385546 1.0528693 1.444718
-1.0080684 -2.7366722 0.005410858 -0.11585031 1.103744 1.7142488 -0.9593267 -0.72574747
-0.22567214 -0.059572745 1.0885901 0.369629 -0.560786 -0.24332996 -0.5684771 -0.61957324
0.35495853 0.12319984 0.59649044 0.20060611 -1.5740085 -1.4088334 0.016652081 0.48433357
2.2816978 1.0384563 -1.9517776 -1.0733439 -1.0755656 0.48016408 2.7142384 0.8807909
-0.5944035 -0.31643435 -1.4103861 0.19585061 1.209693 0.31533238 -0.554175 -0.08912266
1.4663162 -0.2996554 -0.6242154 -0.92968625 0.53087956 2.002706 -1.0764449 -0.6106989
-0.78719896 1.0735025 1.8045515 -1.7919366 -0.43766904 -0.24440917 1.2468703 0.4550501
-1.4942554 0.11920965 0.41674682 0.7657824 -0.43523186 -0.9005134 0.22523846 0.03052611
-0.1879063 0.68443096 -0.4125904 -0.23160824 -0.53890836 -0.38539168 1.7705258 -0.66259885
-0.30557895 -0.80652934 0.02686024 2.3651526 -0.8188385 -0.77860373 -1.0714843 0.5740269
1.6268913 -1.1105759 -0.6512258 -0.29595408 0.8663694 0.7665004 -0.9029694 -0.1151086
0.120463066 -1.3634665 0.35271809 0.6533534 0.23529388 -0.35981762 -1.5325257 1.2349529
0.7532939 -0.058499202 -0.30207926 -1.2748753 1.6029192 0.5648728 -0.3099312 -0.60174584
-0.92824084 1.114631 0.6019444 -0.5489858 -0.26447177 -0.42436004 1.0756965 0.38037908
-0.5791224 -0.22896841 0.27228945 0.466279 0.15636101 0.08849485 -0.32815784 0.17722435
0.10390767 -0.26442623 -0.39551646 -0.0494074 -0.07752068 -0.1853654 -0.48470747 -0.5283049
0.53650796 0.23834637 0.37122932 0.23676237 0.6838951 0.36152938 0.12949738 0.06201427
-0.01566912 0.35513932 -0.6107807 -0.79553413 -0.36187133 -0.093319915 -0.04554405 -0.5241411

conv1.bias f4 [6]
00000000: 2d25 b9be 7e1c 6ebe 95a4 71be 1b14 36bf
00000010: 81a6 9bbe eb90 04bf
-0.36161175 -0.23253056 -0.2359794 -0.7112443 -0.3040047 -0.5178363

conv2.weight f4 [16, 6, 5, 5]
00000000: 6992 85bd 085c fd3d faee c13e 69ce e53e
00000010: 05fa a83e fa75 763e e763 ac3e 0b34 ea3e
00000020: 2a4a 073f 9e75 0d3e 675b db3e 7465 fa3e
00000030: a0a9 ce3e 9388 743d 6dc7 4fbf 1051 8f3e
00000040: 4126 a93d 5e3d 23bf 6eb2 89bf d685 f1be
00000050: 768a 4dbe 898f 70bf 9f90 65bf 2646 2abf
00000060: dfc6 933e dc43 ddbd fda9 033c 6d70 b6be
00000070: 8543 103e 510f 56be cb09 413d c498 a93c
00000080: 8a68 6fbe f2bd 423d 192c c53d b24b 8cbd
00000090: 68f3 993d 912b 26bd 37be 073e 7017 be3c
000000a0: 673b eabc 529e 98bc 867d c7be 3efc 08bf
000000b0: 90e5 8dbe 98d4 213d 77bd 87be 9dbb 06be
000000c0: ff7f a3bd 0ff4 8f3e d25b 59be 127d 8c3e
000000d0: 4923 a43e 39c8 e6bd 507b 953e 7574 15be
000000e0: f1a8 a1bc 8f62 263c effa aa3d c602 ce3e
000000f0: 7b20 c1ba f036 85be 0093 bb3d 8217 cb3d
00000100: cd23 a03e c524 d7be 6e60 233e f674 07be
00000110: 7692 c3be f924 9f3d 57de 603e 7be7 d4be
00000120: 28c4 e6bd ec49 12bc 5ee8 73bc 6b63 6c3e
00000130: 4602 f9bd d44b 043c 2aad 02bb 7d82 3cbe
00000140: 3dae 3ebd 9c04 98be 5065 2cbe b8b0 cfbe
00000150: df0b d63b 56a6 863d b672 b93e 7ae2 b33e
00000160: bd8c d93e a9e9 c93e 4f36 983e 6566 953e
00000170: ac99 613e c623 f5bd 665a 1abf 3f82 96bd
00000180: 8184 9cbe b94a 92be 4768 b0be bda0 123f
00000190: 03a2 65bc 574f 90bc 3e3d f63d 6b4b a5bd
000001a0: 173c 7abe 5651 5a3b 630e d4bd de2f 0dbd
000001b0: 8452 14bd df32 15be d920 0b3e 44cd d23e
000001c0: 0bcf cb3e f9e2 c33e 43f1 053d 0a44 bc3c
000001d0: 4217 293f 8a25 103f cd76 0e3f 9ac0 97be
000001e0: dc41 cd3e e825 223e 133d 82bc 91bb 973c
000001f0: fe52 6e3c a5ea a73e e0cd 4d3e 0a4b 39bd
00000200: b10d 973d 98af 5f3e aa74 aabe 518a d5be
00000210: 865d 15bf 3c14 bfbe 627e c93d 76dc af3e
00000220: 9547 6e3e aee8 ef3e ac8c 8a3e da88 813e
00000230: 0cfb 0f3f 0088 c53e 51d8 c73e 1017 5a3e
00000240: 7683 06bf 0432 e4bd 4775 07bf a77c 38bf
00000250: 851c 7abf 86e8 a4be 8c2f abbe c058 48bf
00000260: ca08 91bd e5e9 1a3f 15fc 41be 89aa 5d3e
00000270: 51d9 8bbe 7040 ccbd 6770 cf3e 2b1a 403e
00000280: 9584 92bd d9ea 52be 55de 45bb f692 a63e
00000290: 8094 b33d 3e59 cabe 5d41 b8be e073 d3bb
000002a0: 240f 75bd 8e61 c43c 18ed c53e 06bb 1c3e
000002b0: 3505 0b3f f690 793e 44a3 01bd 622a a3be
000002c0: a1cb 3f3f cbf1 9ebe 7647 04bc 15d7 8c3e
000002d0: ad02 273e 996f dd3e 9ad9 efbe 3d7b 95bd
000002e0: 9269 5cbe ef70 07bc 8e9a 33be b240 b0bc
000002f0: 2d8c 27bf c89a 90be cf37 a8be fccd f9be
00000300: b936 153c f279 b6be 8074 3fbf e58e 9bbe
00000310: d7e7 4a3e ae6d abbe 9acf a43e 029b 0abd
00000320: bdca 74be c82a 4d3e c662 49be f2a0 99be
00000330: 8b04 43be 19d3 1dbe e9b3 0f3f 3e0d 353e
00000340: 024f 573e bec8 70be 6dd4 fb3d 1ed7 af3e
00000350: c727 6cbe 1d51 f43d 2aa8 54be 3d95 273d
00000360: ec93 8bbd 230a adbd a1b9 b13c 9d18 82be
00000370: 9059 bc3e 35e3 163f f775 f83e 8ece 313d
00000380: e3c3 53be 2f98 27be 940a 8dbe 281c 0ebf
00000390: e6ae 233e 1363 603e 0849 0e3a 2106 36bd
000003a0: e073 e3be a955 a5be 62e2 cabe 649c 51be
000003b0: 0666 c7be 8087 cebe 0648 85be e1f1 dfbe
000003c0: ec7f ccbd d0d5 debe 87a1 a7be bcf7 40be
000003d0: b034 1dbf 9459 b53e b05a 1abe d116 22be
000003e0: c64b d5be 0911 5fbf 5806 c03d 5659 89be
000003f0: 8626 c23d cb9e 8d3e 483d ba3e d351 6c3e
-0.06522066 0.12371069 0.37877637 0.4488404 0.3300325 0.24068442 0.3366997 0.4574283
0.5284754 0.13814399 0.42843172 0.48905528 0.4036379 0.05970056 -0.81163675 0.27991533
0.082592495 -0.63765514 -1.0757577 -0.4717242 -0.2007235 -0.9396902 -0.896738 -0.6651329
0.28862664 -0.10803959 0.008036134 -0.3563265 0.14088257 -0.2090428 0.04712848 0.020702727
-0.23379722 0.047544427 0.096275516 -0.06850375 0.07517129 -0.040568892 0.13256155 0.023204535
-0.028592778 -0.01863018 -0.38962954 -0.5350989 -0.27714205 0.039509386 -0.26511738 -0.13157506
-0.07983398 0.2811589 -0.21226433 0.2743917 0.3205817 -0.11268658 0.29195642 -0.14595206
-0.019733878 0.010155334 0.08348643 0.4023649 -0.0014734411 -0.26018476 0.091588974 0.09916593
0.31277314 -0.4202024 0.15954754 -0.13228211 -0.38197678 0.07770724 0.21959816 -0.41582856
-0.112678826 -0.008928757 -0.014886944 0.230848 -0.12158637 0.008074719 -0.001993964 -0.18409152
-0.046552885 -0.29691017 -0.16835523 -0.40564513 0.006532177 0.06574695 0.3622033 0.35133725
0.42490187 0.3943608 0.29728934 0.29179683 0.22031277 -0.11969714 -0.6029419 -0.07349061
-0.30569842 -0.28572634 -0.34454557 0.5727652 -0.014015677 -0.017615957 0.120234 -0.080710255
-0.24436985 0.003331264 -0.103543065 -0.034469478 -0.036211506 -0.14570187 0.13586749 0.4117223
0.398064 0.38259104 0.03270079 0.022981662 0.66051114 0.5630728 0.55650026 -0.2963913
0.4008931 0.15834773 -0.015898263 0.018522056 0.014546154 0.32796207 0.20098066 -0.04523758
0.07375658 0.21844327 -0.33292133 -0.4170709 -0.5834583 -0.37320125 0.09838559 0.34347886
0.23269494 0.46857208 0.2706045 0.25299722 0.5624244 0.38580322 0.39032224 0.2129786
-0.52544343 -0.11142352 -0.52913326 -0.72065204 -0.9769977 -0.3220865 -0.33434713 -0.7826042
-0.070817545 0.60513145 -0.18943818 0.21647085 -0.27314237 -0.09973228 0.40515444 0.18759982
-0.07154194 -0.205974 -0.0030192335 0.32533997 0.087685585 -0.3952121 -0.35987368 -0.0064530224
-0.059828892 0.023972299 0.3865745 0.15305719 0.5430482 0.24371704 -0.031649843 -0.31868273
0.7492009 -0.31043848 -0.008073678 0.27507845 0.16309614 0.43249205 -0.46845704 -0.072988965
-0.21524647 -0.008266672 -0.17539427 -0.021515224 -0.65448266 -0.2824309 -0.3285508 -0.48789966
0.009107285 -0.35639912 -0.7478714 -0.30382457 0.19815002 -0.33482116 0.32189637 -0.033839233
-0.23905464 0.20035851 -0.19666585 -0.30005604 -0.19044702 -0.15412559 0.56133896 0.17680833
0.21026233 -0.23514077 0.122963764 0.3434381 -0.23062049 0.11929534 -0.20767274 0.04091381
-0.06815323 -0.08449199 0.02169496 -0.25409403 0.3678708 0.5894044 0.485275 0.043409877
-0.20680194 -0.16366647 -0.27547133 -0.55511713 0.15984687 0.21912794 0.00054277526 -0.04443944
-0.44424343 -0.32291916 -0.3962584 -0.20469815 -0.38945025 -0.40337753 -0.26031512 -0.43739226
-0.09985337 -0.435225 -0.32740423 -0.18844503 -0.6140852 0.35419905 -0.15073657 -0.15829016
-0.41659373 -0.8713537 0.0937621 -0.2682597 0.09480004 0.27660212 0.3637488 0.23078088

conv2.bias f4 [16]
00000000: 1e65 38bf 6046 bbbd 4da7 8bbf b47b 02bf
00000010: dc2a aabf c518 923f 672e 92bf 18a5 ed3d
00000020: a59b d3bf 1d58 57be fba5 2a40 a09c bebd
00000030: ad15 d13e cdbc 35bf 8cba 243f 07b3 4bbf
-0.7202929 -0.09144282 -1.0910431 -0.50970006 -1.329433 1.1413809 -1.1420411 0.11603755
-1.6531874 -0.21029706 2.6663806 -0.093072176 0.4083685 -0.7099121 0.6434715 -0.7957005

fc1.weight f4 [120, 400]
00000000: 0b56 a13d 6d23 22be e6bb 3fbe af6a c5bd
00000010: 9b4b 99bd f484 9bbd 85bb 403d fe28 a7bd
00000020: 7376 d3bc 93ed 65bd da29 debc 6a6d 343d
00000030: d8a2 0d3e 4a06 073e f66e cebe 7b11 07be
00000040: 664e f83d d23a d8bd 2644 b23e a008 43be
00000050: 27d3 8bbe 9a95 8cbe bd30 7bbe 45ba e7bd
00000060: f3b0 0ebe 0456 82be 595b 3dbd 1252 71bb
00000070: e6c9 5dbd 106d 2dbe 21d9 253d 3e08 f9bd
00000080: 4bdd 3a3d 202d f7bb ab59 80be 820d 2c3e
00000090: 1d6a 1cbe 0a42 913e ac2f 1fbe b702 6c3e
000000a0: c767 463c 2497 ae3d 2900 9e3d 28d9 09be
000000b0: 8ab2 433e 6de1 a2bc 323a cf3d 0bde a0bd
000000c0: ac1d 0abe a098 313d f2ea c4bd 5e6c 3e3e
000000d0: 3a0d 52bd 3de1 9b3d 3b4e 56be b51e 30be
000000e0: fb16 d33d 3552 39be 2b0e 513e 760a 2d3e
000000f0: d4fd 7cbe 1a94 993e 1e7b 363e 28b6 11bd
00000100: 78cd c73d 6682 30bd c315 8c3d 95f3 293e
00000110: ff6c bc3d 12e6 9b3e 39cb d1ba 7816 13be
00000120: 6b10 22be 11a6 e0bd 5aef 0fbe 4d8e f63d
00000130: 9a77 bb3d 217c a63d ca83 72bc d768 a03d
00000140: 11c4 27bd 32b5 e83d 9ded 1f3d 4579 bb3b
00000150: 5e7a 53bd f79f b9bd a6a7 aebc 0eed bb3e
00000160: f47f 743d 8f5b 47be 8378 7f3e 93df e33d
00000170: e329 023e 927e 82be dcf1 fabc 8856 0bbd
00000180: f77f b9bd 9893 1d3e 5749 4fbe ea1a 95bd
00000190: 30b6 553e 7fbf 0c3e 3a9e 5f3e dcc9 823d
000001a0: 1802 51be 7f05 a6be 101c fb3d 8165 9dbc
000001b0: 3333 033d c9fe 77be 5e4e 34bd 76cd f7bd
000001c0: 2db5 753d 3a4f a13d df02 af3d da4d 3e3e
000001d0: cc9c b1be a274 e93b 32e2 383e a2c8 203e
000001e0: 02c2 833e c9c4 bfbd 3f85 8e3d a1f0 d7bd
000001f0: 8590 97bc 8870 193d 0b3d 923d c06d a2be
00000200: ea8d 62bd ea02 4ebd 4176 be3e 25f8 a53c
00000210: d0af 933d f701 ecbd 52cd a8bd 6088 0fbb
00000220: 4429 9a3a 19ee 74bc 5443 0cbe 8c98 3ebe
00000230: 960c 413e fb1b 21be fba3 6cbe 15f7 a9be
00000240: b52f 7f3e 5d18 e43c 1c96 343e c0b8 8e3d
00000250: edfc 73bd 3fdf 033d aac5 abbd f058 aebd
00000260: d245 853e 8e59 90be b106 01bd 9f0d f0bd
00000270: dea1 2f3e 4d57 5c3c f238 d5bb b007 943e
00000280: 92ce 90ba 5094 78be 11e2 0a3e 4897 e83c
00000290: 9981 9abd 72ed 623e b302 a23d 179a 30be
000002a0: 377e 17bd f988 173e ffed a93e 71e2 913d
000002b0: c472 f03a c1f2 cc3e bccf d6ba 2fc4 3bbe
000002c0: 3359 a6bd f1ac d6bd b82e 7bbe 7de4 ea3c
000002d0: 45e0 fa3c 1d7e 29be 597f d5be b879 4e3d
000002e0: c333 9a3d fe65 9bbd dd5a ec3d c448 6bbd
000002f0: 2296 6f3c febc 7dbc cb9a 823e 59a4 07be
00000300: 5d98 403e 5c44 2e3e 3466 c5bc b181 a33e
00000310: 3045 c6bc d57c 983e 6354 e53e da43 923d
00000320: 470a 9c3c 8a77 1fbe 692b 393e 8314 83bb
00000330: df1b 1fbe a2d7 383d 38fb 863e 0814 f33c
00000340: 8ae1 93bd 5d80 0c3e cae0 25be f43e 85bd
00000350: 071b bc3e 0738 aebd ef56 073e fab6 48bd
00000360: 5f5e 6fbe c9a7 b3be a294 50bd 14ee aa3d
00000370: 38ef 76be 37f1 a0be cd85 96be 7a8e 3cbe
00000380: 2b9a dcbd c63d c13d 119b a6bd eb08 1a3e
00000390: 86cb febd ca64 3abe 9218 20bd 220e 45bc
000003a0: ff8d e3bd f580 51bd 6219 c53d 993f 5ebe
000003b0: f6bf 333e 58bf 483e bd40 34be 22cf 0bbe
000003c0: 1b0a 803d d0fe 193d 270e 10be 5de5 153e
000003d0: 7b29 c13d d9d2 90bd 048f 3d3e 09b7 2d3e
000003e0: d015 123e ec39 a5be 147f 23be cd4d ce3c
000003f0: 1807 fb3d 687c d5bc d320 b0bd 4ed5 10be
0.078777395 -0.15833826 -0.18724021 -0.09639489 -0.07485124 -0.07593718 0.047053833 -0.081621155
-0.025813317 -0.05613477 -0.027119566 0.044049658 0.13831651 0.13185993 -0.4031903 -0.13190262
0.12124328 -0.10558094 0.34817618 -0.19046259 -0.27309534 -0.27457887 -0.24530311 -0.11314825
-0.13934688 -0.2545625 -0.046229694 -0.00368226 -0.054147623 -0.16936135 0.040490273 -0.12159775
0.045621198 -0.007543221 -0.2506841 0.16802028 -0.15274854 0.28370696 -0.15545529 0.2304791
0.012109703 0.085249215 0.07714874 -0.13461745 0.19111076 -0.019882882 0.10118522 -0.07854851
-0.13487881 0.043358445 -0.09615125 0.18596026 -0.051282145 0.0761132 -0.2092828 -0.17199214
0.103071176 -0.18097766 0.20415561 0.16898522 -0.24706203 0.29995805 0.17820403 -0.03557411
0.09755987 -0.043093108 0.06840088 0.16596825 0.09200477 0.30448967 -0.0016006 -0.1436404
-0.15826575 -0.10969175 -0.14056149 0.120388605 0.091536716 0.081291445 -0.014801929 0.078324966
-0.040958468 0.11362685 0.039044965 0.0057212436 -0.05163037 -0.09063714 -0.021320175 0.36704296
0.059692338 -0.1946852 0.24948315 0.11126628 0.12711291 -0.2548719 -0.030632906 -0.03401807
-0.090576105 0.15388334 -0.2024282 -0.07280524 0.2087028 0.13744925 0.21837702 0.06386158
-0.20410955 -0.32426068 0.12261212 -0.01921344 0.03203125 -0.24218287 -0.04402005 -0.120997354
0.059987236 0.078764394 0.085454695 0.18584386 -0.3468994 0.0071244994 0.18055037 0.15701535
0.25733954 -0.09363706 0.069590084 -0.10543943 -0.01850153 0.037460834 0.07140549 -0.31724358
-0.05531112 -0.050295748 0.37199596 0.020259926 0.07211268 -0.11523812 -0.08242287 -0.0021901354
0.0011761566 -0.014949345 -0.13697559 -0.1861288 0.18852457 -0.1573333 -0.23109429 -0.3319632
0.24920543 0.027843649 0.17635387 0.06968832 -0.05956738 0.032195326 -0.08387311 -0.08513057
0.2602983 -0.28193325 -0.031500522 -0.11721348 0.17151591 0.0134485485 -0.0065070326 0.28912115
-0.0011047891 -0.24275327 0.135628 0.028392449 -0.0754425 0.2216089 0.07910671 -0.1724628
-0.036985602 0.14798345 0.3318939 0.071232684 0.001834475 0.40028957 -0.0016388814 -0.18336557
-0.08122482 -0.10482205 -0.2452954 0.028673405 0.030624518 -0.16552015 -0.4169872 0.05040905
0.07529404 -0.07587813 0.11540768 -0.05744244 0.014623197 -0.015486954 0.25508723 -0.13246287
0.18808122 0.17018265 -0.024096586 0.31934884 -0.024202913 0.2978274 0.44790944 0.07141848
0.01904787 -0.15572944 0.18082966 -0.004000248 -0.15537976 0.04512752 0.2636354 0.029672638
-0.072207525 0.13720842 -0.16199031 -0.06506148 0.3673937 -0.0850678 0.13216756 -0.049002625
-0.23375843 -0.35088947 -0.050922997 0.08346191 -0.24114692 -0.31434032 -0.29398957 -0.18413725
-0.10771593 0.094356105 -0.08135045 0.15042464 -0.12441163 -0.1820251 -0.039085932 -0.012027295
-0.11111068 -0.051148374 0.09623982 -0.21703948 0.17553696 0.19604242 -0.1760282 -0.13653234
0.062519275 0.037596524 -0.14067899 0.14638276 0.0943174 -0.07071466 0.18511587 0.16964354
0.14266133 -0.32270753 -0.15966445 0.025183583 0.122572124 -0.026060298 -0.08600011 -0.1414387

fc1.bias f4 [120]
00000000: f52e b0bc 9fad 10bd a4c6 a33d a8b5 adbe
00000010: b669 acbe a346 04bf 12b9 7a3f 2d85 babe
00000020: 1232 b4be ee3e 4b3e 00b3 19bf 85f4 e0be
00000030: a709 23be b808 95be eb41 4c3e 4987 46bd
00000040: 6c54 753c dba5 f53d 8a9e 7a3c 0788 643f
00000050: 0690 7f3e fe49 e43a 5c28 4a3d 1dd8 97be
00000060: 118f cc3d d95f 7d3a f10a cfbd 1f6a 213e
00000070: 1e0b abbc 65b2 a73e 0147 9b3e 981b b5be
00000080: 6e0b 013d a86e 5fbe baaa 8f3d 54ef 2dbe
00000090: 45c2 75be 827d 76be 93a2 fe3e d91c a0be
000000a0: c6e6 cb3e 6376 a33e 8c8c 52bd eebf 883e
000000b0: 9fd9 ccbe 73ed d93e ea23 723f e8a9 28be
000000c0: 6965 92be 5c61 9a3d 256f 2cbe 8746 b8be
000000d0: 8d2f 20be 0376 da3d c08c c9bc 87ae 9cbd
000000e0: 64bf a03e bc3a 9d3e cc8a 5cbe 88c0 9b3d
000000f0: 5f8b 52bf e1e6 cd3e d73c 9dbe 4105 c7bd
00000100: 5426 99be 1726 163e 7ceb 1ebd 501c de3e
00000110: 764a c93d ee1c ee3d d11f 523e 1142 673e
00000120: c6c1 ebbc b9ae b93e 9277 853c ccb9 09bf
00000130: df49 943f 4f51 a93e 72e4 19bf a50e b2bd
00000140: a1b2 36bf 4f02 873e 24aa a43e a426 0dbe
00000150: aa3a 1bbf ff51 843e 148e 7b3e 998c bbbd
00000160: b7a3 dc3e d8ee 10be 1416 233f 516b 8ebe
00000170: 6caa 15be b96c b83e f3e0 203f 9bbc debe
00000180: 2858 2a3e 9ed0 7ebd 24a6 87be 1377 7f3d
00000190: 597b b2be 8925 383e 5863 82be 1136 07bf
000001a0: 3ba6 893e fadd b1be ddae 08bf 2fe1 263f
000001b0: a0ae 90bc 785f d53d b66b 27be 1903 e7be
000001c0: 7c3f 763d a2ac 1cbe 186d f43e 3648 30bf
000001d0: 3442 2ebe 89f6 3bbe e7af 083e f61d 00be
-0.021506766 -0.035321828 0.07996872 -0.33927655 -0.336744 -0.51670283 0.97938645 -0.3642973
-0.3519445 0.19848225 -0.6003876 -0.43936554 -0.15921651 -0.29108214 0.1994702 -0.04846886
0.014973741 0.11994525 0.015296588 0.8927006 0.24957284 0.0017417071 0.049354896 -0.2965707
0.09988225 0.00096654665 -0.10109509 0.15763138 -0.020879325 0.32753292 0.3032761 -0.35372615
0.03150504 -0.21819556 0.070149854 -0.16985828 -0.23999889 -0.24071315 0.4973341 -0.3127201
0.39824504 0.3192626 -0.051403567 0.2670893 -0.40009782 0.42563972 0.9458605 -0.16471064
-0.28592995 0.07538101 -0.16839273 -0.35991308 -0.15643139 0.1066704 -0.024603248 -0.07650476
0.3139602 0.30708873 -0.21537322 0.07605082 -0.82243913 0.4021521 -0.3071048 -0.09717799
-0.29912055 0.14662968 -0.038798794 0.43380976 0.098286554 0.11626612 0.2051995 0.22583796
-0.028778922 0.36266115 0.016292367 -0.5379913 1.1585044 0.33069846 -0.60114205 -0.086941995
-0.71366316 0.2636895 0.32161057 -0.13784271 -0.6063639 0.25843808 0.24565917 -0.09157676
0.43093655 -0.14153612 0.63705564 -0.2781625 -0.14615792 0.3602045 0.62843245 -0.4350327
0.16635191 -0.06221067 -0.26493943 0.062369417 -0.34859732 0.17983069 -0.25466418 -0.52816874
0.26884636 -0.34739667 -0.5339182 0.6518735 -0.017661393 0.104186 -0.16349682 -0.4511955
0.060119137 -0.15300229 0.47739482 -0.68860185 -0.17017442 -0.18355764 0.13348351 -0.12511429

fc2.weight f4 [84, 120]
00000000: 5396 7ebe 64c1 0d3d 4319 563e 9e26 11be
00000010: 05ca f13e 09e1 d8bd e7de 87be 70ed 9b3e
00000020: 5e17 1bbe c65d fb3e 26ba 12be 6a0e 45be
00000030: 43d9 08bf fc51 1ebe 7cf1 cebd 2114 923e
00000040: 5d7b 29be d33e c8bc f3ab 123d 1422 48be
00000050: 5118 1abc b18f c03e af89 debe 6fc7 9bbe
00000060: e30b 003e 49b8 84bd b0d6 1cbe 051a e7be
00000070: 1cad aabe 1a57 febb 2705 183e 3e24 14be
00000080: 98c9 1c3f 8ec6 013f 73a6 7bbe 592b a53e
00000090: f681 b9bd 6ca1 ef3b 8ba1 eebd ca74 e53e
000000a0: 5758 a7be f90e 663e 3ee0 783e 321c 0dbe
000000b0: 6da6 ce3d a0a7 013e 81c8 943e 3c96 11be
000000c0: 18b4 56be ce12 85bc c837 b0bd fb65 b9be
000000d0: d550 a13d 4646 293d c9e5 083e fbe0 a03c
000000e0: c583 98bd feba a3be c540 953a 74bf b9bd
000000f0: 6f60 9cbe dce8 c3be 4d70 2fbb 035a a1bd
00000100: e0f0 10be 22e7 8e3e e15b 253c 67d3 32be
00000110: 31ae 78bc 0165 3c3e a3e0 0bbe 3a0d c23d
00000120: d411 cebe 88f1 c33c 82b9 083f 93fa d53e
00000130: 49ca 683e 115a c6be 4c97 0d3b 010e 65be
00000140: a649 583d bb70 4e3e 89b2 84bc 4754 2abe
00000150: 6d3c 90bd 6b91 ac3e a1e0 423d 1992 093e
00000160: 55c8 343d 1704 74be afd0 133e 9ddd 2f3d
00000170: d76b 2e3e 800a babe 3dbe 7ebe b59c 3ebc
00000180: cbe4 863e 7d07 fa3d f670 8b3e 52d5 3abe
00000190: b8de 7cbe 4927 f03d bb46 0d3e eb72 52be
000001a0: 84f4 28bd 60d4 cabe 5291 8abe db22 99be
000001b0: 025d f2be 01e4 28be d734 9f3d d7b0 bcbe
000001c0: 1c53 443d aaa3 f53c 952b 19bf f488 16be
000001d0: 4bad 653d 4832 c5be f761 cabd 903f 42be
000001e0: 0aaa 123e f93e 06bd c886 febd c9a9 bfbe
000001f0: 72f5 d23d 37f9 ac3e 4bc8 6d3c 0043 f5bd
00000200: 56ee f53c 0ff9 4fbd 826a 2c3e 0dc2 8cbe
00000210: ec41 f9be 5709 7a3d 1db8 a0be 9a38 a0be
00000220: a4dd ebbd 6529 05bf 1da8 76be 1845 11bd
00000230: ea73 45be f411 8ebd 76ea 093e 89a2 393d
00000240: 9bb4 673d 22b6 633e 4bcb 293e 2dae d7be
00000250: 717f 793e 5bff 283d 4f0c 9fbd 3bdf 37be
00000260: 2ccc 383e 7db3 5dbd 0db7 1d3e 8081 ddbd
00000270: 084e 9bbe 005a ce3c 1412 cfbd 9560 64be
00000280: c144 dd3d 43a4 13bd 50ab 623e 5e25 39bd
00000290: 1e4c 9cbd 9ea1 47be 9f4a d13d be3a 8e3e
000002a0: 950f e0bd 2476 093e db9a 893c 031c 2fbe
000002b0: 087a f53d aa09 bbbb fb77 a83e 5de6 953e
000002c0: 79e9 9cbd 722c 7ebe 10a1 283e 62c4 adbc
000002d0: d687 d9bc 528b 57be b9cc 5c3e e6a0 8fbe
000002e0: 2d04 03be b2d1 243e b6db 6cbe 19ae 46be
000002f0: 70fc 633e b741 083d 4f97 21bd 47a2 053e
00000300: 58a3 19be 4d05 bd3d b7eb a3be d0f5 93be
00000310: 7f33 a63c 3d08 c0be 5e20 4e3d d7a3 8bbd
00000320: d519 e3bd b391 be3c 8c40 17bd f059 35be
00000330: a463 3d3d d78e fc3d 9b47 cabd 7d18 063e
00000340: 2f90 91bc 2448 17bd 9ad9 a6bd bbae c9be
00000350: 288e 213e 74af 06bd 752a 00be a1d7 c8bd
00000360: 79eb 4bbd a323 c03d 0120 bd3d b74c 96bb
00000370: cba0 ffbd 0533 2a3d 8794 de3d 38f8 573e
00000380: ce23 2b3e 0fc8 bc3e 6476 bb3d 0a1d 783b
00000390: 733b 033e 9356 d0bd 32ff e4bc e4be af3e
000003a0: 7c65 783e 76a7 d4bd 7547 6a3e 25f3 a4bd
000003b0: 53bb 50be 8c11 ab3d bd4e 173e bf91 51bd
000003c0: ca0f acbc 949c b33d 0d2b aa3d 609a 2fbd
000003d0: f5fb 23be dba4 b33d 7522 413e 43ae 57be
000003e0: 8659 9b3e 9ee8 bbbe 5a19 73be 2c7e 653e
000003f0: dca8 b8be 19fe 3f3d 8aca 43be 6958 91be
-0.24862032 0.03460826 0.20908074 -0.14174888 0.4722444 -0.10589797 -0.26537248 0.30454588
-0.15145633 0.4909498 -0.14328822 -0.1924378 -0.53456515 -0.15460962 -0.10104653 0.28530982
-0.16550966 -0.02444402 0.035808515 -0.1954425 -0.009405212 0.37609628 -0.4346442 -0.30425593
0.12504534 -0.06480462 -0.15316272 -0.4513704 -0.33335197 -0.007761848 0.14845715 -0.1446695
0.6124511 0.50693595 -0.24575214 0.32259634 -0.09057991 0.007312944 -0.116519056 0.44815665
-0.32684585 0.22466649 0.24304292 -0.13780287 0.10090337 0.126616 0.29059222 -0.14217466
-0.20967138 -0.016244318 -0.086043894 -0.36210617 0.078767456 0.041326784 0.13368906 0.019638529
-0.07447008 -0.319786 0.0011387101 -0.0906972 -0.30542323 -0.38263595 -0.0026769817 -0.078784965
-0.14154387 0.27910715 0.010092706 -0.17463456 -0.015178249 0.18397905 -0.13659911 0.09475179
-0.40247977 0.023918882 0.5340806 0.41792735 0.22733416 -0.3874059 0.0021605073 -0.22368623
0.05280461 0.20160191 -0.016198413 -0.16633712 -0.07042775 0.33704695 0.047577504 0.13434638
0.044136364 -0.23829685 0.14435075 0.042935956 0.17033325 -0.36336136 -0.24877258 -0.011634042
0.2634643 0.122084595 0.2723462 -0.18245438 -0.24694335 0.11726243 0.13796513 -0.2055165
-0.041248813 -0.39615154 -0.27063996 -0.29909405 -0.47336584 -0.16493227 0.0777375 -0.36853668
0.04793082 0.029985268 -0.59832126 -0.14700681 0.05607347 -0.38514924 -0.098819666 -0.1896956
0.14322677 -0.0327749 -0.12428051 -0.37434223 0.10300721 0.33783886 0.014513086 -0.1197567
0.030020874 -0.05077463 0.16837505 -0.274918 -0.48683107 0.061044063 -0.31390467 -0.31293184
-0.11516884 -0.5201629 -0.24087568 -0.035466284 -0.19282499 -0.06937018 0.13468346 0.04532102
0.056568723 0.22237447 0.16581456 -0.42125073 0.24365021 0.04125915 -0.077660196 -0.1795625
0.18046635 -0.05412625 0.1540186 -0.10815716 -0.3033297 0.0251894 -0.1011087 -0.22302468
0.108041294 -0.036045324 0.22135663 -0.04520165 -0.07631706 -0.19495246 0.10219311 0.27779192
-0.10940472 0.13423973 0.016797474 -0.1710053 0.11986166 -0.005707939 0.32904038 0.29277316
-0.07661719 -0.24821642 0.1646769 -0.021211807 -0.02655403 -0.2104924 0.2156247 -0.28052443
-0.12794562 0.16095617 -0.23130688 -0.1940235 0.22264266 0.033265796 -0.03945094 0.13050185
-0.15003717 0.09229527 -0.32015774 -0.28898478 0.020288227 -0.37506285 0.050323837 -0.06818359
-0.110889114 0.023262834 -0.03692679 -0.1771009 0.046237603 0.12331932 -0.09876939 0.13095279
-0.017768947 -0.036934033 -0.08146973 -0.3939112 0.15776885 -0.03288217 -0.12516196 -0.09806753
-0.04978511 0.09381797 0.0923462 -0.004586782 -0.12481841 0.041552562 0.10868173 0.21090782
0.16712877 0.36871383 0.091534406 0.0037859106 0.12815647 -0.10172763 -0.027953718 0.34325325
0.24257463 -0.10383503 0.22878821 -0.08054189 -0.20383959 0.08352956 0.1477613 -0.051164385
-0.021003623 0.08770099 0.083089925 -0.042871833 -0.16014083 0.08771678 0.188608 -0.2106257
0.30341738 -0.3670091 -0.2374014 0.22411412 -0.3606633 0.046873186 -0.19120231 -0.28387764

fc2.bias f4 [84]
00000000: cda1 80bd c308 363f 6cf1 fc3d a9ae c0be
00000010: a046 b0bd 466e 15bf b2b4 9e3e 65b5 ec3c
00000020: d6d8 35bd 75f7 2b3f 5fae 84be 1eae 833e
00000030: 58d2 4d3f 45ac 333f 1cc4 b1be e1be 59be
00000040: 6560 32bf 5752 153d 0c82 fbbd e90a 093f
00000050: a918 233e ce76 b33e 8c96 273f 9a86 38bf
00000060: f125 88bc dca3 0bbe 9933 d93e c9e0 3cbc
00000070: ce58 e93e 66d0 443e 510d 593e bc2a 15bf
00000080: 712f 5f3e f7fd 94be 8b74 46be c3dd debe
00000090: 2a52 af3e c4aa 0bbd f81a 34bf f1ff e13d
000000a0: 2db5 f5bd 92d9 01bf f314 c8be 873b 443e
000000b0: 034a 563f 9f63 803f 1d52 493f 8dd5 2cbf
000000c0: 583e 1cbe f7c7 c53f 10b4 70be 110d d23e
000000d0: 7365 c8be c2a1 d7bb 8a98 a3be c51e 6d3e
000000e0: 5f70 c0be 8b11 c33d 0e68 333f 204b 1a3f
000000f0: 7a39 b43e 71ad ac3e e765 b5be ee8a 15be
00000100: 750b e6be 29f9 683e 6ff0 883d 9640 d63e
00000110: 21af 8dbe b8fe b5bd 4794 c9be dfed 303c
00000120: 7acf cc3e bdb9 0fbe c995 01bf 16ce 953f
00000130: afe6 b43e 8049 273d d7d7 3a3e 288f ce3d
00000140: b897 a4bc ea75 a2be cbba ccbe 6204 17be
-0.06280861 0.7110712 0.12350735 -0.37633255 -0.08607221 -0.5837139 0.30997235 0.02889509
-0.044396244 0.67174464 -0.25914285 0.25718778 0.80399084 0.7018474 -0.34719932 -0.21264221
-0.69678336 0.03645548 -0.12280664 0.5353227 0.15927376 0.35051578 0.6546409 -0.72080386
-0.016619654 -0.13636726 0.42422178 -0.011528202 0.45575565 0.19220123 0.21196486 -0.5826833
0.21795441 -0.2910001 -0.19380395 -0.43528566 0.34242374 -0.0340984 -0.7035365 0.11035145
-0.11997447 -0.5072261 -0.39078483 0.19163333 0.8370668 1.0030402 0.7864092 -0.6751335
-0.15258157 1.545165 -0.23506188 0.41025594 -0.391399 -0.0065805623 -0.31952316 0.23156269
-0.37585732 0.095248304 0.7008065 0.6027088 0.352001 0.33726075 -0.35429308 -0.14603779
-0.44930616 0.22751297 0.06686484 0.4184615 -0.27672675 -0.08886474 -0.3937094 0.0107989
0.40002042 -0.14035697 -0.5061918 1.1703517 0.35332248 0.04084158 0.18246399 0.10085899
-0.020091876 -0.31730586 -0.39986262 -0.14747766

fc3.weight f4 [10, 84]
00000000: 63f2 a23d 86a5 a9be 6c8f 1dbe 184e 2b3e
00000010: 046c 893e e93a 5a3e 5997 033d c3cc 0abe
00000020: 210a 16be cef8 e1bc a108 233e 7777 0cbe
00000030: e91e 743e 1014 253e ffd3 bd3c 8c6d c63a
00000040: 46b3 f93c 8af0 423e d719 763e cfe4 b2bb
00000050: 8587 9bbd 37a3 c73d 882b 79bd e534 4e3e
00000060: 5251 823d 425c 83be 431b 91be 439b 103e
00000070: 5409 aebc 9aee b3bd be41 4fbe 9275 4e3e
00000080: 1ddb 673e 7818 63bd 6397 8c3d 15f9 8abe
00000090: 6677 9ebd fa19 883c d07c d4bd 3eb8 9d3d
000000a0: 0fa2 c63d c5d3 f73d bfae 7d3c d9ad a23c
000000b0: 9f78 e4bd 138b 1bbe 2619 71be 6f5d 56bb
000000c0: a9c3 213e 7d46 cfbd 2017 3a3e 77fb ea3d
000000d0: 5eff 703d c71b 783d e7fd 4fbd f040 113e
000000e0: bba9 893d df8c 88be b535 5a3d f75a 11bd
000000f0: 47ed 143c 6419 5cbe bdbd 703e 07ab 013c
00000100: c08f 543e 0cc8 84be 7bd3 6bbe 9c5d c1be
00000110: d7c7 9f3c e6f3 54bc e5e7 4a3e 70f2 ae3e
00000120: 17f8 0b3e 90d4 943e e6b7 103e a2d0 d5be
00000130: 12d0 37bd 8fff 823e a0e8 613d b845 97bd
00000140: 67d3 1f3e 2cc6 86bd 3a43 d13d 3116 753e
00000150: f387 3f3e 2ed2 c33d 7950 f4bd b7c1 a0bd
00000160: 32f1 d3be fcda d93d 134e 7fbe 0794 4ebe
00000170: 3ba7 433e bb6f b3bd 7f8e 10bb f03c d83d
00000180: 0e40 16be d8e6 be3d 02f6 1e3e 6ed3 e8bc
00000190: 6efb f9bc 8eb7 bd3d 26ed 82be ed07 423e
000001a0: a45b 9bbd 88a3 70be ffca 1e3e bbb0 0ebe
000001b0: a776 5bbd 43f5 7fbe c0f6 f8bd f9cd 4a3e
000001c0: 58a6 65be 94fc a3bd 1f06 8cbe 19ac 893e
000001d0: 3101 65bd e471 a2bd b6b5 d53e ec05 813e
000001e0: c85e ee3b bc0d 813e 00dc 5f3e b88f 923d
000001f0: b587 bdbc 7904 a33d b5ce 67bc f98e c4bd
00000200: a78a a2bd 26f8 64be 51e3 00bf 284b 1abd
00000210: 5d38 453e 14b3 d4bd 5aac d93d ea73 72be
00000220: a720 493e 1a7b 473e ae08 1abe f7c7 6abe
00000230: 88de 813e 6e67 173e b6ca 64be 3831 083e
00000240: 5036 3c3d e293 12be 5c82 c0be 6678 a5bd
00000250: 6692 d23a d928 b53e a1ba 2dbe e692 983d
00000260: 0863 2cbd deeb 503d 484f 6dbe 915f 3e3e
00000270: f2f4 7c3e 1de0 e53d 7556 b6bd 3678 d4bd
00000280: 85c5 0bbe 7142 d3bd c168 3c3d 01b0 77bd
00000290: 8a48 843e c782 c53d 4934 243e 1fcd b6be
000002a0: 3d0b da3e 91e5 123c b719 783d ea1b 8d3d
000002b0: 61f1 8ebd 749b 543e f960 2abe 3ca3 4a3e
000002c0: cd66 a93c 2eed 4b3d 8cfd 383e cd04 c7be
000002d0: d77d 013c b82f d3bd 88a5 a53d 3a76 f03d
000002e0: 96a9 453e bbf0 21be 0210 a63c acb7 90be
000002f0: dfb6 babe ed8a 443e 624b b1bd 158d 3bbe
00000300: 5f44 29be 3161 e03c 94e0 253d 9bd0 0bbe
00000310: 9522 453d 8aa9 acbd f886 c13d 6bd0 313e
00000320: e6f0 383e 2b5f 993e 5ae5 c8bd dc36 e93d
00000330: be13 01be bd0b 233e 5fa2 d3bd 1b57 6e3d
00000340: c135 d4bd 2ae5 133c 0529 883e 0b37 8b3e
00000350: 9858 2d3e 3c99 f03d 1f65 2a3e a514 e53d
00000360: ee2f 58bc 26d4 bd3d 8c47 8ebe 107d 3f3e
00000370: a154 2bbe c69f 34be 63a4 efbb 7baf 2ebe
00000380: e176 ec3d f57a 6fbd 4627 3d3d a30b 853e
00000390: a058 c33e 1d24 4a3e de60 9d3e 49b7 3b3e
000003a0: 98df b3bd d50e cebd dbb9 203e e192 73bd
000003b0: 2645 cabd 6484 043e e341 f7bc 18f9 83be
000003c0: 70ca e4bd 700c 6dbd a401 90be 6a8b fa3c
000003d0: e0e6 873d 20c8 b63d 1461 7abe d5f5 05be
000003e0: 3316 87bd 766e 983e ff8e 3e3e 22df 62bc
000003f0: aa36 d13b 9f3e 3e3e 751b 3bbe ee5f 1bbe
0.07956388 -0.33134097 -0.15386742 0.16729009 0.26840222 0.21311535 0.03212676 -0.13554673
-0.14652301 -0.02758446 0.1592126 -0.13717447 0.23839916 0.16120934 0.023172377 0.0015138849
0.030480992 0.19037071 0.24033295 -0.005459405 -0.07594208 0.09747928 -0.06083253 0.20137365
0.06363167 -0.25656325 -0.28341112 0.14121728 -0.021244682 -0.08785744 -0.20239922 0.20162037
0.22642179 -0.055443257 0.06864812 -0.2714316 -0.07737617 0.01661395 -0.103753686 0.07701157
0.09698879 0.12100939 0.015483557 0.019858288 -0.11155819 -0.15189771 -0.2354475 -0.00327095
0.15797295 -0.101208664 0.18172884 0.11473744 0.058837287 0.060573366 -0.05077925 0.14184928
0.06721827 -0.26669976 0.053273875 -0.03548714 0.009089774 -0.21494061 0.2350988 0.007914311
0.20757961 -0.25933874 -0.23029892 -0.3776673 0.01950447 -0.012997603 0.19815023 0.3416934
0.13668858 0.29068422 0.14132652 -0.41760737 -0.044876166 0.255856 0.05515349 -0.07386345
0.15607987 -0.06580767 0.102179006 0.23934247 0.18704204 0.09561573 -0.119294114 -0.07849448
-0.41394955 0.10637471 -0.24932127 -0.20173655 0.19106762 -0.08761545 -0.002205759 0.10558498
-0.14672872 0.09321374 0.15523532 -0.02842113 -0.030515399 0.09263526 -0.25571555 0.18948336
-0.075858384 -0.23499882 0.15507124 -0.13934605 -0.053579953 -0.24995904 -0.12156439 0.19805135
-0.22426736 -0.0800716 -0.2734842 0.26889113 -0.05590934 -0.07931879 0.41740197 0.2519983
0.0072744824 0.2520579 0.21861267 0.071563184 -0.023136 0.079598375 -0.014148404 -0.09597582
-0.07936602 -0.22360286 -0.5034686 -0.03766933 0.19259782 -0.10385719 0.106285766 -0.2367703
0.19641362 0.19480553 -0.15042374 -0.22927843 0.2536509 0.14785549 -0.22342953 0.13300025
0.045950234 -0.14314225 -0.37599456 -0.08079605 0.0016065359 0.35382727 -0.16965725 0.07449894
-0.04208663 0.05100619 -0.23174775 0.18591143 0.24702814 0.11224387 -0.08903209 -0.10374491
-0.13649566 -0.10315407 0.04599834 -0.060470585 0.25836593 0.096440844 0.1603557 -0.3570337
0.425867 0.008965866 0.0605714 0.0689009 -0.06979633 0.20762426 -0.16638555 0.19788831
0.020678902 0.04978674 0.1806547 -0.3887085 0.007903538 -0.10311836 0.08088213 0.117413
0.19302973 -0.15814488 0.020271305 -0.2826513 -0.36467645 0.19193621 -0.08656956 -0.18315537
-0.16529988 0.027390094 0.040497378 -0.13653795 0.048128683 -0.084307745 0.09449571 0.17364661
0.18060645 0.2995542 -0.0980937 0.11387417 -0.12605187 0.15922447 -0.10333704 0.05818854
-0.10361815 0.009026805 0.26593795 0.27190432 0.16928327 0.11747977 0.16640137 0.11185578
-0.013195021 0.0926898 -0.2778896 0.18700051 -0.16731502 -0.17639074 -0.0073132976 -0.17059128
0.11546112 -0.05846687 0.046180032 0.2598544 0.38153553 0.19740339 0.30737966 0.18331636
-0.087828815 -0.10061423 0.15695898 -0.059466247 -0.0987647 0.12941128 -0.030182784 -0.2577598
-0.111714244 -0.05787319 -0.28126252 0.030584056 0.06635833 0.089248896 -0.24451095 -0.13082059
-0.06596031 0.29771775 0.18609236 -0.013847144 0.0063846903 0.18578576 -0.18272193 -0.15173313

fc3.bias f4 [10]
00000000: d275 73bf 4df2 93bf 64ea 4cbf 8867 3b3f
00000010: 483f e83f b048 8fbe 0157 a93f 9e5d 0ebf
00000020: 7a03 ccbd 2ebe 123e
-0.95101655 -1.1558319 -0.8004515 0.7320485 1.8144312 -0.27985144 1.3229676 -0.556116
-0.099616006 0.1433036
