models/DVERGEadv_submodel_1_50epochs.pth (torch, 252090 bytes, 10 tensors)

conv1.weight f4 [6, 3, 5, 5]
00000000: fc68 753e 23df e13e afc6 fe3e e2cb b63e
00000010: bf7c 0d3e 7a04 b13e 6b2d 0d3f 105a 0a3f
00000020: 1807 cb3e b77c 583e a5d6 633e 2330 5b3e
00000030: 4d73 163e 5115 053e 0ab1 c73d 2bd1 debb
00000040: 61cf f8bd 2ba7 09be fed5 95bd 2235 ffbc
00000050: d72c febd 1291 25be 8fcf 82bd 38d3 82bd
00000060: 5067 a3bd accb d5bc 16d5 a33c 3bce 693d
00000070: 3fe6 9b3c 93c6 f9bc 9b32 863b aecb 913d
00000080: 35dc b83d 715c 0c3d d94d b3bc 35a1 fcbc
00000090: 7d24 c3bd 1ef8 36be 0685 47be 70a8 e3bd
000000a0: b113 fdbd f3cd ebbe 51f4 27bf 6acb d0be
000000b0: 8a65 2bbe 3c4e 20be fa2b 9bbe f092 63be
000000c0: 7bb4 3fbe f10a 04be 3ab2 123d ed24 ba3d
000000d0: 4e21 f73d 3c35 993d b6e9 a23c cffc 573d
000000e0: 9e72 c03d ee11 873d 5fff 5d3c 6c38 20ba
000000f0: f7a9 b93c ddad edbd 6457 78be f620 48be
00000100: 5bc3 77bd 950c 0dbd 09a6 6dbe d23f 94be
00000110: ed54 37be d863 53bd 2454 c6bc 9e3d 3ebd
00000120: 3b5d b0b9 dbc6 74ba e6b7 d5bb 5c73 4e3e
00000130: c39e 003d febd b6be 3bb6 9ebd 04c6 243e
00000140: ccfd b63e 9060 8dbe e37b 80bf e6f5 1e3e
00000150: 2022 193f 3500 cc3d 052e 18bf 3491 22bf
00000160: 4e3f e73e 48b6 1e3f 9f37 f2bd 7b6d 96be
00000170: 4a7b 72bd faff 993e 72ca 8e3e d365 b4bc
00000180: 9f3d 463b ce91 223d 5e4a 833d 9fbd 0a3e
00000190: 992c d43d c11f ac3c 79cc 49be e9c8 00bd
000001a0: 9565 963d d5ee 483e eb29 25be fcc6 1fbf
000001b0: f147 d63d 562a 953e 5b26 813d d37b b6be
000001c0: 4844 bbbe 337e 6e3e 2d5f 913e e0fe 82bd
000001d0: 1daa 2cbe fdb2 30bd d308 013e e865 e03d
000001e0: ddf9 c8bc fb18 63bc 8aa8 80bb 4ea1 513b
000001f0: 3676 173d a3f5 313e c28b 2b3d 5605 b4be
00000200: d8c4 9cbd e85e d53d 67d7 b43e 93d7 4bbe
00000210: b064 74bf 0d3b 363e 8845 f53e 474f 0d3e
00000220: 9c92 f1be d5dd 03bf 0cd0 d93e c17f 013f
00000230: 02c0 93bd 1f3d 52be 4ab9 cdbb f39b 883e
00000240: bf22 633e 7a4b 99bc 36fd 5f3c 1d9c 293d
00000250: b00f 613d 89ee c63d 4ad4 efbd b856 4bbe
00000260: ce06 5dbe 02bd 4fbe c612 08be ee30 49be
00000270: 0366 21bf 7ef2 52bf c63d fabe b8d0 25be
00000280: 5d74 77bd 9211 dabd f262 aabd 9f58 2ebd
00000290: 5962 bbbc 1640 393e 75d7 f13e 67bd 253f
000002a0: 19b0 df3e 039f 1f3e 2571 3e3e 3267 a53e
000002b0: 1eed c13e 446d 903e b0a8 153e ab6f a7bc
000002c0: de91 67bd aba3 90bd 26c5 7cbd 4bb2 e5bc
000002d0: f1a0 80bd feb3 88be 443a b5be 100c 3fbe
000002e0: 86e7 25bd 8e05 83bc 8085 debc 5726 61bc
000002f0: 7b91 db3a 50d6 163b d2b2 9a3d 39a2 533e
00000300: 9501 8f3e b319 373e a56b 783d fc29 7e3d
00000310: 4c56 f03d fa0e 133e 775d d83d eead 493d
00000320: 5e59 6cbd 0b16 b3bd 525c c4bd 4473 d4bd
00000330: 384b 9dbd 9291 04be 8131 d5be 70c7 07bf
00000340: ae00 9fbe 060a cfbd 3cea 29bd 78a2 a0bd
00000350: e91a 88bd 11fe e6bc 846a 40bc 1ab1 fc3d
00000360: 7097 c13e d120 073f d88c ac3e aeea ce3d
00000370: 95c3 cf3d 1f00 583e 4415 803e 61a5 323e
00000380: 0041 923d 0f29 d3bc 89a8 d3bc 110f 823d
00000390: 8b91 a93b 93ab b93d d910 1bbd a6d3 98bd
000003a0: c8cb 533d 795a d2bd 8242 dfbd 121f b23d
000003b0: 9bab 4fbd a269 9ebd b362 75bd dda3 c9bd
000003c0: f79f 813d 54f1 b0bd 4b85 dbbd 9389 eabd
000003d0: fbcf 97bd 3ca0 a63d eacf 0b3d 9446 b8bd
000003e0: 1d5a 77bd 9e80 1ebd 6f98 ed3c 41b4 b6bd
000003f0: f724 83bc ce63 aabd d911 30bd 6888 bbbd
0.2396583 0.44115552 0.4976096 0.35702425 0.13817118 0.34573728 0.5514743 0.54043674
0.3965385 0.21141325 0.22249849 0.21405081 0.14692421 0.12996413 0.097505644 -0.006799837
-0.121489294 -0.13442676 -0.073162064 -0.031153265 -0.12410896 -0.16168621 -0.06387245 -0.06387943
-0.0797869 -0.026098095 0.019999068 0.057081442 0.019030688 -0.030490195 0.004095388 0.07118927
0.09026376 0.034267846 -0.021887707 -0.030838588 -0.09528444 -0.17868087 -0.19484338 -0.11116111
-0.123572715 -0.46055564 -0.6560717 -0.40780193 -0.16737953 -0.15654844 -0.3030699 -0.22224021
-0.18721192 -0.12894799 0.0358145 0.09089074 0.12066899 0.07480857 0.019886833 0.05273133
0.093968615 0.06595217 0.013549655 -0.0006111923 0.022664053 -0.116054274 -0.24252087 -0.19543824
-0.06048904 -0.034435827 -0.23207869 -0.2895494 -0.1790349 -0.05160889 -0.024210043 -0.04644548
-0.00033638798 -0.0009337493 -0.0065221665 0.20161194 0.031401407 -0.35691828 -0.077496015 0.16091162
0.35740507 -0.27612734 -1.0037807 0.1552349 0.59817696 0.09960977 -0.5944522 -0.6350281
0.45165485 0.6199689 -0.11827015 -0.29380402 -0.05919961 0.30078107 0.2788883 -0.02202121
0.0030249131 0.03968983 0.06410669 0.13548897 0.10360069 0.021011235 -0.19706906 -0.031441603
0.07343594 0.19622357 -0.16129272 -0.62413 0.104629405 0.29133862 0.06306144 -0.35641345
-0.36575532 0.23290329 0.28392926 -0.0639627 -0.16861768 -0.043139447 0.12601022 0.10956937
-0.024533207 -0.013860936 -0.0039263414 0.0031987014 0.03697797 0.17378859 0.04188133 -0.3516032
-0.076547325 0.104184926 0.3532059 -0.19906454 -0.95466137 0.17795964 0.4790461 0.13799773
-0.47182167 -0.51510364 0.4254154 0.5058556 -0.07214357 -0.20531128 -0.0062781917 0.2668148
0.22181223 -0.018712748 0.01367121 0.041408647 0.0549466 0.09713466 -0.11710413 -0.198573
-0.21584627 -0.20286945 -0.13288411 -0.19647571 -0.6304628 -0.82401264 -0.48875254 -0.16192901
-0.060413707 -0.106478825 -0.083196536 -0.042564984 -0.022874044 0.18090853 0.47234693 0.6474213
0.4368904 0.15588002 0.18597849 0.32305294 0.3787622 0.28208363 0.1461513 -0.02043899
-0.056535594 -0.07062467 -0.061711453 -0.028039118 -0.06280697 -0.26699823 -0.35396016 -0.18656945
-0.040504 -0.01599386 -0.027163267 -0.013742051 0.001675173 0.0023015924 0.075536385 0.20667352
0.27930894 0.17880897 0.060649533 0.06205176 0.1173521 0.14361182 0.10564702 0.049238138
-0.057702415 -0.08744439 -0.09587921 -0.10373548 -0.076803625 -0.12946156 -0.4163933 -0.5303869
-0.31055206 -0.10109334 -0.04148315 -0.078434885 -0.06645758 -0.02819732 -0.011744145 0.12338467
0.3781085 0.5278445 0.33701205 0.10103355 0.10144726 0.21093796 0.25016224 0.174459
0.07141304 -0.025776414 -0.0258372 0.0635053 0.005174821 0.09065928 -0.037857864 -0.07462244
0.051708013 -0.102711625 -0.10901357 0.086973324 -0.050700765 -0.077349916 -0.05990858 -0.098457076
0.06329339 -0.0863978 -0.10718783 -0.114520214 -0.07412716 0.08136031 0.03413383 -0.08997837
-0.060388673 -0.038696878 0.02900335 -0.089210995 -0.016008837 -0.083198175 -0.04298577 -0.09156877

conv1.bias f4 [6]
00000000: 9752 0e3d 5029 c3bd b0fc 10be ad55 5dbd
00000010: a4f0 3bbe 7d11 02bf
0.034746733 -0.09529364 -0.14158893 -0.054036785 -0.18353516 -0.50807935

conv2.weight f4 [16, 6, 5, 5]
00000000: 6b7b 6f3d c0e4 243d 2f47 7fbc ee53 15bd
00000010: 9cba 793c 0623 d13c a281 103e adad 6a3d
00000020: 0e00 cdbd 3738 7abd d4f8 49bd e8fb 133c
00000030: 1509 0c3e 526c 903d 031c 4dbd 199b 39bb
00000040: d7a9 8fbd e9c3 34bd bb96 a03d a642 073d
00000050: b83f 22bd 3dc6 15bd f337 86bc 114d fdbc
00000060: 365a c43d c6bb 013d d1fc 323c 7080 41bc
00000070: 5393 2b3b 4985 803b 2f55 243d e978 6a3d
00000080: cd57 ba3c db12 22bc 8e58 9fbb 1622 1d3d
00000090: 0da0 933d ed82 b23d d32b 5a3d 2c0e 663c
000000a0: b163 f43c 3bdb ff3c 2580 903d acb5 be3d
000000b0: b1ef 363d e7f1 9cbc 7107 b03c f789 033d
000000c0: bdf4 b33d be37 4c3d 3cb7 823c ab04 08ba
000000d0: 42e4 a03c 9851 dd3c b30e 2ebb a786 8abc
000000e0: c860 c6bd 15e9 d9bd cae0 18bd b2c3 9cba
000000f0: 8a1d 7e3d 0b8e 913c 8691 21be 7cd3 44be
00000100: 4563 0ebd 350f 153d 1b64 de3d dc94 c23d
00000110: 38f6 c1bd 3b7a 09be 78e0 98bc c3d4 d03b
00000120: 4cce 963d c30d a63d ed59 303d 578a 29bd
00000130: d5da 22bd cfc0 5d3d c7ad e5bc 5d5b 5e3d
00000140: 1d4f 113d 87b2 443d 3209 8a3d df51 87bb
00000150: 1704 8f3d 1cbc 523a 3602 25bc 3221 02bd
00000160: 4be4 08bd 58b5 42bd 793d 5dbd 0917 99bd
00000170: 2ad6 4cbc 179e debc 831e 00bc 4208 a9bb
00000180: d865 6dbd 80fd 9e3d 05ac 2d3d 87e5 f2bc
00000190: 5842 ac3c 867d 763d f601 7c3c 4a92 bb3c
000001a0: feef 6e3c e5d0 2abd de9d b13d 1fd6 993d
000001b0: d42b 983c f731 463c acc2 e6bd 0ffe d6bd
000001c0: ba77 013e 7283 023e 05d5 873c 9b65 e03c
000001d0: 81f1 69be 24ae 4dbe b5a8 2d3e f7a1 023e
000001e0: e307 ae3d 4aa6 0f3d a83d 29be ccc3 f0bd
000001f0: 03f3 3b3d 47d1 4fbe c770 533e 0886 c13e
00000200: 7216 823e 0dab d13d 4a1e 16bf 415f 06bf
00000210: f205 cf3e fa89 0f3f 4fbc 1a3e 65e7 2d3c
00000220: 2615 9cbf 48a8 05bf 695c 4e3f d420 283f
00000230: ae35 253f e1d2 f6be 23de 9ebf 9113 60be
00000240: 51fa 293f ab07 1c3f 9aad 513e ea62 bdbe
00000250: b0a5 0dbf aac5 94bd d7ad d23c 6c79 23bd
00000260: 9ec8 20bd b4e5 0c3c 7bdd 7d3d b92d 7b3c
00000270: 82c6 393d ba10 f93c 2648 3f3d f1bf 9b3d
00000280: 5479 a43d 84d4 e03d 713d 003e 1191 c43d
00000290: 6083 9b3d 26bb c83d 8c81 6f3d 9628 993b
000002a0: 691e bcbd 5a54 e43b 6c35 3b3e 5adb ca3d
000002b0: c031 093d c95c a7bc 9485 953d 6e76 e4bb
000002c0: e7db 003c f2c9 063d 1380 3c3d c6c8 663c
000002d0: 40ec 643a 62b0 77bb de3e 113b 2d9b 093d
000002e0: 7dc0 673d 2556 a2bc 56eb 20bd 869b a2bc
000002f0: 8f60 6e3d a9fa a63d e61f 69bd 98aa 97bd
00000300: 9b50 4b3b 98c7 b93d 77de cd3d 4266 43bd
00000310: 1f3d d1bc 7941 7b3d dee1 853d 434b abba
00000320: 3103 a53d 51c9 053e a49d 173e 2015 ea3d
00000330: d342 a93d 2b24 f43d 4ecf 723d 977e cd3d
00000340: 3018 b33b f1fa 373d 2f8f 903d 6c9a 3e3d
00000350: 26d4 963d c752 8e3d 0ec3 123e f952 f4bb
00000360: 2aae ddbc e32d c03d e4e8 6d3e b7b9 3c3e
00000370: 1dd3 e03d 21f8 563e d010 983e d4ae 9f3e
00000380: 5a76 ba3d 29d6 363d a7f5 69ba cf0f 8c3b
00000390: 5f94 9a3d 081d 563d 33e4 81bd 2ef9 123d
000003a0: ee91 82bd a233 8c3c 83fc 043d f52f 81bd
000003b0: c13f 5cbc eb6a 70bd 742a 223c 25dd ca3c
000003c0: 02a0 9e3d 9c22 a6bd 3686 883d ab60 9dbd
000003d0: 363c a3bd ee5f 023d 3817 1a3d 3834 d3bc
000003e0: 16c7 873c cbd7 febc 09f2 52bd 82ec 2bbd
000003f0: 7f78 83bd d104 3d3c f05e f6bc 4192 75bd
0.05846731 0.040257215 -0.015580936 -0.036456995 0.015242245 0.025529396 0.14111951 0.057294536
-0.10009776 -0.061088767 -0.049309567 0.009032227 0.1367534 0.070519105 -0.050075542 -0.0028321205
-0.07014816 -0.044132147 0.078412496 0.033022545 -0.03961155 -0.036566008 -0.0163841 -0.030920537
0.09587519 0.031673215 0.010924534 -0.011810407 0.0026180341 0.003922139 0.0401203 0.057244215
0.022746945 -0.009892191 -0.0048628515 0.038362585 0.07208262 0.08716378 0.05326445 0.014041465
0.029832693 0.031232467 0.07055692 0.09311995 0.04466218 -0.019158317 0.021487923 0.032113995
0.087869145 0.049857847 0.015956514 -0.0005188684 0.019640092 0.027016446 -0.0026559054 -0.01690991
-0.09686428 -0.1064016 -0.03732375 -0.0011960177 0.06203989 0.017767927 -0.15778169 -0.192213
-0.03476264 0.036391456 0.10858937 0.09501049 -0.094707906 -0.13425533 -0.018661723 0.0063730194
0.07363567 0.081080936 0.04305451 -0.041391697 -0.039759476 0.054138955 -0.028036965 0.05428635
0.03547584 0.04802182 0.06740035 -0.004129633 0.06983202 0.0008038895 -0.010071328 -0.03176994
-0.033420842 -0.047536224 -0.054013703 -0.07475097 -0.012502233 -0.027174992 -0.007819775 -0.005158455
-0.057958454 0.07763195 0.04240038 -0.029650463 0.021027729 0.060178302 0.015381327 0.022896904
0.014583586 -0.041703124 0.08672689 0.075115435 0.018575586 0.0120968735 -0.112675995 -0.104976766
0.12643328 0.12745455 0.016581068 0.0273922 -0.22846033 -0.2008596 0.16958888 0.12757097
0.08497598 0.035070695 -0.16527426 -0.11756095 0.04588605 -0.20294677 0.2064849 0.3779757
0.2540775 0.102377035 -0.5863997 -0.52489096 0.40434223 0.5606991 0.15110897 0.010614251
-1.2193954 -0.522099 0.80609757 0.6567509 0.64535034 -0.48207763 -1.2411541 -0.21882464
0.6639758 0.609492 0.2047638 -0.36989528 -0.55330944 -0.07264264 0.025717659 -0.03991072
-0.039253823 0.008599687 0.0619788 0.015330725 0.045355327 0.030403484 0.046699665 0.07604969
0.08030954 0.10978034 0.12523438 0.09597982 0.07593417 0.09801321 0.058473155 0.0046740277
-0.09185488 0.0069680633 0.18282098 0.09905119 0.03349471 -0.020429986 0.07300869 -0.0069721257
0.007864929 0.032907434 0.04602058 0.014085954 0.0008732714 -0.0037794341 0.0022162716 0.033595253
0.056580056 -0.019816468 -0.039286934 -0.01984955 0.058197554 0.081532784 -0.056915186 -0.07405585
0.0031023386 0.090712726 0.100521974 -0.047704943 -0.02554184 0.061341736 0.06537221 -0.0013068694
0.08057249 0.13065077 0.14806229 0.114298105 0.08264699 0.11920961 0.059279732 0.10033911
0.00546553 0.04491705 0.0705856 0.046533987 0.07364683 0.06949382 0.1433222 -0.00745618
-0.027060587 0.09383752 0.23233372 0.1843022 0.10977767 0.20993091 0.29700327 0.3118807
0.09104605 0.044637833 -0.00089248497 0.0042743455 0.07547831 0.05227378 -0.06342354 0.035882168
-0.0637549 0.017114464 0.032467376 -0.06307975 -0.0134429345 -0.058695715 0.009897817 0.024763653
0.07745363 -0.0811207 0.06666224 -0.076844536 -0.07970469 0.031829767 0.0376198 -0.025781736
0.016574424 -0.031108757 -0.051500354 -0.0419736 -0.06419467 0.011536793 -0.030074567 -0.05995393

conv2.bias f4 [16]
00000000: 9898 9dbe 1392 553f 784d 1d3d a627 bcbe
00000010: ccce 27be 5372 403f 87f5 0ebf 8e5a 2b40
00000020: 5c3d f8bd 52a4 633f fbc7 95bf 812d 03be
00000030: d921 24bf ac0c 85be 20dd 8bbe d89b 35bf
-0.30780482 0.83426017 0.038403958 -0.36749 -0.1638748 0.75174445 -0.55843395 2.677402
-0.12121078 0.8892261 -1.1701654 -0.12810327 -0.6411415 -0.2598623 -0.27317142 -0.70940924

fc1.weight f4 [120, 400]
00000000: 5772 1d3d 37b6 ba3b 8052 6dbb d52e 11bc
00000010: 644a 98bc 049d 343c 7e0d 753d a72c 46bd
00000020: d2bd ab3c 31d5 babc de09 583d 06bd f23d
00000030: 5306 a7bd e72c 9dbd 79cc fbbd bf64 37bd
00000040: 2773 0abd 3f32 2ebe 93cc bdbc 577e 1b3d
00000050: 0113 e7bd 6c29 1fbe d012 c5bd df72 0ebd
00000060: 375e 1b3d 2d24 b0bc 3bbd 69bd 9942 aabc
00000070: e805 e6bb ecb2 e7bc d685 e83c f0c3 153d
00000080: f098 063d 07cb b23d c252 af3c 480f b03b
00000090: ee17 ce3d faea ee3d 0be6 de3d 40c0 193d
000000a0: 1515 7ebb c76c 463d f556 ad3d 5e02 993d
000000b0: 96a2 273d 8d1a b63b fa48 47bc 65c1 a0bb
000000c0: 5f22 26bd 67f0 723c a81c a43b e1c7 bbbc
000000d0: df02 3c3c c45c bfba 676a 23bc 9c1f 0e3d
000000e0: fef0 8a3c 61f4 123d 36c6 abba e156 843c
000000f0: a8ce b4bb 8d98 283d e81b c7bc e722 35ba
00000100: cd3c 5bbc 15c1 bd3c 7f50 99bc bef2 9ebb
00000110: 364b babb baef 963d 37cf ddbc b533 44bc
00000120: 2f5a 013d 5d5e 813c 23c1 2d3b 5fac 9fbd
00000130: afd2 7fbd 821b ec3c 00ae 7dbd 387c 0cbe
00000140: 3d49 9a3b eae7 06bd 1ea5 9a3c 957f 74bd
00000150: 7222 95bd 3a1f 6dbd 6f4e 5a3d c862 123d
00000160: 0aae 293d 507b aa3c 706a 2f3d 0643 bfbd
00000170: 882e 6abd 7fd4 05bc 01a0 11bc d6b2 2e3d
00000180: 9547 8cbd 40fa 0bbd aef7 1c3d 34a3 483d
00000190: bf6a 9cbd 886d 92bd a777 fbbd 394e 08be
000001a0: 1d9c aabd d86d 31bd 00cb dcbd 7fa2 d2bd
000001b0: ca79 aabd 7dc5 9abd a594 13bd 893d f0bc
000001c0: debc 0c3d d7d9 c1bd 0efe 05be 13fe b4bc
000001d0: 64d3 b1bc b0d5 e0bc a2f7 e5bc 609b debd
000001e0: 1207 42bd 3ccd 253c 052e 713d 8eb1 043c
000001f0: e162 80bd 80e2 94bd dad9 383d e25a ae3b
00000200: 95d1 ebba 7250 8f3c 1626 93bb 2666 dd3d
00000210: bd71 de3c 6889 8dbb 631d 213d 7e50 a33c
00000220: db29 373d 0056 7d3d 7148 a13a 01e7 0a3e
00000230: 6a59 223c 6803 073e 13fa be3d 3754 c13d
00000240: 1337 753b 8254 97bc 23f1 f23d 4489 543d
00000250: ad9c e13b 1f61 983c c8f3 bf3c 4609 4c3d
00000260: af20 dcbd c771 bdbc fb2b a13c 218e afba
00000270: f7be 05be 4778 d7bd 2757 e1bd 1d86 e9bc
00000280: b9c5 79bd a331 fd3c a83f 85bd 8618 03be
00000290: 1e1b 3ebd 63e7 3f3d ba63 c83c ae91 8cbd
000002a0: a6a1 46be f5f7 90bd 0941 883d bcc0 f1bd
000002b0: 9b82 1abe 9466 bcbd b4fb 87bd 1aab 893c
000002c0: 31e6 c23b e06b 94bd c009 16bb dcd6 ed3d
000002d0: f48a 133d 795a a3bd 9868 593d 474e a33d
000002e0: 031b b43b abd6 893d 7701 c43d 3bcb c8ba
000002f0: aead debb 2cd7 c23c 3e46 8b3d f9ad a13d
00000300: ed3a 033d a06a 0a3d 0c2d b83d bca6 903d
00000310: af22 c43d c01c f23d b53c 823d b895 823d
00000320: 8df4 653d 43fb f73d a468 c6bb 9149 a13c
00000330: b717 70bd 1245 7bbd 61b6 823c 797d 8dbd
00000340: b0d7 f7bc 883a 2f3d fbab 93bc ff13 5a3d
00000350: 8722 7a3b 80ad 4a3d e5c1 20bd 3fad 96bc
00000360: 6b7a 80bd 31f5 a3bd 2f02 e6bd 81ed f5bd
00000370: 66a8 3ebc 1f62 7e3c dbfc 11be ffce 17be
00000380: accb 05be 38b9 2ebc 1ff3 dabd 0c39 f8bc
00000390: 8d54 f93a a071 76bc bb64 24bd 9327 e6bd
000003a0: 7ab3 6e3c 44ae 5d3c 003e 0dbc 49fc e63d
000003b0: b8bb 833b e7ad 113c cd80 beba e410 fbbd
000003c0: d6bc cb3d 41a0 453d 9108 42bd 3d80 503d
000003d0: c138 923c e242 b2bc 52e1 f23c cde7 e83c
000003e0: 0508 7d3d 3fc3 e63c 12a8 923d 10c4 08bd
000003f0: e1ed 1abd c340 c1bc 4c57 98bd 436a f73b
0.03843912 0.0056979912 -0.0036212504 -0.008861263 -0.01859016 0.011023764 0.05982732 -0.048382428
0.020964537 -0.022806736 0.052743785 0.118524596 -0.08155503 -0.0767458 -0.122948594 -0.044773813
-0.033801224 -0.17011355 -0.023168838 0.037962284 -0.112829216 -0.15543145 -0.09622729 -0.03477752
0.037931647 -0.021501625 -0.05706523 -0.02078371 -0.007019747 -0.028283559 0.02838413 0.036563814
0.032860696 0.08730131 0.021401767 0.0053729154 0.10063158 0.11665912 0.10883721 0.03753686
-0.003876989 0.048443582 0.08463851 0.07471155 0.04092654 0.0055573643 -0.012163395 -0.004905867
-0.040560123 0.014827824 0.005008299 -0.022922458 0.011475294 -0.001459979 -0.009974099 0.034698114
0.016960617 0.03587759 -0.0013105336 0.016154708 -0.0055177994 0.04116111 -0.024305299 -0.0006909803
-0.013381195 0.023163358 -0.018715141 -0.0048507145 -0.0056852354 0.07369943 -0.027076347 -0.011975219
0.031580146 0.015792066 0.0026512824 -0.07796549 -0.062456783 0.02882171 -0.061933517 -0.1371926
0.0047084377 -0.032936014 0.018877562 -0.059691984 -0.072819605 -0.057891108 0.053297456 0.035738736
0.041425742 0.020810753 0.042826116 -0.093389556 -0.057173282 -0.008168339 -0.008888246 0.04265102
-0.06849591 -0.034174204 0.038322143 0.048983768 -0.07637548 -0.07149798 -0.12278681 -0.1331109
-0.083305575 -0.043317646 -0.10780907 -0.102849 -0.08324011 -0.07557199 -0.03603043 -0.029326217
0.034359805 -0.09465378 -0.13085195 -0.022093808 -0.021707244 -0.027445644 -0.028072182 -0.10869479
-0.047370024 0.0101197325 0.05888178 0.008098973 -0.0626886 -0.07269764 0.045129634 0.0053208927
-0.0017991537 0.017494414 -0.004490624 0.10810499 0.027153844 -0.0043193586 0.039334666 0.019935843
0.04471765 0.061849594 0.0012304914 0.13564683 0.009909013 0.13184893 0.093250416 0.09439891
0.003741686 -0.018472914 0.118623994 0.05188872 0.0068851323 0.018600998 0.023431674 0.04981353
-0.107484214 -0.023125542 0.019674292 -0.0013393798 -0.13061129 -0.10520988 -0.11002951 -0.028506333
-0.06097958 0.030907458 -0.06506282 -0.12802324 -0.04641258 0.046851527 0.024461616 -0.06863724
-0.19397601 -0.07078544 0.066530295 -0.11804339 -0.15088885 -0.09199253 -0.066398054 0.01680522
0.005947851 -0.07247138 -0.0022893995 0.11613247 0.036021188 -0.07976241 0.053078264 0.079739146
0.005496384 0.06730398 0.09570592 -0.0015319356 -0.0067956066 0.023784243 0.06800507 0.07894511
0.032038618 0.03379309 0.08992967 0.07063052 0.09576928 0.1182189 0.06359235 0.06376213
0.056141425 0.12108471 -0.0060549546 0.0196884 -0.058616366 -0.061345167 0.015956106 -0.06908698
-0.030254215 0.04278043 -0.018026343 0.053241726 0.0038167553 0.04948187 -0.039247412 -0.018393157
-0.062733494 -0.08005751 -0.11230885 -0.12008191 -0.011636829 0.015526324 -0.14256613 -0.14825056
-0.13065976 -0.010664277 -0.10690903 -0.03030064 0.001902239 -0.015041739 -0.040135127 -0.11238017
0.014569158 0.013530318 -0.008620739 0.11278588 0.0040201806 0.008891559 -0.0014534235 -0.12259081
0.09948127 0.048248533 -0.04737145 0.050903548 0.017849328 -0.021760408 0.029648457 0.028430844
0.061775226 0.028169272 0.07160963 -0.033390105 -0.037824515 -0.023590451 -0.074385256 0.007550509

fc1.bias f4 [120]
00000000: 889c 9abc 220c 333e 9368 a23e b1f3 43be
00000010: 917c adbd da4a e5bd 6785 53bc 81d5 ddbc
00000020: 3332 113f 92ce 83bd f6eb 083e 2c8f b1bd
00000030: 938b 1d3e 677a 753d 7b5a f13c 27a1 81bd
00000040: e4e8 0d3e af55 27bd 8a4c acba 24a0 c83d
00000050: ff7d a73e f39c 52bd 5915 4c3c f83c bbbc
00000060: 3d6f 70bd f43a d3bd cebe f9bd 3c10 2fbd
00000070: 2f60 eebe c7c9 c63d 0830 b8bd 2d77 023f
00000080: cd4e 8b3e 9cb2 b4bc f6c0 57bb 41e9 40be
00000090: 83c4 e5bd 2727 093d 7c46 f5bc 6c70 8e3d
000000a0: 046b b83c 6f7a 473d 6b07 e2bc c412 fbbd
000000b0: 2b2b 043e b96b 2b3e 8601 4d3d 6b60 e23d
000000c0: 2b7e 243e f0b8 46be 1fdb 063e 034f c33d
000000d0: 666a 813e f577 343d a781 38bd d60b 1c3c
000000e0: 866e a5be 381f 553e 71f6 653d 0c97 fa3c
000000f0: 6c32 f13d 9341 563d 9fa6 acbb 4539 6b3d
00000100: cc5d 763e c4c5 bcbd 31ca 933e 6d35 843d
00000110: 9fed a93d 132a ac3d b42d 513d 93ae b6bd
00000120: f545 4a3e dbfa ee3d f064 2a3e 1f43 32be
00000130: 25ff 623e e5d8 48be e585 ffbd 4b18 edbd
00000140: a8fa dd3d 1f21 4cbc 9c5e e93b 9110 b23e
00000150: da9c 8ebe 9baf ed3e 20a2 8dbe 3372 dbbd
00000160: af78 c1bd 72e6 433d d146 c43e db6a 17be
00000170: ae99 323d 7d52 b33d acf0 7d3e 99fa 553e
00000180: 7567 773e 9117 483e c34a 2f3e c840 86bd
00000190: 5276 97bd 5fc3 423d 4423 0bbe f82d 813e
000001a0: 97dd be3c 4a84 f13d 6b08 b03c 3137 7fbd
000001b0: 9159 a73c c428 f8bb 8318 ac3e 140e bfbd
000001c0: 074a 183e 7402 e03e 3d45 bebc 0073 00bd
000001d0: fa2f 15be cc5f 8d3c a0bf 9ebe 379f 0fbc
-0.018873468 0.17485097 0.3172041 -0.1913593 -0.08471025 -0.111959174 -0.012910224 -0.027079346
0.5671722 -0.064358845 0.13371262 -0.08669886 0.15385275 0.059931185 0.02946209 -0.063295655
0.13858372 -0.0408532 -0.0013145369 0.097961694 0.32713315 -0.05141921 0.012456262 -0.02285622
-0.058699835 -0.10313979 -0.12194596 -0.04274009 -0.46557757 0.09706455 -0.08993536 0.509631
0.27208558 -0.022057824 -0.003292141 -0.1883898 -0.11219122 0.033484604 -0.029940836 0.069550365
0.022511967 0.048700746 -0.027591428 -0.12259439 0.12907092 0.16740312 0.05005028 0.110535465
0.16063754 -0.19406486 0.13169526 0.09536555 0.25276488 0.044059712 -0.04504552 0.009524306
-0.32310885 0.2081269 0.056143228 0.030589603 0.11777195 0.05230863 -0.005268886 0.057427663
0.24059218 -0.09217408 0.28865197 0.06455503 0.08297276 0.084064625 0.051068977 -0.08920016
0.19753249 0.11668941 0.16640067 -0.17408417 0.22167642 -0.19613989 -0.1247671 -0.11576899
0.108388245 -0.012459069 0.007121874 0.34778264 -0.27854043 0.4642304 -0.27662754 -0.10715141
-0.09446847 0.04782719 0.3833528 -0.14786856 0.04360359 0.08755968 0.2479884 0.20896377
0.2416056 0.1954024 0.17118363 -0.06555325 -0.07395615 0.0475496 -0.13587672 0.25230384
0.023299022 0.1179281 0.021488389 -0.062308494 0.02042845 -0.007573219 0.3361245 -0.09328857
0.14871989 0.43751872 -0.023226375 -0.031359673 -0.14569083 0.017257594 -0.31005573 -0.008765987

fc2.weight f4 [84, 120]
00000000: 08e5 16bd a936 14bd bf36 0bbe b57a 423c
00000010: 367e 7dbd 74ba aeba 4d21 8abd b418 8ebd
00000020: 886b 503e bbac a33d 0384 4cbb 4c7c 5b3d
00000030: 82a8 84bd fa07 253d ddd5 b13d 7a73 703d
00000040: acf0 7a3c b5a4 e9bd 4f03 0c3c d474 013e
00000050: 1e74 12bd 182b d4bc 5ea4 a63d 660c 25bc
00000060: 3d01 eb3d 3c0c bb3d 860e 82bd 3d2f 803d
00000070: 2c3f b53b d29f 16bd 929c b43d e4ea dcbd
00000080: 1170 a3bc e690 51bc 3c4d 03be 5cff 6f3d
00000090: 2155 a7bd def5 13bd 7ef0 283e bb15 0fbe
000000a0: 209b b1bc 3858 693d 0805 e53c c58a 383b
000000b0: 2c98 9b3d 735f 043c 75c9 5cbd bef4 0f3c
000000c0: c23f e1bd 36ac 01be fb27 3bbd 0165 803d
000000d0: 9140 19be 67d1 a1bd 894a a23d ffb6 19be
000000e0: 03fa 45bc fc9b 393d b8bd d63c 00ab d2bd
000000f0: 3c1e d43d ad4b 1d3e e777 13bc 1be8 cebd
00000100: 6965 b8bd 34b1 8d3d e3aa 4f3e 353a 86bd
00000110: 8643 fb3c fb67 0bbd 0eb8 4cbd d946 ad3c
00000120: 4c07 cc3c 0d0b 02be 9147 39bd 1140 18be
00000130: fe99 b3bd 2a34 d5bd 410e dabc dd38 f4bd
00000140: 8fad 8a3e b7df b03d fc1b 0f3d 769d 773d
00000150: 1386 7dbd 342a 0dbe 868d 803c 6969 323d
00000160: ca73 2ebd aaa9 c3ba b315 fbbc 0b7e 493d
00000170: 6e82 2ebd fda7 08bd d5ea 87bc 1bdc bf3d
00000180: 5d21 e73c f5f4 cbbb d230 8c3d 1f8c b5bd
00000190: 54e1 043e 1556 523d faf6 49bb 6d79 573d
000001a0: 2e1b 3f3d f087 ab3d 171e 49bd 0ac8 193c
000001b0: 55e1 10be 4b3c 56bd 8683 18bd 9d4f d3bd
000001c0: 50e0 f53d 29d1 15bc 18e2 ffbc aee8 ac3d
000001d0: a296 ca3d ae3d a23d fb7f 6e3d 1c6c 453d
000001e0: 02d5 00bd 1a70 d8bc 677a 9d3d 4401 79bd
000001f0: 5aef b6bd 53aa f7bd 5322 36bd a4bd 4abb
00000200: 8eac e7bc 59fa 3ebd 625f fd3d 4a49 65bc
00000210: 8a2f 80bd ce7b 073e 5f45 e4bd b977 063e
00000220: 0867 edbc 37ed b13c b9d9 83bd 0a55 073d
00000230: 48c7 2c3d 59e1 38bd 236e d0bd 13f9 71bd
00000240: b2be c2bd b941 f73c d6ba 1ebc f736 b2bd
00000250: 29fe bb3d 924e 523d f7ab 30bc ec33 573d
00000260: 3432 44bd a5b3 4fbe b311 083d a48d 75bd
00000270: d0ed 0b3e 567f 713d 3167 14bd d4b3 cd3d
00000280: b857 efbd 8f5b f4bb 9ae8 2fbd 28f7 103d
00000290: 4a9f cf3d 4764 a53d 6bb3 46bd 330c 1e3e
000002a0: cee4 83bc 0d7c e8bd 205c 123d 50ca 273d
000002b0: 54a0 d5bc 00a7 073d 8c8a 843c 6624 16be
000002c0: cfb7 c33d 8e48 d13b 994b ecbd 302c 01be
000002d0: 3b31 52be 4ec5 97bd e82c 67bc c495 4cbd
000002e0: 6b9d 3a3d 4052 ca3c 797d 25bc d66b 573d
000002f0: a47d 263e ec20 efbb 8ab8 8b3d e241 c23d
00000300: 9831 76be 84fd 653b 8d92 893e 2bca d7bc
00000310: 9d8b a03c fd38 debd 674b dfbd d2a4 0cbd
00000320: 06f3 8c3d 26ca 893c 1dc2 7d3d a145 d43c
00000330: e0a2 aa3d bfea 943b 9d3f b8bd 718d f0bb
00000340: 59c6 e93c 1244 1f3c 9020 0abe 8e96 00bd
00000350: 9e98 bcbd 372e 293b 83b1 dabd 5171 69be
00000360: 1cd7 ad3d 382b cbbb 6905 833d d5a5 c0bd
00000370: a6ad aebd 8fb1 c8bd b0f6 a43d 2cf2 393e
00000380: 56f4 05be c8e3 973d c30a 94bd c366 a73d
00000390: 424a 62bd c6c5 e73d e3d0 c23c bb58 9f3d
000003a0: b185 24bc 01f1 4a3c 0074 923d 4e0b 58bd
000003b0: 1b7c 26be 50ff 933d 8fea 33bc 63e0 9c3c
000003c0: a2e3 9f3d b424 b13d b239 d63c cce8 833d
000003d0: b158 2d3d 12bb 963d 1aaa 853d 1d6c 4f3d
000003e0: b490 00be 8b31 123e fd7b a1bd 2eea 963d
000003f0: ea4f 09bd 0614 463d e252 223c 0518 9d3d
-0.036839515 -0.03618494 -0.13595103 0.011870076 -0.061887942 -0.0013330714 -0.06744633 -0.069383055
0.2035352 0.0799193 -0.0031206615 0.053585336 -0.06477453 0.04029081 0.08683369 0.058703877
0.01531617 -0.114083685 0.008545711 0.12642223 -0.03575527 -0.025899455 0.08136819 -0.010073757
0.114748456 0.09133193 -0.063504264 0.0625901 0.0055312123 -0.03677351 0.08818926 -0.10786989
-0.019950898 -0.012790894 -0.12822431 0.05859314 -0.08170534 -0.03612315 0.1649799 -0.13973133
-0.021680415 0.056968898 0.0279565 0.0028158885 0.07597384 0.0080793975 -0.053903062 0.008786378
-0.10998489 -0.1266335 -0.045692425 0.06269265 -0.14966036 -0.079012685 0.07924373 -0.15011214
-0.012083533 0.045314774 0.026213512 -0.10286522 0.10357329 0.153609 -0.009000755 -0.10102864
-0.090037175 0.069185644 0.20280032 -0.06554071 0.030671846 -0.03403471 -0.049980216 0.021151947
0.024905823 -0.12699528 -0.045234267 -0.1486819 -0.08769606 -0.1041034 -0.026618125 -0.11924908
0.2708554 0.0863642 0.034938797 0.0604529 -0.06189544 -0.1378563 0.015692484 0.04355756
-0.042590894 -0.0014927883 -0.030649995 0.04919247 -0.042604856 -0.03336333 -0.016591469 0.09368154
0.028214151 -0.0062242695 0.06845249 -0.088646166 0.12976581 0.051351625 -0.0030817376 0.052606035
0.04665678 0.083755374 -0.04910096 0.009386072 -0.14148457 -0.052303594 -0.037234806 -0.103179194
0.12005675 -0.009144106 -0.03123574 0.08442818 0.09892012 0.07921921 0.05822752 0.048198804
-0.03145314 -0.026420642 0.07689362 -0.060792223 -0.089323714 -0.12093034 -0.044466328 -0.0030935789
-0.028280523 -0.04662547 0.123717085 -0.013994524 -0.06259067 0.13230821 -0.11146044 0.13131608
-0.028979793 0.021719558 -0.06438012 0.033040084 0.042182237 -0.045136783 -0.10177257 -0.059075426
-0.095090285 0.030182706 -0.0096881 -0.0870189 0.091793366 0.05134446 -0.010783187 0.05253975
-0.04789944 -0.20283373 0.033220004 -0.059949532 0.13664937 0.058959328 -0.036231223 0.10044065
-0.11686653 -0.0074572037 -0.042946436 0.035391957 0.10137804 0.08075767 -0.04851095 0.15434341
-0.016100314 -0.11351786 0.03573239 0.040964425 -0.026077427 0.033118248 0.016179346 -0.14662322
0.09556543 0.006386823 -0.115378566 -0.12614512 -0.20526592 -0.0741068 -0.014109828 -0.049947515
0.04556028 0.024697423 -0.010100716 0.052593075 0.16258866 -0.0072976258 0.068223074 0.094852224
-0.24042356 0.0035093734 0.26869622 -0.026341518 0.019597823 -0.108507134 -0.10903054 -0.034336872
0.068822905 0.016820025 0.0619527 0.025912108 0.08331847 0.0045445855 -0.08996508 -0.00734108
0.028536962 0.009720819 -0.13488984 -0.03139358 -0.09208797 0.00258149 -0.10678389 -0.22797133
0.084882945 -0.0062002204 0.06397516 -0.0940663 -0.085292146 -0.097994916 0.080548644 0.18158787
-0.13081488 0.07416493 -0.07228615 0.08173897 -0.0552466 0.11317019 0.023781246 0.07780596
-0.01004164 0.012386561 0.071510315 -0.052745156 -0.1625828 0.07226431 -0.010981216 0.019149965
0.078070894 0.08649579 0.026150558 0.06440887 0.04232091 0.073598996 0.06526585 0.050640214
-0.125552 0.14276712 -0.07884977 0.07368885 -0.033523478 0.04835894 0.009907456 0.07670597

fc2.bias f4 [84]
00000000: 2015 0f3d b809 be3e 4363 1fbd 5e63 0e3d
00000010: e5d0 be3e 9251 9a3d dca5 36bb e523 8c3e
00000020: c577 ca3d f893 153f e995 873e b985 e0bd
00000030: 75ae 273f 10f3 083e 25cc 563e 371e 19be
00000040: 9c15 b93d 27ce 913e b4e4 453e 9439 0d3e
00000050: 268a 403e f47b 6e3e 8643 ed3e 602c ea3c
00000060: 78a7 0c3f 6d37 103f 4d8b 243f e5e2 6a3d
00000070: 31df f63e aa94 993d 8b57 ac3c 197e 903c
00000080: cd02 b9b9 cea0 dc3e fdfc 2b3e 4a0e 813e
00000090: 9028 0d3f 281d e63e 8ab8 40bc 13b9 1fbd
000000a0: 0699 6a3d 2b28 923e a648 5dbc eeca 3bbe
000000b0: 0760 843e b87a 4fbe c12e 053e cdf3 993e
000000c0: b79f d6bd 2b16 633c 465b 8d3e 8c64 1abd
000000d0: 99b6 393e b60f e63e afd4 ddbd e759 a93d
000000e0: d752 3d3e 3f56 973e 7551 f6bd 3911 653e
000000f0: d5bc 363f e8bb d7bc 53a0 173e 51fc c83e
00000100: a961 48bc 883e 653f 94af 26be a8ae 56bc
00000110: f42a 743f 29eb 313f 85b4 cf3e 3e69 a13e
00000120: 36b1 ea3e 32a2 ba3d af44 2a3e 7baa 433f
00000130: e8d5 8b3e 0436 97bc ab27 ce3e cdc5 9f3a
00000140: d464 133e 142a 123e 6eb9 aa3e a2bc 1b3d
0.034932256 0.3711679 -0.038913023 0.034762733 0.3726875 0.075350896 -0.0027869856 0.27371135
0.098861255 0.5842891 0.2648156 -0.109630056 0.65500575 0.13373971 0.20976312 -0.14952932
0.09037325 0.28477594 0.19325525 0.13791496 0.188027 0.23289472 0.4634058 0.028585613
0.5494304 0.56334573 0.64275056 0.05734529 0.48217157 0.074990585 0.021037837 0.017638253
-0.00035288036 0.43091434 0.16795726 0.25206214 0.5514002 0.4494412 -0.011762748 -0.03899486
0.05727484 0.2854627 -0.01350609 -0.1833913 0.25854513 -0.20261657 0.13006116 0.30068818
-0.10479682 0.013860266 0.276087 -0.037693545 0.18136062 0.44933861 -0.10831582 0.08269101
0.18488632 0.29557988 -0.120272554 0.22369851 0.71381885 -0.026334718 0.14807253 0.39255002
-0.012230315 0.8954854 -0.16277915 -0.013103165 0.9537804 0.6949945 0.40567413 0.31525606
0.45838326 0.091129676 0.16627763 0.7643201 0.27311635 -0.018458374 0.4026464 0.0012189687
0.14393932 0.14273864 0.33344597 0.03802169

fc3.weight f4 [10, 84]
00000000: 9503 12be 0d7a 48be bcc9 b63c 50f1 b73e
00000010: 4a49 c6bc 4a40 46bd 41d3 e3bc 230d 8e3d
00000020: 2854 d43d 749c 39bd 141b 82bd 5a59 b9bd
00000030: 31a8 2ebe 29f5 5a3e bbc0 283e 238c 9f3d
00000040: 4354 9a3d eba1 8b3d 7c62 4c3e b673 33bd
00000050: 2085 b93d 3afe 73bc 5f0f 333e 2661 4ebd
00000060: 3667 07be e3a2 a53d 9307 c03d f8c7 b8bd
00000070: 3a33 df3d 1f7b 89bc c4d1 9c3e a605 3a3e
00000080: dba5 0b3e 3843 18be 4403 f3bc 707c 2c3b
00000090: 6af6 93be 1ca5 8e3c e1ec 503e 3ba0 913e
000000a0: 9cb0 2dbd 9292 5ebd 03f0 083e 005f 5ebe
000000b0: 39dc 5f3e c497 fb3c 35f5 1abe 6446 153e
000000c0: 882c ddbc 0f82 4ebd f7c3 10be 3ae1 cf3c
000000d0: 693c 1d3d af20 e23c cfda 2dba 347c cabd
000000e0: 2fe6 0ebe 1915 183e 5b9a b6bd b359 b83d
000000f0: cd15 98bd 1148 003e b6fc 643d 1395 a9bb
00000100: 98dd bd3c e87e df3c 4811 06bd 6770 ec3c
00000110: 0fb1 cabe 4a8e ac3c 9b85 5c3e 99a6 e73d
00000120: 5301 403e ac3c 0fbe bdd4 f93d 6108 493d
00000130: a733 27bd cb7c a9bd 565f 00be f628 673e
00000140: 7e24 5a3c a695 07be fb27 9ebd fde0 88bd
00000150: 6cba 3e3d da57 97bd 02af 533d f29d fbbc
00000160: 8abc a5be 876d 0dbe 44c2 dbbd 3310 ffbd
00000170: da71 96bd f989 453e ef07 4f3c 2399 39be
00000180: 00f8 c13d 5c96 eabd 0676 a7bd 4f0e ac3d
00000190: 7f1b 5ebe 6152 2cbe 2d88 843e 6803 afbd
000001a0: 4601 84bd 927e 5abe c9b0 933b 9877 95bc
000001b0: 79a1 ffbc bf28 773d f65f c6bd 9221 07bd
000001c0: 8b41 55be 5a20 0abc fe03 b8bc a66e 26be
000001d0: c081 e9bc cbb4 38bd 5fe3 263e b1fe 82bd
000001e0: 358b 11be 7dea ffbe 05c1 99bd e604 efbb
000001f0: c5d7 7ebd 8602 10be 7ec9 f1bb 2195 f93d
00000200: 7866 5bbd be73 c63d 1d2c d93d 2309 1f3e
00000210: 73d5 a5bc 7600 233e a551 ffbd 3bb1 27bd
00000220: a242 383e 72ea 53be f5f4 dd3c 7870 003d
00000230: 554d 2abe 0fce 33bd e2cd babc 9300 583d
00000240: ad8e fd3c cacb 2ebd b8d8 6dbc 0617 f63c
00000250: bba6 9a3e db6b d9be 5833 813d 44ca 063d
00000260: 987e 2e3d 3491 303d a450 9d3e 871b 483d
00000270: 46c7 683d 65ed 293d fc12 4f3b 06e7 6fbe
00000280: c566 853d f827 8c3e b77a 703d 269d 7ebd
00000290: 1d5e 753e 6551 52bd 2a17 223e d10a 203e
000002a0: a525 a3bd cf03 263e 32a6 9c3c 8359 883c
000002b0: c912 c5bc 8485 afbd ff93 17bc 7bb5 9d3d
000002c0: 2cbf 2c3c d357 65bd d1bb a3bd 911e 0c3e
000002d0: 7064 213d 7663 1abd 9eb5 1bbd 71bd ad3e
000002e0: 28bb 043e 0441 393e e3d7 aabd da1b 903b
000002f0: f486 d2bc cdae c8bc 6356 1ebd c05c 513b
00000300: 98db 01bd 3557 913d ac18 babc c826 553e
00000310: 958f 5c3d c90b 4f3e 1dbe 27bd 798e d03d
00000320: 4550 53bc 2dee ca3d 2db5 c7bd 609c b4bd
00000330: 008c b83d ec3b c83d f903 513d 5740 6fbc
00000340: 1185 6abd fe64 803d f59f 213d c616 963d
00000350: 4015 6abc 35ea 59bc 4681 edbd 7183 d13d
00000360: a168 28bd c2ea 1c3c 9710 50bd 6e22 f83c
00000370: 8763 fe3c 2e05 4b3e 935a 583e 6149 35bd
00000380: 2111 183d 9023 bd3d 9a97 6cbd a450 53bd
00000390: dcec 343e e6ff 593d 4516 ac3b 031a d3bd
000003a0: 7b57 443d b520 233e 1524 933e a6c5 7abb
000003b0: ef54 773d 6f59 023d 3dc5 d4bd 298b 3cbe
000003c0: eec4 413d 902c ca3d c221 00bc d65e 453e
000003d0: bbf7 c9bb 3f36 e0bd 8e79 513d e324 3c3d
000003e0: 26b7 d6bd c01a e5bd 783f 373d 6dbd 3c3c
000003f0: 02b9 0c3e e052 d33d c46a 7c3d 9b5b 86bd
-0.14259179 -0.19577809 0.022312991 0.35926294 -0.024204869 -0.048401155 -0.027810695 0.069360994
0.10367614 -0.04531522 -0.06352821 -0.090502456 -0.17056347 0.21382584 0.16479771 0.07790401
0.07535603 0.06817993 0.19959444 -0.043811522 0.09058595 -0.014892155 0.17486332 -0.050385617
-0.13222966 0.08087709 0.09376445 -0.09022516 0.108984426 -0.016782342 0.30628788 0.18166217
0.13637488 -0.14869392 -0.029664643 0.0026319288 -0.28898937 0.017412715 0.20402862 0.2844256
-0.042404756 -0.054339 0.13372807 -0.21715927 0.21861352 0.030712016 -0.15132602 0.14577633
-0.026998773 -0.050417002 -0.14137255 0.025375951 0.03838769 0.027603475 -0.0006632031 -0.09886971
-0.13954996 0.14851798 -0.0891616 0.09001484 -0.07426033 0.12527491 0.055905066 -0.0051752417
0.023176953 0.027282193 -0.032731324 0.028862191 -0.3958821 0.021063942 0.21535341 0.11311073
0.18750505 -0.13987988 0.1219878 0.049080256 -0.040820744 -0.082757555 -0.12536368 0.22574219
0.0133143645 -0.1324068 -0.077224694 -0.06683538 0.046564505 -0.07389803 0.051680572 -0.030714963
-0.32370406 -0.13811313 -0.107304126 -0.12454262 -0.07345934 0.19290914 0.012636169 -0.18124823
0.0947113 -0.1145446 -0.08176808 0.08401167 -0.21690176 -0.168283 0.25885144 -0.085455716
-0.064455554 -0.21337345 0.0045071584 -0.018245503 -0.031204926 0.060341593 -0.09686272 -0.032991
-0.20825784 -0.008430565 -0.022462841 -0.16253147 -0.028504252 -0.045094293 0.16297673 -0.06396235
-0.1421326 -0.49983588 -0.07507519 -0.007294285 -0.062217493 -0.14063463 -0.007378756 0.12186647
-0.05356452 0.09690045 0.10604117 0.15530829 -0.020243382 0.15918145 -0.12466744 -0.040940505
0.17994168 -0.20694903 0.027094344 0.03135726 -0.16631062 -0.043897685 -0.02280325 0.052734923
0.030951822 -0.042674817 -0.014517002 0.030040275 0.3020533 -0.424651 0.06308621 0.03290774
0.042601198 0.043107226 0.30725586 0.048854377 0.056830667 0.041486163 0.003159701 -0.23427972
0.06513742 0.27374244 0.05871078 -0.062161587 0.23961683 -0.051347155 0.15829149 0.15629126
-0.079661645 0.1621239 0.019122217 0.016644245 -0.024056809 -0.08570388 -0.009251594 0.0770063
0.010543626 -0.05599196 -0.079948075 0.13683535 0.039402425 -0.03769251 -0.038015 0.33933595
0.1296202 0.18091208 -0.083419584 0.0043978514 -0.025699116 -0.024497414 -0.038656604 0.0031946152
-0.03170356 0.070967115 -0.022716843 0.20815575 0.053847868 0.2021934 -0.04095279 0.101834245
-0.012897556 0.0990871 -0.097513534 -0.08818889 0.09011078 0.09777054 0.05102918 -0.014602742
-0.05725581 0.06269263 0.039459188 0.073285624 -0.014287293 -0.013300468 -0.115969226 0.102301486
-0.041115407 0.009577455 -0.05079707 0.030289855 0.031053318 0.19826195 0.21128301 -0.044259433
0.03712571 0.09235299 -0.057761766 -0.051590577 0.1766848 0.05322256 0.005251678 -0.10307696
0.04793499 0.15930445 0.28738466 -0.003826478 0.060383733 0.03182357 -0.10389183 -0.1841246
0.047306947 0.09871781 -0.0078205485 0.19274458 -0.006163565 -0.109478466 0.051141314 0.045933615
-0.104841515 -0.11186743 0.044738263 0.011519772 0.1374245 0.103185415 0.061625257 -0.06560441

fc3.bias f4 [10]
00000000: ff66 d9be 0d31 473e aefc 91be 79b6 9e3d
00000010: 907d 4f3e 0e18 053e 0f47 e33e 82b4 a93a
00000020: 5210 ce3d 96df 15be
-0.42461392 0.19452305 -0.28513092 0.07749648 0.20262742 0.12997457 0.4439015 0.0012947472
0.100617066 -0.14636073
