models/DVERGEadv_submodel_2_25epochs.pth (torch, 252076 bytes, 10 tensors)

conv1.weight f4 [6, 3, 5, 5]
0	0x3d9f3cab	0.07775243
1	0xbdd4650c	-0.10370836
2	0xbd66d4bb	-0.05635522
3	0xbb6367e7	-0.0034699382
4	0x3cf4fb15	0.029904881
5	0x3d0dd2a5	0.034624714
6	0xbcaad5b2	-0.020853851
7	0x3dc05445	0.09391073
8	0xbc5f9a02	-0.013647558
9	0xbd48b15e	-0.048997276
10	0xbddbf294	-0.107396275
11	0x3d359cfb	0.04433916
12	0xbb37cfff	-0.002804756
13	0x3d94b072	0.07260217
14	0xbd57e516	-0.052708708
15	0xbd69878c	-0.057014033
16	0xbccc8ef3	-0.024970507
17	0x3ba17f2a	0.004928489
18	0xbdfd41c3	-0.12366059
19	0xbdf21a3f	-0.11821412
20	0x3d2add31	0.04171485
21	0x3d8726ba	0.065991834
22	0x3d8e3acb	0.069448076
23	0xbd6eaec6	-0.058272146
24	0xbcaed90c	-0.02134373
25	0xbdccb4e6	-0.09995441
26	0xbda1110f	-0.07864582
27	0xbccdf891	-0.02514294
28	0xbdccd68a	-0.100018576
29	0xbdb80091	-0.08984483
30	0xbde247fa	-0.11048885
31	0x3daf9a6d	0.08574376
32	0x3d8e5797	0.069503
33	0xbcc03798	-0.02346401
34	0x3d7a5780	0.061118603
35	0x3bb8b094	0.005636284
36	0xbdbdd3ae	-0.0926889
37	0x3d861039	0.06546063
38	0x3cb95904	0.022625454
39	0x3c862286	0.016373884
40	0xbd8de20b	-0.0692788
41	0xbcf48b34	-0.029851533
42	0x3cd4b6f6	0.025966149
43	0x3dc84476	0.09778683
44	0xbd046e8b	-0.032331984
45	0xbdc7b404	-0.09751132
46	0xbd824e57	-0.063625984
47	0xbbfc247f	-0.0076947804
48	0xbd165be7	-0.03670874
49	0xbdbbbcf7	-0.091669016
50	0x3d219253	0.039446186
51	0xbd53f50e	-0.051747374
52	0x3d8d64fc	0.06904027
53	0x3c0ab976	0.008467069
54	0x3d3a9766	0.04555454
55	0x3c209434	0.009800959
56	0xbd9f9a50	-0.07793105
57	0xbdb1c338	-0.08679813
58	0x3d18589e	0.037193887
59	0x3da33d02	0.07970621
60	0x3d8565ee	0.06513582
61	0x3dbf5bcf	0.09343683
62	0x39601101	0.00021368639
63	0x3c5e7fe4	0.013580296
64	0x3d4a3678	0.04936835
65	0xbd12de99	-0.035856817
66	0xbb27d5c0	-0.0025609583
67	0x3cae5316	0.021279853
68	0x3d4e0ece	0.050307088
69	0xbd86bcf1	-0.065790065
70	0x3d2959ca	0.041345395
71	0xbdec2307	-0.115301184
72	0x3d90baf5	0.07066909
73	0xbcf2e60c	-0.02965071
74	0x3c5e79fb	0.013578887
75	0x3dafced9	0.08584375
76	0x3e12d7b0	0.14340091
77	0x3e00c56e	0.12575313
78	0x3da0635d	0.07831452
79	0x3cb071ee	0.0215387
80	0x3e252966	0.16129074
81	0x3f0c9717	0.54918045
82	0x3f37c53b	0.71785325
83	0x3ed116bf	0.40837666
84	0x3ddde64d	0.10834942
85	0x3d5f100c	0.054458663
86	0x3ea0ef4a	0.31432563
87	0x3f02d50d	0.5110634
88	0x3ec1bd30	0.3783965
89	0x3e07ac29	0.13249268
90	0xbe447a8e	-0.19187376
91	0xbf09c485	-0.5381549
92	0xbf2caa7b	-0.6744763
93	0xbeb37d2c	-0.35056436
94	0xbd5b3490	-0.053516924
95	0xbe34fb4f	-0.17673992
96	0xbf1a5539	-0.6028629
97	0xbf5efae4	-0.8710158
98	0xbf0cd8ca	-0.55018294
99	0xbe06fc68	-0.13182223
100	0x3d3cc069	0.046081934
101	0x3d8bafc8	0.06820637
102	0x3d7a62ef	0.061129507
103	0x3d326369	0.043551836
104	0x3c9e32f2	0.019311402
105	0x3dafc2f6	0.08582108
106	0x3e90e761	0.28301528
107	0x3ebcc24d	0.3686699
108	0x3e5c9c52	0.21544006
109	0x3d89e80c	0.067337126
110	0x3ccff8ec	0.02538725
111	0x3e29fe6c	0.1660096
112	0x3e8ffef1	0.28124192
113	0x3e58644f	0.21132015
114	0x3d968f59	0.0735156
115	0xbda3bde7	-0.079952054
116	0xbe9039a0	-0.28168964
117	0xbebb1416	-0.36538762
118	0xbe2a5082	-0.16632274
119	0xbbf56f25	-0.007490056
120	0xbd5c33a9	-0.053760204
121	0xbe95df90	-0.29272127
122	0xbeed3d7d	-0.46335974
123	0xbe875b12	-0.2643667
124	0xbcefa5b1	-0.029253813
125	0x3cd94f68	0.026527122
126	0x3cca32d0	0.024682432
127	0xbaa0fffa	-0.0012283318
128	0xbc358e01	-0.01108122
129	0xbc447b19	-0.011992239
130	0x3db68eba	0.08913942
131	0x3eb43fca	0.35204917
132	0x3ef2bac5	0.4740812
133	0x3e863bfa	0.26217633
134	0x3d75f4dd	0.060047973
135	0x3c469dae	0.012122555
136	0x3e2da4ec	0.16957444
137	0x3e9c68dc	0.3054875
138	0x3e65069a	0.223658
139	0x3d8e28df	0.06941389
140	0xbdb753f2	-0.08951558
141	0xbe99132f	-0.29897448
142	0xbec5b122	-0.38611704
143	0xbe4898f1	-0.19589593
144	0xbcbd8769	-0.023135858
145	0xbd273309	-0.040820155
146	0xbe509540	-0.20369434
147	0xbea6eafd	-0.32601157
148	0xbe5c4506	-0.21510705
149	0xbd3675f9	-0.0445461
150	0xbd2a0c4b	-0.04151563
151	0xbd1ad9bf	-0.037805315
152	0x3da885a7	0.08228617
153	0x3de2bf76	0.110716745
154	0x3d1199c9	0.03554705
155	0xbe96fcbb	-0.29489693
156	0xbe966b89	-0.29378918
157	0x3e803b4c	0.2504524
158	0x3ecd082a	0.4004529
159	0x3e070d92	0.1318877
160	0xbf17961a	-0.5921341
161	0xbf20f970	-0.6288061
162	0x3eb6f513	0.35733852
163	0x3f31a73f	0.6939582
164	0x3e93504f	0.28772208
165	0xbefda1b0	-0.4953742
166	0xbf201f37	-0.6254763
167	0x3e896a3c	0.26838863
168	0x3f255a00	0.64590454
169	0x3eadac50	0.33920527
170	0xbe49ebcd	-0.19718857
171	0xbea3de9b	-0.32005772
172	0x3d8eb6f6	0.06968491
173	0x3e95d203	0.2926179
174	0x3e55ce37	0.20879446
175	0xbdb9222e	-0.090397224
176	0xbdae0cfb	-0.084985696
177	0x3bf8cb5e	0.0075926026
178	0x3d1782ae	0.03698986
179	0x3b930aa6	0.0044873534
180	0xbe954114	-0.29151213
181	0xbe893300	-0.26796722
182	0x3dedd0d8	0.116120994
183	0x3e3eab95	0.18620141
184	0x3d6a512b	0.057206314
185	0xbf0855ba	-0.5325581
186	0xbf03ca81	-0.5148087
187	0x3e3b8ea0	0.18316126
188	0x3ea5c3b9	0.32375887
189	0x3e085a91	0.13315798
190	0xbecb8cac	-0.39755762
191	0xbeede416	-0.46463078
192	0x3dece541	0.11567164
193	0x3e8eb81a	0.27874833
194	0x3e127c10	0.14305139
195	0xbdf28bf4	-0.118431
196	0xbe50b664	-0.20382077
197	0x3b90527c	0.004404364
198	0x3dd7fdf0	0.105464816
199	0x3d9cffac	0.07665953
200	0xbd4aaa4a	-0.049478807
201	0xbd420427	-0.04736724
202	0x3d0c5cfc	0.034268364
203	0x3d50c405	0.05096819
204	0xbc774dc5	-0.015094225
205	0xbe6269f4	-0.2211073
206	0xbe7153c8	-0.23567116
207	0x3e354225	0.17701013
208	0x3e939f81	0.2883263
209	0x3d86d87c	0.0658426
210	0xbecc5506	-0.39908618
211	0xbeed24bd	-0.46317092
212	0x3e8b5e8b	0.27220568
213	0x3f04046d	0.51569253
214	0x3e40d885	0.18832596
215	0xbe9875e8	-0.29777455
216	0xbed2a204	-0.41139233
217	0x3e4c3732	0.1994293
218	0x3ee8fe7b	0.45506653
219	0x3e4b7a98	0.19870985
220	0xbd7defaf	-0.06199616
221	0xbe227ba6	-0.1586748
222	0x3d51013a	0.05102656
223	0x3e3a0169	0.181646
224	0x3dd448cc	0.103654474
225	0x3cd10841	0.025516631
226	0x3d0e264e	0.0347045
227	0x3d1e982f	0.038719352
228	0x3d1da64f	0.038488682
229	0x3ca13e57	0.019683046
230	0x3d497677	0.049185243
231	0x3dbb6ad3	0.091512345
232	0x3dd98a4e	0.10622083
233	0x3db23280	0.08701038
234	0x3d13ac20	0.036052823
235	0x3d824ad2	0.06361927
236	0x3e0816a7	0.13289891
237	0x3e13f7eb	0.14450042
238	0x3ddec706	0.108778045
239	0x3d2a6a9e	0.041605584
240	0x3d9e8440	0.077400684
241	0x3e0ed7d2	0.13949516
242	0x3e198e79	0.14995755
243	0x3de64425	0.11243466
244	0x3d3e51a1	0.046464566
245	0x3d617136	0.055039607
246	0x3d9aaa79	0.07552046
247	0x3da3e978	0.08003515
248	0x3d90a5a1	0.07062841
249	0x3d191cbd	0.037380923
250	0x3d205d66	0.03915157
251	0x3d52af3e	0.051436655
252	0x3d377f1e	0.044798963
253	0x3d1e5d48	0.03866318
254	0x3cb3184b	0.02186217
255	0x3d600474	0.054691747

conv1.bias f4 [6]
0	0xbdc7b68a	-0.097516134
1	0xbe59ef40	-0.21282673
2	0xbe5bbe53	-0.21459322
3	0xbf10157b	-0.56282777
4	0xbf25a5bb	-0.6470601
5	0xbe9fa1d3	-0.3117815

conv2.weight f4 [16, 6, 5, 5]
0	0xbda44bbc	-0.08022258
1	0x3d4fee4e	0.050764374
2	0xbc06a6f8	-0.008218519
3	0x3c8a5048	0.016883984
4	0xbd0b6f10	-0.034041464
5	0xbd28b41d	-0.041187394
6	0xbd9753d5	-0.073890366
7	0xbd530e96	-0.051527582
8	0x3d8016ba	0.06254335
9	0x3d907298	0.07053107
10	0xbda1eaca	-0.079061106
11	0xbd43816a	-0.04773084
12	0x3d880dd3	0.06643262
13	0x3c42b879	0.011884802
14	0x3d49a4d7	0.04922947
15	0xbb51d0f7	-0.0032015422
16	0xbd225205	-0.039629
17	0xbd0b006f	-0.03393596
18	0xbd29e6f6	-0.041480027
19	0xbcc0db8e	-0.023542192
20	0x3d1aebaa	0.037822403
21	0xbd957fb2	-0.072997466
22	0x3ca17a3d	0.019711608
23	0x3d273781	0.040824417
24	0x3d9908e8	0.07472402
25	0xbb57ad0d	-0.0032909543
26	0xbd0ec786	-0.03485825
27	0xbd1f8ea4	-0.038954392
28	0x3cad5dc1	0.02116287
29	0x3cc7545b	0.024332216
30	0x3cace421	0.021104874
31	0xbc99f9d8	-0.018795893
32	0xbddd3166	-0.10800438
33	0xbd7728f1	-0.06034178
34	0x3d2ad5c9	0.041707788
35	0x3cb6b088	0.022300974
36	0xbda69301	-0.081335075
37	0xbe4f7a63	-0.2026153
38	0xbe23b2b6	-0.15986142
39	0x3c3ec892	0.011644499
40	0x3cf7cad1	0.030248078
41	0xbdff2a54	-0.12459245
42	0xbe4d4798	-0.20046842
43	0xbe39978f	-0.18124221
44	0x3c1c55b5	0.0095419185
45	0x3d4c1cc8	0.049832135
46	0xbbf6bf38	-0.0075301193
47	0xbd82e983	-0.06392195
48	0xbdab85ad	-0.08375106
49	0x3be930ad	0.0071163983
50	0xbd5e3206	-0.054246925
51	0x3c463dca	0.012099693
52	0x3d8e644f	0.06952726
53	0x3dd7fb84	0.1054602
54	0x3d8a8136	0.06762926
55	0xbd040fb6	-0.032241546
56	0xbaf214f3	-0.0018469378
57	0x3e5e3dfd	0.21703334
58	0x3da69ae0	0.08135009
59	0x3dd9a0ca	0.10626371
60	0xbba26a2c	-0.0049565043
61	0xbdaeabde	-0.08528875
62	0x3eeeed94	0.46665633
63	0x3cdd722c	0.02703198
64	0x3e5c024d	0.21485253
65	0xbc585d01	-0.013205768
66	0xbd103cbf	-0.035214182
67	0x3f0c6376	0.54839265
68	0x3d81611a	0.06317349
69	0x3e80184e	0.25018543
70	0xbdbbf1bf	-0.09176969
71	0xbc5d6c21	-0.0135145495
72	0x3eb39ce8	0.35080647
73	0x3cc98298	0.024598405
74	0x3e15af0f	0.14617561
75	0x3e8921b1	0.26783517
76	0x3e238931	0.15970303
77	0x3d447e28	0.047971874
78	0x3d8777ce	0.06614648
79	0x3cd51a43	0.0260135
80	0x3e1a85bc	0.15090078
81	0xbe1c56d9	-0.15267505
82	0xbcb149cd	-0.021641636
83	0xbd6bea1c	-0.05759631
84	0xbe89c0f6	-0.2690503
85	0x3eda0fff	0.4259033
86	0xbe5a4003	-0.21313481
87	0x3e674a98	0.22587049
88	0x3e18397b	0.14865677
89	0xbe9cd5ab	-0.30631766
90	0x3eddcf68	0.433223
91	0xbe6603c5	-0.22462375
92	0x3e4c0c1a	0.19926491
93	0x3dc4933d	0.09598396
94	0xbec3f564	-0.38273156
95	0x3e92c078	0.28662467
96	0xbe50661d	-0.20351453
97	0x3ded9296	0.11600225
98	0x3be07fbb	0.006851164
99	0xbee91de6	-0.45530623
100	0x3d766765	0.0601572
101	0x3c1d954e	0.009618117
102	0x3c5409ea	0.012941817
103	0x3cd1f904	0.025631435
104	0x3d84c6d2	0.064832345
105	0x3d2480be	0.04016184
106	0xbd078939	-0.03308985
107	0xbc74ff5b	-0.01495346
108	0xbc4a93b8	-0.01236432
109	0xbd2e7474	-0.042591527
110	0x3e01da18	0.12680852
111	0xbd9315d6	-0.07181899
112	0x3dc9cd17	0.09853571
113	0x3d2a5808	0.04158786
114	0xbcb7766c	-0.022395335
115	0x3ddb1b66	0.10698585
116	0xbdef8b31	-0.116964705
117	0x3dd18e0e	0.10232173
118	0x3d025e12	0.031827994
119	0xbda40a7a	-0.08009811
120	0x3d1b77d8	0.03795609
121	0xbe11dad6	-0.14243636
122	0x3c9bc564	0.019015022
123	0xbb77526e	-0.003773834
124	0xbe18b0b6	-0.1491116
125	0x3b4bef7c	0.0031118086
126	0xbcb283bb	-0.02179133
127	0x3d2aa5c8	0.041662008
128	0xbd097aa0	-0.03356421
129	0xbd0fbf4a	-0.035094537
130	0x3df39ac7	0.11894756
131	0xbd90e040	-0.07074022
132	0x3d3bc2b0	0.045839965
133	0xbd31a604	-0.043371215
134	0x3be681ff	0.0070345397
135	0x3e0aa75f	0.1354041
136	0xbd881d2a	-0.066461876
137	0x3d5529f8	0.052041978
138	0xbdc45bf0	-0.09587848
139	0x3cd932b9	0.026513444
140	0xbc9ba4d0	-0.018999487
141	0xbe00b725	-0.12569864
142	0xbe1222c3	-0.14271073
143	0xbe1fbaa7	-0.15598546
144	0xbd6c797a	-0.057733037
145	0x3d6012a3	0.054705273
146	0xbc1f46d5	-0.0097214775
147	0xbd123df3	-0.03570361
148	0xbc7cfbc9	-0.01544089
149	0x3d1b7972	0.037957616
150	0x3d6551e2	0.055986293
151	0x3d4377fa	0.04772184
152	0x3ae7e84d	0.0017693132
153	0xbca5e566	-0.020250987
154	0x3cacf4da	0.021112848
155	0xbc9cc7ba	-0.019138206
156	0x3d3e56e0	0.04646957
157	0xbc0f0546	-0.008729285
158	0xbd3ba93f	-0.045815703
159	0xbbd2c547	-0.0064322087
160	0xbc8cb9d2	-0.01717845
161	0xbd030103	-0.031983387
162	0x3b7a7f58	0.0038222875
163	0xbd35d2f5	-0.044390637
164	0x3b35075e	0.00276228
165	0x3d102f28	0.03520122
166	0xbd512b74	-0.05106683
167	0x3d8020b9	0.06256241
168	0xbacef6c4	-0.0015790095
169	0xbd03c328	-0.032168537
170	0xbd230874	-0.039802983
171	0x3d82761f	0.06370186
172	0xbca6a41b	-0.020341923
173	0x3d269e79	0.040678475
174	0xbd05366d	-0.032522608
175	0xbc6d5cac	-0.014487427
176	0x3c802f7a	0.015647639
177	0xbbaa2089	-0.005191867
178	0xbc273bea	-0.010207156
179	0xbc78d763	-0.015188071
180	0x3c72f25d	0.014828292
181	0x3d11e10f	0.035615023
182	0x3c427812	0.011869447
183	0x3cb4f8bb	0.02209126
184	0xbd075178	-0.03303668
185	0x3c46a8ae	0.012125177
186	0xbd279274	-0.040911153
187	0xbcac5da6	-0.021040749
188	0xbd097984	-0.033563152
189	0xbdd23907	-0.10264783
190	0xbc01d9ef	-0.007925495
191	0xbd862198	-0.06549376
192	0x3c94871e	0.018130835
193	0xbd5af551	-0.05345661
194	0xbd99dd60	-0.07512927
195	0xbd1ae5e0	-0.037816882
196	0xbd970b45	-0.07375196
197	0xbd80a3ea	-0.06281264
198	0xbdbc43d9	-0.091926284
199	0xbd53cdce	-0.051709943
200	0xbc7e03ae	-0.015503807
201	0xbd1c5d6b	-0.038175028
202	0xbd2204be	-0.039555304
203	0x3c410681	0.011781336
204	0x3d8eeab2	0.06978358
205	0xba252e0a	-0.0006301111
206	0xbd688e16	-0.05677613
207	0xbcd1a8c7	-0.025593175
208	0x3d936826	0.07197599
209	0x3d992359	0.07477445
210	0x3ba82681	0.005131543
211	0xbcc8dc75	-0.024519185
212	0x3db0796e	0.08616911
213	0x3dac6abb	0.08418795
214	0x3d2396be	0.03993868
215	0x3d8affbb	0.06787058
216	0x3dba897d	0.09108255
217	0x3dc08abb	0.09401461
218	0xbbfaeca1	-0.007657603
219	0xbd2af1e6	-0.0417346
220	0x3dbdc51d	0.09266112
221	0x3d9d5911	0.07683004
222	0x3bea7558	0.0071551017
223	0xbdb3f0c2	-0.08786155
224	0xbd894948	-0.067034304
225	0x3cf6a127	0.03010614
226	0xbdf3f56d	-0.11912046
227	0xbe9f832a	-0.31154758
228	0xbe74fc30	-0.23924327
229	0x3a57a9a8	0.000822688
230	0xbdac8500	-0.08423805
231	0xbe95366a	-0.29143077
232	0xbeab7c04	-0.33493054
233	0xbe01ea0a	-0.12686935
234	0x3e8cf6b3	0.27531967
235	0xbed6c8b9	-0.41950014
236	0xbf074575	-0.5284036
237	0xbe888a8e	-0.2666821
238	0x3e66f973	0.22556095
239	0x3ec69897	0.38788292
240	0xbf029c75	-0.51019984
241	0xbe8dcd45	-0.2769567
242	0x3e30bf48	0.17260468
243	0x3eb25291	0.34828618
244	0x3ed44abb	0.41463265
245	0xbe03ed7f	-0.12883566
246	0x3e247fc0	0.16064358
247	0x3ed42c3a	0.41439992
248	0x3eed7e90	0.46385622
249	0x3e867235	0.26259008
250	0x3bbb1dc5	0.005710336
251	0xbc925f53	-0.01786772
252	0xbd7be66e	-0.06149905
253	0xbdadd53a	-0.08487935
254	0x3cac8ca5	0.021063158
255	0x3d3e9caa	0.046536125

conv2.bias f4 [16]
0	0xbf47ef31	-0.7809935
1	0xbf06aea6	-0.5261024
2	0xbd937b79	-0.07201285
3	0x3f4b6015	0.79443485
4	0x3fe03cc7	1.7518548
5	0xbe73c64e	-0.23806116
6	0xbe9781b5	-0.29591146
7	0x3daa920d	0.08328638
8	0x3eed9cac	0.46408594
9	0xbe212d2c	-0.15739888
10	0xbe566308	-0.20936215
11	0xbf046d0e	-0.51728904
12	0x3ef2f44e	0.47452015
13	0x3f3cc93c	0.7374456
14	0xbee13dd0	-0.43992472
15	0xbfaeb825	-1.3649946

fc1.weight f4 [120, 400]
0	0x3c37b346	0.011212176
1	0x3d175c93	0.03695352
2	0x3c089b42	0.008337798
3	0x3cacb482	0.021082167
4	0xbd38abc1	-0.045085672
5	0xbd6ea476	-0.05826231
6	0xbd81ac50	-0.06331694
7	0xbbf827e4	-0.0075731147
8	0xbca21f4d	-0.019790316
9	0xbd8d4ab3	-0.06899013
10	0xbce10a7d	-0.027470822
11	0x3c3bed0f	0.011470093
12	0xbc37f892	-0.011228697
13	0x3d1dea3e	0.03855347
14	0xbc169d31	-0.009192751
15	0xba822cda	-0.000993158
16	0xbd2202e0	-0.039553523
17	0x3c8b1007	0.016975416
18	0x3c7f99d2	0.015600638
19	0xbc4997e5	-0.012304281
20	0x3c154deb	0.009112815
21	0xbccc094b	-0.024906775
22	0xbbe43beb	-0.0069651506
23	0x3cad6391	0.021165641
24	0x3cafeecc	0.021476172
25	0x3ce38b46	0.027776372
26	0x3caaacb8	0.020834312
27	0x3d3e4624	0.04645361
28	0x3d8a5abb	0.06755587
29	0xbc176778	-0.0092409775
30	0x3c12a01b	0.008949305
31	0xbda866d5	-0.08222739
32	0x3b0cb99f	0.0021472943
33	0x3d87044c	0.065926164
34	0xbc97cab5	-0.018529275
35	0x3e135924	0.14389473
36	0x3dcc8b05	0.09987453
37	0xbca387a0	-0.019962132
38	0xbd18a5e7	-0.03726759
39	0xbdb62fca	-0.08895834
40	0x3d5bc974	0.053658918
41	0x3da826b7	0.08210509
42	0xbcaf6afe	-0.021413323
43	0xbca0aee6	-0.019614648
44	0x3beae972	0.007168942
45	0x3ce54380	0.027986288
46	0x3d11a402	0.0355568
47	0xbdc83883	-0.09776404
48	0xbd4c8bda	-0.04993806
49	0xbdd0961b	-0.1018488
50	0x3df827ba	0.12116952
51	0x3d0317ef	0.032005247
52	0x3cd36b59	0.025808023
53	0x3d747a6f	0.059687074
54	0xbd0c03bc	-0.03418325
55	0xbc495379	-0.012287968
56	0xbc8cdd1e	-0.01719528
57	0xbd653b7c	-0.05596493
58	0xbd4fa0ea	-0.05069057
59	0xbd2cd2c2	-0.04219318
60	0xbd6b1ea0	-0.057402253
61	0xbdc19909	-0.09453017
62	0xbcb8064a	-0.022463936
63	0x3d7c7a90	0.061640322
64	0x3cac71ea	0.021050412
65	0xbe2cd2d0	-0.16877294
66	0xbda8baf5	-0.08238784
67	0xbc6babeb	-0.01438425
68	0xbd8aecf4	-0.067834765
69	0xbc84c3f0	-0.016206712
70	0xbd2d5230	-0.04231471
71	0x3c5660b1	0.013084576
72	0xbcd65fbf	-0.026168702
73	0x3cf2fe9d	0.029662425
74	0x3d5917fd	0.053001393
75	0x3dd4b7d8	0.10386628
76	0x3df6d5b5	0.1205248
77	0x3d4721d5	0.04861625
78	0x3c71d7e7	0.014760948
79	0x3dde3ac3	0.10851052
80	0x3d2ab865	0.04167976
81	0x3da10dea	0.07863982
82	0x3dca0788	0.09864718
83	0x3dd7a47b	0.10529419
84	0x3e295cc8	0.165393
85	0xbde4f7b7	-0.1118006
86	0xbd4b3f22	-0.049620755
87	0xbd57cfeb	-0.05268852
88	0xbd061059	-0.032730434
89	0xbb60733a	-0.0034248368
90	0xbdbfc12b	-0.09363016
91	0xbd88de37	-0.06683009
92	0xbc894009	-0.016754167
93	0xbd1ac0a8	-0.037781388
94	0xbd49eca5	-0.049297947
95	0x3d1111b0	0.03541726
96	0x3cb45fcb	0.022018334
97	0x3d8b2f18	0.06796092
98	0xbc4ac4a5	-0.012375985
99	0xbd42c5b8	-0.04755184
100	0x3cb5ba76	0.022183638
101	0x3cd1355b	0.025538137
102	0xbc417cf4	-0.011809576
103	0xbd358862	-0.044319518
104	0xbd2ed89e	-0.04268705
105	0xbd079ea5	-0.03311028
106	0x3db5a4ee	0.088693485
107	0x3ceaa656	0.028643768
108	0xbdb18af3	-0.086690806
109	0xbd92fac1	-0.07176734
110	0x3d6d2bd5	0.05790313
111	0x3cd04c6c	0.025427066
112	0x3dc0053b	0.09375998
113	0xbd93f066	-0.07223587
114	0xbd8be1a2	-0.068301454
115	0x3d4178c9	0.04723433
116	0x3dfea3a2	0.12433554
117	0x3da76f87	0.08175569
118	0xbb9c0134	-0.0047608856
119	0xbdd745e2	-0.10511376
120	0xbe039b19	-0.12852134
121	0xbcbd65ea	-0.023119885
122	0xbc00a2ca	-0.007851312
123	0xbca2170d	-0.019786382
124	0xbd1b39f8	-0.03789708
125	0x3ca77d37	0.02044545
126	0xbd4b2b67	-0.04960194
127	0xbc8b71ec	-0.017022096
128	0x3d510ba3	0.05103649
129	0xbce97483	-0.02849794
130	0xbe11438f	-0.14185928
131	0xbd0b95c1	-0.034078363
132	0xbd5041bc	-0.05084394
133	0xbdaae031	-0.08343542
134	0xbc5f6ae2	-0.013636323
135	0xbe141b9e	-0.1446366
136	0x3d0e3503	0.034718525
137	0x3de0afe2	0.10971047
138	0xbd4fb726	-0.050711773
139	0xbc54bd89	-0.012984642
140	0xbde7a017	-0.113098316
141	0x3dfe94ca	0.12430723
142	0x3e2a8510	0.16652322
143	0x3d5a9f7d	0.053374756
144	0x3cf2c1b8	0.029633388
145	0xbddf2dc9	-0.10897405
146	0xbd353f6c	-0.044249937
147	0x3d51a7b5	0.05118533
148	0xbb116a78	-0.0022188704
149	0xbc9b9089	-0.018989818
150	0xbcae0d21	-0.021246495
151	0x3cbccd4e	0.023047116
152	0xbd1f606b	-0.03891031
153	0x3c0d7719	0.008634352
154	0x3da3e989	0.08003528
155	0x3d08c9c8	0.03339556
156	0xbb4bd466	-0.003110194
157	0x3d607786	0.054801486
158	0x3d4a42c3	0.049380075
159	0x3cc37285	0.023858318
160	0x3d6ddc71	0.058071557
161	0x3d4b25f6	0.04959675
162	0x3c1b45c4	0.009477083
163	0x3c013411	0.007885949
164	0x3cd522b3	0.026017522
165	0x3c3725d8	0.011178456
166	0x3c3342e7	0.010941244
167	0x3c92fccd	0.01794281
168	0x3da1871b	0.078870974
169	0x3de6a402	0.11261751
170	0xbcd7d298	-0.026345536
171	0x3d271242	0.040788896
172	0x39ebdd9f	0.00044987813
173	0xbcacf7fe	-0.021114346
174	0xbd296971	-0.041360322
175	0xbb88ea01	-0.004178286
176	0x3cb9ebd6	0.022695463
177	0xbd05f3f6	-0.032703362
178	0x3c9b108b	0.018928787
179	0xbc6a1b72	-0.01428877
180	0xbdc3472c	-0.09535059
181	0xbdc10794	-0.094252735
182	0xbc9bfeac	-0.019042335
183	0xbd5315f0	-0.051534593
184	0xbc7b7e6a	-0.015349964
185	0xbd0bf351	-0.03416759
186	0x3b369e7e	0.0027865465
187	0x3d1c777d	0.03819989
188	0x3dc55604	0.09635547
189	0x3d6a941f	0.057270166
190	0xbbe8ca67	-0.0071042064
191	0x3c550407	0.0130014485
192	0x3dc23808	0.09483343
193	0x3d1f4926	0.03888812
194	0x3c96d01f	0.018409787
195	0xbd818f41	-0.06326152
196	0xbbe41c29	-0.0069613648
197	0x3da9826e	0.082768306
198	0x3c655aee	0.01399873
199	0x3d3e2364	0.04642047
200	0x3d8e284b	0.06941279
201	0x3d0e7d1f	0.034787294
202	0x3d92e25b	0.0717208
203	0x3d5e0337	0.054202285
204	0x3d9fc460	0.078011274
205	0x3d3a8b9c	0.045543298
206	0xbcbf0ebf	-0.023322461
207	0x3c661516	0.014043113
208	0xbd3d4566	-0.04620876
209	0x3db7156a	0.08939631
210	0xbd3a9102	-0.045548446
211	0x3b08ee79	0.0020894094
212	0xbd01f3a1	-0.031726483
213	0xbcbddb91	-0.023175986
214	0x3abe94a9	0.0014540154
215	0xbb11ec6b	-0.002226616
216	0x3c75f459	0.01501187
217	0x3c6e0e72	0.014529811
218	0xbd90af3e	-0.07064675
219	0xbd34631e	-0.044039838
220	0xbcf9c6de	-0.030490335
221	0x3cef0ecc	0.02918186
222	0xbd5194ad	-0.05116718
223	0xbd7d4328	-0.061831623
224	0xbd5761f9	-0.05258367
225	0x3ca2ba2e	0.019864168
226	0xbc8f0f33	-0.017463302
227	0x3ce007c8	0.02734746
228	0x3d5d6210	0.054048598
229	0x3bbb567a	0.005717096
230	0xbd8c08a9	-0.06837589
231	0xbc96d96a	-0.018414218
232	0xbd821b01	-0.06352807
233	0xbd84fbe2	-0.06493355
234	0xbce87393	-0.028375423
235	0xbd5bb42a	-0.053638615
236	0xbd901224	-0.0703471
237	0x3d38911e	0.04506027
238	0xbd1e9ae6	-0.03872194
239	0x3c4a8d24	0.012362752
240	0x3d8e9136	0.069612905
241	0x3cdfc676	0.027316313
242	0x3c39929b	0.011326457
243	0x3c62b2f0	0.013836607
244	0xbcf0e849	-0.029407637
245	0x3cb8249f	0.0224784
246	0x3cb8a205	0.022538194
247	0x3d52b930	0.05144614
248	0x3d3d7c49	0.046261106
249	0x3b313c4b	0.0027043994
250	0xbd550a42	-0.052011736
251	0xbb8f23c0	-0.0043682754
252	0xbb12eeb1	-0.0022420103
253	0xbd10f778	-0.035392255
254	0x3d5759e7	0.052575972
255	0xbe0534b1	-0.13008381

fc1.bias f4 [120]
0	0x3cff243e	0.031145211
1	0xbe3cdb7a	-0.18443099
2	0xbe0504b7	-0.1299008
3	0xbd33f30b	-0.043932956
4	0x3d9b8eb5	0.075955786
5	0xbd13836b	-0.036014
6	0xbe17d276	-0.14826378
7	0x3d9fd37c	0.07804009
8	0x3da4d194	0.08047786
9	0x3e3d6c5d	0.18498369
10	0x3e845e4c	0.25853193
11	0xbdfda98f	-0.12385856
12	0xbe86a511	-0.2629781
13	0xbc9b62e7	-0.018968059
14	0xbe9a00b5	-0.30078664
15	0xbdb81dd1	-0.08990062
16	0x3d390cb7	0.04517814
17	0x3dbaea87	0.09126764
18	0x3c31428a	0.010819087
19	0x3e2be887	0.16787921
20	0x3e8d786a	0.2763093
21	0xbd9ce6c0	-0.076611996
22	0xbd960656	-0.07325427
23	0xbb462db2	-0.003023964
24	0x3e4c4a6a	0.19950262
25	0xbd9de113	-0.07708945
26	0x3e5a5e8f	0.21325134
27	0x3dadd401	0.08487702
28	0x3d11ffda	0.03564439
29	0x3e943e09	0.2895358
30	0xbd6f6ca3	-0.058453213
31	0x3e212a38	0.15738761
32	0xbe29e3cc	-0.16590804
33	0x3cb3288a	0.021869916
34	0xbe13502b	-0.1438605
35	0x3d8a876c	0.06764111
36	0xbc8c51e3	-0.01712889
37	0xbbe649b9	-0.0070278314
38	0x3e93522a	0.28773624
39	0x3eab4006	0.33447284
40	0xbcdd6e8e	-0.027030256
41	0xbcfdaf9e	-0.03096753
42	0x3dd045c2	0.10169555
43	0xbe0aed23	-0.13567023
44	0xbc82cc9a	-0.015966702
45	0x3e541567	0.2071129
46	0x3de76c8d	0.11300001
47	0x3d453d76	0.048154317
48	0xbd42b6c4	-0.04753758
49	0x3e64b46a	0.22334448
50	0xbd3c72c4	-0.046007887
51	0xbd707639	-0.058706496
52	0x3c3d0e8b	0.011539112
53	0x3e837f0a	0.2568286
54	0x3d059ef7	0.032622304
55	0xbd184442	-0.03717447
56	0xbb1960a5	-0.0023403552
57	0x3d9a10a5	0.07522706
58	0x3d7cff5d	0.06176697
59	0xbe0ba5cf	-0.1363747
60	0xbe1896fb	-0.14901344
61	0x3eba0730	0.3633361
62	0x3dc32c22	0.09529902
63	0x3ece74d8	0.4032352
64	0x3e5db61f	0.21651505
65	0xbdffc68b	-0.12489041
66	0xbe20069f	-0.15627526
67	0x3cab9ca9	0.020948725
68	0x3df9b443	0.12192585
69	0x3e869dc2	0.26292235
70	0xbd4cbdaf	-0.049985584
71	0x3ea46abf	0.3211269
72	0x3e2288f7	0.1587256
73	0x3dc03112	0.093843594
74	0x3edcd1f9	0.43128946
75	0x3db4dfc0	0.088317394
76	0xbd75a052	-0.059967346
77	0x3e4d2a98	0.2003578
78	0x3e40835b	0.18800108
79	0x3e681154	0.2266286
80	0x3c4bf168	0.012447692
81	0xbe2a024d	-0.1660244
82	0xbda3be13	-0.07995238
83	0xbbe96b04	-0.007123353
84	0x39be3142	0.00036276324
85	0x3d3fe0c7	0.046845224
86	0x3e015866	0.12631378
87	0x3c7c5a6f	0.01540242
88	0x3dacc8f9	0.0843677
89	0x3bc17f52	0.0059050703
90	0x3cfb3f32	0.030669782
91	0x3eb2f2e7	0.34950945
92	0xbe152c64	-0.14567715
93	0xbd4f805c	-0.050659522
94	0xbde47950	-0.11155951
95	0x3d319ef7	0.04336449
96	0xbd9cd4cd	-0.07657776
97	0x3e6bec95	0.23039468
98	0xbd0c3db7	-0.034238543
99	0x3d3a03e6	0.045413874
100	0xbd4b1d8e	-0.049588732
101	0x3e258e82	0.16167644
102	0x3e1be091	0.15222384
103	0x3d9bd619	0.07609195
104	0x3cb85f04	0.022506244
105	0xbcdccc17	-0.026952786
106	0xbdb97dd0	-0.090572
107	0x3dca0543	0.09864285
108	0xbe038a2b	-0.12845676
109	0xbe4d408d	-0.20044155
110	0xbd52ad99	-0.051435087
111	0x3d9c8099	0.076417156
112	0xbd07c63e	-0.033148043
113	0xbe0a8afd	-0.13529582
114	0x3d3d20f8	0.04617402
115	0xbe31bb9f	-0.17356728
116	0x3d899c0a	0.06719215
117	0xbcbb9090	-0.022896081
118	0xbe2b7592	-0.16744068
119	0x3dd04f7e	0.10171412

fc2.weight f4 [84, 120]
0	0xbd68f516	-0.056874357
1	0xbe07c3aa	-0.13258234
2	0x3d1b2166	0.037873648
3	0xbc72d31f	-0.014820843
4	0x3b3713c8	0.0027935375
5	0x3c46fa61	0.012144656
6	0x3d5e1f77	0.054229226
7	0x3cbda57d	0.0231502
8	0x3e109631	0.14119793
9	0x3d6aa125	0.057282586
10	0xbe3d1924	-0.18466622
11	0xbc05514f	-0.008137061
12	0xbd943b1f	-0.07237839
13	0xbce426f4	-0.027850606
14	0xbdcfda6c	-0.101490825
15	0x3d995c6b	0.074883305
16	0x3d10328e	0.035204463
17	0xbda28a75	-0.07936565
18	0xbd4eacfe	-0.050457947
19	0xbd1b766b	-0.03795473
20	0xbd5946cd	-0.053046037
21	0x3aa54a4e	0.0012610645
22	0x3c5d51bb	0.013508256
23	0x3d1cee9b	0.03831349
24	0x3c563ee3	0.013076517
25	0x3e28de54	0.16491061
26	0xb9efe493	-0.00045755933
27	0x3de1e162	0.110293165
28	0x3ccb90fd	0.02484941
29	0xbdbb85f2	-0.091564074
30	0xbcf55b6c	-0.02995082
31	0xbd7bfe4e	-0.06152182
32	0xbcf77394	-0.03020648
33	0xbd8424d2	-0.064523354
34	0xbc9a8624	-0.018862791
35	0xbd474e08	-0.0486584
36	0x3cbcd377	0.023050053
37	0x3dc6b23d	0.09701965
38	0xbbcf1f57	-0.0063208747
39	0xbe08481d	-0.13308759
40	0xbda2fa80	-0.07957935
41	0xbc8b6da2	-0.01702005
42	0xbc840047	-0.016113413
43	0x3d9a9524	0.075479776
44	0x3e1aadb0	0.15105319
45	0xbe14c039	-0.14526452
46	0x3d86fa33	0.065906905
47	0x3cfb8ad2	0.030705843
48	0xbd943a45	-0.072376765
49	0xbce8b11b	-0.028404763
50	0xbbed318b	-0.007238572
51	0x3d412bd7	0.04716095
52	0xbe350239	-0.17676629
53	0x3cdccea7	0.026954008
54	0xbd8b29ff	-0.067951195
55	0xbd206043	-0.039154302
56	0xba3b8bf0	-0.0007154336
57	0x3d99b391	0.07504953
58	0xbe0f06c6	-0.13967428
59	0x3cae2135	0.021256069
60	0x3e10009b	0.14062731
61	0xbd89dac5	-0.0673118
62	0x3d023766	0.031791113
63	0x3d1e1e37	0.038603034
64	0x3d015ab5	0.031580646
65	0xbb9061a1	-0.0044061695
66	0xbe0793bc	-0.1323995
67	0x3d97658b	0.07392415
68	0xbc8be852	-0.017078552
69	0xbdde2d00	-0.10848427
70	0xbd762c9a	-0.06010113
71	0x3d2e92c5	0.04262044
72	0xbdaad6a4	-0.08341721
73	0xbe2bd3a3	-0.16779952
74	0xbc09fd4e	-0.008422209
75	0xbe2a352b	-0.16621844
76	0x3d796e88	0.060896426
77	0xbe0a0e31	-0.13481976
78	0x3def1e19	0.116756625
79	0x3b17e708	0.0023178477
80	0xbe31f66c	-0.17379159
81	0x3d97e32a	0.07416375
82	0xbd76aecb	-0.06022529
83	0xbdc04633	-0.093883894
84	0x3d1cbdca	0.038266934
85	0x3dee42c5	0.11633829
86	0xbdd288c3	-0.102799915
87	0xbc812a26	-0.015767168
88	0xbe1ae047	-0.15124618
89	0x3d10318c	0.0352035
90	0xbdf4a727	-0.11945944
91	0x3b7ee330	0.0038892739
92	0x3ba80a4f	0.005128182
93	0x3e6b04d3	0.22951059
94	0xbd008de0	-0.031385303
95	0x3ddf8d01	0.10915566
96	0xbd8c34ae	-0.06845985
97	0xbca98576	-0.020693522
98	0xbd2cd000	-0.04219055
99	0xbd1368f3	-0.03598876
100	0xbcbe8163	-0.023255056
101	0xba862618	-0.0010234741
102	0x3dd071a2	0.10177924
103	0x3ce08a13	0.027409589
104	0x3b3827f7	0.0028099993
105	0x3d9efe0e	0.07763301
106	0xbd9a5dbc	-0.0753741
107	0x3dceb359	0.100928016
108	0x3e3bd5fd	0.18343349
109	0x3e27d50f	0.16389869
110	0x3d2c4902	0.042061813
111	0xbba0e550	-0.0049101487
112	0x3e47304d	0.19452019
113	0xbb4e8b49	-0.0031516126
114	0x3e8773c2	0.26455504
115	0x3ba70f9a	0.0050982954
116	0xbd54d250	-0.051958382
117	0xbd44984b	-0.0479968
118	0xbddb0a93	-0.10695376
119	0xbd194974	-0.037423566
120	0x3d0c63d3	0.034274887
121	0x3d5a2750	0.053260148
122	0xbd898094	-0.067139775
123	0x3cdd7f75	0.027038315
124	0xbda994c7	-0.0828033
125	0xbc70f12a	-0.0147059355
126	0xbdbde688	-0.09272486
127	0xbd4c7469	-0.049915705
128	0x3cd4f71c	0.025996737
129	0xbd68b54f	-0.056813534
130	0xbd66cc59	-0.056347225
131	0x3d9ec083	0.077515624
132	0xbd8e9982	-0.06962873
133	0xbd0cc2ea	-0.034365572
134	0x3ad84eaa	0.0016502936
135	0xbdb600d5	-0.088868774
136	0xbcc60fdc	-0.024177484
137	0x3bbe7c1e	0.0058131358
138	0xbd95d51c	-0.07316038
139	0x3d104c8d	0.035229255
140	0x3cfa56c9	0.03055896
141	0xbd98e05f	-0.074646704
142	0x3cb9d052	0.022682343
143	0xbdade0da	-0.08490153
144	0xbd14107a	-0.036148526
145	0xbd87c08d	-0.06628523
146	0x3d462f20	0.048384786
147	0x3c76566d	0.015035254
148	0x3b7d0d7a	0.003861277
149	0xbd55717a	-0.052110173
150	0xbaf8d582	-0.0018984529
151	0xbb543513	-0.0032380268
152	0xbd6ae37a	-0.057345845
153	0x3dabeaef	0.083944194
154	0xbbeb82aa	-0.007187207
155	0x3d0d7de2	0.03454388
156	0x3d7d1724	0.061789647
157	0x3c0e89c4	0.008699838
158	0xbd6ab144	-0.05729796
159	0xbdab27fa	-0.08357234
160	0x3d628684	0.055304065
161	0xbcbb49ca	-0.022862334
162	0x3d1fcf04	0.039015785
163	0xbda0bcc9	-0.07848508
164	0xbd556c2d	-0.052105118
165	0xbcbdd9f3	-0.023175215
166	0xbd2c24a8	-0.042027146
167	0xbd8327ba	-0.064040616
168	0x3dc5fafb	0.09667011
169	0xbcf499b2	-0.029858444
170	0xbca122d0	-0.01966992
171	0xbc02c681	-0.007981897
172	0xbd8a31cf	-0.067477815
173	0xbcd5c306	-0.026093971
174	0x3d848321	0.06470323
175	0xbd8bf69c	-0.068341464
176	0x3bbd767b	0.0057819462
177	0xbd1014a8	-0.03517595
178	0xbb91affb	-0.0044460273
179	0x3d6034b0	0.054737747
180	0x3d18f0d8	0.03733906
181	0x3d9b9128	0.07596046
182	0x3d651849	0.055931363
183	0xbdc25a5d	-0.09489892
184	0xbc083c49	-0.008315154
185	0xbd065f73	-0.03280587
186	0xbcccb6c8	-0.0249895
187	0x3d8549ba	0.06508203
188	0xbcd8c188	-0.02645947
189	0xbd3bac37	-0.045818534
190	0x3d888747	0.06666427
191	0x3c861079	0.016365277
192	0x3d50e502	0.05099965
193	0xbbf4d06f	-0.0074711363
194	0xbd328c80	-0.043591022
195	0x3d95dc93	0.07317462
196	0xbd969b94	-0.07353893
197	0x3d0c03b2	0.03418321
198	0x3d16db1d	0.036830056
199	0xbd9e925b	-0.07742759
200	0xbd3350c1	-0.043778185
201	0x3d3a2388	0.04544404
202	0x3adc955b	0.0016829179
203	0xbc0f5dba	-0.0087503735
204	0xbcdf0e91	-0.027228625
205	0xbd846be9	-0.06465895
206	0x3d4c9870	0.049950063
207	0xbd4210ea	-0.04737941
208	0xbd8abae3	-0.06773927
209	0x3d41fa51	0.04735786
210	0x3d28aea5	0.04118218
211	0x3bebacc1	0.0071922247
212	0xbd8ffbd6	-0.07030456
213	0xbd84b672	-0.06480111
214	0xbd42d5c1	-0.047567133
215	0x3d818064	0.06323317
216	0xbd8bcd6f	-0.06826293
217	0x3ccbc3d3	0.02487365
218	0xbda86426	-0.08222227
219	0x3da77b45	0.08177809
220	0xbd727373	-0.059192132
221	0xbd5e50e6	-0.05427637
222	0x3dbabf70	0.09118545
223	0xbcdfd29e	-0.02732211
224	0xbd75cc6a	-0.060009398
225	0xbb4f059d	-0.003158904
226	0x3d897ada	0.06712885
227	0xbcbbbc1d	-0.022916848
228	0x3da2b41f	0.079445116
229	0x3c428c5c	0.011874285
230	0xbd78896c	-0.06067793
231	0x3c81c2d6	0.015839975
232	0xbda6dbd2	-0.08147396
233	0xbcad3d59	-0.021147417
234	0xbdba9bef	-0.09111773
235	0xbc8e7575	-0.017389992
236	0x3cfece03	0.031104093
237	0xbd0345b3	-0.032048892
238	0x3b97ca7f	0.0046322937
239	0x3d2b0505	0.041752834
240	0xbcf055f6	-0.029337864
241	0xbd09bd01	-0.033627514
242	0x3bfb32a3	0.0076659485
243	0xbdabdb8f	-0.08391487
244	0xbd5d01fb	-0.053956967
245	0xbe1197c7	-0.14218055
246	0x3dccca84	0.09999564
247	0xbd12d6db	-0.035849433
248	0x3bb32050	0.0054664984
249	0xbd86f245	-0.06589178
250	0x3db15591	0.086588986
251	0x3dcc1909	0.099657126
252	0x3dc65bfb	0.09685513
253	0xbbed8366	-0.00724833
254	0x3dc32363	0.09528234
255	0x3e30468f	0.17214416

fc2.bias f4 [84]
0	0x3e30c520	0.17262697
1	0x3c3062a3	0.010765704
2	0xbb1ae8f0	-0.0023637377
3	0xbe08fbcb	-0.13377301
4	0x3e403a7a	0.18772307
5	0x3d6746e3	0.056464087
6	0xbdc0ea3a	-0.09419675
7	0x3e572daf	0.2101352
8	0x3e8133fa	0.25234967
9	0x3d9113d7	0.07083862
10	0x3e96cec6	0.2945463
11	0x3e339748	0.17538178
12	0x3cef54c1	0.029215218
13	0x3e240bd5	0.16020139
14	0x3c277034	0.010219622
15	0x3c25c638	0.01011806
16	0xbd2c09c7	-0.042001512
17	0x3efb48ec	0.49079072
18	0x3d9f35e6	0.07773952
19	0x3cec2b30	0.028829187
20	0x3f1148a3	0.5675146
21	0x3ec6ac48	0.38803315
22	0xbe2b1e4b	-0.16710775
23	0x3bbd8a64	0.0057843197
24	0x3dccb95c	0.09996292
25	0x3d11f334	0.035632327
26	0xbd5b789a	-0.05358181
27	0x3d16d185	0.036820907
28	0xbc72b2e9	-0.014813163
29	0xbd8d170d	-0.06889162
30	0x3e3ca18c	0.18421
31	0x3e57e057	0.21081673
32	0x3d9e72a7	0.07736712
33	0x3d881584	0.06644729
34	0xbca64fd0	-0.02030173
35	0x3deb7d37	0.11498492
36	0xbd7b1620	-0.061300397
37	0xbd636afa	-0.055521943
38	0xbbf01bde	-0.007327541
39	0xbe3492f1	-0.17634179
40	0x3f05054d	0.51961213
41	0x3e65d57e	0.22444722
42	0x3e6d711f	0.23187684
43	0x3d2d7cf3	0.04235549
44	0x3f024402	0.5088502
45	0x3f1a5156	0.6028036
46	0x3e51eb6b	0.20499961
47	0xbe2a60a9	-0.16638435
48	0x3f3e5719	0.7435165
49	0xbe120c7d	-0.14262576
50	0x3ec5b089	0.38611248
51	0x3e6afff8	0.22949207
52	0x3d2033d2	0.03911192
53	0xbcf16f26	-0.029471945
54	0x3deca286	0.115544364
55	0x3eed78c9	0.46381214
56	0x3ce1d284	0.027566202
57	0x3e1c2249	0.15247454
58	0x3f09d15d	0.5383509
59	0xbdf1f7e8	-0.118148625
60	0x3e1585ce	0.14601824
61	0x3f1afb1e	0.60539424
62	0xbe246e72	-0.16057757
63	0xbd388b48	-0.045054704
64	0x3e11368a	0.14180961
65	0x3e00efad	0.12591429
66	0xbcb62900	-0.022236347
67	0x3eabc880	0.33551407
68	0xbcfa675f	-0.03056687
69	0x3e88f4c4	0.2674924
70	0xbe384259	-0.1799406
71	0x3e46c70f	0.19411872
72	0xbd7c90d9	-0.061661575
73	0x3c62e1c0	0.013847768
74	0x3f15e375	0.58550197
75	0x3da4b929	0.08043129
76	0x3b904b8e	0.004403538
77	0x3e0e82f4	0.13917142
78	0x3dfede93	0.124447964
79	0x3e6099cf	0.21933673
80	0x3f21bfd1	0.63183314
81	0xbdf93559	-0.121683784
82	0x3f08b1cc	0.53396297
83	0x3e4f5a74	0.20249349

fc3.weight f4 [10, 84]
0	0xbdd9351e	-0.106058344
1	0x3dcd5864	0.10026625
2	0x3c0f05e2	0.00872943
3	0x3d7c65cb	0.061620515
4	0xbd8ef9b7	-0.06981223
5	0xbd8e77c4	-0.06956437
6	0xbdde1764	-0.10844305
7	0x3dd916b9	0.10600037
8	0xbe4f9123	-0.20270209
9	0xbceab968	-0.028652862
10	0xbd9af04b	-0.075653635
11	0xbe0417fe	-0.12899777
12	0x3e162fca	0.14666668
13	0x3b9c7390	0.0047745183
14	0x3d970d3a	0.0737557
15	0x3e3c1d9c	0.1837067
16	0x3e1089f4	0.14115125
17	0x3e390d8e	0.18071577
18	0xbd65568c	-0.05599074
19	0xbd863030	-0.0655216
20	0xbed07848	-0.40716767
21	0x3e044be9	0.12919582
22	0x3caf4e1f	0.021399556
23	0xbd35452a	-0.044255413
24	0xbcf9235e	-0.030412372
25	0x3e04d469	0.12971653
26	0xbdcdbdc9	-0.10045964
27	0x3d520b0a	0.05128006
28	0x3ddbd691	0.10734285
29	0xbe7ab531	-0.24483182
30	0x3d1b5610	0.037923872
31	0x3d30b2ef	0.043139394
32	0xbda44a82	-0.08022024
33	0x3e0ee143	0.13953118
34	0x3dbb62d2	0.09149708
35	0x3d0ab7d8	0.033866733
36	0x3e141051	0.14459349
37	0xbd91e987	-0.0712462
38	0xbdfad849	-0.12248284
39	0x3e51e7c0	0.20498562
40	0x3d8a7359	0.06760282
41	0x3e68e201	0.22742464
42	0x3e08a817	0.13345371
43	0x3e417411	0.18891932
44	0xbcb29bdf	-0.02180284
45	0xbdeb4001	-0.11486817
46	0xbc8b7eac	-0.017028175
47	0x3ee27816	0.44232243
48	0xbdab829f	-0.08374523
49	0xbd62fbbb	-0.05541585
50	0x3ce2a8e6	0.027668428
51	0x3e555b99	0.20835723
52	0xbd589d17	-0.052884188
53	0xbe0a69a7	-0.13516866
54	0x3e3ffe62	0.18749383
55	0x3db25539	0.08707661
56	0x3d4d29dc	0.05008875
57	0xbdf1f20e	-0.118137464
58	0x3db4f0d5	0.088349976
59	0xbd8cc6f4	-0.06873885
60	0xbe95a17d	-0.29224768
61	0xbe2141ee	-0.15747806
62	0x3cb3e44d	0.021959448
63	0xbd4e4213	-0.050355982
64	0x3d342b80	0.043986797
65	0xbe104ec9	-0.14092554
66	0xbdddf9ac	-0.10838637
67	0xbd8d37e7	-0.06895428
68	0xbd9314a2	-0.0718167
69	0x3e096d74	0.1342066
70	0x3cae903e	0.021309014
71	0x3e0866d7	0.1332048
72	0xbc8b91c3	-0.017037278
73	0x3d1ea35e	0.038730018
74	0xbdf66bac	-0.120322555
75	0x3dbca70e	0.09211551
76	0x3e3226df	0.1739764
77	0xbdd155f1	-0.1022147
78	0x3dc1203f	0.094299786
79	0x3d1ce498	0.03830394
80	0xbdd0eb3b	-0.10201117
81	0xbd9ff77e	-0.07810877
82	0xbbfa7bd8	-0.007644158
83	0x3d10c59a	0.035344698
84	0x3d65b0e1	0.056076888
85	0xbd82a1ae	-0.06378494
86	0xbda5da3a	-0.08098264
87	0xbd796d43	-0.060895216
88	0xbd2f8c1f	-0.04285824
89	0x3e170845	0.14749248
90	0xbd91415d	-0.07092545
91	0x3e71f4dd	0.23628564
92	0xbe605e96	-0.21911082
93	0x3cc1d4e9	0.023661094
94	0xbcd39f1a	-0.025832701
95	0x3de3f9e1	0.11131645
96	0xbbf7c215	-0.007560978
97	0xbd0adb9d	-0.033900846
98	0x3dcc09d9	0.09962816
99	0xbd80d8e4	-0.062913686
100	0xbe085735	-0.13314517
101	0xbe5887ea	-0.21145597
102	0x3d41efee	0.047347955
103	0x3c3a799e	0.011381535
104	0xbcd14335	-0.025544742
105	0xbe1d1633	-0.153405
106	0xbe0d91e7	-0.13825189
107	0x3e38bc17	0.180405
108	0x3ea516c1	0.32243922
109	0x3b61fb8b	0.0034482207
110	0x3cf52291	0.02992371
111	0xbd9e69e3	-0.0773504
112	0x3e4f38e0	0.2023654
113	0x3e20ad30	0.15691066
114	0xbe25d55f	-0.16194676
115	0xbe4b3aab	-0.19846599
116	0x3b464932	0.003025603
117	0x3dfbfabc	0.12303683
118	0x3e035eb8	0.12829101
119	0x3daef787	0.08543306
120	0x3cb3cc31	0.021947952
121	0x3e203cdf	0.1564822
122	0xbd27c43c	-0.040958628
123	0xbd5eb2d6	-0.05436977
124	0xbdedee68	-0.11617738
125	0x3c2bb699	0.010480546
126	0x3dae004b	0.0849615
127	0xbe1b7403	-0.15180974
128	0xbec75345	-0.38930717
129	0xbe558e93	-0.20855169
130	0x3dd411de	0.103549704
131	0xbdcb9bae	-0.09941803
132	0x3de65b17	0.11247843
133	0x3d87b6b4	0.06626645
134	0xbc6f74a2	-0.01461521
135	0x3dcd2b83	0.10018065
136	0xbd917471	-0.071022876
137	0x3c1a1062	0.00940332
138	0x3dbd32ff	0.09238242
139	0x3dd409e4	0.10353449
140	0xbd826126	-0.06366186
141	0x3dc2507d	0.09488008
142	0xbf11d4ef	-0.56965536
143	0x3ea08c6e	0.3135714
144	0x3d8db925	0.06920079
145	0x3dfa650b	0.12226304
146	0xbd515733	-0.05110855
147	0xbd1d59b5	-0.03841563
148	0xbcde7286	-0.027154218
149	0xbd5af347	-0.053454664
150	0xbca2ea77	-0.019887192
151	0x3d0db7bf	0.034599062
152	0xbdabb1c0	-0.083835125
153	0x3e2423cd	0.16029282
154	0xbe196ce8	-0.1498295
155	0xbe6a3693	-0.22872381
156	0x3e3bdcd0	0.18345952
157	0x3bd39acf	0.0064576636
158	0xbe0b4b38	-0.13602912
159	0x3be34bb0	0.006936513
160	0xbda33524	-0.0796912
161	0x3bf41030	0.0074482188
162	0xbc75fd77	-0.015014044
163	0x3dfb7e83	0.122799896
164	0xbebd9b86	-0.37032717
165	0xbd440711	-0.0478583
166	0xbe0b40cb	-0.13598935
167	0xbd70569d	-0.05867635
168	0xbc6be5fb	-0.014398093
169	0x3dacccb8	0.084374845
170	0xbd85b477	-0.065285616
171	0x3d0b4efa	0.034010865
172	0xbcef832c	-0.029237352
173	0xbe08506a	-0.13311926
174	0xbde4c7e6	-0.1117094
175	0x3d3471f4	0.044053987
176	0x3e08be8c	0.13353938
177	0xbe21d908	-0.15805447
178	0xbe2637bc	-0.16232198
179	0x3cc8a535	0.02449284
180	0xbc4eecf4	-0.012629736
181	0x3e20e7cd	0.15713425
182	0xbbccd3d8	-0.0062508397
183	0x3e02944a	0.1275188
184	0x3e31a452	0.1734784
185	0x3b4c4f77	0.0031175294
186	0xbc275b10	-0.010214582
187	0xbd3d9734	-0.046286777
188	0x3e1bca67	0.15213929
189	0x3e380c54	0.17973453
190	0x3e1b68a7	0.1517664
191	0xbddde9c9	-0.108356066
192	0xbdd79859	-0.10527105
193	0xbe10b65f	-0.14132069
194	0x3e34f2cc	0.17670745
195	0xbd30d8d9	-0.043175552
196	0xbcbb84be	-0.022890445
197	0x3e15e7e1	0.14639236
198	0x3e80f601	0.25187686
199	0x3defffb2	0.11718692
200	0x3d8fca27	0.070209794
201	0xbe062844	-0.13101298
202	0x3c615ba2	0.013754757
203	0xbe375afd	-0.17905803
204	0x3c7e8896	0.015535494
205	0x3df2f47a	0.118630365
206	0x3c89a0f6	0.016800385
207	0x3db7503c	0.0895085
208	0x3c9be015	0.01902775
209	0xbdefea4a	-0.11714609
210	0x3d979b04	0.07402614
211	0x3d23e30a	0.040011443
212	0x3cb596b4	0.022166587
213	0x3daaf7e4	0.08348063
214	0xbe3ae9e7	-0.18253289
215	0x3da090e9	0.078401394
216	0x3e022152	0.12708023
217	0x3deeb42d	0.116554596
218	0xbd390a96	-0.04517611
219	0x3d4fb22f	0.05070704
220	0xbc24f2d0	-0.010067657
221	0xbc4b787b	-0.0124188615
222	0xbcc74466	-0.024324607
223	0xbe17e9d4	-0.14835292
224	0xbda70710	-0.08155644
225	0x3e01cbba	0.12675372
226	0x3dc7b161	0.09750629
227	0xbe22f7f3	-0.15914898
228	0xbe0c1669	-0.13680424
229	0xbca811ca	-0.020516295
230	0xbe053893	-0.13009863
231	0xbd71c79b	-0.05902825
232	0x3c89fe93	0.016845023
233	0xbdaebb75	-0.08531848
234	0x3e59f106	0.2128335
235	0x3d910f3c	0.07082984
236	0x3d1a6b57	0.037700024
237	0xbe03015d	-0.12793489
238	0xbd84109a	-0.06448479
239	0xbc9f4722	-0.019443098
240	0x3dfc50f5	0.12320129
241	0x3dd50017	0.10400408
242	0xbb829bae	-0.0039858436
243	0x3db30549	0.087412424
244	0x3d518279	0.05114982
245	0x3da7910f	0.081819646
246	0x3cdb81c0	0.026795268
247	0x3d9352cc	0.071935266
248	0x3e42dae1	0.19028808
249	0x3e41bc52	0.18919495
250	0x3bdada30	0.006678842
251	0x3d8eed91	0.06978906
252	0x3ddd7ffc	0.10815427
253	0x3d6eb59f	0.058278676
254	0x3d77a1df	0.060457107
255	0x3e2ef23c	0.17084593

fc3.bias f4 [10]
0	0xbe9ad740	-0.30242348
1	0xbd27a1cc	-0.040925786
2	0xbe4b34a6	-0.19844303
3	0xbe08d8e6	-0.1336399
4	0x3eb6394d	0.35590592
5	0xbd328ccc	-0.043591306
6	0x3edef759	0.43548086
7	0xbe0ad355	-0.1355718
8	0x3dda4744	0.10658124
9	0xbe2e396b	-0.1701409
