models/DVERGE_submodel_2.pth (torch, 251844 bytes, 10 tensors)

conv1.weight f4 [6, 3, 5, 5]
00000000: e382 463d 0de2 7bbd fdfc 1c3e da81 963e
00000010: 185b 913e 0225 b5bd c0a8 9fbd b425 533e
00000020: 585c 753e 3b92 6e3e 9f47 68be 02fb 19bc
00000030: 8ea7 fa3d 4d7d 973e 8a5b 323e 162f a1bd
00000040: a732 0e3d d966 203e 8ae6 b93d 60f6 ce3d
00000050: 6ad8 cdbc ab12 c03d 3d1a ff3d 4d2f e63d
00000060: 97b1 783e 9e29 77be 3da6 14be 0365 1f3c
00000070: e7c5 5abd b097 05be 8302 dbbe f83b 11be
00000080: 0123 d9b9 91e7 5bbb 4cbb 923d c5f3 dabe
00000090: 4c33 b6be 4bab b13c 0922 c43d 8650 e03d
000000a0: 9a81 cebe 2a7e 56be 943e 60bd ab42 cd3d
000000b0: 0187 603d aa84 e7be 4cd1 8ebe 205d 48be
000000c0: 9004 c7bd 3710 c93c 705b 78bd 3288 cdbc
000000d0: 5fff 983e 9aa0 8f3e ac7c 803e 074f ccbe
000000e0: fcee 9ebe c845 fcb7 2c5d 8b3e 14ee aa3e
000000f0: c16e edbe 7ce8 75be a91d d13d 42e3 9c3e
00000100: a9e8 b63e fe5b debe b5f7 91be 96d8 cf3b
00000110: 526f 433e 6add 363e cf0d 9ebe c705 b9be
00000120: cac2 acbd d041 d4bc 9bf8 5b3e 9141 d63e
00000130: 52f6 4d3f 1070 1b3f d890 793f 053a f43d
00000140: f250 d33e 2163 c43f 0653 de3f c030 783f
00000150: 2f6e 2c3c 8f55 90bf 920c e6be c8ea bf3e
00000160: e1c5 013e d5ae c0be 4401 09bf 2811 f0bf
00000170: c413 17c0 6a95 b1bf 5f7d aabe 658a 3f3e
00000180: b536 30be 5714 80be 61ee 99be 1811 103e
00000190: ae2c 21bf f23f 89bf 7628 49bf 2d1b 3c3e
000001a0: 0233 d7bd aadf 5dbe 2acd 00be afef 493f
000001b0: a490 2f3f 4582 2dbe 3cfd 2f3f 2c96 cd3f
000001c0: c354 1840 a358 a83f a0ca ff3e e6d5 ab3f
000001d0: b324 a43e c750 83bf 24e2 53bf 40e5 f23e
000001e0: 1c24 c3be 279a f3be 8688 abbf ad68 d4bf
000001f0: 8c3e 00bf 2889 8dbe 7366 063e 08e1 24bd
00000200: 7a93 0c3b 7461 aabe 30a6 e83d 4246 4c3f
00000210: dbf2 893e d2b8 34bf f393 dfbe 1013 9b3e
00000220: decd 813f cc9d 8a3f 41bf 823c 88da c8be
00000230: 02cb 453e 22af a5bf f739 aebf c79e a5be
00000240: 4f0e ba3e 5d61 253e 8cec 8dbf 6d8f 85be
00000250: 3247 283f 4196 e53e 6192 693d 3cf8 193e
00000260: 9518 a63e 8187 23be 8eb6 a3bd 7131 28bf
00000270: 8726 c2be 67b2 663f 279f 9b3e 163c d13d
00000280: 3dc6 68bf 3a94 87bf dd4e 693f df12 593f
00000290: a3c5 823e 9627 8bbe 9e19 9cbf 89f9 f73e
000002a0: c9bf 043f 7a80 de3e 0e91 623e 9ee4 0dbf
000002b0: fccc 883c c880 c63e c745 ea3d 67c6 b03e
000002c0: bad9 22bf d298 d5be 0270 c6bb 2b8b 5e3e
000002d0: 199b 1f3f 1cee 9fbf a02d ecbe d6cb c53e
000002e0: 9662 7f3e 156c 003f 7217 dcbf 0891 e8be
000002f0: 76d4 843f dd8c 113f eae6 513e adca cdbf
00000300: d32c 9ebe afed 583f 5682 1b3f ac71 86be
00000310: 07dd 6dbf a175 0bbd bdfa cf3e baab b53e
00000320: 8ce9 ebbe bc12 90be 614f 3c3f 7095 853e
00000330: d81c 8dbb da6f 83bf 7e35 a6be 1a84 b53f
00000340: a485 b53e 23db 0cbf 5caf afbf caa4 bcbe
00000350: 0b19 0a40 2d54 323f 9524 82bf ac02 94bf
00000360: 8b5a 9dbe d4e4 0240 37f6 d63e 432e 78bf
00000370: 1091 8bbe a89c f5bd 1bea 9e3f a40e b43e
00000380: a7ad 5fbf 096d 5cbe e32e f8bd d83b 06be
00000390: a8b6 06be 0697 413e e6c9 753d f404 de3d
000003a0: 70e5 eb3d 2a1d 25be 3060 41be f00c 2fbe
000003b0: f071 283e e56a bb3d e6b4 ef3c 2595 8dbe
000003c0: a84b b8bd 9a8d 683e f0ab c43d a19f 513d
000003d0: 3eea 06be 8b92 a43d 1cc5 063e 6f3c 803c
000003e0: 81bd 1f3e 7793 71be e38e 16bc 6410 0abd
000003f0: f8f4 dd3d da40 803e 061f 433e 8e26 06bd
0.048464667 -0.061494876 0.15330882 0.29395944 0.28389812 -0.08844949 -0.077958584 0.20619851
0.23961008 0.2329797 -0.22683571 -0.009398224 0.1223899 0.29587784 0.17417732 -0.07870309
0.034716275 0.15664233 0.09077175 0.10105586 -0.025127608 0.09378561 0.124561764 0.11239491
0.24286495 -0.2413697 -0.1451654 0.009728673 -0.05341139 -0.13046145 -0.42775354 -0.14183033
-0.00041415545 -0.0033554772 0.0716463 -0.42764106 -0.3558601 0.021688124 0.09576804 0.109528586
-0.40333253 -0.20946565 -0.05474718 0.100224815 0.05481625 -0.45218402 -0.27894056 -0.19566774
-0.09717667 0.024543865 -0.060634077 -0.025089357 0.29882333 0.28052217 0.25095117 -0.39904043
-0.31041706 -3.0073235e-05 0.27219522 0.33384764 -0.4637356 -0.24014467 0.10210735 0.30642134
0.3572438 -0.4342956 -0.28509298 0.0063429577 0.19085434 0.178579 -0.3086991 -0.3613722
-0.084355906 -0.025910288 0.21481554 0.41846898 0.8045398 0.6071787 0.9748664 0.11925129
0.41272694 1.5342752 1.7369087 0.96949387 0.010524317 -1.127611 -0.44931465 0.3748381
0.12673141 -0.37633386 -0.53517556 -1.8755236 -2.3605814 -1.3873723 -0.33298776 0.18705137
-0.17208369 -0.25015518 -0.3006468 0.14069021 -0.629588 -1.072264 -0.78577363 0.18369742
-0.10507776 -0.21667352 -0.12578264 0.78881353 0.6858008 -0.16944225 0.6874578 1.6061454
2.3801734 1.315205 0.49959278 1.3424652 0.3205925 -1.0259026 -0.8276694 0.4744053
-0.38113487 -0.47578546 -1.3401039 -1.6594445 -0.5009544 -0.27643704 0.13125019 -0.04025367
0.0021450208 -0.33277476 0.11359823 0.79794705 0.26943097 -0.70594513 -0.43667564 0.3028798
1.0140951 1.0829406 0.015960338 -0.39229226 0.19315723 -1.2944071 -1.361144 -0.323477
0.36339042 0.16150422 -1.1087813 -0.26085988 0.65733635 0.44841197 0.057024363 0.150361
0.3244063 -0.1596966 -0.07993804 -0.6570044 -0.3792002 0.9011597 0.3039486 0.102165386
-0.9092749 -1.059211 0.9113596 0.8479442 0.2554141 -0.2717864 -1.2195318 0.48432568
0.5185514 0.43457395 0.22125646 -0.5542697 0.016699307 0.38770127 0.1143909 0.3452637
-0.63613474 -0.41718155 -0.006055833 0.21732776 0.62346035 -1.249454 -0.4612856 0.38632077
0.24939951 0.5016492 -1.7194655 -0.4542315 1.0377338 0.56855565 0.20498243 -1.6077477
-0.30893573 0.84737676 0.6074575 -0.262586 -0.92915386 -0.034047727 0.40620986 0.3548258
-0.4607662 -0.28139293 0.7355862 0.26090574 -0.004306417 -1.0268509 -0.32462686 1.4180939
0.35453522 -0.55021876 -1.372539 -0.36844474 2.1577785 0.6965969 -1.0167414 -1.1563315
-0.3073314 2.0452166 0.41984722 -0.9694559 -0.2725911 -0.119927704 1.2415193 0.3516742
-0.8737435 -0.21525969 -0.12118318 -0.13108766 -0.13155615 0.18905267 0.060007 0.108407885
0.11518371 -0.16124406 -0.18884349 -0.17094779 0.16449714 0.09151248 0.029261064 -0.2765285
-0.08998805 0.22710267 0.09603107 0.051177625 -0.13175294 0.08035763 0.13161129 0.015653817
0.15599634 -0.2359141 -0.00918934 -0.033707038 0.1083774 0.25049478 0.19054803 -0.032751612

conv1.bias f4 [6]
00000000: 6915 c7be 46fd 32be 5b4f 44be f965 12bf
00000010: 4a64 b33d 46fc 66bf
-0.38883522 -0.17479429 -0.19170897 -0.5718685 0.08759363 -0.9022869

conv2.weight f4 [16, 6, 5, 5]
00000000: 68df 30be fa64 9e3d b9f7 a63d 994b b93d
00000010: f643 653e 2f6e b03c 311f 03be a5f4 7abd
00000020: 671c efbd 99a9 06bd 924c f93d 855c fabd
00000030: a9b6 5bbd 364f c8bc b4ee 18be 69e9 40bd
00000040: 2d12 56bc 7317 183d 534d 81bd fbe0 4ebd
00000050: 30c6 03be 95ff 2abe ff1d 9ebd 8db2 b4bd
00000060: 6da4 bc3d 18fd 5ebd 2881 053e af49 0dbd
00000070: 1e5f dbbc 0a88 37bd 6344 40be daf6 92bd
00000080: 7a50 1cbe c0f1 f93d bad5 3d3e ed7e 37be
00000090: 1f99 a8be 9e07 2fbf 272f 88be 9b26 59be
000000a0: 6fb8 023e 3e84 c2bd 2b14 ddbe 4682 c3bd
000000b0: fdb8 e13d eab4 ce3c a34a dc3c 2c83 ebbe
000000c0: 2ed3 b8be 0e77 8dbc e0b7 c7be 34ce 4ebd
000000d0: bf95 d5bd 053f 173e 705f 893e c553 5f3e
000000e0: d8bb 77be cbe8 cb3e 3d18 c9be 81e0 cfbc
000000f0: 4461 57bb 7185 4cbf 62a0 893f 45af 0abe
00000100: b0ea a63e 55c3 8cbd 989f d4be 3243 a83f
00000110: afb7 04be b5c7 a73e 8745 083e 0944 f0be
00000120: d2f8 803f 900a acbe e9c6 913e 399c 1e3f
00000130: b6e5 2d3e c538 7f3e 3426 d83e 00f6 913e
00000140: 40aa 833e d44a c7be 8521 a2be 929d 2ebe
00000150: 58c5 8dbe b6c6 283f 06fb 8dbe ee96 e93e
00000160: cc54 c03e e364 09bf 0242 433f 9162 a7be
00000170: 10ec ce3e 0ab1 043f 9d45 3ebf a9e2 da3e
00000180: aa14 68bf 1e77 673d 85af 98bc 5970 06bf
00000190: 3b63 dfbc 1c11 d2bd 2fcb 563b e5bc 7c3e
000001a0: 5f1b 4a3d 50a7 dcbd 4531 35bd ffa7 b0bd
000001b0: 1d02 d53d 9582 5abe d158 07bd 78e3 8c3e
000001c0: 841e 26be e3e4 0d3e 9ec4 773e 7880 5a3b
000001d0: c133 053e 5686 32be 5b02 e43e 1ab0 f8be
000001e0: cb24 f7be a76f 4e3d 5a50 02be eaf1 283e
000001f0: ad2c 92be 567a 9ebd 1410 8ebd 071e 883e
00000200: ae27 9cbe 4f19 073d e51b 223e 03ab b5be
00000210: 969e 3e3e eccf e6bd f18f 67be d92d 8f3e
00000220: 9cf1 273e 9d96 d63e 4984 93bc 1ca6 d03e
00000230: c1d4 b5bd df7c 03bf 4f48 cebe 4335 ecbe
00000240: 073f c7be 59e2 193e 334e 113e 0963 33be
00000250: 518f 093e b717 f73d 493d 25bd b6c3 673c
00000260: b1e9 af3c 2452 863d 8f1e 77ba 7911 dfbd
00000270: a00d 1cbd b62a 0abd 5062 1abd cfca 84bd
00000280: f6b7 8bbd ac52 12bd 89e0 3e3e bfe7 48be
00000290: 4e7b 65be ae34 343d 9475 583d 2842 1b3e
000002a0: c07c 05bd 0e97 bfbd 4132 a0bd 56ef cd3c
000002b0: 69cb 21be 4ded d5bb 0026 99bd 1670 213d
000002c0: 4f83 e8bd 6264 d73d f523 193d 440c aabd
000002d0: f303 583e 33de 923c 355d 61bd 51f9 ecbc
000002e0: 10f8 f0bd 55d9 583a ce35 7dba cbb4 213e
000002f0: c9c7 2fbc f90a 19be 4ec9 d03b 2ebe 0ebe
00000300: 3c4a 58bc 45ce 7dbe c04e e4bd b0e6 213b
00000310: fc3b 933b c094 d1bc dc81 c1be e685 0f3e
00000320: a947 6abe d108 bebe a650 25be e24f 3fbe
00000330: 2472 983e 4aa7 40be ecae 0cbf 2806 26bd
00000340: 488d d23e 25d0 87bc c9b8 ba3b bd9b c13c
00000350: b326 a13e 2c46 df3d 0e00 0bbe abb0 1a3e
00000360: 2e47 073e 23a3 113e 1ade f23d a2e5 7bbe
00000370: 646c 8bbb 1600 a73d fc2f 59bd e6bd c4be
00000380: 3a1a 0abf e7ee 7dbd ce14 5ebe 2216 f5be
00000390: d2e8 2abf ed1d e03e 7274 113e 02e6 3cbe
000003a0: c012 e7be 2fa2 a0be 56d7 233f 4632 fabe
000003b0: 4246 2abf ff20 13bf c322 643e 19c4 ea3e
000003c0: 3505 5ebf fae6 2dbf 19ec 263e 8572 323f
000003d0: e42a 0c3f 60da f6be 6f39 883c 2eb9 263f
000003e0: ab3d 743f 5aa9 d73d d392 84be cfc3 993d
000003f0: 0d69 45be 09f7 6ebe 6bca 85be 002b 2c3e
-0.17272723 0.077341035 0.08152718 0.09047622 0.22389206 0.021536915 -0.12804867 -0.061268467
-0.11675339 -0.032876585 0.12172808 -0.12224678 -0.053640995 -0.024451833 -0.14934808 -0.047097597
-0.013065857 0.037131738 -0.063135765 -0.050507527 -0.12868571 -0.1669906 -0.07720565 -0.08823118
0.09211049 -0.054440588 0.1303755 -0.0344941 -0.026778754 -0.04480747 -0.18776087 -0.071759894
-0.15265074 0.12204313 0.18538561 -0.17919512 -0.32929322 -0.68371 -0.26598474 -0.21206133
0.12765668 -0.094978794 -0.4317945 -0.09546332 0.11021612 0.02523275 0.026891058 -0.45998514
-0.36098617 -0.017268684 -0.39007473 -0.05048962 -0.104289524 0.14770134 0.26830626 0.218093
-0.2419275 0.39826044 -0.39276305 -0.025375606 -0.0032864371 -0.79891115 1.075207 -0.13543423
0.32600927 -0.06873194 -0.4152801 1.3145506 -0.12960695 0.32769552 0.13307773 -0.46926907
1.0075934 -0.3360181 0.2847207 0.61957127 0.16982159 0.24924 0.42216647 0.28507996
0.25715828 -0.38924277 -0.31666198 -0.17052296 -0.27689624 0.6592821 -0.27730578 0.45622963
0.37564695 -0.53669566 0.76272595 -0.32692388 0.40414476 0.5183264 -0.7432497 0.42751053
-0.9065653 0.056510083 -0.018638382 -0.5251518 -0.027268996 -0.102571696 0.0032774915 0.24681433
0.04934251 -0.107741 -0.04423644 -0.08625793 0.10400794 -0.21338876 -0.033043686 0.27517295
-0.16222578 0.13856845 0.24196097 0.0033340733 0.13008024 -0.17434058 0.44533047 -0.48571855
-0.48270258 0.05039945 -0.12725964 0.16498533 -0.2854971 -0.077381775 -0.069366604 0.2658541
-0.30499023 0.03298312 0.15830953 -0.35482034 0.18615183 -0.11270127 -0.22613503 0.27964666
0.1640076 0.41911784 -0.018007414 0.4075173 -0.0887847 -0.51362413 -0.40289542 -0.46134385
-0.38915274 0.15027751 0.14189987 -0.17518248 0.13433577 0.1206507 -0.04034165 0.014145782
0.021473737 0.06558636 -0.0009426856 -0.108920045 -0.03809893 -0.03373214 -0.037691414 -0.06483995
-0.06822197 -0.035723373 0.18640341 -0.19619654 -0.22410318 0.04399555 0.052846506 0.15161955
-0.032589674 -0.09354983 -0.07822085 0.025138538 -0.15800251 -0.0065285326 -0.07477951 0.039413534
-0.1135317 0.105171934 0.037387807 -0.08303121 0.21095257 0.017928218 -0.05502053 -0.028927477
-0.11766064 0.0008272131 -0.00096592016 0.15791623 -0.010728785 -0.14945592 0.0063716536 -0.13939735
-0.013201293 -0.24785717 -0.11147833 0.002470415 0.0044932347 -0.025583625 -0.37794387 0.14015922
-0.22878899 -0.371161 -0.16144046 -0.18682817 0.29774582 -0.18813816 -0.5495441 -0.040533215
0.41123414 -0.016578743 0.0056982976 0.023633832 0.31474838 0.10902056 -0.1357424 0.15106456
0.13210747 0.14222388 0.11858769 -0.24599317 -0.0042548645 0.08154313 -0.053024277 -0.3842613
-0.5394627 -0.061995413 -0.21687624 -0.47868448 -0.66761506 0.43772832 0.14204577 -0.18447116
-0.45131493 -0.31373736 0.6400045 -0.4886648 -0.66513455 -0.57472223 0.22278886 0.45852736
-0.86726695 -0.6793057 0.16301002 0.6970599 0.54752946 -0.48213482 0.016628949 0.6512631
0.954066 0.10530348 -0.25893268 0.07508051 -0.19278355 -0.23336424 -0.26130995 0.16813278

conv2.bias f4 [16]
00000000: 7089 05c0 d1fc 98bf 15bf 8dbf d248 0140
00000010: 1a96 ac3f 3ab8 0fbf 4007 34bf 40c0 18be
00000020: 01cd f9be 4b60 06be a969 69bf 361b c7bf
00000030: 7609 c2be 5133 2240 ef27 aebe 0132 19c0
-2.0865135 -1.1952153 -1.1073939 2.0200696 1.3483307 -0.5614048 -0.7032356 -0.14917088
-0.48789218 -0.1312267 -0.9117685 -1.5555179 -0.37897843 2.534382 -0.34014842 -2.393677

fc1.weight f4 [120, 400]
00000000: cfce 4fbe 48e9 683d 177d 42bd f91a dfbd
00000010: 859e 05be 710c 2c3d ef86 abbd 2322 bbbd
00000020: e88e 24be b1cb 63be a32b afbc 0870 21bd
00000030: c79c acbd bfe0 57bc 455a 803d fb2f 73bd
00000040: 2f42 1d3d aa54 09be 53cf 22be aab1 93be
00000050: fa36 e73d 37f0 093d 5451 dbbe 1ca4 b0bc
00000060: e36f a9bc a975 f23c daf4 a03d 7110 783d
00000070: f382 703e 8af0 6e3c 018a 8fbe 9371 2abe
00000080: 61ce 583e 08fc 34bd d645 3f3e e4dc 143f
00000090: c85e bfbd 89db 5fbe f011 97be 37b0 3cbe
000000a0: 7093 553d 7d37 eabd f6bb fbbd b7ad a6bd
000000b0: 95b8 61bd 7f53 5f3e 70d7 cb3d 4800 87be
000000c0: b3d1 97be b215 e4bd dfeb 623d f2a0 713d
000000d0: 7ee9 753d 3b37 d3bc df41 d6bd 117f eabb
000000e0: 62e5 043e c8a5 acbc 3c93 f2bc 69ae c7bc
000000f0: eeb0 dabd 2c68 91bd 5b88 4dbd df2a 313d
00000100: f0f9 22be 8c4b 8cbe 975c 5e3e c6b9 923b
00000110: 36a2 89be dadd d0bd 758c 103e 93f7 3d3e
00000120: 470b 93be ac87 77bd cc40 24bd b929 ba3e
00000130: bd6f b93d 15d8 9abe 7c2a e33d 2f44 a33d
00000140: 87a7 01bc 3de1 973d d98a f3bd 5aed ae3e
00000150: 494c 663e 2b57 5e3d e087 913d 9177 423e
00000160: d80a 2ebd 7617 af3d 804a 93be cf90 14be
00000170: fec9 cd3d d1ae 533d 3ec7 44be 6b6e c53c
00000180: f08f 57be 178c a33e 5414 e53e c3a8 5cbe
00000190: a42b 5c3d 0c12 1b3e 8f32 9c3d add8 bdbe
000001a0: 0e20 11be 83da eb3c 27cf 783e f209 a43d
000001b0: 94d0 15be 50a0 7b3d ed12 393e ba6d b2bd
000001c0: 7171 a13e 0e52 51be 4090 58be 6067 bd3d
000001d0: 91bd 9f3e 5ba0 433e 233d 8cbd 2993 8fbe
000001e0: 5f32 9ebe 7307 13be 8fd0 4dbd e184 60be
000001f0: 7bc2 813e aa1d a53e a363 0ebe 811d e7be
00000200: 0637 843d 12af 91be f286 55be f359 5e3d
00000210: f365 e73d 8aec e3bd 89ac fcbd d70a 70be
00000220: 559a f23d 7ddc 2abe fdac 313d c26e 643c
00000230: 3710 39bd 38c0 083e 718f d13e 2e24 733e
00000240: 53f1 10be b44a 74be f7ff 83be 2a84 113e
00000250: b783 103e c7a0 0b3d 56c9 f9bd bc84 06be
00000260: 99d2 ff3d 34e3 8b3d f2fc 8e3e 51bc 803b
00000270: d82b eb3c 9d8c 943d d1a2 233b 153a aebd
00000280: 9a17 6dbe f62f bd3e a166 323e 58ce d4bd
00000290: b8fb 9e3e 2b3f 4e3e be1b c1bd c140 29be
000002a0: 3311 f1bd f6e0 9c3e b238 5cbc ec83 a03e
000002b0: 400d 423e 6cde 97bd f38c fb3c cac7 a1bd
000002c0: eb70 62bd 3a12 0e3e 33e0 43be 825e c9be
000002d0: 425b e8bc 70bc 0c3d b92c 87be f336 b2be
000002e0: 9d9a 3abe f13c bf3c 6a82 b53d 35c8 e63d
000002f0: 7853 d2bd 6da3 583e caa8 4ebe 004e 2e3b
00000300: 6f91 833e 711f c83d 8efb 72bd 6439 e6bb
00000310: f681 153e 232d 25be 6b0c 923d 553e 873d
00000320: 366b 583d 55aa 0abe 003c be3d 7f92 19bc
00000330: 9f24 8c3e a485 a2bd 359e 2b3c e09d 6b3e
00000340: 6c65 3bbe 0b88 81bd 8c94 91be 9835 58bd
00000350: 4abd e1bd b94e cc3c 3f7a fdbc 7ac7 82be
00000360: cb53 393e d7f8 813d fd71 ab3d 7cf6 a2be
00000370: 1308 453e 241d 0b3e a615 313d 251a efbd
00000380: 2dea 22be c40f 453e ca28 223e 34dc ccbe
00000390: 1d80 bf3e 272a 07be 6d70 8bbe e671 32be
000003a0: 2108 5ebc 0cb7 cb3d 19c9 57be 9853 cf3d
000003b0: 50de 603d 3d93 ef3d 3a84 88bb 463e dc3c
000003c0: a5bc 9ebe 9c4a 483e 7c58 11bd 710d 873d
000003d0: 8f40 06bb 8380 14be 548a 9ebd 7035 993d
000003e0: e176 003d 8d57 a43d 2152 e3bd 239c 713e
000003f0: f0cc 9abe 6f2a 373e 23a8 813e da69 bbbd
-0.20293735 0.0568631 -0.047482576 -0.108938165 -0.13048752 0.042004053 -0.08375346 -0.091373704
-0.1607014 -0.22245671 -0.021383112 -0.039413482 -0.084283404 -0.013176142 0.062672175 -0.05937193
0.038393196 -0.13411203 -0.158994 -0.28846484 0.11289783 0.033676352 -0.42835486 -0.021562628
-0.020683235 0.02959712 0.07859202 0.060562555 0.23487453 0.014583716 -0.28034976 -0.16644888
0.21172477 -0.04418567 0.18678984 0.5814955 -0.0934425 -0.2186109 -0.29505873 -0.18426596
0.05214256 -0.11436365 -0.1229171 -0.08138602 -0.05510767 0.21809195 0.09953201 -0.26367402
-0.29652175 -0.111369506 0.055400725 0.05899138 0.06003713 -0.025783172 -0.10461783 -0.007156261
0.12978128 -0.021075144 -0.029611222 -0.024375157 -0.10678278 -0.07099947 -0.050178867 0.043253776
-0.15915656 -0.27401388 0.21715008 0.0044777123 -0.2688157 -0.10198565 0.1411608 0.18551473
-0.2871954 -0.06043212 -0.040100858 0.36359957 0.090545155 -0.30242983 0.110920876 0.07971989
-0.007913477 0.07416008 -0.118917175 0.3416546 0.22490038 0.05428235 0.07105994 0.18990923
-0.04249081 0.08549397 -0.28767776 -0.14508365 0.100482926 0.05168039 -0.1921663 0.024100503
-0.21051002 0.31942818 0.44742072 -0.21548752 0.053752556 0.15143603 0.07626831 -0.37079373
-0.14172384 0.028790718 0.24297772 0.080097094 -0.14630347 0.061432183 0.18073626 -0.08712335
0.3153186 -0.20441458 -0.21148777 0.09248233 0.31199315 0.1910414 -0.068475984 -0.28041962
-0.30897805 -0.1435831 -0.050247725 -0.2192569 0.2534369 0.32249194 -0.13905196 -0.45139697
0.064558074 -0.2845388 -0.20852259 0.054285 0.11298742 -0.111291006 -0.12337596 -0.23441635
0.11845843 -0.16685672 0.043377865 0.013942422 -0.04518148 0.13354576 0.4092975 0.2374427
-0.14154558 -0.23856622 -0.25781223 0.14210573 0.14112745 0.034088876 -0.12196605 -0.13136572
0.1249134 0.06830445 0.27927357 0.003928699 0.02870743 0.07253382 0.0024968872 -0.08507172
-0.23153535 0.36950654 0.17421962 -0.103909194 0.3105142 0.20141284 -0.094291195 -0.16528608
-0.117708586 0.30640382 -0.013441252 0.31350648 0.18950367 -0.074154705 0.030706858 -0.07899435
-0.05528347 0.1387414 -0.19128494 -0.39329916 -0.028363828 0.034359396 -0.26401308 -0.34807548
-0.18223043 0.023344489 0.08862765 0.11268655 -0.10269827 0.21156092 -0.20181575 0.0026596785
0.25696895 0.09771622 -0.059321932 -0.0070258845 0.14600357 -0.161305 0.07131275 0.06603686
0.05283662 -0.13541539 0.09288788 -0.009373306 0.2737169 -0.07935646 0.010474731 0.23009443
-0.18300408 -0.06324776 -0.28433645 -0.052785486 -0.11022432 0.024939882 -0.03094208 -0.25542814
0.1809837 0.063462906 0.08371351 -0.31828678 0.19241361 0.13585335 0.043233536 -0.116749085
-0.15909643 0.19244295 0.15835872 -0.40011752 0.3740243 -0.13199674 -0.27234212 -0.17426261
-0.013551743 0.09947023 -0.21072806 0.10123366 0.054899514 0.11698005 -0.0041661533 0.026885163
-0.310033 0.19559711 -0.035484776 0.065943606 -0.0020485257 -0.14502148 -0.07741228 0.074808955
0.03136337 0.080245115 -0.11099649 0.23594718 -0.3023448 0.17887281 0.2532359 -0.09151049

fc1.bias f4 [120]
00000000: f9e5 f03d 4100 35bf b222 4bbd e1df a43e
00000010: 8342 07be 57de 443d 3adf aebe 8bd2 363e
00000020: 5bd2 663e b809 863d 6b5c dd3e 6ac6 98be
00000030: 7e01 57bf 1cfe 94be 6cb1 1cbf a676 3cbe
00000040: 92fc c93d 36fc 2a3e d8b2 34be 396c 34bd
00000050: f819 9f3e 3699 dcbc 4326 81bd 8751 863e
00000060: 7e78 0c3f fcf1 1dbf 05d4 073f 2670 67bd
00000070: 0905 60bd 0147 2f3f 5bb6 2fbf 0041 fe3d
00000080: c999 1bbf 8c0d 46be cbe7 bdbe ee1f 633d
00000090: 13dc 5f3e e021 0cbe 7846 063f 39ea 093f
000000a0: 9cc9 90bc 8283 a8be efcf 9f3e 660c 0cbf
000000b0: 7e24 fd3d 0e00 fe3e 872a 7a3e 447e e93d
000000c0: 5827 093e f9d8 003f 39db a2be 7acf 7e3c
000000d0: 430b 17be 7737 e03e 928c 1f3d 9ae2 3fbe
000000e0: a686 153d 4be3 a0be 78cf 6c3d f4d0 18be
000000f0: d828 a3be d715 1e3f 489a bc3e 8225 2d3f
00000100: a35a 953e 1685 03bf 5e3c a2be bd0d 263e
00000110: 68e7 2d3e ae73 493e 6807 09be 2cf9 2c3f
00000120: e4ae ab3e 3dde 4f3e d104 003f 0fb6 803e
00000130: 4013 08bf 495a f33e 3a63 c83e b57b 6e3e
00000140: ee99 743d 012d 14bf 5bf3 78be 7097 cc3e
00000150: eca7 4a3e f169 953e 8ff5 fa3c c6bb 863e
00000160: eeaf 07be 7805 27bd ba9d 40bc 037c 063f
00000170: 4522 15bf 0440 37bc 5bca 03bf 0d24 31be
00000180: b510 2fbe 8594 093e ff4b 00be 38da 743d
00000190: 7aa9 b9be 101b 823e b1e5 823d 7bc5 a83c
000001a0: ce2b 44ba 0fd8 47bd 7cec 14be 622b c53e
000001b0: 407c d6be e253 2dbf d45a b03c ebc8 30be
000001c0: c180 a5be b603 55be 3786 85bc 00bb bfbe
000001d0: 90f5 933e eb79 c7bd be04 2bbe 226c 20bd
0.11762614 -0.7070351 -0.049593635 0.32202056 -0.13208966 0.048063602 -0.34154683 0.17853753
0.22541182 0.065448225 0.43234572 -0.29838878 -0.8398665 -0.2910012 -0.61208224 -0.18404636
0.09862627 0.16697773 -0.17646348 -0.04404852 0.310745 -0.026928525 -0.06306126 0.26234075
0.54871356 -0.61697364 0.5305789 -0.056503437 -0.054692302 0.6846772 -0.6863763 0.124147415
-0.6078153 -0.19341105 -0.37090907 0.055450372 0.21861295 -0.13684797 0.52451277 0.5387302
-0.01767426 -0.32912832 0.31213328 -0.5470642 0.12360476 0.49609417 0.24430285 0.114010364
0.13393915 0.50331074 -0.3180788 0.015552396 -0.1475039 0.43792316 0.038952418 -0.18738785
0.036505364 -0.3142341 0.057815045 -0.1492346 -0.318671 0.61752075 0.36836457 0.6763536
0.29170713 -0.5137495 -0.31686682 0.16216178 0.16982806 0.19673035 -0.13381732 0.67567706
0.33531868 0.20299621 0.5000735 0.251389 -0.53154373 0.4752982 0.39138204 0.23289378
0.05971711 -0.5788117 -0.24311583 0.39959288 0.1979062 0.2918239 0.03063467 0.26315135
-0.13250706 -0.0407767 -0.011756355 0.52532977 -0.58255416 -0.011184696 -0.51480645 -0.17298909
-0.17096217 0.13435562 -0.1252899 0.059778422 -0.36262113 0.25411272 0.063914664 0.020601979
-0.0007483334 -0.048790034 -0.14543337 0.3850966 -0.4189167 -0.6770612 0.021527685 -0.17264144
-0.32324794 -0.20802197 -0.01629935 -0.37447357 0.28898287 -0.09740051 -0.16701028 -0.039165623

fc2.weight f4 [84, 120]
00000000: 2173 8cbb afc8 8fbe 3fd1 a73e 8d32 3abc
00000010: 4662 43be ad13 f63d 1b62 343e 3e69 b33c
00000020: a662 ec3d d694 843d 2f1a e9be 8f61 d9bd
00000030: 8d13 a53d f228 073d e29e 4abe 1772 493e
00000040: 800c b43e 74bc 7cbe 3037 15be 0244 b93d
00000050: e826 8cbd 6d48 3abc e840 3c3c 9224 31be
00000060: 843b 89be 705d 863e 3b9b 633e b4d8 9a3d
00000070: fec8 443e b597 86be 1a29 423d 1e03 eb3c
00000080: 5532 793e 33ba a7be 6a7d 703e 40ab 86be
00000090: 55b0 fa3d d17c bd3d 3403 3dbc 285b e7bd
000000a0: 07be 77be 2da6 c7be 4622 afbd 6d49 b53e
000000b0: d548 753e 8454 b6bd 794d 8a3c a340 46bd
000000c0: 6fb0 ec3c 9c51 17be e38f 143d d51c 423e
000000d0: ee6c 92be f4da 03be 64a1 97be bbeb 3dbe
000000e0: f37b 303e 0cdd 44be e7a3 a4be 9efa 8d3d
000000f0: 1d9a 463e 2e74 15be 7aa1 86bd 5663 1d3e
00000100: 89eb 213d da85 823e 0e97 f7bd 8d3e 4a3e
00000110: ab3c f93c 5c26 cabe cae6 78be 31d3 913d
00000120: 72c1 35be 6136 ffbd 8ba5 fcbd 13bc fcbd
00000130: 10cd 3b3d 1d11 3ebd b2e9 1c3d cbc1 bcbc
00000140: 7281 2ebe fb1f d83d 8197 7ebe 01e9 2cbe
00000150: 7e13 253e ff62 5d3e d473 52be 1674 f6bc
00000160: c5f3 50be 44ab 723e 653f d73d 080a b83e
00000170: 8d16 683d 85c9 be3e d921 43be 89bb d33d
00000180: 1e9b 69bd aa87 c23d 0142 c0be 3c88 febd
00000190: ff4e 26bb 2da0 3e3d 8b87 7cbd 306e b73e
000001a0: 5b60 1ebe c279 263c a43e 42bd 03fa 473e
000001b0: cb29 d93d 1346 183e ec8b 863d 5040 47bd
000001c0: 7c1d e43c 0298 393e 8f2e 9a3e 7c0f 2d3e
000001d0: 954f 0a3e 3e10 27be a87d 1fbd cdfe f6be
000001e0: f50c 133e 7157 8dbd 3c21 41be 19a2 043e
000001f0: 5887 f6be 8272 3e3c efc9 86bc a469 43bd
00000200: e1e0 4d3e 872b 48be 1d21 193e 566c 54be
00000210: 03bd 45be b2e1 0bbe 6997 12be e009 afbe
00000220: ad35 07be 0632 5abe 7371 e3bc 3449 923e
00000230: 9aee 6c3e 74a9 d43d 3c35 173e 4703 2d3d
00000240: a6a7 01be 1d1f 14bd 2100 3cbe cc70 71b9
00000250: 8fc6 4d3e 3807 16be e297 08bb ba72 de3d
00000260: fb8e 943c c4ae 833d bbf9 053c fd54 75be
00000270: 3c6c 6e3d 28c1 cf3d 27a4 8fbd dea0 b5be
00000280: 053b c33d c619 ffbc 4fbd 26be bddb 60bc
00000290: 4471 2fbd 5ce5 d1bd 0462 65bd 3227 b43c
000002a0: 822d b03e 50d7 8e3d 68a7 863b e952 9c3d
000002b0: c870 7bbe 3c7d 4c3e 46b4 98bc 8d3f 95bd
000002c0: b572 083e 9c91 373e 0d30 243e 4d3b 293e
000002d0: 702c 9dbd 70a3 923e 60a6 023d c6c9 f1bd
000002e0: d12e f23d accd 223d 707f c8be 04ab 99bd
000002f0: fd64 0ebc bc7b 20be 7a26 743e 0fae e5bc
00000300: 5ddf 44bd 1029 fbbe da98 a53d cc61 dd3b
00000310: 005e d4bd 402b 2fbd b80f 383e da3e 11be
00000320: e753 08bf 6d28 233e ff89 cbba 0f68 c7be
00000330: 59c0 ac3c 605a ea3d d2d8 1d3d 0aac 223c
00000340: dd25 3ebe 2330 923e 1208 f43d 0799 ed3d
00000350: aa84 24bf 6b33 b3be 1e14 efbe ec25 cb3e
00000360: 0d48 c83d 8eb0 13be 5339 44bd c9e8 973e
00000370: afea 14be 1a67 643c 3394 0f3e 15db 443e
00000380: 38aa 403d 9d08 e03c ff03 0c3e 2b7c 503e
00000390: 620a 913e 24fe a43c f71b 5dbe 3aa6 2e3e
000003a0: fefa 5dbe f2cc 04be bdf7 dbbd 7254 31be
000003b0: 0deb 233e 6319 57be ce54 3c3c f8fa ecbd
000003c0: 3548 45bd 84cf 233d decb 553d e799 c2bd
000003d0: 1511 8fbb 9287 23bf 49b0 743e b864 c2bd
000003e0: 8f59 47bb 59f7 e2bb 9eb4 303d 5c4c a43e
000003f0: 483b 483e 2c30 da3d 2c8e 273e 7cd1 233e
-0.0042861854 -0.28082797 0.3277683 -0.011364591 -0.19080457 0.120154716 0.1761555 0.02190077
0.11542253 0.06473701 -0.4552779 -0.10614311 0.0806037 0.032998033 -0.19787171 0.19672428
0.35165787 -0.24681264 -0.14571834 0.090461746 -0.06843358 -0.011369807 0.011490084 -0.17299107
-0.2680322 0.26243162 0.22227184 0.07560864 0.19217297 -0.26287618 0.04740248 0.02868801
0.24335606 -0.32759246 0.23485342 -0.26302528 0.12240664 0.092523225 -0.011536408 -0.112966835
-0.24193583 -0.3899397 -0.08551459 0.35407582 0.23953564 -0.08902839 0.016882645 -0.048401486
0.028892724 -0.14777225 0.036270034 0.18956311 -0.28598732 -0.12876493 -0.2961532 -0.18546955
0.17234783 -0.19224948 -0.32156298 0.06932567 0.19394727 -0.145951 -0.06573768 0.15369925
0.039531264 0.25492746 -0.12089358 0.19750424 0.030424437 -0.3948239 -0.24306789 0.0712036
-0.17749575 -0.12461544 -0.12336262 -0.1234056 0.04584986 -0.04640304 0.038308807 -0.023041626
-0.17041567 0.10552975 -0.24862482 -0.16885759 0.16120717 0.21619795 -0.20551997 -0.030084651
-0.2040549 0.23698145 0.105101384 0.35945153 0.05666213 0.37263122 -0.1905588 0.10338504
-0.057032697 0.09498532 -0.37550357 -0.124283284 -0.0025376675 0.046539474 -0.0616527 0.35826254
-0.15466444 0.010160865 -0.04742302 0.19528966 0.106036745 0.14870481 0.06569657 -0.048645318
0.02784609 0.18124393 0.30113646 0.16900438 0.1350692 -0.1631479 -0.038938195 -0.48241273
0.14360411 -0.06901444 -0.18860334 0.1295246 -0.48150134 0.0116239805 -0.016453711 -0.04770817
0.20105316 -0.19547854 0.14954038 -0.20744452 -0.19310383 -0.13660315 -0.14315571 -0.34187222
-0.1320407 -0.21308145 -0.027764058 0.28571475 0.23137894 0.10383883 0.14766401 0.042239454
-0.12661609 -0.036162484 -0.18359424 -0.00023025571 0.20095275 -0.14651191 -0.0020842482 0.10861726
0.018134585 0.06429818 0.008177216 -0.23958202 0.05820869 0.101442635 -0.070137314 -0.35474294
0.095327415 -0.03114022 -0.16283153 -0.013724265 -0.042832628 -0.10248825 -0.056001678 0.021991346
0.3440972 0.06974661 0.004109312 0.07633001 -0.24554741 0.19969648 -0.018640649 -0.07287512
0.13325007 0.1792664 0.16033955 0.16526528 -0.076744914 0.28640318 0.03189695 -0.11806063
0.11825336 0.039746925 -0.39159727 -0.07503322 -0.00869107 -0.15672201 0.23842803 -0.0280371
-0.04806458 -0.49054766 0.08085795 0.006756043 -0.103694916 -0.042765856 0.17974746 -0.14184132
-0.53253025 0.1593339 -0.0015528797 -0.38946578 0.021087812 0.11443019 0.038536854 0.009928713
-0.18569131 0.2855235 0.11915602 0.11601453 -0.6426493 -0.35000166 -0.46695036 0.3967737
0.097793676 -0.14422819 -0.04790623 0.29669788 -0.1454265 0.013940597 0.14021377 0.19224198
0.047037333 0.027347857 0.136734 0.20359866 0.28328234 0.020140715 -0.21592699 0.17055598
-0.21677777 -0.12968805 -0.10740612 -0.1731737 0.16007634 -0.21005778 0.011494828 -0.11571306
-0.048164565 0.039992824 0.052196376 -0.09502011 -0.00436605 -0.6387874 0.23895372 -0.09491867
-0.0030418371 -0.006926459 0.043141 0.32089508 0.19553864 0.10653719 0.16362828 0.1599788

fc2.bias f4 [84]
00000000: 0fdc 5f3e 4610 a23d eea2 d3be f75a 00bf
00000010: af01 c9bc a61c 82be b3a2 d83d bf33 df3d
00000020: 074c ba3e 5912 88be a802 193f f3b6 cf3d
00000030: 5002 89be 712b a0bd 3f63 0ebf 5850 47be
00000040: 66b4 97be c20f d43e 5c37 0cbe 866c bbbd
00000050: c372 223f f9c9 9d3c c06f 82be 7289 68bf
00000060: 8008 ecbe 0e49 83be 43fe 9dbd 8a18 64be
00000070: 991f fbbe 77d2 88be 173d 213d 0696 b2bd
00000080: 1191 8abd 8bb2 e4be c288 44ba e38a b0bc
00000090: d3d7 3abe 248f 00bf 108f 91be 3647 b0be
000000a0: ff31 f93e f1a8 953d 7747 963e 4a42 4ebe
000000b0: ad6e 3b3f 7372 6f3f 694d 8a3e bdbc 04bf
000000c0: 9fbc 523f 98e3 46be 45d0 3a3f f328 71be
000000d0: e635 33be 6b60 c3bc c73c debe c019 dc3e
000000e0: e0e8 1b3e 64bf c6be 676c 223f a2b0 b3bd
000000f0: 0d1f a83d 00d8 703f 719e 20bf e7fc 25bf
00000100: 02b9 9e3e dcec 31be bf28 d2bd f011 d63e
00000110: 62b0 0abe f140 7cbe 8af0 c1be b759 2fbd
00000120: e36a a63d ca56 5ebe 273a 1c3f 4271 8abe
00000130: 7d01 34bd dda7 a83e 15a5 d33d d807 8fbc
00000140: c384 a13f a4ca 86be 3ebc 623f 67f5 e03e
0.2186129 0.0791326 -0.41335243 -0.501388 -0.024536936 -0.25412482 0.105779074 0.10898542
0.3638613 -0.26576498 0.5976968 0.10142317 -0.26759577 -0.07820786 -0.5562019 -0.19464242
-0.2962982 0.41418272 -0.13692993 -0.091515586 0.6345636 0.019261347 -0.25475883 -0.90834725
-0.46100235 -0.25641674 -0.07714512 -0.22274986 -0.49047545 -0.26723072 0.0393649 -0.08720021
-0.067659505 -0.44667467 -0.0007497185 -0.021550601 -0.18246393 -0.50218415 -0.2842946 -0.3442933
0.48670956 0.07307614 0.29351398 -0.20142475 0.7321575 0.9353401 0.27012184 -0.5185049
0.8231906 -0.19422758 0.72974044 -0.23550777 -0.1750103 -0.023849687 -0.43405744 0.42988396
0.15225554 -0.38817894 0.6344666 -0.087739244 0.082090475 0.9407959 -0.6274176 -0.64839023
0.31000525 -0.17375511 -0.10261678 0.4181056 -0.13543847 -0.24634148 -0.3787883 -0.042810168
0.08125856 -0.21712795 0.61026233 -0.27039534 -0.04394673 0.3294057 0.10334221 -0.017459795
1.2618641 -0.26326478 0.88568485 0.43937227

fc3.weight f4 [10, 84]
00000000: b8f1 24be 1337 53bd 7e14 cd3d 179d 153e
00000010: ee33 ffbd e2c9 8abd 5c06 6fbe c08c bd3d
00000020: 19ed ccbe 12f8 cdbd 1c7f 20be 1c26 18be
00000030: 03cd 793e ed12 823d ae72 573d c8f1 803e
00000040: 6efa 9a3e dd5a 783e 24a6 0ebe 2c0a b2bd
00000050: 6bdd 34be 279c 303e 7de3 963d fb1c 03bc
00000060: e260 aebc f88c 403e 4f2c 1ebd 0fa2 023d
00000070: 63ec 7d3e 3c9d 74bd bd51 c73d c7b3 7f3d
00000080: 4f8f 73be 0519 693e a199 fc3d 08e5 973b
00000090: 0a6b 553e 8ce9 e8bd f7b9 71be c037 6e3e
000000a0: 080e aa3d ae1a 683e 0420 c43d ac1e 823e
000000b0: a8f9 62bd a78b cabd 513c 20be 656e e03e
000000c0: 918d 2d3b 9eb5 d6bc 6093 123e f901 5e3e
000000d0: 3764 76bd 8453 d5bd b61e 263e 4faa 09bd
000000e0: dc6a ab3d 480a cdbd 2eef 4c3d 3b59 eb3b
000000f0: 741b 8cbe 1eae 41be c948 9e3d ae85 5a3d
00000100: ffcc bb3d d69c 2bbe b603 09be 5109 3abe
00000110: 9215 a2be a372 143e b800 623c 2872 a03d
00000120: ee5d 783d 0fb5 be3d fb1d 61be 63d4 0b3e
00000130: 44fb 263e a720 57be 7c5c ba3c f3f4 bb3c
00000140: 0142 90be 8b04 043e eeba 0d3d 2e81 93bc
00000150: 5144 323e 7d5e c83a 09b2 43be b67c 00bc
00000160: dff5 11bd 7ea1 633e 7fce 6b3b 2e07 853e
00000170: 933c a3be 3dad 4a3d e98e 2ebe cd97 4d3e
00000180: a794 5f3d 1850 eb3d 5cda 663e ba88 31be
00000190: 0223 84be b481 90be 4dce d33d a1e4 8d3d
000001a0: cd19 bebd 9d9f bbbe 4a37 f1bb 2b7f 833e
000001b0: a5db 003f b2ea aabd 1427 2dbe c8e4 cbbd
000001c0: c96e e73d f933 953e bad0 81be f1bc 14be
000001d0: 32bc 7a3d 2f9e 363e ed04 1c3e 9eef 3e3d
000001e0: 791d ed3d f170 863e 7f2b a1bc e8f6 11bb
000001f0: 2d22 16be a989 f93d 4f84 00be 310d d83c
00000200: 6082 aabe 97ca 2ebe cacf 2e3e 28ea d63b
00000210: 4114 513e 160d 243d b1f2 98bc fca2 033e
00000220: f1b4 36be f3a2 73bb ce25 703e 6b75 1b3e
00000230: 65b2 0dbe 5994 3c3e 0f60 06bf da98 203d
00000240: 8874 143e be3c 913d 208e dabc 1b12 7fbd
00000250: 9693 e73d c872 c4bb 377e f5bc e061 8e3a
00000260: 0d2d fdbd a743 983e b54f acbe 9cf4 54be
00000270: 60e4 42bd 9f4e 1fbc b958 a0bd a286 823d
00000280: d3d6 5bbd 49ff 96bb 175b a9bd 88db b73d
00000290: 0c88 b2be fce8 f23d dbf8 44be 9431 d7bb
000002a0: 3212 d4bd d0ef 743e 8b5d c2bd f3af 2f3d
000002b0: b338 193d 8dc1 a7be 8e6c 93bd a2ef 493e
000002c0: a437 5a3e a291 e2bd 69c3 35be 2b58 3bbd
000002d0: f3df e3bc 07d3 853e 10fb d3bc 35bf 083e
000002e0: f895 883e fc8c a1bd ee31 473d 20d1 ae3c
000002f0: 4182 463e 6271 ad3e 04f2 3c3e 6438 f1bd
00000300: e0ec 30be 9a92 81be 7b32 953e 2416 6cbd
00000310: fce0 c7bd 6e9e a43d 222b af3e 2cda 983e
00000320: 0e98 143e aa56 65bc 618d c8bd 0170 acbe
00000330: b4f6 1d3e 4e59 553e 9f89 f23c 8784 8bbd
00000340: 20e9 d93d 35b7 9fbd 3895 053e 1966 89bd
00000350: ed54 f33a 8bbc 71bd bacf 9ebe d789 13bd
00000360: d355 603e 18ab 1a3d ca80 11be fa66 273e
00000370: 8515 023d f998 4abe 0c1a cf3c 33d8 4bbe
00000380: 57d2 7dbe d9a4 5b3e 4692 f73d d462 aabd
00000390: a7cf 9bbe 6156 47bd 606b 85bd fccb a4bd
000003a0: 3b6e f8bd 376f 24be f15c a03e 59eb 743e
000003b0: fa95 283e 7e17 48be 91a5 febd 5030 edbd
000003c0: db01 433d b202 6c3e 741f 2ebe a440 613d
000003d0: 11f3 823e 8067 c73d 867a 4dbc 4bfa 2a3e
000003e0: f14e b03e 8904 933e 0c25 623d 1c0b e73d
000003f0: b1dc f03d d631 583e d244 47bd 06c2 5a3e
-0.16107833 -0.051566195 0.10013674 0.14610706 -0.12461077 -0.06776787 -0.2334227 0.092553616
-0.4002464 -0.10057081 -0.15673488 -0.14858288 0.24394612 0.06351266 0.0525996 0.25184464
0.30269188 0.24253412 -0.13930565 -0.086933464 -0.17662589 0.17247067 0.07367609 -0.008002515
-0.021286432 0.18803775 -0.038616475 0.031892832 0.24797206 -0.059720263 0.09732387 0.06242731
-0.23785137 0.2276345 0.1233399 0.004635457 0.20841613 -0.113726705 -0.23606096 0.23263454
0.083034575 0.22666427 0.09576419 0.25414026 -0.055413872 -0.09889918 -0.15648009 0.43834224
0.0026482085 -0.026209649 0.14314032 0.2168044 -0.060154166 -0.1041632 0.16222653 -0.033609685
0.08369991 -0.100117266 0.050032787 0.007182268 -0.27364695 -0.18914077 0.077287264 0.053350143
0.09169959 -0.16759047 -0.13380322 -0.18167616 -0.31657082 0.14496855 0.013794117 0.078342736
0.060636453 0.09311878 -0.21984093 0.13655238 0.16306788 -0.2100855 0.022749178 0.02294395
-0.28175357 0.12892358 0.0346021 -0.018005934 0.17408873 0.0015286949 -0.19110884 -0.007842233
-0.03563487 0.22229573 0.0035981236 0.2598204 -0.31882152 0.04948162 -0.17046703 0.20077439
0.054585125 0.11489886 0.22544235 -0.17337313 -0.2580796 -0.28223956 0.10342083 0.06928373
-0.09282265 -0.36645213 -0.0073613273 0.2568296 0.5033515 -0.08345546 -0.16909438 -0.09955746
0.113004275 0.29141214 -0.25354558 -0.145252 0.061214633 0.1783378 0.15236254 0.046615236
0.11577887 0.26258042 -0.01967406 -0.0022272412 -0.14661475 0.1218446 -0.12550472 0.026373478
-0.33302593 -0.1706947 0.17071453 0.0065586753 0.20417883 0.040051542 -0.018670412 0.12855142
-0.17842461 -0.0037175983 0.23451921 0.1518151 -0.13837583 0.18415965 -0.52490324 0.03920827
0.14497578 0.07091664 -0.026679099 -0.062273126 0.11307447 -0.0059951283 -0.02996741 0.0010862909
-0.123621084 0.29739115 -0.33654562 -0.20796436 -0.047581077 -0.009723335 -0.078294225 0.063733354
-0.05367167 -0.004608069 -0.08269327 0.08977419 -0.3486942 0.118608445 -0.19235556 -0.0065671895
-0.10355033 0.23919606 -0.09490498 0.042892408 0.03740759 -0.32764855 -0.071984395 0.19720319
0.21310288 -0.110629335 -0.17750324 -0.04573838 -0.027816748 0.26137564 -0.025876552 0.1335419
0.26676917 -0.07888219 0.0486316 0.021339953 0.19385625 0.33875567 0.18451697 -0.11778334
-0.1727786 -0.2530716 0.29140076 -0.057638302 -0.09759709 0.080380306 0.34212595 0.29853952
0.1451113 -0.013997713 -0.09792591 -0.33679202 0.15426141 0.20834848 0.029606638 -0.06812387
0.10640168 -0.07798616 0.13045204 -0.06708927 0.0018564739 -0.0590177 -0.31017858 -0.036020126
0.2190774 0.037760824 -0.14209285 0.16347876 0.031758804 -0.19784917 0.025280975 -0.19906692
-0.2478727 0.21449603 0.12088446 -0.08319631 -0.30431864 -0.04866636 -0.06514621 -0.080467194
-0.121304 -0.1605805 0.3132091 0.23917903 0.16463462 -0.19540212 -0.12433923 -0.115814805
0.04760919 0.23047903 -0.17004186 0.054993287 0.2557607 0.09736538 -0.012541419 0.16697042
0.34435228 0.28714398 0.055211112 0.11281416 0.117608435 0.21112761 -0.048649617 0.21363077

fc3.bias f4 [10]
00000000: 195c 4abf 11a7 b4bf c537 20bf 24f3 4a3f
00000010: 87f5 fa3f 8a15 c4be 24ef 883f 6d05 53be
00000020: 43c2 57bd 6313 f6be
-0.7904678 -1.4113485 -0.625851 0.79277253 1.9606179 -0.38297683 1.069798 -0.20607539
-0.052675497 -0.48061666
