models/DVERGEadv_submodel_3_50epochs.pth (torch, 252090 bytes, 10 tensors)

conv1.weight f4 [6, 3, 5, 5]
0.025772339 0.0460815 0.06378658 0.06369724 0.047810666 0.07052358 0.14743721 0.19802855
0.18993361 0.124081664 0.1099689 0.23020494 0.3225619 0.3124211 0.1946428 0.08393823
0.19670612 0.29551315 0.2954444 0.17244601 0.049515992 0.10969209 0.1696066 0.18297896
0.109018356 -0.040728454 -0.055228867 -0.055053726 -0.058258526 -0.042061776 -0.04374075 -0.059667557
-0.07236309 -0.0792089 -0.05667559 -0.033102024 -0.051034823 -0.07135354 -0.08092273 -0.05794296
-0.038599562 -0.051864527 -0.06162894 -0.070826545 -0.055924665 -0.030268129 -0.040043943 -0.039923783
-0.04034652 -0.0385171 -0.022882456 -0.03140106 -0.024119886 -0.021169426 -0.013371438 -0.01870052
-0.024880266 -0.030840714 -0.036149945 -0.026668113 -0.004572253 -0.00842674 -0.023087678 -0.0381952
-0.033736397 -0.005538105 -0.007358506 -0.014750338 -0.0324247 -0.033044096 -0.00309756 -0.008821799
-0.011067738 -0.013726391 -0.016465552 0.005008529 -0.10314552 -0.15765974 0.08198921 0.16901706
0.1821781 -0.012012349 -0.5351051 -0.33880347 0.15261786 0.3230473 0.3924481 -0.17702438
-0.7695269 -0.24874055 0.13505359 0.52141374 0.4627245 -0.1595186 -0.3161273 -0.038893893
0.1140327 0.37509203 0.22163807 0.016976358 -0.020578772 -0.10208155 -0.1612278 0.029061643
0.099077664 0.10393533 -0.010636034 -0.4173293 -0.30581528 0.082123086 0.19840686 0.2549671
-0.11666156 -0.6287072 -0.23154944 0.08648827 0.3258735 0.3064721 -0.12615578 -0.27212775
-0.034657575 0.07184666 0.23332334 0.13189258 -0.011623328 -0.040464666 -0.15049876 -0.21457332
0.022226807 0.08777759 0.13324551 -0.016633222 -0.49059767 -0.31956473 0.10316978 0.27443728
0.34552413 -0.13976803 -0.67405814 -0.22631736 0.11929678 0.49614394 0.432296 -0.12604094
-0.2865827 -0.044114448 0.10312447 0.34167215 0.18808934 -0.0008391508 -0.17882277 -0.16887514
0.3125675 0.11744169 -0.077341 -0.37547868 -0.20243499 0.8462554 0.19859381 -0.3841596
-0.34904423 0.012207345 1.0507609 0.018519705 -0.62799865 -0.123538494 0.15536313 0.5900965
-0.13696787 -0.44358516 0.0070014293 0.09986078 0.20009443 -0.066126585 -0.16526379 -0.14001842
-0.11263186 0.1980242 0.06638451 -0.09152157 -0.26704246 -0.11595874 0.52514917 0.14518876
-0.31097004 -0.24218711 0.027618444 0.65067005 0.024285436 -0.5009376 -0.09845425 0.10065992
0.35977006 -0.105655365 -0.3683014 -0.018576862 0.044805326 0.11164674 -0.070579596 -0.15664926
-0.18573971 -0.15458198 0.27724642 0.09784598 -0.07869292 -0.35352498 -0.15028602 0.8212207
0.19556648 -0.3477992 -0.32433128 0.048357908 1.0230937 0.034839027 -0.5689578 -0.11649522
0.14204225 0.5175051 -0.115964144 -0.39410815 -0.017027536 0.059481554 0.14146864 -0.06991449
-0.16927455 -0.008703278 -0.01425097 -0.014307152 -0.023587495 -0.015945444 -0.012754011 -0.020825477
-0.03126332 -0.04325503 -0.032840006 -0.019941194 -0.031861454 -0.04240025 -0.048208673 -0.03271374
-0.027769469 -0.04085081 -0.04581655 -0.045963805 -0.03276449 -0.022143692 -0.032663487 -0.036222044
-0.038302317 -0.027892452 -0.025346074 -0.03644697 -0.037580177 -0.044790838 -0.03276817 -0.03613987
00000000: 8320 d33c f4bf 3c3d 8aa2 823d b373 823d
00000010: 1ed5 433d ab6e 903d c8f9 163e ffc7 4a3e
00000020: f57d 423e 871e fe3d 6037 e13d d8ba 6b3e
00000030: d526 a53e a9f5 9f3e 7150 473e cfe7 ab3d
00000040: 546d 493e 804d 973e 7d44 973e b095 303e
00000050: 48d1 4a3d 3fa6 e03d 5aad 2d3e d65e 3b3e
00000060: 0445 df3d e1d2 26bd aa37 62bd 0480 61bd
00000070: 7ea0 6ebd f848 2cbd 8029 33bd f865 74bd
00000080: 1a33 94bd 4738 a2bd aa24 68bd fd95 07bd
00000090: e409 51bd ce21 92bd d1ba a5bd 9955 6dbd
000000a0: 931a 1ebd e66f 54bd a16e 7cbd 820d 91bd
000000b0: 4311 65bd def4 f7bc 1e05 24bd 1f87 23bd
000000c0: 6442 25bd 1bc4 1dbd fd73 bbbc 669e 00bd
000000d0: 1197 c5bc 816b adbc e013 5bbc d531 99bc
000000e0: b3d1 cbbc aaa5 fcbc f711 14bd 1677 dabc
000000f0: d7d2 95bb 4f10 0abc 5f22 bdbc 9272 1cbd
00000100: 2d2f 0abd fe78 b5bb 9f1f f1bb 67ab 71bc
00000110: c3cf 04bd 3f59 07bd 6f00 4bbb 4f89 10bc
00000120: 7555 35bc a8e4 60bc c4e2 86bc 961e a43b
00000130: f53d d3bd 8e71 21be f5e9 a73d cf12 2d3e
00000140: e58c 3a3e 72cf 44bc a6fc 08bf a677 adbe
00000150: db47 1c3e 7566 a53e f5ee c83e e145 35be
00000160: b7ff 44bf d8b5 7ebe 7d4b 0a3e 5f7b 053f
00000170: 3aea ec3e d858 23be 70db a1be 344f 1fbd
00000180: fa89 e93d 100c c03e 17f5 623e 0112 8b3c
00000190: d094 a8bc 2210 d1bd e718 25be af12 ee3c
000001a0: 3be9 ca3d 0cdc d43d c342 2ebc 30ac d5be
000001b0: d293 9cbe 2630 a83d 2b2b 4b3e 0c8b 823e
000001c0: 42ec eebd f4f2 20bf 4c1b 6dbe c320 b13d
000001d0: e4d8 a63e e9e9 9c3e fb2e 01be 5454 8bbe
000001e0: 1af5 0dbd 5724 933d 50ec 6e3e d90e 073e
000001f0: c56f 3ebc 47be 25bd 591c 1abe 1cb9 5bbe
00000200: fe14 b63c bdc4 b33d 8371 083e 6542 88bc
00000210: 9e2f fbbe fd9d a3be ad4a d33d 0b83 8c3e
00000220: 8ae8 b03e 5a1f 0fbe 138f 2cbf bdbf 67be
00000230: df51 f43d 9406 fe3e e755 dd3e e010 01be
00000240: f8ba 92be 5ab1 34bd ec32 d33d a7ef ae3e
00000250: 7e9a 403e 75fa 5bba 511d 37be 9bed 2cbe
00000260: d908 a03e 4585 f03d f564 9ebd be3e c0be
00000270: 1e4b 4fbe 32a4 583f 2d5c 4b3e 91b0 c4be
00000280: edb5 b2be 5101 483c 557f 863f a3b6 973c
00000290: 85c4 20bf c001 fdbd 8317 1f3e 9010 173f
000002a0: 4e41 0cbe 981d e3be 3f6c e53b cf83 cc3d
000002b0: 8ee5 4c3e 606d 87bd e93a 29be fd60 0fbe
000002c0: 88ab e6bd dbc6 4a3e 9af4 873d a96f bbbd
000002d0: cab9 88be c77b edbd 2d70 063f 5dac 143e
000002e0: 7737 9fbe e6ff 77be 1340 e23c 5092 263f
000002f0: 40f2 c63c 723d 00bf 62a2 c9bd ca26 ce3d
00000300: c833 b83e d761 d8bd 0092 bcbe 812e 98bc
00000310: ca85 373d 0ca7 e43d 098c 90bd aa68 20be
00000320: 8d32 3ebe bd4a 1ebe 3ef3 8d3e 7963 c83d
00000330: c129 a1bd 3a01 b5be 94e4 19be 853b 523f
00000340: 9442 483e bd12 b2be c00e a6be f112 463d
00000350: bcf4 823f 5eb3 0e3d 38a7 11bf 0c95 eebd
00000360: 8673 113e 377b 043f 9c7e edbd 8bc8 c9be
00000370: 557d 8bbc eea2 733d 28dd 103e 542f 8fbd
00000380: 4f56 2dbe 3298 0ebc e77c 69bc 8b68 6abc
00000390: 903a c1bc 05a0 82bc 33f6 50bc 319a aabc
000003a0: f80d 00bd 302c 31bd 3e83 06bd b75b a3bc
000003b0: 2881 02bd e2ab 2dbd 7576 45bd d8fe 05bd
000003c0: cc7c e3bc 2e53 27bd 22aa 3bbd 8b44 3cbd
000003d0: 0f34 06bd b066 b5bc 26ca 05bd 915d 14bd
000003e0: e4e2 1cbd b67e e4bc 92a2 cfbc 6b49 15bd
000003f0: aced 19bd 9976 37bd eb37 06bd 6607 14bd

conv1.bias f4 [6]
-0.44278526 -0.1623507 -0.2922577 -0.7363845 -0.26432452 -0.47759733
00000000: c0b4 e2be 433f 26be cda2 95be b283 3cbf
00000010: 8b55 87be a387 f4be

conv2.weight f4 [16, 6, 5, 5]
0.041875474 -0.0009077349 0.043145746 0.036973275 0.02381831 0.02532857 -0.021242084 0.057993937
0.09391515 0.006631303 0.16195765 0.16627444 0.3455036 0.19723241 -0.052407872 0.23525539
0.1881488 0.03692969 -0.30123276 -0.2617741 0.00018454158 -0.33002955 -0.4555996 -0.3875159
-0.19197911 -0.02068356 -0.036656495 -0.026915241 -0.029306535 -0.024868568 -0.004429004 -0.013432527
-0.03641466 -0.030136632 0.006440684 -0.010244169 -0.045009024 -0.03458177 -0.039693825 -0.015263976
0.0058051287 -0.00035908367 -0.021906013 -0.050473932 -0.036719065 0.010309983 -0.06339715 -0.05779485
-0.034741722 0.008669783 -0.012027567 0.0049624112 0.012098345 0.010832765 0.023530612 0.010620304
0.00016937515 0.008005526 0.021174958 0.04151097 -0.0071355565 -0.020129379 0.03409368 0.05396649
0.03169992 0.0057149366 0.041155767 0.046613943 -0.016064767 0.016930766 0.02803553 0.011448882
-0.026210453 -0.019394206 0.02348985 0.00036547647 -0.01581555 -0.009377458 -0.007486649 0.07678392
-0.056097154 -0.07392984 -0.03984225 -0.033710323 -0.04739553 0.06375262 0.067076206 0.14319988
0.13086693 0.03936071 0.16361965 0.16195482 0.14516123 -0.014057039 -0.10932337 -0.034760594
-0.14051789 -0.20238669 -0.22473052 -0.04704671 0.006500011 0.018727118 0.016847221 0.0029510804
-0.005597818 0.021386713 0.021734942 0.018226486 0.016756196 0.02845067 0.0791721 0.08778977
0.11550552 0.117547065 0.09230105 0.13459197 0.16696186 0.19052355 0.13208598 0.07214703
0.12650767 0.10102996 0.092096396 0.033784945 0.013764841 0.025534045 -0.039490435 -0.0059159026
0.019315355 0.060906872 -0.076643296 -0.074747816 0.04909738 0.04799139 -0.034797814 0.29529873
0.34573764 0.5166549 0.39335093 0.019301742 0.47072136 0.42082822 0.37101567 -0.13408169
-0.4759597 -0.014277696 -0.40764844 -0.74298054 -0.8280209 -0.29426327 -0.07783081 -0.06625962
-0.0324741 -0.011644146 -0.029123766 -0.0064371494 -0.035209864 -0.07993933 -0.03721372 0.0016208943
0.0190318 0.01990685 -0.04248084 -0.029033525 0.011697054 -0.01899214 -0.01377041 -0.04580859
-0.020653257 -0.05352469 -0.00094515405 -0.015423448 -0.0042550913 -0.051601496 -0.022251384 0.003306307
0.009913288 0.009416697 -0.0001789127 -0.0151200965 0.002204852 0.025210336 0.018846136 0.018949883
-0.022869505 -0.051454738 -0.023330161 0.009072866 -0.02368191 -0.013230688 -0.039539248 -0.05566889
-0.0018982481 -0.016576113 -0.032854248 -0.02183509 -0.026843127 -0.031568725 -0.004554903 -0.012375248
-0.014222254 -0.0195771 -0.018681353 -0.024500372 -0.017561957 -0.018835012 -0.016476579 -0.01747306
-0.016824882 -0.027464805 -0.047410216 -0.020388983 -0.037071273 -0.003229415 -0.015964955 -0.017849537
-0.04134406 -0.007289233 -0.0033189114 -0.003232119 -0.00016165835 -0.012726066 -0.010385184 0.0038701466
0.01975976 -0.0777313 -0.05742317 -0.10249056 0.034960136 -0.059498858 -0.0071645845 -0.10719195
-0.17186384 -0.006637382 -0.0057974933 -0.15456505 -0.15909387 -0.26071537 -0.1572439 -0.14083159
-0.10983865 -0.13907924 -0.21453261 -0.14908807 -0.1509402 -0.18822843 -0.12942506 -0.20924951
-0.17553899 -0.25527665 0.006555413 -0.012242437 -0.020647746 0.005985203 -0.0032769698 -0.009707283
00000000: 9e85 2b3d 0ff5 6dba 98b9 303d 4a71 173d
00000010: 9e1e c33c dc7d cf3c e103 aebc 0d8b 6d3d
00000020: 9656 c03d 674b d93b 3ad8 253e d943 2a3e
00000030: d9e5 b03e 4bf7 493e a3a9 56bd cae6 703e
00000040: 14aa 403e 9643 173d 2e3b 9abe 4107 86be
00000050: 8181 4139 a2f9 a8be 5a44 e9be 7c68 c6be
00000060: 2c96 44be 9270 a9bc 1f25 16bd 5a7d dcbc
00000070: 4214 f0bc 2bb9 cbbc 2e21 91bb 1a14 5cbc
00000080: 8a27 15bd 19e1 f6bc 600c d33b 29d7 27bc
00000090: 625b 38bd 9da5 0dbd fe95 22bd c115 7abc
000000a0: f338 be3b 6543 bcb9 3d74 b3bc c1bd 4ebd
000000b0: bb66 16bd 34eb 283c 5dd6 81bd 4bba 6cbd
000000c0: 564d 0ebd b50b 0e3c 460f 45bc b99b a23b
000000d0: 2338 463c e97b 313c 45c3 c03c c900 2e3c
000000e0: 4c9a 3139 9c29 033c 1b77 ad3c 6807 2a3d
000000f0: 63d1 e9bb 5ee6 a4bc d1a5 0b3d f70b 5d3d
00000100: c6d7 013d 5d44 bb3b f392 283d 43ee 3e3d
00000110: 429a 83bc 64b2 8a3c c5aa e53c 1794 3b3c
00000120: 4eb7 d6bc 99e0 9ebc c96d c03c 6c9d bf39
00000130: 9d8f 81bc e9a3 19bc 9052 f5bb e340 9d3d
00000140: 21c6 65bd 8768 97bd a131 23bd d613 0abd
00000150: d121 42bd bc90 823d 405f 893d fda2 123e
00000160: fb01 063e b238 213d e98b 273e 7cd7 253e
00000170: 25a5 143e 7f4f 66bc eee4 dfbd 2061 0ebd
00000180: ece3 0fbe 753e 4fbe c21f 66be 0db4 40bd
00000190: 0bfe d43b 9d69 993c 2f03 8a3c ea66 413b
000001a0: e76d b7bb 3033 af3c 7a0d b23c b64f 953c
000001b0: 4a44 893c 6111 e93c fb24 a23d 1fcb b33d
000001c0: 288e ec3d 84bc f03d 5508 bd3d 7ad2 093e
000001d0: 0df8 2a3e 9b18 433e 8c41 073e d2c1 933d
000001e0: 3a8b 013e cce8 ce3d 099d bc3d 1562 0a3d
000001f0: ed85 613c c62c d13c b9c0 21bd 30da c1bb
00000200: 3c3b 9e3c 7c79 793d 29f7 9cbd 6215 99bd
00000210: 561a 493d 9f92 443d 2788 0ebd 6531 973e
00000220: 8604 b13e 7f43 043f 4b65 c93e b01e 9e3c
00000230: 6402 f13e cc76 d73e c4f5 bd3e b64c 09be
00000240: fdb0 f3be ffec 69bc 4cb7 d0be f933 3ebf
00000250: 2df9 53bf ada9 96be c265 9fbd 20b3 87bd
00000260: 9003 05bd 17c7 3ebc f794 eebc b9ee d2bb
00000270: 3838 10bd 3bb7 a3bd 6a6d 18bd 3074 d43a
00000280: 94e8 9b3c b113 a33c 6400 2ebd b7d7 edbc
00000290: 00a5 3f3c 6895 9bbc 499d 61bc caa1 3bbd
000002a0: 0531 a9bc b53c 5bbd 37c4 77ba a1b2 7cbc
000002b0: 4b6e 8bbb 175c 53bd 8948 b6bc a0ae 583b
000002c0: 586b 223c 7d48 1a3c 839a 3bb9 48ba 77bc
000002d0: 477f 103b e885 ce3c 3663 9a3c c93c 9b3c
000002e0: d458 bbbc 34c2 52bd e51e bfbc 5ca6 143c
000002f0: 9100 c2bc 87c5 58bc e8f3 21bd 1005 64bd
00000300: a3ce f8ba a1ca 87bc 2d92 06bd 81df b2bc
00000310: 1ee6 dbbc 354e 01bd 4c41 95bb 8dc1 4abc
00000320: 7504 69bc 2860 a0bc a309 99bc 01b5 c8bc
00000330: 18de 8fbc e24b 9abc e4f9 86bc aa23 8fbc
00000340: 56d4 89bc dffd e0bc 3731 42bd cc06 a7bc
00000350: 0cd8 17bd 98a4 53bb f0c8 82bc 3139 92bc
00000360: 6458 29bd 85da eebb 1882 59bb f5d1 53bb
00000370: d582 29b9 fd80 50bc 9e26 2abc 49a2 7d3b
00000380: 38df a13c 9631 9fbd 8f34 6bbd 92e6 d1bd
00000390: 5c32 0f3d 13b5 73bd e4c4 eabb 7487 dbbd
000003a0: 13fd 2fbe 657e d9bb e6f8 bdbb 4d46 1ebe
000003b0: 81e9 22be 7c7c 85be 8b04 21be 2836 10be
000003c0: 16f3 e0bd ca6a 0ebe 70ae 5bbe 8baa 18be
000003d0: 1190 1abe f4be 40be 0188 04be 8145 56be
000003e0: 7ec0 33be 9fb3 82be cace d63b 8194 48bc
000003f0: 7625 a9bc 861f c43b 6ec2 56bb 4c0b 1fbc

conv2.bias f4 [16]
-0.177943 0.23444217 0.19726759 -0.34316868 -1.4687246 0.97073436 -0.28677106 0.49418968
-1.0134302 -0.169488 1.4668126 0.057655208 0.99356055 -0.4765855 0.13955894 -0.17018701
00000000: b136 36be 9c11 703e 8400 4a3e ceb3 afbe
00000010: 2bff bbbf 0c82 783f a8d3 92be 6e06 fd3e
00000020: 15b8 81bf 438e 2dbe 84c0 bb3f de27 6c3d
00000030: fc59 7e3f 0403 f4be 8ae8 0e3e 8145 2ebe

fc1.weight f4 [120, 400]
0.051569805 -0.006733641 0.018955057 0.08806442 0.01600005 0.019640071 -0.0073562996 -0.08022913
-0.025018476 0.021955743 -0.122356325 -0.050922025 -0.017084481 -0.07900018 -0.11327525 -0.03913844
0.15741135 -0.013980293 0.06838217 0.057664223 -0.055440526 -0.06986003 -0.16952021 -0.14666975
-0.13336307 -0.08884247 -0.03885544 -0.008987261 -0.075259715 -0.06462937 -0.05574299 -0.07007458
-0.016526401 -0.0019472582 -0.034772646 0.013845091 0.015976295 -0.020682298 0.0019018013 0.1327189
-0.013108798 0.09513472 -0.0009970561 -0.027498044 0.044466525 0.025966004 -0.0072657177 -0.006673734
0.012165684 0.02911585 -0.010295008 -0.0007728912 -0.0721607 -0.06396892 -0.044561695 -0.009084794
-0.023878312 0.0003093794 0.017341826 -0.003726171 -0.016142188 -0.0048534796 0.041292723 0.10557771
0.03522791 -0.0017929444 0.008309037 0.023308259 -0.0032890574 -0.025464961 -0.018666329 -0.017871263
-0.029406512 0.018055601 0.01839073 0.00033450138 -0.013900515 -0.0024759495 0.007886165 0.0036256716
0.04982639 0.07813102 0.03517833 -0.015941752 0.0032959983 0.049295474 0.050030794 0.0010345114
-0.04107089 -0.019954642 0.021971114 0.046511598 0.02741177 -0.057234652 0.0029065358 -0.028206376
-0.015495955 0.01653077 0.007378797 0.018577464 0.065034546 0.061315957 -0.059638396 0.0040651746
0.018123157 -0.08596594 0.04364195 0.103166595 0.01804676 -0.024879219 0.018133216 0.094919145
0.059431266 -0.047937583 -0.07511992 0.063579634 0.06038969 0.08892969 0.07176047 -0.018187247
-0.034489635 0.043872073 0.09400437 -0.089932255 -0.015875068 0.03547128 0.015313645 -0.05422896
-0.03885964 -0.037606232 0.098206654 0.1659597 0.10690089 0.010540158 0.024321226 -0.0023394153
0.12074361 0.03448414 0.05867346 -0.04010764 -0.04361818 0.10951867 -0.012957958 -0.10327258
-0.10660836 0.0028744603 0.05033973 -0.030363144 -0.039064057 -0.06518924 -0.15484025 -0.0035337538
0.05826635 -0.1688207 -0.0006450042 0.024296561 -0.028295077 0.15724966 -0.037554275 0.093602255
0.12472254 0.056455743 0.060594875 0.00092329434 0.03415675 0.14770694 0.03641423 0.026160251
0.05304319 0.046585366 0.12919426 0.1823676 0.01431381 0.11005398 -0.020243268 -0.048728947
-0.12449391 -0.11135387 -0.15422711 0.00039571748 0.0064525595 0.0022239594 -0.057856765 -0.12973842
0.05936305 0.039358035 -0.0017892239 -0.07074492 0.03834522 -0.054025225 0.19720984 -0.030133389
0.09153611 0.12792808 -0.13503717 0.09219814 -0.04738524 -0.049829092 0.20580116 -0.013536424
-0.022841744 -0.16745839 -0.11268347 -0.01922264 -0.04407311 0.027145771 -0.0019242655 0.11265958
0.024628306 -0.024441285 0.1096991 0.11799349 0.19164905 0.042252664 0.04481621 -0.049782857
-0.13556413 -0.06997355 -0.012905177 0.0011382049 -0.12612101 -0.07359652 -0.2524154 -0.07616883
-0.08482387 -0.14796987 -0.12829377 -0.09202475 -0.07832303 -0.037618924 0.08847353 0.07424958
-0.029997695 -0.03905738 0.005128044 0.034985274 0.023794392 0.079417214 0.048734132 0.08615864
0.018986203 -0.034373086 -0.04854303 0.040500987 0.09272203 -0.023501534 0.08832912 0.09684461
0.12717 0.099446245 -0.024076307 -0.051211674 -0.07890902 0.01586606 -0.003021239 -0.071962066
00000000: dc3a 533d e0a5 dcbb a347 9b3c 1e5b b43d
00000010: 8912 833c 37e4 a03c 1d0d f1bb 2c4f a4bd
00000020: 8cf3 ccbc 88dc b33c f495 fabd 9d93 50bd
00000030: c1f4 8bbc d9ca a1bd dbfc e7bd a14f 20bd
00000040: 7130 213e 990d 65bc f30b 8c3d 5231 6c3d
00000050: 9b15 63bd c712 8fbd b596 2dbe 9830 16be
00000060: 5490 08be 0af3 b5bd e226 1fbd 4e3f 13bc
00000070: c421 9abd 675c 84bd c352 64bd 4383 8fbd
00000080: 6062 87bc 253b ffba c36d 0ebd 85d6 623c
00000090: b8e0 823c ec6d a9bc dd45 f93a 77e7 073e
000000a0: 49c6 56bc fed5 c23d a7af 82ba 9443 e1bc
000000b0: 8822 363d a8b6 d43c 4215 eebb 57af dabb
000000c0: 9452 473c 5d84 ee3c 65ac 28bc da9b 4aba
000000d0: fdc8 93bd 2302 83bd 5386 36bd 63d8 14bc
000000e0: 739c c3bc 3334 a239 7210 8e3c c732 74bb
000000f0: 9f3c 84bc f009 9fbb 8f22 293d 2039 d83d
00000100: 244b 103d 3b01 ebba a122 083c f6f0 be3c
00000110: 3a8d 57bb e59b d0bc 21ea 98bc c166 92bc
00000120: ede5 f0bc 57e9 933c 28a8 963c 0460 af39
00000130: fcbe 63bc 8a43 22bb f934 013c ad9c 6d3b
00000140: c216 4c3d 2803 a03d 2717 103d 4798 82bc
00000150: ad01 583b 0dea 493d 17ed 4c3d 7198 873a
00000160: f339 28bd eb77 a3bc c4fc b33c f282 3e3d
00000170: a68e e03c e26e 6abd 947b 3e3b 0f11 e7bc
00000180: bfe2 7dbc 8a6b 873c d6c9 f13b c42f 983c
00000190: d530 853d 7126 7b3d 6447 74bd 2835 853b
000001a0: 0477 943c e90e b0bd e7c1 323d 0249 d33d
000001b0: ccd6 933c 81cf cbbc 1c8c 943c f864 c23d
000001c0: 336e 733d 335a 44bd 79d8 99bd 0a36 823d
000001d0: 2e5b 773d c520 b63d 27f7 923d 6cfd 94bc
000001e0: 0145 0dbd 34b3 333d 5d85 c03d 672e b8bd
000001f0: 6e0c 82bc 554a 113d 15e6 7a3c 301f 5ebd
00000200: 492b 1fbd fe08 1abd 9220 c93d 57f1 293e
00000210: dbee da3d a0b0 2c3c 4f3d c73c e050 19bb
00000220: 6d48 f73d 3e3f 0d3d 9553 703d e947 24bd
00000230: faa8 32bd 534b e03d 9d4d 54bc 9380 d3bd
00000240: 7c55 dabd 7161 3c3b 0831 4e3d 21bc f8bc
00000250: a201 20bd f081 85bd 718e 1ebe 8d96 67bb
00000260: b2a8 6e3d 55df 2cbe 8015 29ba 9509 c73c
00000270: 14cb e7bc 0e06 213e 83d2 19bd 8ab2 bf3d
00000280: 886e ff3d 233e 673d 5532 783d 3c09 723a
00000290: f3e7 0b3d 7d40 173e 1627 153d 064e d63c
000002a0: d143 593d 4cd0 3e3d 804b 043e 92be 3a3e
000002b0: 7884 6a3c fb63 e13d 36d5 a5bc 0198 47bd
000002c0: aaf6 febd 7f0d e4bd b6ed 1dbe 4d78 cf39
000002d0: fe6f d33b d9bf 113b 37fb 6cbd 26da 04be
000002e0: ab26 733d e435 213d 6484 eaba b6e2 90bd
000002f0: e10f 1d3d 8e49 5dbd 60f1 493e 4cda f6bc
00000300: 4977 bb3d 94ff 023e 2f47 0abe 61d2 bc3d
00000310: 0717 42bd 9719 4cbd 8abd 523e e1c7 5dbc
00000320: 9c1e bbbc 367a 2bbe 97c6 e6bd cc78 9dbc
00000330: 0186 34bd cf60 de3c a337 fcba 11ba e63d
00000340: 4dc1 c93c 1739 c8bc eca9 e03d 92a6 f13d
00000350: a63f 443e 2111 2d3d 3491 373d 1ce9 4bbd
00000360: 53d1 0abe 4b4e 8fbd 3c70 53bc d22f 953a
00000370: de25 01be c6b9 96bd 973c 81be 67fe 9bbd
00000380: 23b8 adbd 6a85 17be 715f 03be 7977 bcbd
00000390: d367 a0bd 4d16 1abd 9c31 b53d 2a10 983d
000003a0: babd f5bc a2fa 1fbd 2709 a83b b84c 0f3d
000003b0: 75ec c23c 7ea5 a23d 719d 473d f173 b03d
000003c0: f488 9b3c cbca 0cbd 0ed5 46bd 5de4 253d
000003d0: 0ce5 bd3d 4a86 c0bc e6e5 b43d 7856 c63d
000003e0: da38 023e 79aa cb3d ad3b c5bc 55c3 51bd
000003f0: 0d9b a1bd 8af9 813c fbff 45bb d960 93bd

fc1.bias f4 [120]
0.07721597 -0.10625848 0.053932164 -0.06621905 -0.10450084 -0.2804017 0.5593427 0.01122807
-0.22996251 0.0763888 -0.24373938 -0.16244999 0.111105226 -0.012597224 0.1481698 -0.15654518
0.016872337 -0.045543175 0.028647356 0.65814584 0.22460541 0.19877763 0.049990173 -0.08255824
-0.05472581 0.02136261 0.060212407 -0.05172228 -0.02334067 0.009668733 0.31860036 -0.06034281
0.12853746 0.05928671 -0.007812192 -0.080606356 -0.15617931 -0.062229477 0.357366 -0.07201349
0.37510312 0.2410418 -0.15073238 -0.025842022 -0.18359333 0.27410838 0.5808064 -0.007584912
-0.09896533 0.108086705 -0.060466364 -0.083801426 -0.015301666 0.03676299 0.030683357 -0.0025134096
0.36801052 0.120110676 -0.032591403 0.02987123 -0.47438824 0.2873956 -0.04726579 -0.017593483
-0.100268364 0.07901092 0.061707184 0.34302244 0.014567787 0.033432547 0.05450713 0.007663263
-0.044425778 0.07165394 0.1430195 -0.4125819 0.83721334 0.092625834 -0.4285012 -0.06738246
-0.3423476 0.09021838 0.009626143 0.056522064 -0.203274 0.18625422 0.31093672 -0.07412859
0.19689596 -0.14646979 0.43348527 0.15814163 -0.08218695 0.025635619 0.6164222 -0.2717494
0.22661619 0.006034392 -0.1467093 0.004709705 -0.2213878 0.14768739 0.05175289 -0.37530628
0.06903204 -0.19309933 -0.097638145 0.2297089 -0.08693846 -0.024984898 -0.12212256 -0.36327
0.23278537 -0.065262675 0.35104793 -0.4726457 -0.07382237 0.026913581 -0.10315023 -0.123730674
00000000: 6823 9e3d 0c9e d9bd f9e7 5c3d da9d 87bd
00000010: 8904 d6bd d090 8fbe 1531 0f3f f0f5 373c
00000020: 4b7b 6bbe bb71 9c3d d196 79be 4a59 26be
00000030: 238b e33d 9664 4ebc d3b9 173e 614d 20be
00000040: db37 8a3c 7b8b 3abd dcad ea3c 3f7c 283f
00000050: f6fe 653e 5d8c 4b3e 7fc2 4c3d 4b14 a9bd
00000060: 2c28 60bd a400 af3c 49a1 763d beda 53bd
00000070: ef34 bfbc 9b69 1e3c 961f a33e 062a 77bd
00000080: 539f 033e 9fd6 723d 6bfd ffbb f214 a5bd
00000090: 78ed 1fbe 56e4 7ebd adf8 b63e cf7b 93bd
000000a0: 840d c03e a9d3 763e 9759 1abe a6b2 d3bc
000000b0: e4ff 3bbe ef57 8c3e baaf 143f da8a f8bb
000000c0: 56ae cabd 905c dd3d 94ab 77bd 15a0 abbd
000000d0: d7b3 7abc ca94 163d aa5b fb3c 04b8 24bb
000000e0: e06b bc3e 96fc f53d 907e 05bd 82b4 f43c
000000f0: 04e3 f2be 8425 933e c699 41bd 3520 90bc
00000100: 8059 cdbd 7ad0 a13d acc0 7c3d a3a0 af3e
00000110: baad 6e3c 91f0 083d de42 5f3d 1c1c fb3b
00000120: cef7 35bd 4dbf 923d b473 123e ef3d d3be
00000130: 9d53 563f 9db2 bd3d 8264 dbbe d1ff 89bd
00000140: 2f48 afbe 6ac4 b83d f8b6 1d3c ae83 673d
00000150: 0f27 50be 6db9 3e3e 1933 9f3e bbd0 97bd
00000160: 189f 493e 2dfc 15be c8f1 dd3e e1ef 213e
00000170: a251 a8bd ca01 d23c d8cd 1d3f bd22 8bbe
00000180: 130e 683e 26bc c53b f63a 16be de53 9a3b
00000190: 7cb3 62be 5d3b 173e d7fa 533d 2528 c0be
000001a0: ac60 8d3d d5bb 45be 82f6 c7bd cf38 6b3e
000001b0: cb0c b2bd 21ad ccbc 651b fabd 87fe b9be
000001c0: 4a5f 6e3e 70a8 85bd 8ebc b33e 9efe f1be
000001d0: 2f30 97bd df79 dc3c 6e40 d3bd 8266 fdbd

fc2.weight f4 [84, 120]
-0.066358134 -0.026772657 0.052432183 -0.07474401 0.042688556 0.024321333 -0.04738847 0.062458735
-0.07709566 0.024199752 -0.038346797 -0.096886925 -0.015059499 -0.13634168 0.055406734 -0.079617396
0.030899411 -0.112430386 -0.08945017 0.046265427 -0.03322276 0.09777383 -0.07180954 -0.073997796
0.12381595 -0.08813784 -0.047599994 -0.14969411 -0.17996624 -0.0779052 -0.046723653 -0.12406486
0.48280206 0.310086 -0.009583231 0.15539047 0.030055583 -0.06468364 -0.017707847 0.13598292
-0.13269408 0.08533384 -0.041586857 0.08342288 0.065641694 0.07539603 -0.0062658116 -0.03253296
0.0055842036 -0.008442625 0.014257187 0.0017554696 0.29584268 0.08489044 0.0613716 -0.05296606
-0.04823224 -0.026972765 -0.06703804 -0.03675574 -0.13068502 -0.050285198 -0.052761026 0.13019574
-0.12934098 0.17431629 -0.07785698 -0.0029949583 0.17003573 0.020241361 0.056446966 -0.026634743
-0.0070910295 -0.044275064 0.3428514 0.040743902 0.009765063 -0.05324581 -0.0155616775 -0.19233339
0.08188372 0.003666195 -0.027712636 -0.14205866 -0.020814963 0.025978195 0.029749086 0.20818034
-0.045249037 0.063883446 0.037270855 0.045905687 -0.1399081 -0.021370191 -0.0912413 -0.031828076
-0.16042103 0.10350269 0.047415365 -0.07350804 -0.11531052 0.047591638 -0.16678132 -0.12805584
0.01674708 -0.1549343 -0.09245864 -0.012946997 -0.11317049 -0.10080437 -0.0071376706 -0.11764277
0.11879672 -0.0402819 -0.1075443 -0.021630993 -0.08912535 -0.25787592 0.027221868 -0.046829354
0.073427066 0.026089074 0.022531666 -0.18343906 -0.1510044 0.15061599 0.07826966 0.0217666
0.06408973 0.19548242 -0.025800819 -0.09134755 -0.10914658 -0.08173465 -0.12543547 -0.008881204
0.013239699 -0.21037544 -0.047389563 -0.08251626 -0.035490252 -0.11376541 0.010348214 0.014508552
0.05569008 0.034454945 0.029508812 -0.12565176 0.074290484 -0.06618975 0.024074225 0.10437992
0.011147931 -0.03649665 -0.036801256 0.040702157 0.10481408 0.021762066 -0.09112655 -0.026682554
0.016912838 -0.006144312 0.108699635 0.043020457 -0.006354236 0.1926243 0.057320487 0.045520514
-0.053479645 -0.0144618405 0.048661456 -0.011634816 0.01853444 -0.070933916 -0.019576566 0.0818574
0.14181112 -0.04567659 0.12213584 0.023547357 0.046456035 0.042629547 0.062005747 -0.11994928
-0.10761147 -0.027041126 0.11899588 -0.027393546 0.1860984 -0.07102213 0.119442396 0.062058862
-0.024912344 0.023644835 -0.020769967 -0.15391135 0.04491535 -0.06221526 0.049266938 0.07042586
0.049157143 -0.03782818 0.036779515 -0.040159 -0.055539396 -0.015929895 -0.07263559 0.016075928
-0.052128565 0.00040255938 -0.0072599314 -0.054701433 -0.043056887 -0.08337338 -0.05660684 -0.003515265
-0.012913616 -0.04570742 -0.026200041 0.00426486 -0.032206453 -0.0101789795 -0.01670213 -0.07881946
0.039123524 -0.0066365325 0.05947799 0.02381725 0.16635028 -0.011068133 0.0017821671 0.011615752
0.067745306 -0.10553195 0.06518366 -0.03236505 -0.102569014 -0.04459441 -0.08634727 -0.14659992
-0.06743952 -0.13004315 0.01434962 0.07050903 0.14429678 -0.05232016 -0.0025084985 0.00612188
0.15487026 -0.036267217 0.014195049 -0.013183659 0.08643021 0.20060246 -0.11874458 -0.07729951
00000000: c6e6 87bd 5552 dbbc 21c3 563d 6313 99bd
00000010: 32da 2e3d 883d c73c 6a1a 42bd bbd4 7f3d
00000020: 54e4 9dbd 8f3e c63c 8811 1dbd a76c c6bd
00000030: 1ebc 76bc 279d 0bbe 2cf2 623d 720e a3bd
00000040: c320 fd3c e741 e6bd a731 b7bd d180 3d3d
00000050: 9714 08bd a53d c83d e110 93bd 288c 97bd
00000060: 3793 fd3d 9d81 b4bd 36f8 42bd 6a49 19be
00000070: 1249 38be c38c 9fbd 4d61 3fbd b815 febd
00000080: d531 f73e 98c3 9e3e fc02 1dbc ae1e 1f3e
00000090: 2037 f63c db78 84bd 0c10 91bc 1b3f 0b3e
000000a0: f5e0 07be 82c3 ae3d fb56 2abd 9dd9 aa3d
000000b0: 276f 863d 3c69 9a3d 7051 cdbb 4841 05bd
000000c0: b2fb b63b f052 0abc fa96 693c c917 e63a
000000d0: b178 973e 0adb ad3d c960 7b3d f0f2 58bd
000000e0: 2b8f 45bd fdf5 dcbc 3d4b 89bd 308d 16bd
000000f0: 4bd2 05be daf7 4dbd f21b 58bd 0852 053e
00000100: f671 04be f87f 323e 7b73 9fbd 1047 44bb
00000110: d91d 2e3e 36d1 a53c ef34 673d 1b31 dabc
00000120: de5b e8bb c559 35bd 388a af3e 14e3 263d
00000130: a5fd 1f3c 4718 5abd 68f6 7ebc 0bf3 44be
00000140: a7b2 a73d 8c44 703b 9c05 e3bc d377 11be
00000150: 2484 aabc 39d0 d43c 5bb4 f33c 3a2d 553e
00000160: 0e57 39bd 53d5 823d 53a9 183d 9a07 3c3d
00000170: 1244 0fbe 8a10 afbc b8dc babd 285e 02bd
00000180: 6945 24be 38f9 d33d 9d36 423d 628b 96bd
00000190: ec27 ecbd 73ef 423d b9c8 2abe 1221 03be
000001a0: 2c31 893c 19a7 1ebe f55a bdbd a41f 54bc
000001b0: eec5 e7bd 8672 cebd 1fe3 e9bb b1ee f0bd
000001c0: b24b f33d a2fe 24bd 3040 dcbd 7b33 b1bc
000001d0: 5a87 b6bd 5008 84be 6500 df3c 23d0 3fbd
000001e0: ee60 963d c1b8 d53c 5494 b83c 73d7 3bbe
000001f0: e6a0 1abe 143b 1a3e d84b a03d de4f b23c
00000200: 7a41 833d 8b2c 483e 3d5c d3bc 6d14 bbbd
00000210: 3e88 dfbd 7f64 a7bd 2872 00be 7882 11bc
00000220: 53eb 583c a96c 57be 8f1b 42bd 49fe a8bd
00000230: 3a5e 11bd d7fd e8bd 8e8b 293c 47b5 6d3c
00000240: 481b 643d a120 0d3d 77bc f13c dbaa 00be
00000250: 9c25 983d 7e8e 87bd 4f37 c53c 24c5 d53d
00000260: d0a5 363c 837d 15bd eabc 16bd 4eb7 263d
00000270: c4a8 d63d 5c46 b23c 8fa0 babd 5f95 dabc
00000280: cb8c 8a3c 3a56 c9bb ea9d de3d 3836 303d
00000290: 3237 d0bb 4e3f 453e e3c8 6a3d b873 3a3d
000002a0: 790d 5bbd 5bf1 6cbc 3c51 473d f59f 3ebc
000002b0: 8ad5 973c cd45 91bd 095f a0bc daa4 a73d
000002c0: ef36 113e 6017 3bbd 5b22 fa3d 63e6 c03c
000002d0: af48 3e3d 529c 2e3d bdf9 7d3d f8a7 f5bd
000002e0: 6763 dcbd 5a85 ddbc 1db4 f33d 6e68 e0bc
000002f0: 9490 3e3e 0d74 91bd 379e f43d 6f31 7e3d
00000300: f914 ccbc d0b2 c13c c725 aabc f09a 1dbe
00000310: 28f9 373d 6ed5 7ebd 21cc 493d 6f3b 903d
00000320: 0059 493d b9f1 1abd 1ea6 163d c37d 24bd
00000330: 477d 63bd 697f 82bc f8c1 94bd aab1 833c
00000340: c384 55bd 9b0e d339 b8e4 edbb 9c0e 60bd
00000350: 6b5c 30bd aabf aabd 93dc 67bd 5c60 66bb
00000360: a293 53bc b437 3bbd 78a1 d6bc 3dc0 8b3b
00000370: eaea 03bd bcc5 26bc e8d2 88bc 196c a1bd
00000380: fd3f 203d 4577 d9bb 319f 733d 651c c33c
00000390: ba57 2a3e 1d57 35bc 9b97 e93a ff4f 3e3c
000003a0: 0dbe 8a3d 2321 d8bd 037f 853d 3791 04bd
000003b0: b40f d2bd a1a8 36bd d6d6 b0bd 4a1e 16be
000003c0: bb1d 8abd 082a 05be ab1a 6b3c 0a67 903d
000003d0: 89c2 133e aa4d 56bd 9f65 24bb 0d9a c83b
000003e0: 4f96 1e3e ef8c 14bd 5a92 683c 4600 58bc
000003f0: 5202 b13d bb6a 4d3e 5c30 f3bd 354f 9ebd

fc2.bias f4 [84]
0.21101029 0.615898 0.12746753 -0.102258824 0.09718016 -0.010265356 0.27460012 0.35542825
0.18082485 0.6935705 0.09857804 0.27353048 0.5805411 0.82299674 0.114359625 0.21500771
-0.43186894 0.21913753 -0.11571587 0.487083 0.32926366 0.7557691 0.574986 -0.27214122
0.16481784 0.09302849 0.4336058 0.22411379 0.56278396 0.0027568166 0.74542934 0.046139527
0.08677728 -0.049946673 0.36423808 0.024783568 0.44247112 0.09647715 -0.15487477 0.277527
0.0154324705 0.24426414 -0.048893593 0.49837077 0.7166788 0.34122795 0.70279235 -0.2963472
-0.2476476 1.3250142 -0.01942363 0.4022645 -0.03721435 0.19175532 -0.0131028965 0.08184463
0.20247947 0.03151309 0.5555227 0.8548609 0.28773052 0.21833783 0.0808687 0.01845699
-0.044828944 0.46703336 0.15447399 0.53956527 0.10569624 0.15437336 -0.13448806 0.3301088
0.41103336 0.3574704 -0.13850607 0.7292268 0.18304089 0.24522375 0.1300538 0.17192289
0.28226814 0.055163357 -0.14848645 -0.1415787
00000000: 1513 583e 7eab 1d3f d986 023e 136d d1bd
00000010: 6406 c73d 0630 28bc 6398 8c3e b1fa b53e
00000020: 262a 393e d68d 313f 49e3 c93d 300c 8c3e
00000030: 579e 143f eaaf 523f 6135 ea3d fb2a 5c3e
00000040: ed1d ddbe 9765 603e 71fc ecbd f162 f93e
00000050: 3f95 a83e 157a 413f 4832 133f 1856 8bbe
00000060: 02c6 283e b985 be3d 9401 de3e 167e 653e
00000070: 9c12 103f b5ab 343b 75d4 3e3f cdfc 3c3d
00000080: 49b8 b13d e294 4cbd 6a7d ba3e e906 cb3c
00000090: 938b e23e d095 c53d 7e97 1ebe 0518 8e3e
000000a0: 79d8 7c3c 6120 7a3e a644 48bd 742a ff3e
000000b0: 4378 373f 6eb5 ae3e 33ea 333f d2ba 97be
000000c0: 5597 7dbe 119a a93f 4e1e 9fbc 9df5 cd3e
000000d0: 136e 18bd 825b 443e 88ad 56bc 289e a73d
000000e0: c756 4f3e df13 013d bc36 0e3f 2ad8 5a3f
000000f0: 6a51 933e f493 5f3e 7d9e a53d 1d33 973c
00000100: 8e9e 37bd ff1e ef3e 6e2e 1e3e f320 0a3f
00000110: 4577 d83d 0d14 1e3e 3db7 09be 0504 a93e
00000120: f772 d23e 5c06 b73e 89d4 0dbe 9cae 3a3f
00000130: 126f 3b3e ef1b 7b3e d32c 053e 8e0c 303e
00000140: 7385 903e f9f2 613d d50c 18be 02fa 10be

fc3.weight f4 [10, 84]
0.13233744 -0.13811836 -0.1187078 0.1417377 0.07827583 0.05576551 0.06616168 -0.15651898
-0.0680606 -0.061361 0.043825045 -0.107966565 0.09837388 0.23280054 0.057165705 0.044986766
-0.057347428 0.075069465 0.017267289 0.10256675 0.07729841 0.07923275 0.015352786 0.06974564
0.11296105 -0.029680192 -0.10256602 0.10505089 -0.0889934 -0.15983915 -0.039676957 0.09350687
0.3790273 -0.005721523 -0.0017241437 -0.12267014 -0.1347949 0.013485328 0.0021481283 0.13924652
0.05280941 0.12930185 0.13072711 0.07631984 -0.39722794 -0.025340054 -0.11847929 -0.02805901
-0.10034207 -0.0419023 0.1158859 0.031022184 0.039552256 -0.013373684 0.0008614469 0.023154208
0.023164371 -0.1509731 0.008634872 -0.0064114993 -0.0824432 -0.17528416 0.2825254 -0.13199967
0.1640016 -0.13977097 -0.049996022 -0.25120628 0.009888759 -0.010584075 0.06367691 0.23706023
-0.0061768545 0.16594791 0.15095593 -0.32985303 -0.034138184 0.1669168 -0.022829687 -0.07884945
0.05522378 0.036563337 0.019352682 0.04504398 -0.008066215 0.012919986 -0.10077302 -0.15408361
-0.12370918 0.15952414 -0.13247627 -0.15438443 0.1920984 0.019314447 -0.0074551343 0.10234601
-0.19175218 0.043623526 0.060266756 -0.0151278805 -0.07963038 -0.12683675 -0.17956163 0.044503875
-0.04373193 -0.53711975 -0.014076157 -0.025543494 -0.09406762 -0.050113734 -0.070958905 0.21243963
-0.1731667 -0.13316616 -0.46209267 0.24418578 -0.03973791 -0.119170755 0.19766437 0.19109896
0.019647118 0.2781888 0.15574269 0.10460606 0.042641584 0.06710343 -0.04948679 -0.16802588
0.059733093 0.010085204 -0.28969762 -0.057504218 0.34941292 -0.22876664 0.1252026 -0.1450782
0.07615438 0.028045699 -0.030821852 -0.12199013 0.1339168 0.05236954 -0.11479128 0.06824617
0.0490539 -0.000110121626 -0.14776257 -0.12967694 0.06615682 0.26270786 -0.046177246 -0.04308585
-0.08101954 0.12656103 -0.07724421 0.06841701 0.09984291 0.046651036 0.0072281174 -0.044853065
-0.023602054 -0.047313463 0.0125711495 -0.093306914 0.13867655 0.056952987 0.09975353 -0.12927833
0.27006474 0.14502746 0.022764055 0.009885362 -0.03681517 0.036087047 -0.029272813 0.14344183
-0.0808265 0.062437825 -0.04292371 -0.1279066 -0.0035953152 0.038878195 -0.05477129 0.044369087
0.2032455 -0.06534665 0.075872205 -0.16826321 -0.23182675 0.103952095 -0.017313879 -0.10156709
-0.03179136 0.0067735435 0.02780446 -0.11655922 -0.0015970076 0.18886258 0.06128476 -0.029264703
0.11825702 0.10675699 0.0244704 0.024255197 -0.03578077 -0.045662064 -0.042438667 0.035200585
0.03381539 -0.046512745 0.27503783 0.19273047 0.09417916 -0.011910142 0.07183958 0.042331316
0.011151162 0.13989021 -0.08221615 0.24642996 -0.14477623 -0.08820746 -0.08528264 -0.0608817
0.0684763 0.033726458 -0.017325299 0.1984299 0.2528704 0.08065897 0.027969802 0.088165544
-0.09587074 -0.074380115 -0.037144966 0.005030219 -0.053164493 -0.020749796 -0.06669215 -0.11962636
0.06240018 -0.011304592 -0.053061035 0.029577099 0.0006295644 0.012860302 -0.13924946 -0.03681498
-0.052064374 0.10032857 0.08511738 -0.017475003 0.03253749 0.08988999 -0.012363324 -0.03471606
00000000: 7783 073e e66e 0dbe 131d f3bd b023 113e
00000010: 144f a03d 606a 643d c67f 873d 8346 20be
00000020: 5b63 8bbd ac55 7bbd e481 333d 931d ddbd
00000030: 3f78 c93d 4463 6e3e 9626 6a3d 0b44 383d
00000040: 23e5 6abd 05be 993d 2174 8d3c 840e d23d
00000050: a14e 9e3d c844 a23d 408a 7b3c cdd6 8e3d
00000060: 1f58 e73d e023 f3bc 220e d2bd ec24 d73d
00000070: 2c42 b6bd e0ac 23be 4e84 22bd 8880 bf3d
00000080: de0f c23e 9d7b bbbb aafc e1ba 7b3a fbbd
00000090: ad07 0abe 91f1 5c3c 9dc7 0c3b a496 0e3e
000000a0: ae4e 583d b467 043e 54dd 053e 944d 9c3d
000000b0: 7661 cbbe f295 cfbc 45a5 f2bd 02dc e5bc
000000c0: 2580 cdbd bfa1 2bbd 9655 ed3d 3c22 fe3c
000000d0: 8c01 223d 4c1d 5bbc b9d2 613a e5ad bd3c
000000e0: 35c3 bd3c b198 1abe 4779 0d3c 8e17 d2bb
000000f0: fbd7 a8bd b17d 33be 2ba7 903e ec2a 07be
00000100: 09f0 273e 1f20 0fbe a1c8 4cbd 1c9e 80be
00000110: 7604 223c d468 2dbc 0a69 823d ebbf 723e
00000120: 3667 cabb 40ee 293e 3194 1a3e 7fe2 a8be
00000130: 7bd4 0bbd 3dec 2a3e 5305 bbbc d27b a1bd
00000140: 5532 623d 70c3 153d 8489 9e3c 0980 383d
00000150: 2828 04bc 59ae 533c 1662 cebd 18c8 1dbe
00000160: 3d5b fdbd 4c5a 233e dca7 07be f416 1ebe
00000170: 71b5 443e 5539 9e3c 334a f4bb c99a d13d
00000180: af5a 44be 95ae 323d 46da 763d eeda 77bc
00000190: 4115 a3bd 7ee1 01be 01df 37be b249 363d
000001a0: 4120 33bd ae80 09bf ae9f 66bc 9740 d1bc
000001b0: 86a6 c0bd 0f44 4dbd e752 91bd c689 593e
000001c0: 9d52 31be b65c 08be 6997 ecbe d60b 7a3e
000001d0: 38c4 22bd cc0f f4bd 8768 4a3e 72af 433e
000001e0: fef2 a03c c36e 8e3e 037b 1f3e b43b d63d
000001f0: f1a8 2e3d 866d 893d a9b2 4abd fa0e 2cbe
00000200: b0aa 743d 693c 253c 3f53 94be 8b89 6bbd
00000210: 40e6 b23e cd41 6abe 1c35 003e 618f 14be
00000220: d4f6 9b3d 18c0 e53c 1c7e fcbc f6d5 f9bd
00000230: 7c21 093e 7181 563d b117 ebbd a6c4 8b3d
00000240: beec 483d 19f1 e6b8 124f 17be 08ca 04be
00000250: 3a7d 873d a581 863e 5a24 3dbd ca7a 30bd
00000260: 93ed a5bd 3799 013e 3632 9ebd 381e 8c3d
00000270: 717a cc3d 2815 3f3d d8d9 ec3b d9b7 37bd
00000280: 1859 c1bc c3cb 41bd 39f7 4d3c b217 bfbd
00000290: 3a01 0e3e 8947 693d 944b cc3d 8a61 04be
000002a0: ed45 8a3e 1482 143e af7b ba3c 37f6 213c
000002b0: 81cb 16bd 03d0 133d 8acd efbc 6ae2 123e
000002c0: 5d88 a5bd cebe 7f3d c6d0 2fbd f3f9 02be
000002d0: 619f 6bbb be3e 1f3d dc57 60bd 5cbc 353d
000002e0: 971f 503e 77d4 85bd e362 9b3d 314d 2cbe
000002f0: fe63 6dbe d6e4 d43d d6d5 8dbc 6802 d0bd
00000300: a837 02bd 9af4 dd3b 2ec6 e33c 9ab6 eebd
00000310: af52 d1ba 3165 413e ba05 7b3d 88bc efbc
00000320: bd30 f23d 69a3 da3d 2676 c83c d6b2 c63c
00000330: db8e 12bd 2508 3bbd 2bd4 2dbd 7d2e 103d
00000340: 0282 0a3d 2684 3ebd c2d1 8c3e 235b 453e
00000350: 01e1 c03d c222 43bc a120 933d 9a63 2d3d
00000360: 5db3 363c 613f 0f3e f160 a8bd 2358 7c3e
00000370: 3840 14be 1da6 b4bd aaa8 aebd 175f 79bd
00000380: 4d3d 8c3d c124 0a3d c9ed 8dbc 3531 4b3e
00000390: 3b78 813e 8830 a53d ed20 e53c 2390 b43d
000003a0: e157 c4bd 9a54 98bd 5225 18bd 89d4 a43b
000003b0: 03c3 59bd 7afb a9bc e595 88bd aafe f4bd
000003c0: 5597 7f3d e536 39bc 8756 59bd ac4b f23c
000003d0: 5a09 253a 04b4 523c 6997 0ebe 4ecb 16bd
000003e0: 7441 55bd 1179 cd3d 0552 ae3d bd27 8fbc
000003f0: 0846 053d 3e18 b83d 8a8f 4abc 6d32 0ebd

fc3.bias f4 [10]
-0.32815433 -0.17227015 -0.1376823 0.13797031 0.33214048 -0.09854128 0.59553546 -0.27684346
0.23546112 -0.11769403
00000000: d803 a8be 9667 30be 97fc 0cbe 1748 0d3e
00000010: 510e aa3e 03d0 c9bd 0375 183f 6dbe 8dbe
00000020: b81c 713e 9109 f1bd
