models/DVERGE_submodel_1.pth (torch, 251844 bytes, 10 tensors)

conv1.weight f4 [6, 3, 5, 5]
-0.24774371 0.22628596 1.4512122 0.7505564 0.26922974 0.2766785 1.669926 1.3551041
0.12284377 0.24461998 0.7769537 0.6954474 -0.8691205 -0.6501412 -0.26360795 0.31233323
-0.6671495 -0.88007605 -0.35495967 -0.15197493 0.19600272 -0.48431632 -0.32181388 -0.46263757
0.01201992 0.5231453 0.6630991 0.567393 0.13096705 0.062992826 0.057060197 0.31050336
-0.39799434 -0.7119513 0.24314484 -0.33550736 -1.540023 -1.9570563 -0.7550372 -0.37889522
-0.5495487 -1.4243733 -0.6434378 0.2932523 -0.03809047 -0.20056649 -0.12359986 0.84527075
0.3218684 0.19244914 -0.3224552 -0.7852883 -0.4056713 -0.43180546 -0.6230817 0.33609903
1.4166608 1.209785 0.43886843 0.8332184 1.1604518 0.694682 -0.287749 0.20356466
0.4760018 0.0777606 -1.0639853 -0.5981501 -0.4236162 -0.22063187 -0.13738982 -0.8926753
0.20672394 -0.06540654 0.53265285 -1.0682104 1.8995003 0.36139855 -2.0223641 -0.4320687
-0.36249423 1.732508 -2.432841 -1.4977787 1.3733946 -0.20100929 -0.29567093 -1.5074155
0.7245805 0.8381426 -0.6575969 -0.054512877 0.36117128 0.054193873 0.27575547 -0.1749706
0.2365192 -0.27256316 -0.465455 0.53497946 0.24164984 0.8228412 -1.4567732 -0.15146424
1.0799764 -0.32674554 0.51800454 -1.9408128 1.0770557 1.3499008 -0.40264907 -0.47720098
-0.20144399 2.452692 -0.026339974 -0.2555785 0.4892925 1.3635889 0.4377306 -0.7861779
0.36589164 0.78293955 0.036213763 -0.4326459 0.7107855 -0.88435614 1.449739 -0.9174132
-0.21592805 0.21103947 0.23147063 1.3837068 -2.774478 0.33246243 0.38299567 0.24261361
-0.54851776 -1.7902659 1.810686 -0.37145036 -0.61921704 -0.0025369762 0.34280974 0.937556
-0.50922716 -0.46563077 0.17750347 -0.27756208 -0.17319477 -0.4837567 -0.16075867 0.0041107726
-0.14000086 -0.5001621 -0.42220163 -0.24245246 -0.823724 -1.426019 -1.0747905 -0.22509526
0.18860717 -0.059579957 0.11637571 0.3138575 0.36239484 0.21158215 0.48288566 0.83474517
0.70066214 0.22649494 0.26484647 0.24856818 0.18107924 0.33796751 0.18353602 -0.62193334
-1.0937986 -0.9327952 -0.7902138 -0.41773334 0.082337394 -0.41003552 -0.5164675 -0.26643997
0.043351654 0.5098778 0.98440987 1.6982455 1.1758028 0.47175825 0.23576155 0.76408905
1.1112719 0.61092496 0.1418457 -0.028919104 -0.3292047 -0.7792569 -0.600439 -0.1059748
0.25339422 0.69254726 0.64533824 0.44492668 0.3284511 -0.85964704 -1.1803364 -1.3829864
-0.95060426 -0.4058715 -0.48094484 -1.1091393 -1.0983415 -0.8670973 -0.62024397 0.48837662
0.7655715 1.0624313 0.65062964 0.057394277 0.34550592 0.78916085 0.6941124 0.681121
0.2944788 -0.02544322 -0.025729038 0.0637975 0.0054475395 0.09090351 -0.037424713 -0.074545376
0.051830932 -0.10264285 -0.108961634 0.08762204 -0.050611548 -0.077314034 -0.059871424 -0.09842051
0.064190865 -0.086237125 -0.107172556 -0.11450316 -0.07408946 0.08248428 0.0345709 -0.08994911
-0.060369402 -0.038632594 0.029077418 -0.08915188 -0.015824316 -0.08306849 -0.042895786 -0.09144623
00000000: 87b0 7dbe 82b7 673e 52c1 b93f 7724 403f
00000010: 7bd8 893e cea8 8d3e 23c0 d53f 0d74 ad3f
00000020: 8495 fb3d a97d 7a3e 70e6 463f d708 323f
00000030: ae7e 5ebf a76f 26bf 9ff7 86be 24ea 9f3e
00000040: 4fca 2abf aa4c 61bf 46bd b5be 519f 1bbe
00000050: f0b4 483e 4ff8 f7be cac4 a4be d5de ecbe
00000060: 33ef 443c daec 053f ddc0 293f ab40 113f
00000070: 3a1c 063e 6202 813d f4b7 693d 4cfa 9e3e
00000080: eac5 cbbe 7142 36bf f6fa 783e 9fc7 abbe
00000090: 791f c5bf d280 fabf 1e4a 41bf 8efe c1be
000000a0: 39af 0cbf dd51 b6bf 57b8 24bf 2a25 963e
000000b0: c104 1cbd 4d61 4dbe ec21 fdbd aa63 583f
000000c0: efcb a43e 6311 453e d918 a5be a708 49bf
000000d0: 26b4 cfbe 9b15 ddbe 4882 1fbf 2c15 ac3e
000000e0: 2455 b53f 3cda 9a3f 5db3 e03e cd4d 553f
000000f0: af89 943f aed6 313f d653 93be 4173 503e
00000100: 82b6 f33e f340 9f3d ac30 88bf 5d20 19bf
00000110: 39e4 d8be 52ed 61be ebaf 0cbe 5e86 64bf
00000120: 71af 533e ddf3 85bd f05b 083f 1ebb 88bf
00000130: d322 f33f 3b09 b93e 6a6e 01c0 1c38 ddbe
00000140: d898 b9be d2c2 dd3f abb3 1bc0 36b7 bfbf
00000150: 65cb af3f 61d5 4dbe 2e62 97be fef2 c0bf
00000160: 1c7e 393f 8390 563f 4558 28bf e548 5fbd
00000170: 71eb b83e 65fa 5d3d d22f 8d3e 7e2b 33be
00000180: 1732 723e 668d 8bbe 1e50 eebe 6af4 083f
00000190: 0e73 773e b9a5 523f 8b77 babf 7119 1bbe
000001a0: ab3c 8a3f 314b a7be f29b 043f 8e6c f8bf
000001b0: f6dc 893f 8dc9 ac3f 0528 cebe b053 f4be
000001c0: 5547 4ebe e8f8 1c40 eec6 d7bc 2fdb 82be
000001d0: 8c84 fa3e 158a ae3f 3a1e e03e f442 49bf
000001e0: 2656 bb3e ba6e 483f e254 143d c383 ddbe
000001f0: 0af6 353f 2a65 62bf 0c91 b93f 97db 6abf
00000200: 3e1c 5dbe bb1a 583e a306 6d3e 4e1d b13f
00000210: 0c91 31c0 8438 aa3e 0218 c43e b46f 783e
00000220: a96b 0cbf 6f27 e5bf 8fc4 e73f be2e bebe
00000230: 0285 1ebf 6643 26bb c284 af3e ac03 703f
00000240: b65c 02bf 2867 eebe 78c3 353e 9e1c 8ebe
00000250: f859 31be f5ae f7be ec9d 24be a9b3 863b
00000260: 635c 0fbe a00a 00bf d02a d8be 7545 78be
00000270: 93df 52bf ca87 b6bf bc92 89bf 5f7f 66be
00000280: 3d22 413e 1d0a 74bd 6356 ee3d eeb1 a03e
00000290: d18b b93e fea8 583e ca3c f73e dcb1 553f
000002a0: 985e 333f 4aee 673e f599 873e a888 7e3e
000002b0: d66c 393e 140a ad3e def0 3b3e 0637 1fbf
000002c0: 9801 8cbf abcb 6ebf 744b 4abf 25e1 d5be
000002d0: 82a0 a83d 2df0 d1be 3737 04bf d26a 88be
000002e0: 8191 313d 5a87 023f 4902 7c3f 1c60 d93f
000002f0: b580 963f 4c8a f13e 7a6b 713e 579b 433f
00000300: 283e 8e3f 9465 1c3f 0040 113e c2e7 ecbc
00000310: 858d a8be 617d 47bf 5fb6 19bf 5109 d9bd
00000320: e3bc 813e c74a 313f e334 253f 6ecd e33e
00000330: be2a a83e d411 5cbf 4315 97bf b305 b1bf
00000340: cd5a 73bf 64ce cfbe 673e f6be 47f8 8dbf
00000350: 7496 8cbf 17fa 5dbf 4fc8 1ebf 800c fa3e
00000360: 7efc 433f c0fd 873f aa8f 263f 4316 6b3d
00000370: 27e6 b03e 7206 4a3f 5ab1 313f f25d 2e3f
00000380: edc5 963e 4d6e d0bc b4c5 d2bc 44a8 823d
00000390: 4681 b23b 9f2b ba3d a84a 19bd 3fab 98bd
000003a0: ac4c 543d 6a36 d2bd 4727 dfbd 2f73 b33d
000003b0: 0e4e 4fbd d256 9ebd bd3b 75bd b190 c9bd
000003c0: 8076 833d 179d b0bd 497d dbbd a280 eabd
000003d0: 37bc 97bd 85ed a83d 379a 0d3d 3d37 b8bd
000003e0: e845 77bd 363d 1ebd c433 ee3c 4395 b6bd
000003f0: ffa1 81bc d01f aabd 7eb3 2fbd 2948 bbbd

conv1.bias f4 [6]
-0.023235617 0.06998016 -0.060171 -0.052582443 0.38053554 -0.6751723
00000000: 9f58 bebc c251 8f3d de75 76bd b060 57bd
00000010: 8ed5 c23e 18d8 2cbf

conv2.weight f4 [16, 6, 5, 5]
0.059051875 0.20308706 -0.29924655 -0.06075246 0.14335181 0.026293853 0.5715785 0.08398548
-0.5696595 -0.0063172756 -0.47582617 0.09281097 0.41959652 0.16099195 -0.121862955 -0.16216406
-0.27197534 -0.17113204 0.22985901 0.16923249 -0.23371272 -0.22416486 -0.12251562 -0.1657064
0.4666125 -0.12526296 -0.166187 -0.019848792 0.009787005 -0.036605213 -0.029372681 -0.12139009
-0.011771806 0.08634459 0.033072937 0.002911715 -0.035064068 -0.010908759 0.07511952 -0.08382631
-0.021986049 -0.0051341755 -0.17027567 -0.08803992 0.18544015 -0.10344581 -0.18211952 -0.03735399
0.10756353 -0.105913825 -0.0013995591 -0.16363136 0.20851605 0.03773435 -0.09280483 -0.31939414
-0.49663845 -0.4568631 0.26638567 0.008180258 0.4875279 -0.15302666 -0.773757 -0.6517189
0.33593282 0.17843926 0.34412637 0.40888026 -0.36442277 -0.4733331 -0.32086542 0.06373184
0.5113817 0.0190301 0.06794342 -0.041396443 -0.039768938 0.054137588 -0.02803886 0.05428148
0.03546304 0.047993235 0.06739926 -0.004131926 0.06983228 0.0007544475 -0.010091738 -0.03178166
-0.03342154 -0.047536165 -0.054016687 -0.07478461 -0.012493221 -0.02717758 -0.007819087 -0.0051542767
-0.05794643 0.07764073 0.042395134 -0.029656937 0.18042614 0.09988865 0.08146084 -0.31923392
-0.20552231 0.07218072 -0.054922864 0.23596464 -0.12542008 -0.038120534 -0.13933767 0.0268569
0.07197109 0.014764397 -0.047868483 0.07728021 -0.24190931 0.077143446 0.07771077 -0.14675952
0.07688524 0.20097172 -0.21830763 0.0066863205 0.24787319 -0.53877234 0.6205041 0.554696
-0.05945566 0.11615353 -1.230939 -0.59218735 1.387559 0.7863601 -0.16557601 -0.1302104
-2.0990634 -0.3651628 1.2915983 1.1125013 0.67124975 -0.4063657 -2.203515 -0.3379591
1.1197087 0.5694237 0.5975246 -0.60285234 -0.8639476 -0.026773166 -0.47829628 -0.38982567
0.19253929 -0.024388667 -0.11302477 -0.26051235 0.17511399 -0.6059624 -0.295459 -0.041488912
0.029922633 -0.3072487 0.13997737 0.549779 0.014009366 0.14387648 0.24648505 0.40257156
-0.25660637 -0.2872687 0.44940555 0.02704909 -0.3241471 0.05708426 -0.04442348 -0.27683544
-0.41080838 -0.09088777 0.52830946 0.3511751 -0.3238731 0.03186093 0.69579244 0.3935415
-0.080287255 -0.1692183 -0.23179428 -0.23580648 -0.034788653 -0.043422636 -0.15958692 -0.72635424
-0.04250008 -0.0610019 0.20205459 -0.29492977 0.1792655 0.41166568 -0.022469316 -0.092222944
0.12975554 -0.10902704 0.36048272 1.0306894 0.3715444 0.046738867 -0.12149191 0.43465927
0.60926104 0.09866779 0.35735488 0.19668606 0.05781735 -0.18265557 -0.40766233 -0.43865883
-0.42528474 0.16465376 0.5048242 0.19896191 0.10783284 0.7520094 0.94529337 0.64511824
0.637775 0.044598635 -0.00088476663 0.004273794 0.07547982 0.052273683 -0.06352541 0.035922665
-0.063747585 0.017145826 0.032469 -0.06313878 -0.013420314 -0.058684547 0.009902241 0.024761576
0.07745272 -0.08111441 0.06667303 -0.07683858 -0.07969583 0.031839624 0.037621375 -0.025794411
0.016577939 -0.031102747 -0.3542845 -0.1354488 -0.04563654 -0.043992296 0.16853538 -0.15809405
00000000: 61e0 713d 0ef6 4f3e d836 99be 92d7 78bd
00000010: d1ca 123e 3566 d73c f852 123f 9400 ac3d
00000020: 34d5 11bf 2601 cfbb 7d9f f3be ae13 be3d
00000030: 5bd5 d63e 13db 243e 4993 f9bd 560e 26be
00000040: 5a40 8bbe 3d3d 2fbe 2960 6b3e 484b 2d3e
00000050: 6352 6fbe 798b 65be 78e9 fabd f0ae 29be
00000060: d5e7 ee3e ef44 00be ed2c 2abe ef99 a2bc
00000070: ad59 203c 59ef 15bd fa9e f0bc 5e9b f8bd
00000080: 88de 40bc 6fd5 b03d 7d77 073d 79d2 3e3b
00000090: 579f 0fbd a7ba 32bc 43d8 993d 21ad abbd
000000a0: 161c b4bc 963c a8bb bf5c 2ebe 464e b4bd
000000b0: 06e4 3d3e 66db d3bd 8a7d 3abe 7f00 19bd
000000c0: 454a dc3d 59e9 d8bd 6971 b7ba fb8e 27be
000000d0: 3b85 553e 558f 1a3d 7510 bebd a187 a3be
000000e0: 6547 febe f6e9 e9be b463 883e 7d06 063c
000000f0: 429d f93e 05b3 1cbe f014 46bf 0dd7 26bf
00000100: 63ff ab3e c8b8 363e 5531 b03e c158 d13e
00000110: 9f95 babe b758 f2be 7948 a4be d785 823d
00000120: e9e9 023f 03e5 9b3c eb25 8b3d 518f 29bd
00000130: c1e4 22bd 60bf 5d3d c0b1 e5bc 4256 5e3d
00000140: b141 113d 8e94 443d a008 8a3d 1c65 87bb
00000150: 3a04 8f3d 1dc6 453a d157 25bc 7c2d 02bd
00000160: 06e5 08bd 48b5 42bd 9a40 5dbd ac28 99bd
00000170: 5eb0 4cbc 84a3 debc a11b 00bc 35e5 a8bb
00000180: 3c59 6dbd 1a02 9f3d 85a6 2d3d 1bf3 f2bc
00000190: a1c1 383e 6c92 cc3d f1d4 a63d a172 a3be
000001a0: 7174 52be 7cd3 933d ccf6 60bd b7a0 713e
000001b0: 1f6e 00be 4724 1cbd 89ae 0ebe 0003 dc3c
000001c0: 9465 933d 5fe6 713c be11 44bd 1645 9e3d
000001d0: 13b7 77be 62fd 9d3d d326 9f3d 2148 16be
000001e0: 0276 9d3d 88cb 4d3e 098c 5fbe ec18 db3b
000001f0: 78d2 7d3e fcec 09bf 5bd9 1e3f 8f00 0e3f
00000200: c787 73bd e7e1 ed3d 698f 9dbf 9799 17bf
00000210: 899b b13f e54e 493f c28c 29be e055 05be
00000220: 0e57 06c0 9ef6 babe 1853 a53f 7166 8e3f
00000230: 06d7 2b3f 2a0f d0be 6406 0dc0 fa08 adbe
00000240: 9d52 8f3f c0c5 113f 5ff7 183f 8854 1abf
00000250: ab2b 5dbf 6653 dbbc 40e3 f4be 3b97 c7be
00000260: 0529 453e beca c7bc 8879 e7bd e061 85be
00000270: 1551 333e 5a20 1bbf 6746 97be 47f0 29bd
00000280: 4f20 f53c b44f 9dbe 3a56 0f3e 51be 0c3f
00000290: 8a87 653c 5b54 133e 9466 7c3e dc1d ce3e
000002a0: e961 83be e214 93be 7c18 e63e 0e96 dd3c
000002b0: 9cf6 a5be 2fd1 693d 65f5 35bd 60bd 8dbe
000002c0: 7a55 d2be 5e23 babd 4a3f 073f 39cd b33e
000002d0: b2d2 a5be 9b80 023d 741f 323f 467e c93e
000002e0: a56d a4bd 9047 2dbe 7b5b 6dbe 4177 71be
000002f0: 8c7e 0ebd efdb 31bd c16a 23be 5af2 39bf
00000300: 9014 2ebd 21dd 79bd 66e7 4e3e 0901 97be
00000310: 6091 373e d8c5 d23e 9211 b8bc 62df bcbd
00000320: a3de 043e 9249 dfbd 3191 b83e a1ed 833f
00000330: 113b be3e 4171 3f3d c0d0 f8bd a98b de3e
00000340: 88f8 1b3f 5712 ca3d 38f7 b63e 1268 493e
00000350: e3d1 6c3d 100a 3bbe 1eb9 d0be e497 e0be
00000360: ecbe d9be ff9a 283e 293c 013f acbc 4b3e
00000370: 77d7 dc3d b083 403f bffe 713f 7826 253f
00000380: 3945 233f 0fad 363d afef 67ba 2f0b 8c3b
00000390: 2a95 9a3d ee1c 563d 9c19 82bd a523 133d
000003a0: 188e 82bd 6775 8c3c 37fe 043d e84e 81bd
000003b0: e0e0 5bbc 355f 70bd 023d 223c cad8 ca3c
000003c0: 889f 9e3d 501f a6bd df8b 883d 8c5d 9dbd
000003d0: 9137 a3bd 446a 023d df18 1a3d cd4e d3bc
000003e0: 75ce 873c 30cb febc c764 b5be 17b3 0abe
000003f0: 61ed 3abd 4431 34bd 8a94 2c3e 68e3 21be

conv2.bias f4 [16]
-0.18657574 0.3849414 0.39614597 -1.1007991 0.85315984 0.100731164 -0.06995583 2.0688584
-1.2933115 -0.19731133 -2.79062 -0.26191124 -1.8493943 0.381415 -2.1118467 -1.3610204
00000000: b60d 3fbe 0a17 c53e a5d3 ca3e fce6 8cbf
00000010: af68 5a3f 244c ce3d 0145 8fbd 2d68 0440
00000020: 3b8b a5bf fb0b 4abe 8599 32c0 3b19 86be
00000030: f4b8 ecbf d448 c33e 7f28 07c0 eb35 aebf

fc1.weight f4 [120, 400]
0.34597355 0.04594709 0.012137369 0.1724855 -0.5308283 -0.10163009 -0.48657382 -0.34532768
0.019898733 0.051722348 0.031386442 0.23073557 -0.18118623 -0.031090856 -0.024976758 0.07942158
0.0374591 0.10860451 0.43113598 -0.24726222 -0.06448162 0.29600683 0.1339056 -0.08760861
-0.024610886 -0.13266215 -0.10020714 -0.11970827 -0.06760265 -0.2801499 0.1554946 -0.016390411
-0.1513178 -0.10102194 0.032816194 0.16796365 0.1943212 -0.026265712 0.3587078 0.07113974
0.21569431 -0.05689122 -0.1497076 -0.04143318 -0.116410464 0.2544516 -0.09369436 0.08660313
-0.19499777 -0.018644625 -0.16558303 0.021603525 0.21014543 -0.034124434 -0.048051413 0.113185845
0.039970588 0.31337693 -0.14474715 0.09243503 0.09215662 -0.16268076 0.0010878711 0.1910614
0.055528894 0.14562564 -0.14529616 -0.12531278 0.06954914 0.34737656 0.13304716 -0.032794375
0.090789154 0.27357075 0.10626792 0.046256263 -0.30613452 -0.06753897 0.026530217 -0.24189995
0.08213241 0.14792126 -0.05465398 -0.031383667 0.13362443 0.12790957 -0.094514355 0.04608108
0.020207813 -0.029091846 0.11768552 -0.11534291 -0.016670668 -0.0053250086 -0.26428154 0.26042423
0.039564054 -0.2649853 -0.111392885 -0.08536692 -0.30526504 0.0084132245 -0.21850637 0.11700101
-0.1663446 0.154059 -0.11593646 -0.15318143 0.0047648204 -0.19644251 0.30670738 -0.12299056
0.011828905 0.119221 -0.223192 0.24332874 -0.009515829 -0.092415705 -0.07480049 -0.059044242
-0.12998745 -0.038261574 -0.16612628 -0.13736926 -0.18788432 0.024481455 0.33708912 0.12533996
0.16230062 -0.10189035 0.14603044 -0.0029784169 -0.1895107 0.006911406 -0.084188834 0.08755567
0.033208203 -0.040010072 -0.07869223 0.05511015 -0.0047084065 0.21052296 -0.01689939 0.20289938
0.03367512 0.15595686 -0.07506371 0.015784165 0.041017517 -0.13292854 -0.029556757 -0.18579097
0.06985826 -0.062079 0.13763733 0.031911217 -0.20719574 -0.004460573 0.20320956 -0.044285234
-0.09527809 0.1955322 0.026928833 -0.010398498 -0.31342408 0.17506185 -0.24546473 0.16782025
0.22200327 -0.13733704 -0.2592586 -0.08726898 0.04927543 -0.12044958 0.13840894 0.11829151
-0.28472584 0.03459675 -0.14183533 0.16091102 0.12398287 -0.02940883 0.10522123 -0.07241018
0.06739419 0.038499337 0.053164434 0.10847137 -0.00166311 0.07092157 0.17125188 0.2699344
0.024347153 0.13713802 0.23361497 0.17227212 0.2411934 0.087441824 0.2264631 -0.0063496195
0.29527614 -0.08684606 -0.04698706 -0.04124801 -0.015381202 0.0018606023 0.117540635 0.06400621
-0.05409939 -0.05729532 0.1279301 -0.036317494 -0.17647931 -0.059038132 0.18689838 -0.00043884784
0.123498105 -0.27874696 -0.34147352 -0.09265834 -0.19880892 -0.12584999 0.023336856 -0.2664266
-0.18479101 -0.09475437 -0.05582835 -0.029563097 -0.05432416 -0.1453488 -0.016643891 -0.3976597
-0.0362245 0.042265408 -0.008898513 0.009039113 0.19747928 0.1282655 -0.07568061 -0.60276914
0.121660545 0.04443482 -0.124028675 0.3388415 0.06544373 -0.18474424 -0.079917476 0.10195646
0.3487541 -0.1749912 0.11525905 -0.013647767 -0.11595723 -0.15629134 -0.031846184 0.10351407
00000000: 7223 b13e 0433 3c3d d1db 463c 0aa0 303e
00000010: 5de4 07bf 7023 d0bd 3420 f9be cace b0be
00000020: ab02 a33c d0da 533d 128f 003d f245 6c3e
00000030: e288 39be 40b2 febc 0f9c ccbc c8a7 a23d
00000040: b76e 193d 0b6c de3d dbbd dc3e 4f32 7dbe
00000050: f10e 84bd 358e 973e 8d1e 093e 256c b3bd
00000060: c59c c9bc 96d8 07be 6739 cdbd 9c29 f5bd
00000070: 4273 8abd cf6f 8fbe fa39 1f3e 2f45 86bc
00000080: 0ef3 1abe 97e4 cebd 466a 063d aafe 2b3e
00000090: 23fc 463e 312b d7bc 8ca8 b73e b6b1 913d
000000a0: f8de 5c3e c506 69bd f34c 19be d7b5 29bd
000000b0: 9c68 eebd 7b47 823e d4e2 bfbd fb5c b13d
000000c0: 7fad 47be 9dbc 98bc 998e 29be e0f9 b03c
000000d0: 5d30 573e 10c6 0bbd 8fd1 44bd fbcd e73d
000000e0: 33b8 233d f172 a03e 9938 14be 944e bd3d
000000f0: 9cbc bc3d c995 26be e696 8e3a 9aa5 433e
00000100: 4472 633d e31e 153e 84c8 14be fe51 00be
00000110: c86f 8e3d 57db b13e 843d 083e 6553 06bd
00000120: aaef b93d 7711 8c3e ffa2 d93d 3577 3d3d
00000130: aabd 9cbe df51 8abd e655 d93c 9fb4 77be
00000140: 0935 a83d ac78 173e dadc 5fbd 298c 00bd
00000150: d8d4 083e bafa 023e be90 c1bd 84bf 3c3d
00000160: db8a a53c 0652 eebc 1b05 f13d e738 ecbd
00000170: ed90 88bc 697d aebb e94f 87be 5356 853e
00000180: eb0d 223d 27ac 87be f421 e4bd dad4 aebd
00000190: b34b 9cbe 9fd7 093c 22c0 5fbe 3a9e ef3d
000001a0: 3d56 2abe a4c1 1d3e 1870 edbd 98db 1cbe
000001b0: 3622 9c3b 3a28 49be c008 9d3e 7ae2 fbbd
000001c0: 06ce 413c 242a f43d 728c 64be 2b2b 793e
000001d0: 48e8 1bbc 7244 bdbd 0031 99bd 60d8 71bd
000001e0: 6e1b 05be 2bb8 1cbd 021d 2abe 87aa 0cbe
000001f0: bf64 40be 558d c83c f296 ac3e 1e59 003e
00000200: 2232 263e e3ab d0bd 0189 153e 8b31 43bb
00000210: 180f 42be 1379 e23b 326b acbd 6350 b33d
00000220: 5305 083d 9ae1 23bd 6429 a1bd 2ebb 613d
00000230: fa48 9abb 5593 573e 9770 8abc dbc4 4f3e
00000240: ecee 093d 28b3 1f3e 01bb 99bd cb4d 813c
00000250: fc01 283d 6b1e 08be 0321 f2bc fd3f 3ebe
00000260: d911 8f3d 8d46 7ebd cdf0 0c3e 56b5 023d
00000270: 1f2b 54be 002a 92bb 2b16 503e 6f64 35bd
00000280: 2921 c3bd 9839 483e db99 dc3c 765e 2abc
00000290: 1f79 a0be 6a43 333e 1b5b 7bbe 12d9 2b3e
000002a0: d354 633e 15a2 0cbe 8bbd 84be 14ba b2bd
000002b0: 09d5 493d 45ae f6bd 13bb 0d3e d242 f23d
000002c0: 96c7 91be 52b5 0d3d 483d 11be dcc5 243e
000002d0: bbea fd3d c9ea f0bc 3a7e d73d ca4b 94bd
000002e0: f705 8a3d 7bb1 1d3d f3c2 593d 3d26 de3d
000002f0: b6fc d9ba 543f 913d a75c 2f3e d734 8a3e
00000300: ae73 c73c e96d 0c3e c338 6f3e 1a68 303e
00000310: 67fb 763e b314 b33d f1e5 673e 7810 d0bb
00000320: 6f2e 973e 59dc b1bd 8175 40bd acf3 28bd
00000330: 7001 7cbc 74df f33a 25b9 f03d b015 833d
00000340: 5297 5dbd 7fae 6abd 1c00 033e a7c1 14bd
00000350: feb6 34be f8d1 71bd 4a62 3f3e 2915 e6b9
00000360: 93ec fc3d ecb7 8ebe 9ed5 aebe a8c3 bdbd
00000370: 9194 4bbe d2de 00be ef2c bf3c 1169 88be
00000380: db39 3dbe 940e c2bd 45ac 64bd 4f2e f2bc
00000390: 0383 5ebd 51d6 14be c558 88bc 0d9a cbbe
000003a0: 2460 14bd 7e1e 2d3d 12cb 11bc ca18 143c
000003b0: 0238 4a3e 0858 033e 70fe 9abd 144f 1abf
000003c0: 2a29 f93d 4901 363d bf02 febd a27c ad3e
000003d0: 5d07 863d 982d 3dbe c6ab a3bd 8cce d03d
000003e0: e68f b23e e530 33be f00c ec3d e29a 5fbc
000003f0: fc7a edbd d60a 20be 2571 02bd 2fff d33d

fc1.bias f4 [120]
-0.014261603 0.11397738 0.5556775 -0.40607682 -0.31258604 -0.23865873 -0.054420624 -0.18991907
0.64900637 -0.22780626 0.29822028 -0.31082267 0.52745795 0.020626556 -0.19475268 -0.07730117
0.2900286 -0.062451325 0.12551245 0.12233864 0.56199956 -0.016866056 -0.109985135 -0.0048022754
-0.14109364 -0.10146323 -0.13122277 -0.25695157 -0.73301613 0.18421347 -0.31509688 0.62474865
0.53193855 -0.1594391 -0.06229465 -0.58715546 -0.10595267 0.1260664 -0.037709113 0.17322987
0.2112004 0.42914638 -0.28373682 -0.0309963 0.4037413 0.10097358 -0.17712118 0.30788967
0.14579159 -0.5531665 0.28162676 0.11221758 0.35298905 -0.10972922 -0.028851941 0.10671967
-0.6247117 0.27315184 -0.038023833 0.23099 0.24445708 -0.092744514 0.08711376 -0.02032773
0.39938796 -0.20793691 0.4466234 0.16020703 0.093035355 0.22827968 0.10288461 0.003615345
0.31125826 0.2739825 0.54702914 -0.22492635 0.28915602 -0.38141263 -0.26410228 -0.29805067
-0.28248337 -0.13524532 -0.14206944 0.4876627 -0.41113138 0.6219624 -0.8118307 -0.15127654
-0.07559634 0.11143056 0.20627022 -0.28864065 -0.21975239 0.008407045 0.1432538 0.4870781
0.3162605 0.3583481 0.34081012 -0.19404984 -0.22466253 -0.16763142 -0.44547418 0.33789283
-0.12721883 0.2642592 0.18407404 0.16785201 0.018999686 -0.061015747 0.30811572 -0.013737465
-0.058508873 0.57123125 -0.086819805 -0.021545323 -0.12267258 -0.06912397 -0.8059158 0.021578733
00000000: 80a9 69bc f96c e93d e140 0e3f 4de9 cfbe
00000010: 470b a0be f462 74be 29e8 5ebd 257a 42be
00000020: 4825 263f 0b46 69be 54b0 983e 2624 9fbe
00000030: 7c07 073f 06f9 a83c 3f6d 47be 1350 9ebd
00000040: a17e 943e f6cc 7fbd 5686 003e ae8c fa3d
00000050: 34df 0f3f af2a 8abc e33f e1bd 685c 9dbb
00000060: da7a 10be f4cb cfbd 435f 06be 288f 83be
00000070: f2a6 3bbf 75a2 3c3e 6154 a1be 87ef 1f3f
00000080: 202d 083f 0144 23be ad28 7fbd d24f 16bf
00000090: b7fd d8bd 8d17 013e df74 1abd 2c63 313e
000000a0: eb44 583e 13b9 db3e f445 91be f4eb fdbc
000000b0: 2eb7 ce3e 3ccb ce3d 415f 35be b7a3 9d3e
000000c0: 644a 153e 529c 0dbf 6231 903e 55d2 e53d
000000d0: fbba b43e b7b9 e0bd e85a ecbc d88f da3d
000000e0: 1bed 1fbf 8fda 8b3e e1be 1bbd a488 6c3e
000000f0: f552 7a3e d6f0 bdbd b368 b23d 5786 a6bc
00000100: 947c cc3e 6aed 54be d3ab e43e 500d 243e
00000110: 5289 be3d 26c2 693e 2bb5 d23d 6def 6c3b
00000120: 3e5d 9f3e 6f47 8c3e 1a0a 0c3f 1853 66be
00000130: 420c 943e 8448 c3be 6a38 87be 199a 98be
00000140: a9a1 90be c07d 0abe a77a 11be edae f93e
00000150: d07f d2be ee38 1f3f 23d4 4fbf 3de8 1abe
00000160: 41d2 9abd b535 e43d 8038 533e b5c8 93be
00000170: c506 61be b4bd 093c 20b1 123e 4d62 f93e
00000180: e5ec a13e 6779 b73e aa7e ae3e 00b5 46be
00000190: ef0d 66be 92a7 2bbe 3115 e4be 4a00 ad3e
000001a0: a745 02be fb4c 873e e87d 3c3e 66e1 2b3e
000001b0: 3ba5 9b3c a6eb 79bd 58c1 9d3e 1b13 61bc
000001c0: 00a7 6fbd 363c 123f 95ce b1bd d17f b0bc
000001d0: c33b fbbd de90 8dbd 7f50 4ebf e2c5 b03c

fc2.weight f4 [84, 120]
0.079555586 0.16476208 -0.28161803 -0.04513641 0.21706212 0.07331024 -0.27368513 -0.14371702
0.39828297 0.10398809 -0.21496646 -0.15604465 -0.089127585 0.14690875 -0.019919043 -0.094527416
0.016258754 -0.13373078 0.06879884 0.395847 -0.21283726 -0.1393257 0.2867372 0.2040738
0.19505236 0.2959816 -0.2076424 -0.0232071 0.027297739 -0.21384196 0.24501172 -0.19144164
0.22285551 0.2192486 -0.17900892 0.16463746 -0.44592375 -0.29270694 0.044678 -0.15917814
-0.25949627 -0.36490598 -0.042577315 -0.27610096 0.08985905 0.12978283 -0.11034938 0.15640798
-0.2698985 0.07095582 -0.07358393 0.17675559 0.24136372 -0.13523984 0.22805169 0.10487305
0.089251325 0.19317006 0.2059097 -0.28846925 0.11400882 0.0860414 0.03478841 -0.4211712
-0.45776019 -0.24040224 0.0021230674 0.28099307 0.07906421 -0.27686885 -0.27689266 -0.19794366
-0.06317519 -0.11457584 -0.062405605 -0.40607575 -0.20286882 -0.107829124 -0.11978639 -0.24798873
-0.071369015 0.17233221 -0.06017004 -0.030992778 0.38712516 -0.24016075 -0.16382022 0.19816384
0.21633898 0.076143876 -0.020898947 0.3319187 0.03636878 0.32006598 -0.30488938 0.18472251
0.16601586 0.016134026 -0.065594286 -0.03901616 -0.14085795 0.15494943 -0.32101718 -0.08407757
-0.120726824 0.23210756 0.02293845 0.07294524 -0.2693804 -0.4037841 -0.37432626 -0.42158142
0.3278245 -0.18804845 -0.11943385 0.094308555 -0.109016865 0.051783055 0.08025958 0.05752167
0.21738602 -0.021626554 0.24996957 0.062331427 -0.47660488 -0.13927248 -0.00014516397 0.036182687
0.017134571 -0.019409787 0.2781792 -0.00915777 0.14765278 0.32095024 0.10053992 0.106815375
-0.011795327 -0.008903862 -0.24723451 -0.27278268 0.2511795 0.15448457 -0.38877857 -0.39194876
0.1444767 -0.015857752 -0.09041302 -0.38579378 0.090700105 -0.21485144 0.21505776 0.064442165
0.06502208 -0.15552592 0.060938694 -0.2801733 -0.042985063 0.3230551 0.015342886 0.08479939
-0.193176 0.034069818 -0.18655026 0.028528767 0.14574206 0.17952038 0.020123554 0.26896954
0.12794071 -0.20613462 0.17683022 -0.06322218 -0.26256868 0.034435693 0.18156755 0.19163385
0.026470961 0.0765439 -0.07085268 -0.17915201 -0.2344127 0.079385504 -0.11846751 -0.088873945
0.09758519 -0.070903905 -0.067906074 0.047760215 0.07618623 -0.030431619 0.07000883 -0.0065511693
-0.45239276 -0.0686747 0.19427586 -0.12566862 0.08872591 0.10526018 0.018746603 -0.45795888
-0.06719878 0.13375293 0.13301307 0.04201719 -0.26521516 0.02671976 -0.3497476 0.05807027
5.584025e-05 -0.25938502 -0.2652926 -0.041717414 -0.124362856 -0.021780044 -0.155359 -0.010203933
0.16580686 -0.04286951 0.23823933 0.031581894 -0.17493081 -0.011698758 -0.05364366 0.0150359785
-0.21989118 0.43160957 -0.16816866 0.1511763 0.23976387 0.41961455 0.037450638 0.41659734
0.019705301 0.2518237 -0.0054782354 -0.52472115 -0.3041403 0.14835055 0.08153938 -0.031871457
-0.1419135 -0.060961373 -0.02956623 0.010601603 0.08411204 0.25187218 0.023882082 -0.26394558
-0.12856981 -0.017372323 -0.2713427 -0.04327846 -0.11313826 0.15481953 0.13107307 0.14921445
00000000: 0aee a23d 64b7 283e 3d30 90be f5e0 38bd
00000010: 8845 5e3e ae23 963d 7520 8cbe 8e2a 13be
00000020: bfeb cb3e b5f7 d43d 2b20 5cbe 2bca 1fbe
00000030: 8688 b6bd 3f6f 163e 432d a3bc 9797 c1bd
00000040: 1431 853c b9f0 08be 68e6 8c3d 75ac ca3e
00000050: 03f2 59be 65ab 0ebe 38cf 923e b9f8 503e
00000060: cebb 473e e68a 973e 36a0 54be d11c bebc
00000070: 829f df3c 63f9 5abe 5ae4 7a3e 4709 44be
00000080: 3c34 643e b482 603e 1d4e 37be b996 283e
00000090: 1e50 e4be afdd 95be 4700 373d 98ff 22be
000000a0: b2dc 84be f5d4 babe 8d65 2ebd 1b5d 8dbe
000000b0: 0608 b83d cae5 043e dbfe e1bd 6a29 203e
000000c0: 2330 8abe 4951 913d 2cb3 96bd 6bff 343e
000000d0: 0d28 773e 507c 0abe 6286 693e aec7 d63d
000000e0: 66c9 b63d 5fce 453e fed9 523e 3eb2 93be
000000f0: 757d e93d 7936 b03d 4b7e 0e3d c0a3 d7be
00000100: 8b5f eabe 012c 76be 2923 0b3b 53de 8f3e
00000110: 6bec a13d c1c1 8dbe e0c4 8dbe beb1 4abe
00000120: fe61 81bd bda6 eabd 059d 7fbd 29e9 cfbe
00000130: d8bc 4fbe 84d5 dcbd 9152 f5bd c2f0 7dbe
00000140: eb29 92bd db77 303e dc74 76bd 91e4 fdbc
00000150: 4535 c63e b3ec 75be 7dc0 27be 76eb 4a3e
00000160: f787 5d3e 52f1 9b3d 4534 abbc 3ff1 a93e
00000170: 6ef7 143d b0df a33e 761a 9cbe e627 3d3e
00000180: 1000 2a3e 812b 843c 4c56 86bd 69cf 1fbd
00000190: 113d 10be 10ab 1e3e 5d5c a4be dc30 acbd
000001a0: a03f f7bd 9bad 6d3e 6be9 bb3c 5064 953d
000001b0: 3aec 89be cabc cebe b1a7 bfbe 85d9 d7be
000001c0: 9dd8 a73e c68f 40be bc99 f4bd d824 c13d
000001d0: 3c44 dfbd 781a 543d 225f a43d d89b 6b3d
000001e0: 719a 5e3e 2c2a b1bc 06f8 7f3e 3d4f 7f3d
000001f0: 8e05 f4be 729d 0ebe 2837 18b9 4c34 143d
00000200: cd5d 8c3c 4601 9fbc 816d 8e3e 790a 16bc
00000210: 4a32 173e 9753 a43e e0e7 cd3d 05c2 da3d
00000220: 3041 41bc 81e1 11bc 0b2b 7dbe 2caa 8bbe
00000230: 999a 803e 3431 1e3e fc0d c7be 82ad c8be
00000240: b3f1 133e 1ee8 81bc 762a b9bd c386 c5be
00000250: fac0 b93d 0402 5cbe 1a38 5c3e 41fa 833d
00000260: 4c2a 853d 3042 1fbe da9a 793d e072 8fbe
00000270: 1b11 30bd 7a67 a53e ba60 7b3c 4dab ad3d
00000280: eecf 45be cb8c 0b3d 0807 3fbe 29b5 e93c
00000290: 683d 153e 31d4 373e 27da a43c 60b6 893e
000002a0: e402 033e f414 53be fb12 353e a17a 81bd
000002b0: 676f 86be 710c 0d3d d8ec 393e aa3b 443e
000002c0: a1d9 d83c 0cc3 9c3d 361b 91bd a073 37be
000002d0: e209 70be de94 a23d 189f f2bd 8b03 b6bd
000002e0: beda c73d 1136 91bd 5712 8bbd 37a0 433d
000002f0: 8707 9c3d bb4b f9bc ca60 8f3d 31ab d6bb
00000300: 06a0 e7be 52a5 8cbd 40f0 463e 46af 00be
00000310: eeb5 b53d a692 d73d 7a92 993c 9679 eabe
00000320: 849f 89bd 87f6 083e 9434 083e 381a 2c3d
00000330: 48ca 87be 66e3 da3c 1e12 b3be 17db 6d3d
00000340: 0336 6a38 1dce 84be 6fd4 87be e1df 2abd
00000350: f4b1 febd 106c b2bc 6e16 1fbe 662e 27bc
00000360: 46c9 293e f097 2fbd 03f5 733e 045c 013d
00000370: 1021 33be 26ac 3fbc 74b9 5bbd 7759 763c
00000380: 272b 61be eefb dc3e 6834 2cbe f6cd 1a3e
00000390: a984 753e b8d7 d63e d765 193d 3f4c d53e
000003a0: 036d a13c 09ef 803e c582 b3bb 2054 06bf
000003b0: 47b8 9bbe 35e9 173e 1efe a63d a58b 02bd
000003c0: c651 11be a2b2 79bd e134 f2bc 59b2 2d3c
000003d0: ef42 ac3d 64f5 803e 5ba4 c33c e023 87be
000003e0: cea7 03be 6750 8ebc 6eed 8abe c144 31bd
000003f0: 08b5 e7bd 0389 1e3e 0538 063e accb 183e

fc2.bias f4 [84]
-0.047446277 0.52908677 -0.3280484 0.117708154 0.467976 0.29678476 -0.18243013 0.13637912
0.23150426 0.4201861 0.09952985 -0.21483499 0.5613405 -0.44646585 -0.14555226 -0.2681508
-0.12927832 0.021481195 -0.19931297 -0.07957514 0.003299135 -0.046258923 0.43429416 -0.24654998
0.730259 0.28292662 0.53134483 0.042144433 0.5269824 -0.07863459 -0.11487209 -0.05310665
-0.3832079 0.6241917 -0.045903247 0.46773788 0.6024685 0.34608218 0.0031494026 -0.3580419
-0.13665822 -0.11935979 -0.3861514 -0.34797108 0.09265076 -0.6951208 -0.10730035 -0.122925736
-0.32695007 -0.1124849 0.28953075 -0.12002191 -0.033547185 0.09983651 -0.30175906 -0.31679645
0.45275715 0.2536423 -0.26423213 0.09903321 0.5335742 -0.08926438 0.3658321 0.5964632
-0.24510494 0.8267533 -0.41078472 -0.6225227 1.1274219 0.5791455 -0.089675084 0.33868352
0.40617073 0.12960158 -0.29772344 0.7257624 0.267969 -0.13393828 0.13147505 0.15345965
-0.3425079 0.19103675 0.26783773 -0.3227776
00000000: 0757 42bd 3b72 073f f6f5 a7be f910 f13d
00000010: 8d9a ef3e 2cf4 973e f7ce 3abe f8a6 0b3e
00000020: 740f 6d3e a222 d73e 4ed6 cb3d b4fd 5bbe
00000030: 03b4 0f3f 2c97 e4be a70b 15be 104b 89be
00000040: 8961 04be 55f9 af3c b318 4cbe 4af8 a2bd
00000050: 4d36 583b ff79 3dbd ce5b de3e 9977 7cbe
00000060: 41f2 3a3f c2db 903e 3706 083f a49f 2c3d
00000070: 52e8 063f 2c0b a1bd 0f42 ebbd 5c86 59bd
00000080: d333 c4be 07cb 1f3f 0b05 3cbd 577b ef3e
00000090: 603b 1a3f af31 b13e 3566 4e3b 4551 b7be
000000a0: 22f0 0bbe e872 f4bd a3b5 c5be 4429 b2be
000000b0: afbf bd3d 70f3 31bf 49c0 dbbd 7dc0 fbbd
000000c0: 0066 a7be 7c5e e6bd 603d 943e 0cce f5bd
000000d0: c668 09bd 1677 cc3d 2a80 9abe 2533 a2be
000000e0: c9cf e73e 67dd 813e 6f49 87be ecd1 ca3d
000000f0: 5298 083f 3ed0 b6bd 584e bb3e d0b1 183f
00000100: cafc 7abe 1ba6 533f 6052 d2be a65d 1fbf
00000110: 5c4f 903f e142 143f 92a7 b7bd ed67 ad3e
00000120: 9cf5 cf3e 47b6 043e 356f 98be 91cb 393f
00000130: 3c33 893e 1e27 09be 65a1 063e 8724 1d3e
00000140: 325d afbe 239f 433e 0722 893e 1b43 a5be

fc3.weight f4 [10, 84]
-0.13106234 -0.23681752 0.009265235 0.22876742 -0.1058091 -0.32293642 -0.136627 -0.024295453
0.006464042 -0.23616529 -0.0968939 -0.1038889 -0.24653667 0.34484264 0.22531012 0.05857744
-0.03620901 0.12213662 0.19764797 -0.048069127 0.057678964 0.1069998 0.23545869 -0.021503616
-0.12129449 0.21516143 0.04201285 -0.047329705 0.095211364 0.012535274 0.32083255 0.24880372
0.26029038 -0.1692311 -0.22018974 -0.065921135 -0.44363418 -0.07391501 0.1796026 0.3073762
0.16776507 -0.1741241 0.20812523 -0.0366977 0.044846226 0.15502395 0.05684871 0.17671536
-0.07030946 -0.013080689 -0.21698104 -0.04173068 0.16804563 0.14336874 -0.22871596 -0.2114614
0.091470815 0.13875148 0.21553005 0.047085103 -0.04597941 0.13319252 0.13516423 -0.0519665
0.131909 -0.02282208 0.07302841 -0.06830826 -0.5016779 0.08767497 0.27130154 0.06864216
0.19884902 -0.25282404 0.11380472 0.010761628 -0.080888785 -0.10997473 0.06541966 0.2669179
-0.011468984 -0.05924869 -0.18773451 -0.20524646 0.19659896 -0.18680969 0.13378526 -0.033622038
-0.10210308 -0.08932301 -0.02253736 -0.04261247 0.05860693 0.2264808 -0.01857828 -0.31667987
0.060917333 -0.17396784 -0.05301385 -0.088836536 -0.0608183 -0.3555679 0.40792006 0.16419351
0.08061792 -0.19503137 -0.066439815 -0.2291517 0.04883606 0.0038184326 -0.049254775 0.12385419
-0.34150103 0.016265899 0.15610565 -0.1433356 -0.10465457 -0.2766219 0.17958972 -0.12773682
-0.1048987 -0.12416641 -0.23917562 -0.14125122 -0.20977907 -0.09854055 0.11230536 0.05914086
-0.027033994 0.20365918 0.2852545 0.45163092 0.090532 0.16356318 -0.10525427 -0.06712068
0.22187041 -0.21120498 -0.12437348 -0.09750111 0.06315503 -0.18997954 0.07521347 -0.07276052
0.15485188 -0.16596237 0.047649443 -0.09899169 0.24707873 -0.29794437 -0.40813494 0.04344872
-0.020717818 0.12867571 0.3460469 -0.027967952 0.1562022 0.082872346 0.012099154 -0.33711883
0.24786498 0.28689635 0.03461117 -0.005890493 0.24731684 0.046821773 -0.029061036 0.24234512
-0.37060773 0.22196904 0.0044007115 0.06682119 -0.26054907 0.0049602273 -0.21604274 0.17859474
0.02327387 -0.111329965 -0.111567535 0.23723456 0.11767192 -0.08775189 0.030717002 0.3432815
0.29986328 0.29257905 -0.10872 0.035967276 -0.20302339 0.014325259 0.0025130922 0.07279632
-0.10968771 0.2087937 -0.124335505 0.3252542 0.035144005 0.34449148 -0.13001451 0.16958992
0.16571821 0.25314945 -0.14903525 0.06771363 -0.014538601 -0.12321606 0.044485904 -0.14558075
0.06529741 0.12298866 0.1997445 0.21173249 -0.18171404 -0.026070025 -0.19498478 0.025671672
-0.09895054 0.035331815 -0.020129576 0.11954796 -0.025826976 0.24470392 0.37968555 -0.18850555
-0.267389 0.06625871 0.0640197 0.15871117 0.30666164 0.11456466 -0.04228264 -0.23737131
0.13969605 0.22358169 0.30800077 -0.04112375 0.13957034 -0.040947035 -0.11302453 -0.29375878
-0.27049524 0.16333862 -0.051246747 0.24183838 0.030574266 0.06425118 -0.009062173 0.17757794
0.035591982 -0.34748572 0.07110695 -0.09555113 0.17257987 0.15908773 0.09777266 -0.17126495
00000000: 3535 06be 4b80 72be 36cd 173c 0242 6a3e
00000010: 71b2 d8bd ec57 a5be f3e7 0bbe 4207 c7bc
00000020: 50d0 d33b 50d5 71be 4f70 c6bd b4c3 d4bd
00000030: 1c74 7cbe 378f b03e b2b7 663e e6ee 6f3d
00000040: e64f 14bd c422 fa3d 3b64 4a3e 22e4 44bd
00000050: c740 6c3d b622 db3d 151c 713e 5a28 b0bc
00000060: 3f69 f8bd 4753 5c3e ab15 2c3d cbdc 41bd
00000070: 2dfe c23d c060 4d3c 2a44 a43e 67c6 7e3e
00000080: c844 853e eb4a 2dbe 6b79 61be a901 87bd
00000090: 0524 e3be c160 97bd bee9 373e 6a60 9d3e
000000a0: 9bca 2b3e 974d 32be c81e 553e 5450 16bd
000000b0: adb0 373d 99be 1e3e 31da 683d dff4 343e
000000c0: 68fe 8fbd 6350 56bc 4730 5ebe caed 2abd
000000d0: 2714 2c3e 41cf 123e 8434 6abe 5689 58be
000000e0: 0d55 bb3d de14 0e3e e9b3 5c3e 4fdc 403d
000000f0: e854 3cbd 9f63 083e 7e68 0a3e d3da 54bd
00000100: 2713 073e 5ff5 babc eb8f 953d 33e5 8bbd
00000110: f66d 00bf ef8e b33d 09e8 8a3e 4394 8c3d
00000120: 149f 4b3e 2772 81be 7312 e93d 8a51 303c
00000130: 05a9 a5bd 6e3a e1bd befa 853d 77a9 883e
00000140: 68e8 3bbc c1ae 72bd 7a3d 40be 212c 52be
00000150: 3d51 493e 0a4b 3fbe 01ff 083e 43b7 09bd
00000160: 6b1b d1bd fbee b6bd 45a0 b8bc 6a8a 2ebd
00000170: d20d 703d 95ea 673e 7a31 98bc dd23 a2be
00000180: 7484 793d a024 32be 0d25 59bd eeef b5bd
00000190: 9c1c 79bd ff0c b6be e6da d03e 5822 283e
000001a0: 021b a53d 4eb6 47be 9911 88bd bea6 6abe
000001b0: 5208 483d ab3e 7a3b 60bf 49bd 44a7 fd3d
000001c0: 39d9 aebe 1040 853c 29da 1f3e 91c6 12be
000001d0: 2355 d6bd 63a1 8dbe 5ee6 373e 71cd 02be
000001e0: 21d5 d6bd f54a febd 74ea 74be 29a4 10be
000001f0: 53d0 56be a1cf c9bd 5a00 e63d b03d 723d
00000200: 6576 ddbc 088c 503e e10c 923e 2b3c e73e
00000210: d768 b93d 1b7d 273e 8d8f d7bd 9176 89bd
00000220: ff31 633e 1e46 58be 86b7 febd a9ae c7bd
00000230: 6d57 813d ff89 42be 8509 9a3d 7803 95bd
00000240: 7e91 1e3e 0af2 29be 102c 433d 28bc cabd
00000250: 3502 7d3e 2a8c 98be 10f7 d0be 49f7 313d
00000260: 6ab8 a9bc 91c3 033e 0f2d b13e 0c1d e5bc
00000270: 78f3 1f3e fab8 a93d 883b 463c d79a acbe
00000280: 51d0 7d3e 14e4 923e 71c4 0d3d 0905 c1bb
00000290: a040 7d3e 30c8 3f3d 6911 eebc 5229 783e
000002a0: 4cc0 bdbe da4b 633e d833 903b 8cd9 883d
000002b0: b066 85be 6789 a23b 4f3a 5dbe 8ae1 363e
000002c0: d8a8 be3c f700 e4bd 857d e4bd 9eed 723e
000002d0: fafd f03d 43b7 b3bd 39a2 fb3c 98c2 af3e
000002e0: ae87 993e eccc 953e 97a8 debd 6c52 133d
000002f0: 5de5 4fbe 7eb4 6a3c b1b2 243b 3d16 953d
00000300: f3a3 e0bd 04ce 553e 9da3 febd b887 a63e
00000310: 29f3 0f3d 3061 b03e 8622 05be fba8 2d3e
00000320: 09b2 293e ce9c 813e b29c 18be 72ad 8a3d
00000330: 5033 6ebc b458 fcbd da36 363d 1f13 15be
00000340: a6ba 853d 7be1 fb3d d289 4c3e 67d0 583e
00000350: 3f13 3abe ce90 d5bc 17aa 47be 664d d23c
00000360: 95a6 cabd 18b8 103d c8e6 a4bc 90d5 f43d
00000370: 1893 d3bc aa93 7a3e 2566 c23e 9907 41be
00000380: 36e7 88be a6b2 873d c31c 833d 2e85 223e
00000390: c102 9d3e e0a0 ea3d 9030 2dbd 7711 73be
000003a0: 7b0c 0f3e 99f2 643e 47b2 9d3e 6171 28bd
000003b0: 87eb 0e3e 14b8 27bd 6879 e7bd 8d67 96be
000003c0: 5a7e 8abe 3d42 273e 1ce8 51bd 7ba4 773e
000003d0: e276 fa3c 1f96 833d 8279 14bc fed6 353e
000003e0: e6c8 113d a6e9 b1be 85a0 913d 50b0 c3bd
000003f0: c7b8 303e e5e7 223e 083d c83d 1460 2fbe

fc3.bias f4 [10]
-0.86986935 -0.7471103 -0.19935809 0.67614967 1.2868495 -0.19541036 0.85074353 -0.07666872
0.15688148 -0.58789176
00000000: c2af 5ebf 9f42 3fbf 8724 4cbe 2518 2d3f
00000010: 7cb7 a43f a719 48be 54ca 593f 7d04 9dbd
00000020: 8aa5 203e 1380 16bf
