models/submodel_1.pth (torch, 251746 bytes, 10 tensors)

conv1.weight f4 [6, 3, 5, 5]
0	0x3e4c5511	0.19954325
1	0x3ec6b14a	0.38807136
2	0x3f09d328	0.53837824
3	0x3ec00bdc	0.37509048
4	0x3ea7777e	0.32708353
5	0x3f1bcca6	0.60859144
6	0x3f689c95	0.90863925
7	0x3f2f0423	0.6836569
8	0x3eefd26a	0.4684022
9	0x3e6690e6	0.22516212
10	0x3eca9206	0.39564532
11	0x3df24370	0.11829269
12	0xbda1ad67	-0.07894402
13	0xbe8488cf	-0.25885627
14	0xbdbcb712	-0.092146054
15	0xbe939e61	-0.2883177
16	0xbf156cdb	-0.58369225
17	0xbf25d640	-0.64780045
18	0xbec092a0	-0.37611866
19	0xbe6f4a7a	-0.23368254
20	0xbe41503e	-0.18878266
21	0xbeeab7a2	-0.45843226
22	0xbef46644	-0.47734272
23	0xbe3bdc2b	-0.18345706
24	0xbd41d4d8	-0.047322124
25	0xbe436a2a	-0.19083467
26	0x3bad2b90	0.005284734
27	0xbd2e8246	-0.042604707
28	0xbe300785	-0.17190368
29	0xbe77a71d	-0.24184842
30	0x3e2bbe35	0.16771777
31	0x3eaf632e	0.34255356
32	0x3e8c8100	0.2744217
33	0x3dde7850	0.108627915
34	0xbd05abc3	-0.032634508
35	0xbd87dc40	-0.06633806
36	0xbe61d559	-0.22054042
37	0xbea795ab	-0.32731375
38	0xbf03a904	-0.5142977
39	0xbe09a054	-0.13440067
40	0xbebab799	-0.364682
41	0xbf435a43	-0.76309603
42	0xbf4bc52a	-0.79597723
43	0xbea333f6	-0.3187558
44	0x3d32fcae	0.043698005
45	0x3d2194b4	0.039448455
46	0xbe6dd195	-0.2322448
47	0xbd0d1617	-0.034444895
48	0x3dfbec69	0.12300951
49	0x3eda97c7	0.42693922
50	0xbda9b7bb	-0.08286997
51	0xbe1195ad	-0.14217253
52	0x3c7db90a	0.015486011
53	0x3cc0adf5	0.02352045
54	0xbd8bb4d6	-0.06821601
55	0x3e1b8226	0.15186366
56	0x3ed10776	0.40826005
57	0x3ed468ff	0.41486356
58	0x3e60e295	0.21961434
59	0x3e5950ea	0.21222273
60	0x3e6567cd	0.22402878
61	0x3d9700ec	0.07373223
62	0xbe6fb59c	-0.23409122
63	0xbe903a7a	-0.28169614
64	0x3dae4de6	0.08510952
65	0xbe656cc3	-0.2240477
66	0xbe8b8364	-0.2724868
67	0xbe920794	-0.28521407
68	0xbe192481	-0.14955331
69	0x3e91ed42	0.28501326
70	0x3e40f2a8	0.18842566
71	0x3e23fe80	0.16015053
72	0x3d6d35e0	0.057912707
73	0x3e810491	0.25198796
74	0x3f0b3973	0.54384536
75	0xbeb91a8c	-0.36153066
76	0x3ec07775	0.37591138
77	0xbf1f683d	-0.6226843
78	0xbf026ec3	-0.5095026
79	0xbd7afda8	-0.06127706
80	0xbe4821e7	-0.19544183
81	0xbe0136f1	-0.12618615
82	0xbf67efef	-0.90600485
83	0xbec4ab83	-0.38412103
84	0x3e8fc71f	0.28081605
85	0xbe664da9	-0.22490562
86	0xbe8a2855	-0.26983896
87	0xbf1a79c4	-0.6034205
88	0x3e4c7264	0.19965512
89	0x3e309c40	0.17247105
90	0xbed8f3b6	-0.42373437
91	0x3cab7dcb	0.020934006
92	0xbc47fe6f	-0.012206658
93	0x3dccd51f	0.10001587
94	0x3b9f5246	0.0048621027
95	0xbe00fc07	-0.12596141
96	0x3e5660b2	0.20935324
97	0xbd32eec2	-0.04368473
98	0xbc5da86d	-0.013528925
99	0x3cb24b64	0.021764465
100	0x3bce9789	0.0063046855
101	0x3f5ca5f5	0.8619073
102	0xbe24f01a	-0.16107216
103	0xbe1c3643	-0.15255074
104	0x3f1398d3	0.57655066
105	0x3e5c1f93	0.2149642
106	0x3ef9a1bc	0.48756206
107	0xbeedcc42	-0.464449
108	0x3e1f4b17	0.15555988
109	0x3f3e9e37	0.74460167
110	0x3dc1a858	0.09455937
111	0x3e59d51e	0.21272704
112	0xbde02562	-0.1094463
113	0x3f1f5d63	0.6225187
114	0x3f1416c3	0.5784723
115	0x3bb86e2c	0.005628368
116	0x3e7dc4e2	0.24782136
117	0x3e997605	0.29972854
118	0x3ef8671f	0.48516175
119	0x3e8652f2	0.26235157
120	0x3d713df3	0.05889697
121	0x3ee831e0	0.45350552
122	0x3e934903	0.2876664
123	0x3e2dddbc	0.16979116
124	0x3e6df574	0.23238164
125	0xbe0722f2	-0.13196924
126	0x3efb3420	0.49063206
127	0xbece1f12	-0.4025808
128	0xbec07e58	-0.37596393
129	0x3e726e82	0.23674968
130	0xbca113ef	-0.019662825
131	0x3da90e05	0.08254627
132	0xbf34fded	-0.7069996
133	0xbe9622dd	-0.29323474
134	0x3eab1e7c	0.33421695
135	0xbe863ad0	-0.26216745
136	0xbcce36ca	-0.02517261
137	0xbeef87e4	-0.46783364
138	0x3d8e3b49	0.069449015
139	0x3d629f8b	0.055327933
140	0xbee1adaf	-0.44077823
141	0x3dead27b	0.11465927
142	0xbe0e6d6b	-0.13908927
143	0x3e252120	0.16125917
144	0xbd9d8e52	-0.07693161
145	0xbe5450ee	-0.20733997
146	0x3cc9aab3	0.024617529
147	0xbe756a27	-0.23966275
148	0xbe11123f	-0.14167117
149	0xbe68a1d6	-0.22717986
150	0xbd083820	-0.03325665
151	0xbe7567f1	-0.23965432
152	0xbe80df4e	-0.25170368
153	0xbe523434	-0.20527726
154	0xbc926806	-0.017871868
155	0xbe6ac7bc	-0.22927755
156	0xbec02e92	-0.3753553
157	0xbf182bdc	-0.59441924
158	0xbebdc3f3	-0.3706356
159	0xbd602a99	-0.054728124
160	0xbd5bd509	-0.053669963
161	0x3d8b2291	0.067937024
162	0x3e694315	0.22779496
163	0x3b813986	0.003943625
164	0x3d9d5502	0.076822296
165	0x3e8b8bdc	0.27255142
166	0x3ef29699	0.47380522
167	0x3ee2cf66	0.44298857
168	0x3ec61361	0.3868666
169	0x3e7daeaf	0.24773668
170	0x3e58d4b1	0.21174885
171	0x3d8bc5d3	0.06824841
172	0x3e5b7322	0.21430638
173	0x3d48a48b	0.048985045
174	0x3d74e07c	0.059784397
175	0x3d33fcb6	0.043942176
176	0xbeb44642	-0.35209852
177	0xbebd0404	-0.36917126
178	0xbeaf131d	-0.3419427
179	0xbd9b631b	-0.07587262
180	0xbe6a34e4	-0.22871739
181	0xbf0a0def	-0.5392751
182	0xbf20189a	-0.6253754
183	0xbec9ee97	-0.39439842
184	0xbe8ca3f4	-0.27468836
185	0xbe450446	-0.19239911
186	0xbd293771	-0.04131264
187	0x3d7b1a37	0.061304297
188	0x3e0b7972	0.13620546
189	0xbd9f0daf	-0.07766282
190	0x3e7fe3ea	0.24989286
191	0x3f105e21	0.5639363
192	0x3f1ca70c	0.61192393
193	0x3f177c5d	0.5917414
194	0x3eac6d7c	0.3367728
195	0x3e0f475d	0.13992067
196	0x3e0cb3cb	0.1374046
197	0x3e47420b	0.19458787
198	0x3e59c8d6	0.21268019
199	0xbc2b0416	-0.010437986
200	0x3def166a	0.11674197
201	0xbe586754	-0.21133167
202	0xbeaf63bb	-0.34255776
203	0xbe8b00c4	-0.27149022
204	0x3c06424b	0.008194516
205	0xbe3ed862	-0.18637231
206	0xbf035839	-0.5130649
207	0xbefafeed	-0.49022618
208	0xbf00f842	-0.5037881
209	0xbe2325ad	-0.15932341
210	0xbe167719	-0.1469387
211	0xbd2dfb92	-0.042476244
212	0x3e527d0c	0.20555514
213	0x3d0348a3	0.032051694
214	0xbdc87299	-0.09787483
215	0x3e073aad	0.13205977
216	0x3ef9099b	0.4864014
217	0x3f1ef668	0.62094736
218	0x3f135b64	0.57561326
219	0x3e889507	0.266762
220	0x3ccc03ca	0.02490415
221	0x3e08c791	0.13357379
222	0x3d579664	0.052633658
223	0x3dec3617	0.11533754
224	0x3df86f9f	0.12130665
225	0xbcd2d865	-0.02573795
226	0xbcd37291	-0.025811465
227	0x3d82435c	0.06360504
228	0x3babc1fc	0.0052416306
229	0x3db9a90a	0.09065445
230	0xbd1b04be	-0.03784632
231	0xbd98c757	-0.07459896
232	0x3d541034	0.051773265
233	0xbdd25349	-0.10269792
234	0xbddf3d23	-0.10900333
235	0x3db222ef	0.08698069
236	0xbd4f8862	-0.050667174
237	0xbd9e621f	-0.07733559
238	0xbd756373	-0.059909295
239	0xbdc9a523	-0.098459505
240	0x3d819f2e	0.06329189
241	0xbdb0de8f	-0.086362
242	0xbddb8440	-0.10718584
243	0xbdea86bb	-0.11451479
244	0xbd97cb2d	-0.074117996
245	0x3da68b77	0.081320696
246	0x3d0bcf4c	0.03413324
247	0xbdb84558	-0.08997601
248	0xbd775cde	-0.0603913
249	0xbd1e6836	-0.038673602
250	0x3ced858f	0.02899435
251	0xbdb6a8e9	-0.08918936
252	0xbc82898c	-0.015934728
253	0xbdaa573c	-0.0831742
254	0xbd30283a	-0.043007113
255	0xbdbb95a0	-0.09159398

conv1.bias f4 [6]
0	0xbc55886c	-0.013033014
1	0x3ec70f1a	0.3887871
2	0x3daa22b5	0.08307401
3	0xbd5d2bcc	-0.053996846
4	0x3e61a59e	0.22035834
5	0xbebb761f	-0.36613557

conv2.weight f4 [16, 6, 5, 5]
0	0x3d44bd14	0.04803188
1	0x3e3137e0	0.17306471
2	0xbd1241b1	-0.03570718
3	0xbe1e1fa5	-0.15441759
4	0x3cce1e34	0.025160886
5	0xbd2453e6	-0.040119074
6	0x3e549633	0.20760421
7	0x3e2a6048	0.16638291
8	0xbe0575ec	-0.13033265
9	0xbe7d0abe	-0.24711129
10	0xbe471fae	-0.19445679
11	0xbd21eaa1	-0.0395304
12	0x3ea08ca3	0.31357297
13	0x3e7f6aa7	0.24943028
14	0xbce2c0ee	-0.027679887
15	0xbd821d95	-0.063532986
16	0xbe66a6e6	-0.22524604
17	0xbc9fa874	-0.019489504
18	0x3e3c507a	0.18390074
19	0x3e1926b4	0.1495617
20	0xbe5886d6	-0.21145186
21	0xbd7234ae	-0.05913227
22	0x3c5916e8	0.01325009
23	0x3d8a8c88	0.067650855
24	0x3e8f67dc	0.28008926
25	0x3db96d70	0.09054077
26	0x3c843756	0.016139667
27	0x3cc2c5b9	0.023775922
28	0x3d8f21d3	0.06988873
29	0x3d3de1bb	0.04635785
30	0xbd80990a	-0.0627919
31	0xbdb29f91	-0.08721841
32	0x3b9a5c24	0.004710691
33	0x3db68c12	0.08913435
34	0x3ca0148c	0.019541048
35	0xbdf59e55	-0.1199309
36	0xbd49cbb1	-0.04926652
37	0xbdb3295b	-0.08748122
38	0x3de14ca1	0.11000944
39	0x3d4dc87c	0.050240025
40	0xbd732072	-0.059357114
41	0xbe2357a7	-0.15951405
42	0xbd3200c7	-0.043457773
43	0x3e0ba519	0.13637199
44	0x3dc68fe5	0.096954145
45	0xbdf9c5ae	-0.121959075
46	0xbe0c8b99	-0.13725127
47	0xbdc9c3f6	-0.0985183
48	0x3da97927	0.08275061
49	0xbc9afc18	-0.018919036
50	0xbe07bae7	-0.13254891
51	0xbe02b3f7	-0.12763964
52	0x3d89c799	0.06727523
53	0x3dc1ca8f	0.09462463
54	0x3d9b5f7e	0.07586573
55	0xbd8a8af0	-0.067647815
56	0xbe994469	-0.29935005
57	0xbeac6bcf	-0.33676
58	0xbd8b89f8	-0.06813425
59	0x3d483cc4	0.048886076
60	0x3e7a7cbe	0.24461648
61	0x3d53bc4b	0.051693242
62	0xbec91936	-0.39277047
63	0xbede0f98	-0.43371272
64	0xbc12fa28	-0.008970775
65	0x3e1679b0	0.14694858
66	0x3eb37705	0.35051742
67	0x3e243532	0.16035917
68	0xbe96d560	-0.29459667
69	0xbeadd1ce	-0.3394913
70	0xbe048d9a	-0.12944642
71	0x3e08d918	0.13364065
72	0x3eb290d9	0.34876135
73	0x3e291aba	0.16514102
74	0xbb0eb117	-0.0021773034
75	0xbd29891a	-0.041390516
76	0xbd22d92b	-0.03975789
77	0x3d5dbf9b	0.054137807
78	0xbce5b3e5	-0.028039882
79	0x3d5e5b7f	0.054286476
80	0x3d116732	0.035498805
81	0x3d44b49e	0.048023812
82	0x3d8a089a	0.06739922
83	0xbb876564	-0.0041319598
84	0x3d8f0415	0.069832005
85	0x3a567128	0.0008180314
86	0xbc24b4fd	-0.010052917
87	0xbd022498	-0.03177318
88	0xbd08e573	-0.033421945
89	0xbd42b554	-0.04753621
90	0xbd5d366c	-0.05400698
91	0xbd9915aa	-0.07474835
92	0xbc4cf6b9	-0.012509995
93	0xbcdea16e	-0.027176585
94	0xbc00203a	-0.007820183
95	0xbba8a8b3	-0.0051470636
96	0xbd6d4298	-0.057924837
97	0x3d9eff38	0.07763523
98	0x3d2da706	0.042395614
99	0xbcf2ff31	-0.0296627
100	0x3d7f7081	0.06236315
101	0x3d1b2e68	0.037886053
102	0x3da65a62	0.08122708
103	0x3d3eb8e4	0.046563044
104	0x3d8a5799	0.06754989
105	0x3cc7feee	0.024413552
106	0xbcf601b5	-0.03003011
107	0x3c987727	0.018611504
108	0x3d93514b	0.0719324
109	0x3d8152ed	0.06314645
110	0xbd43866f	-0.047735628
111	0xbe02515d	-0.1272635
112	0xbda8e9e6	-0.082477376
113	0xbc97043c	-0.018434636
114	0xbc8a0e93	-0.016852653
115	0xbc48b611	-0.012250439
116	0xbd1e839e	-0.03869974
117	0xbdd034c8	-0.10166317
118	0xbd04ec40	-0.032451868
119	0xbdd90fc7	-0.105987124
120	0x3e748c8e	0.23881742
121	0x3d5fd009	0.054641757
122	0xbce8218d	-0.02833631
123	0xbc1144f0	-0.008866534
124	0x3d0224d1	0.031773392
125	0xbd9ddb05	-0.0770779
126	0x3e01e865	0.12686308
127	0x3e8330bb	0.25623116
128	0x3e67e0c7	0.2264434
129	0x3e1368b7	0.14395414
130	0xbec9da03	-0.39424142
131	0xbe540549	-0.20705141
132	0x3e3ce867	0.1844803
133	0x3e98a8fe	0.2981643
134	0x3ca3929d	0.019967372
135	0xbe6c6f55	-0.23089345
136	0xbf150d6f	-0.58223623
137	0xbe7c6d66	-0.24651107
138	0x3eb428d5	0.35187402
139	0x3e4eff29	0.20214523
140	0x3dd51a49	0.10405404
141	0xbeb4927e	-0.35268015
142	0xbf07bdab	-0.53023785
143	0x3d1a823a	0.03772185
144	0x3e8b5e13	0.2722021
145	0x3eb644d1	0.35599378
146	0x3e094ca5	0.13408144
147	0xbe734e15	-0.23760255
148	0xbe34ec47	-0.17668258
149	0xbb7cde77	-0.0038584748
150	0xbd1e6ac2	-0.03867603
151	0xbce90013	-0.028442418
152	0xbd8f3e57	-0.06994312
153	0xbdaeae9e	-0.08529399
154	0xbd8773e2	-0.066139
155	0xbd86055e	-0.065439925
156	0x3d89c5e6	0.06727199
157	0xbd6ccc9a	-0.05781231
158	0xbd3113d5	-0.043231804
159	0x3d6052e6	0.054766558
160	0x3d36071e	0.04444038
161	0xbc86181c	-0.016368918
162	0xbb1074e4	-0.0022042328
163	0x3ddb3d1d	0.10705016
164	0x3c2ac00f	0.010421767
165	0xbd10b431	-0.035328094
166	0x3d221a31	0.03957576
167	0x3d94b9b6	0.07261984
168	0xbd8a3f42	-0.06750347
169	0xbd83948d	-0.06424818
170	0x3cec8b0f	0.028874902
171	0xbc798897	-0.015230319
172	0x3c161451	0.009160117
173	0xbc3baba2	-0.011454495
174	0x3cbd0ab2	0.023076389
175	0x3d11020e	0.03540235
176	0xbc7ed074	-0.015552629
177	0xbd478fec	-0.04872124
178	0x3da4973d	0.08036659
179	0x3d95098f	0.07277214
180	0x3c90f930	0.017696947
181	0x3d69ed8b	0.057111304
182	0x3dac9af7	0.08427995
183	0xbd184d80	-0.037183285
184	0x3c2591a8	0.010105528
185	0x3cb1f2a8	0.021722153
186	0xbda5cf62	-0.08096196
187	0xbdc34497	-0.09534567
188	0xbd8fe6a3	-0.07026412
189	0xbd012671	-0.0315308
190	0xbc240e1a	-0.010013128
191	0xbda5ee72	-0.081021205
192	0x3d3fe5d5	0.046850044
193	0xbdaf1792	-0.085494176
194	0xbb396c70	-0.0028293394
195	0xbcc62149	-0.024185793
196	0xbd7e7ea7	-0.062132504
197	0x3d610c60	0.054943442
198	0x3d0e0698	0.034674257
199	0x3ca5d3e3	0.020242637
200	0xbce1eeb9	-0.027579652
201	0x3d4673c4	0.048450246
202	0x3d032fab	0.03202788
203	0x3cfc8848	0.030826703
204	0x3ddcb355	0.10776392
205	0x3d6b24a2	0.057407983
206	0xbd85f875	-0.0654153
207	0x3dae75aa	0.085185364
208	0x3d033569	0.032033358
209	0x3c8f22f7	0.017472727
210	0x3db29c11	0.087211736
211	0x3c8207c7	0.01587285
212	0x3d4d436e	0.050113134
213	0xba74eddc	-0.0009343305
214	0x3d52b7f0	0.051444948
215	0xbd2a929a	-0.041643716
216	0xbd9b25eb	-0.07575592
217	0x3d4237a2	0.047416337
218	0x3d3973da	0.0452765
219	0x3d0124bf	0.031529184
220	0x3e00fd96	0.12596735
221	0x3e27904a	0.16363636
222	0x3e09bafd	0.13450237
223	0x3d931763	0.07182195
224	0x3d9079fa	0.07054515
225	0x3d36cb74	0.04462762
226	0xba6f252c	-0.00091226655
227	0x3b8c0a1c	0.004273666
228	0x3d9a947a	0.07547851
229	0x3d561cbc	0.052273497
230	0xbd81ec79	-0.06343932
231	0x3d12ec2c	0.035869762
232	0xbd8291f4	-0.063754946
233	0x3c8c42dc	0.017121725
234	0x3d04fd84	0.032468334
235	0xbd8133bf	-0.06308698
236	0xbc5c6f31	-0.0134542445
237	0xbd706c88	-0.058697253
238	0x3c222b1b	0.009897972
239	0x3ccadc74	0.024763323
240	0x3d9ea2c1	0.077458866
241	0xbda61efe	-0.0811138
242	0x3d88855f	0.066660635
243	0xbd9d5f72	-0.076842204
244	0xbda33b6f	-0.079703204
245	0x3d026ae7	0.03184023
246	0x3d1a1bae	0.037624054
247	0xbcd33281	-0.025780918
248	0x3c87c6c4	0.016574271
249	0xbcfedf16	-0.031112235
250	0xbd8f419e	-0.06994937
251	0x3d68ab3c	0.056803927
252	0xbd530cce	-0.051525883
253	0x3da6de03	0.08147814
254	0x3d66b74f	0.05632716
255	0xbd8f723f	-0.070042126

conv2.bias f4 [16]
0	0xbd4dfc30	-0.050289333
1	0xbd42f196	-0.047593676
2	0xbc250a55	-0.010073264
3	0xbd6d066a	-0.057867445
4	0x3ed9b435	0.425203
5	0x3d861eb3	0.06548824
6	0x3dca5189	0.09878833
7	0x3f076191	0.5288325
8	0xbe8aec8e	-0.27133602
9	0x3e5894e8	0.21150553
10	0xbf1b1b7c	-0.6058881
11	0x3f04cda9	0.5187631
12	0xbee077ae	-0.43841308
13	0x3e0d1839	0.13778771
14	0xbee7746d	-0.45206013
15	0xbe01fa25	-0.12693079

fc1.weight f4 [120, 400]
0	0xbb4733ef	-0.0030395945
1	0xbd20234a	-0.039096154
2	0xbc3ff3ed	-0.011715871
3	0x3cc18659	0.023623632
4	0xba7c660d	-0.0009628244
5	0x3c80b946	0.015713345
6	0xbd2b5c3b	-0.041836005
7	0xbc81c657	-0.015841646
8	0xbc963497	-0.018335624
9	0x3ce1274a	0.027484555
10	0xbc298459	-0.010346496
11	0xbce534ea	-0.027979333
12	0xbd2e5552	-0.042561837
13	0xbc52d357	-0.01286777
14	0xbd401bc8	-0.046901494
15	0xbbe7066c	-0.007050326
16	0xbd372731	-0.04471511
17	0xbc0dc2e9	-0.008652427
18	0x3ba86b21	0.005139724
19	0xbd27ae71	-0.040937845
20	0x3d0c603b	0.03427146
21	0xbc93999a	-0.018017579
22	0x3d0de8fb	0.034646016
23	0xbcb57346	-0.022149693
24	0x3cfbce41	0.030737998
25	0x3cc1ead9	0.023671554
26	0xbcab7376	-0.02092908
27	0x3c438891	0.011934415
28	0xbc7ac23b	-0.015305097
29	0xbc1954c9	-0.009358593
30	0x3d15b4ec	0.036549494
31	0x3cc05250	0.02347675
32	0xbd217a03	-0.039423
33	0x3d4e08f8	0.050301522
34	0xbcabf693	-0.0209916
35	0xbbdf7d7d	-0.0068203793
36	0x3c817551	0.015803011
37	0x3c171f90	0.009223834
38	0xbd16b587	-0.03679421
39	0x3d532dc0	0.051557302
40	0x3c6bac3c	0.014384326
41	0x3cdc4833	0.026889896
42	0x3d04a7ce	0.032386594
43	0x3cac48d5	0.021030823
44	0x3d1c0d1d	0.038098443
45	0x3d32da96	0.04366549
46	0xbd3a3166	-0.045457266
47	0x3c45e62f	0.012078806
48	0xbcf1702f	-0.029472439
49	0x3bfe5bd6	0.0077624125
50	0xbcc6f87d	-0.02428841
51	0xbd4849a0	-0.04889834
52	0x3bddff4f	0.00677482
53	0x3c07f1d1	0.0082974
54	0xbbc2a7a3	-0.005940394
55	0x3cb185a5	0.021670172
56	0xbc57f95d	-0.013182011
57	0x3c91b619	0.017787026
58	0xbc55b959	-0.013044679
59	0x3cde89c8	0.027165309
60	0xb9af6637	-0.00033454757
61	0x3d2634c3	0.04057766
62	0xbd1a1509	-0.037617717
63	0xbc809395	-0.015695373
64	0x3badb159	0.0053006825
65	0x3cddc62f	0.02707204
66	0xbc602f60	-0.01368317
67	0xbb859fd2	-0.00407789
68	0xbc89dce5	-0.016828964
69	0x3d424a69	0.047434244
70	0xbd2a679b	-0.041602712
71	0xbd13162f	-0.035909828
72	0x3c498449	0.012299606
73	0xbada578e	-0.0016658173
74	0xbca4e0ac	-0.020126663
75	0xbd295adb	-0.041346412
76	0xbd61a81a	-0.055091955
77	0x3bf74d33	0.0075470447
78	0xbd28a214	-0.041170195
79	0xbd9a4762	-0.075331464
80	0x3cbcc91d	0.023045117
81	0xbd6aa0a5	-0.05728211
82	0x3c8f29a0	0.017475903
83	0xbceddc01	-0.02903557
84	0x3cd398b5	0.025829652
85	0xbc4070d0	-0.011745647
86	0x3b2d59f4	0.0026451321
87	0x3c3d3e57	0.0115505075
88	0x3d222d79	0.039594147
89	0x3ca643af	0.020295946
90	0x3d4ea2c8	0.05044821
91	0xbcc3952f	-0.023874847
92	0xbc0b3873	-0.008497345
93	0xbc537f9d	-0.012908843
94	0xbcb8caf5	-0.022557715
95	0x3d1fea08	0.03904155
96	0xbd13ae3d	-0.03605484
97	0xbc29f3e2	-0.010373088
98	0x3c769987	0.015051252
99	0x3d076825	0.033058304
100	0xbcdc09a4	-0.026860066
101	0xbb2f2985	-0.0026727628
102	0xbd80ba7b	-0.06285568
103	0xbd83593d	-0.06413505
104	0xbd002d6f	-0.03129333
105	0xbbec91f4	-0.0072195474
106	0xbd95d872	-0.07316674
107	0xbd7749d4	-0.060373142
108	0xbd61a018	-0.055084318
109	0xbcba5787	-0.022746814
110	0xbc6e58ff	-0.0145475855
111	0x3c33df8b	0.01097859
112	0x3ad495de	0.001621898
113	0xbd871bdc	-0.06597111
114	0xbd952ddf	-0.0728414
115	0x3c734598	0.014848135
116	0xbc1365ed	-0.008996469
117	0xbd19ab68	-0.03751698
118	0xbc9ebdd6	-0.01937763
119	0xbd9dc298	-0.077031314
120	0xbd806132	-0.062685385
121	0xbcc8a35b	-0.024491956
122	0x3c2fb6c5	0.010724728
123	0xbd7d0262	-0.06176985
124	0xbd7e864b	-0.06213979
125	0xbd3a322d	-0.045458008
126	0x3cf700f1	0.030151816
127	0xbc1cff63	-0.009582373
128	0xbc2d788a	-0.010587821
129	0xbd7436d5	-0.059622604
130	0xb8d90b42	-0.00010349463
131	0x3d77c56f	0.06049102
132	0xbc5f5bc4	-0.0136327185
133	0xbd4333cb	-0.047656815
134	0x3d1a0d33	0.037610244
135	0x3d48eef8	0.049056023
136	0xbbd0f7ac	-0.006377181
137	0xbb2d8c19	-0.002648121
138	0xbcc76409	-0.024339693
139	0x3d48e20c	0.0490437
140	0xbcf66375	-0.030076722
141	0xb9b457c8	-0.00034397678
142	0x3a9eacb4	0.0012105913
143	0x3cb24287	0.021760238
144	0xbd068e09	-0.0328503
145	0xbd08efaf	-0.033431705
146	0x3d31d55c	0.043416366
147	0xbb3c2f38	-0.0028714668
148	0x3bed3330	0.007238768
149	0xbd0f29ad	-0.034951854
150	0xbc842c2f	-0.01613435
151	0xbc069e38	-0.008216433
152	0xbcb731b8	-0.022362575
153	0x3c0590be	0.008152185
154	0xbd366b62	-0.044536002
155	0x3cbcee77	0.023062928
156	0xbd8b4265	-0.06799773
157	0xbd584e46	-0.052809022
158	0xbbca4fb4	-0.006174052
159	0xbd9045e1	-0.07044578
160	0xbc859c39	-0.016309844
161	0xbcbb2fb4	-0.022849895
162	0xbc96af2b	-0.018394073
163	0x3b8772f5	0.004133577
164	0xbd9eae86	-0.077481315
165	0x3c649a14	0.013952751
166	0x3d867f43	0.06567242
167	0xbb7e8fee	-0.0038843113
168	0xbd9d57b3	-0.07682743
169	0xbc9d8549	-0.019228594
170	0x3b12feda	0.0022429735
171	0x3bf1f826	0.007384318
172	0xbd17353a	-0.036915995
173	0xbd889327	-0.06668692
174	0x3c78f2fe	0.015194653
175	0xbd08629f	-0.033297177
176	0x3cf58f5b	0.029975584
177	0xbd360afa	-0.04444406
178	0xbd46751d	-0.04845153
179	0x3d3fb510	0.046803534
180	0x3d121928	0.035668522
181	0xbc474a67	-0.012163735
182	0x3d362738	0.044470996
183	0x3cc3d7ca	0.023906607
184	0xbc1fc980	-0.009752631
185	0x3b1a59c7	0.0023552047
186	0x3d985260	0.07437587
187	0x3c3a7540	0.011380494
188	0x3b323255	0.0027190645
189	0x3d53d7c6	0.05171945
190	0x3ca7b1b1	0.020470472
191	0x3da9fd95	0.0830032
192	0x3d12dd08	0.035855323
193	0x3d8f2757	0.06989925
194	0x3d801007	0.06253057
195	0x3d19eca1	0.037579183
196	0x3dc4bffe	0.09606932
197	0x3db985f4	0.09058753
198	0x3d767ac5	0.060175676
199	0x3d58bbb2	0.052913375
200	0xbcf03227	-0.02932079
201	0x3ccd2371	0.025041314
202	0xbd9b1320	-0.07572007
203	0x3c941b78	0.018079504
204	0x3cd1e7a8	0.025623158
205	0xbcb68137	-0.022278411
206	0xbc67c653	-0.014146405
207	0x3a616f6f	0.0008599674
208	0xbc071e8b	-0.008247028
209	0x3c22ca4b	0.009935926
210	0x3d2e8ac8	0.04261282
211	0x3d115bdf	0.035488006
212	0x3d174310	0.03692919
213	0x3d2898f9	0.04116151
214	0x3d4ac8f4	0.04950805
215	0xbd2034bb	-0.039112788
216	0xbd45d23d	-0.048296202
217	0xbcdf41a6	-0.027252983
218	0xbda1239a	-0.078681186
219	0xbd5292e5	-0.05140962
220	0xbbf936f1	-0.0076054265
221	0x3bc43a56	0.0059883995
222	0xbd9f7038	-0.07785076
223	0xbce7597a	-0.028240908
224	0xbc9d5b35	-0.01920853
225	0xbc728ecf	-0.014804556
226	0xbd6032aa	-0.054735817
227	0xbd4359b8	-0.047692984
228	0xbcc5161b	-0.024058392
229	0xbd31cd14	-0.04340847
230	0xbd4a6be1	-0.049419288
231	0xbc3ae5f7	-0.011407367
232	0x3d1f9177	0.038957085
233	0x3c904c03	0.01761437
234	0xbc1bb868	-0.009504415
235	0xbac9ff7c	-0.0015411223
236	0x3d0e33ad	0.03471725
237	0x3c0c9ada	0.008581841
238	0xba5704c1	-0.00082023075
239	0xbd8f0f4a	-0.06985338
240	0x3c32bc9c	0.010909226
241	0x3ca675cb	0.02031984
242	0xbc1e12dd	-0.009648052
243	0x3ce6427b	0.028107872
244	0x3c5d88eb	0.013521413
245	0xbc1b7fda	-0.009490931
246	0xbc38ba59	-0.0112748975
247	0xbc8eb99b	-0.017422488
248	0x3d45722d	0.04820459
249	0xbcc40290	-0.023927003
250	0x3d7cd992	0.06173093
251	0xbc90dc7a	-0.017683256
252	0xbd234850	-0.039863884
253	0x3b8aa4f4	0.0042310897
254	0xbcdeab67	-0.02718134
255	0x3d520bbf	0.051280733

fc1.bias f4 [120]
0	0x3c16af94	0.0091971345
1	0x3d299ea5	0.04141106
2	0x3e2bc5ce	0.16774675
3	0xbe0a8d57	-0.1353048
4	0xbd26f4ed	-0.040760923
5	0x3c8822a4	0.01661808
6	0x3b8d329d	0.004309012
7	0x3d03fa7e	0.03222131
8	0x3e447980	0.19186974
9	0xbc5b9fe6	-0.013404822
10	0x3d1cd110	0.038285315
11	0xbd7bdd3e	-0.06149029
12	0x3c6f39a8	0.014601149
13	0x3d5c2d0c	0.053753898
14	0xbc0ad52d	-0.008473677
15	0xbcc9e326	-0.024644446
16	0x3cabfe9b	0.020995429
17	0x3d24ed12	0.04026515
18	0xbb107e09	-0.002204778
19	0x3d539240	0.051653147
20	0x3df9fca7	0.12206393
21	0x3cd606ca	0.026126284
22	0x3cdb7684	0.026789911
23	0xbc993ba1	-0.018705191
24	0xba23b60a	-0.00062450825
25	0xbd5862ea	-0.052828707
26	0xbd380b3b	-0.044932585
27	0x3b873422	0.0041260878
28	0xbe29e93f	-0.16592883
29	0x3d0b9c53	0.03408463
30	0x3b1369c4	0.002249346
31	0x3e40df26	0.18835124
32	0x3e03088c	0.12796229
33	0x3c37454d	0.011185956
34	0xbd6ed874	-0.058311895
35	0xbc1d0e84	-0.00958598
36	0xbd42e349	-0.047580037
37	0x3c1ca5b7	0.009560994
38	0x3caa1cf6	0.020765763
39	0x3d0bb064	0.034103766
40	0xbd076f00	-0.033064842
41	0x3aed0ffd	0.001808643
42	0x3c9e4e47	0.019324435
43	0xbd3b5bcd	-0.045741845
44	0x3dc574f8	0.09641451
45	0x3bb2d5ad	0.005457601
46	0x3d7cfc94	0.061764315
47	0x3dc7792f	0.09739911
48	0x3d47c47c	0.048771366
49	0xbd36a9b6	-0.044595443
50	0x3dc9ef3c	0.098600835
51	0x3c0301bc	0.007996019
52	0x3da2f341	0.07956553
53	0x3d818f01	0.06326104
54	0xbb449d69	-0.003000105
55	0xbbe4bbde	-0.0069804033
56	0xbde7bf67	-0.11315804
57	0x3daee49f	0.085397
58	0xbcf2f5d0	-0.029658228
59	0x3babc3da	0.005241853
60	0x3d42f31f	0.04759514
61	0xbb90e224	-0.0044214893
62	0xbc837e06	-0.016051304
63	0x3d5bc023	0.053650033
64	0x3dce2dd6	0.10067336
65	0xbb93c9a9	-0.0045101237
66	0x3dc725b9	0.09723992
67	0x3d8ae60c	0.06782159
68	0x3c23c996	0.009996792
69	0x3c6468c4	0.013940994
70	0x3d22eb99	0.039775465
71	0xbcef2d6c	-0.029196464
72	0x3dd809f5	0.10548774
73	0x3cb94c26	0.022619318
74	0x3db3f81e	0.08787559
75	0xbd06c30b	-0.03290085
76	0xbba8745b	-0.005140824
77	0xbd811268	-0.06302339
78	0xbd9754e0	-0.073892355
79	0xbd36084d	-0.04444151
80	0x3d2a25ef	0.041540083
81	0xbc4ae856	-0.012384495
82	0x3cc82815	0.024433175
83	0x3dd78c2f	0.10524785
84	0xbe14fada	-0.14548817
85	0x3e2a7bac	0.1664874
86	0xbe336696	-0.17519602
87	0xbd8e936a	-0.06961711
88	0xbce510ad	-0.027962053
89	0x3a30e4a3	0.0006747937
90	0x3e21588c	0.15756434
91	0xbd413368	-0.047168165
92	0xbd326212	-0.04355056
93	0x3c9f2ffd	0.019432062
94	0xbb963a75	-0.0045846053
95	0x3d6f8730	0.058478534
96	0x3e19ad62	0.15007547
97	0x3e2e591d	0.17026182
98	0x3da438ef	0.08018672
99	0xbd69b031	-0.057052795
100	0xbd0d56c9	-0.034506593
101	0x3d3586fb	0.04431818
102	0xbd92fc9d	-0.071770884
103	0x3e325505	0.17415245
104	0x3ce93804	0.028469093
105	0x3cd264c6	0.025682818
106	0xbd2f25e4	-0.042760745
107	0xbca80cac	-0.020513855
108	0xbd3dd3e5	-0.046344656
109	0x3cfc45c1	0.03079498
110	0x3ddfef02	0.10934259
111	0x3b8777ec	0.004134169
112	0x3dde4c6e	0.108544216
113	0x3e320764	0.17385632
114	0x3c573fc7	0.013137764
115	0xbcbc6aad	-0.023000086
116	0xbc2f6f9c	-0.010707762
117	0xbc407ece	-0.011748983
118	0xbd954b45	-0.07289747
119	0xbcac6308	-0.021043316

fc2.weight f4 [84, 120]
0	0xbd57f548	-0.052724153
1	0xbd1c6dff	-0.038190838
2	0xbd83bfb0	-0.06433046
3	0xbb91ab71	-0.0044454862
4	0xbdc267fe	-0.09492491
5	0x3db029b8	0.08601707
6	0xbd86fb88	-0.065909445
7	0xbdb27701	-0.087141044
8	0x3e329f7d	0.17443652
9	0x3cdc63bc	0.026903026
10	0x3d3c51b8	0.04597637
11	0xbc89e681	-0.016833546
12	0x3bd9d74e	0.006647981
13	0x3df27b90	0.11839974
14	0xbd852fc8	-0.06503254
15	0xbd670770	-0.056403577
16	0x3d7225e4	0.059118167
17	0x3d0df003	0.03465272
18	0x3c0e67c8	0.008691736
19	0x3dd36b3e	0.10323189
20	0x3c222c1c	0.009898212
21	0xbb0511c7	-0.0020304786
22	0x3de4f108	0.111787856
23	0x3d34cb5c	0.04413925
24	0x3e37edaf	0.17961763
25	0x3d5c6de6	0.053815745
26	0xbdc17add	-0.094472624
27	0x3d43cafa	0.047800995
28	0xbcba1281	-0.022713901
29	0xbdade951	-0.08491767
30	0x3dc1560d	0.09440241
31	0xbd3da342	-0.046298273
32	0x3dda48ee	0.106584415
33	0xbc8390e9	-0.01606031
34	0xbdeaff2b	-0.11474451
35	0x3d5b1b46	0.053492807
36	0xbdaf4184	-0.08557418
37	0xbdc980a5	-0.0983899
38	0x3cb6fe99	0.022338198
39	0xbd804dd8	-0.062648475
40	0x3d8b5acc	0.068044275
41	0x3cbb0559	0.022829698
42	0x3cca039f	0.02465993
43	0xbdb13786	-0.086531684
44	0x3d1f6fb8	0.038924903
45	0xbd1d1154	-0.038346604
46	0xbcfa074f	-0.030521063
47	0x3d1995a8	0.03749624
48	0xbd6113b5	-0.054950435
49	0xbcb9194d	-0.022595072
50	0xbcd42c7e	-0.025900122
51	0x3d553e9d	0.052061666
52	0xbd1b85bf	-0.037969347
53	0x3b3bd547	0.0028661059
54	0x3d5aae93	0.053389143
55	0xbd78bd0c	-0.060727164
56	0xbdac0fe2	-0.08401467
57	0xbcd3e3a2	-0.02586538
58	0x3d21447b	0.03937195
59	0xbd9db5da	-0.07700701
60	0x3d85b493	0.065285824
61	0x3d94b643	0.07261326
62	0x3c9078f2	0.017635796
63	0xbd7c3fdb	-0.061584335
64	0xbe1576fc	-0.1459617
65	0xbd65bc6a	-0.05608789
66	0x3d0f2b3b	0.034953337
67	0x3a9a12cb	0.0011754868
68	0x3c66da78	0.014090173
69	0x3c98bd27	0.018644882
70	0xbda06cbb	-0.07833239
71	0xbd83b65a	-0.06431265
72	0x3ca1f478	0.019769892
73	0xbcafa295	-0.02143983
74	0xbda15ba0	-0.07878804
75	0xbe186be5	-0.14884908
76	0xbdfd9f4c	-0.12383899
77	0xbc9127a2	-0.017719094
78	0xbcbba5b5	-0.022906164
79	0xbd6b2faa	-0.057418503
80	0x3df46360	0.11933017
81	0x3dafcc2f	0.08583867
82	0xbd0d2d0a	-0.03446678
83	0x3d587c91	0.05285317
84	0x3dbddaea	0.0927027
85	0xbcf72308	-0.030168071
86	0x3c43fabc	0.011961635
87	0xbb2568ff	-0.0025239585
88	0x3d910e10	0.0708276
89	0x3d503798	0.05083427
90	0xbc953a9c	-0.018216424
91	0x3d1a2ab4	0.03763838
92	0x3a7e0896	0.00096906105
93	0xbd788cb5	-0.060681064
94	0xbe0625e8	-0.13100398
95	0x3d905f82	0.07049467
96	0x3c6b824c	0.014374327
97	0x3d6df9f7	0.058099713
98	0x3c7a4052	0.015274124
99	0x3caf0f7f	0.021369694
100	0x3c46b36d	0.012127739
101	0x3c83d409	0.016092317
102	0xbdd18172	-0.10229768
103	0x3da47cb8	0.08031601
104	0xbd0622e9	-0.032748137
105	0x3d821fce	0.063537225
106	0xbd145356	-0.036212288
107	0xbd9de5d2	-0.0770985
108	0xbe048fb2	-0.1294544
109	0xbde3c270	-0.111210704
110	0xbcdb2774	-0.026752211
111	0xbde1291c	-0.10994169
112	0x3e078395	0.13233788
113	0xbd4442e0	-0.04791534
114	0xbd84240b	-0.06452187
115	0x3c8803c3	0.016603356
116	0x3c33ddc7	0.010978169
117	0xbb9fcdf2	-0.0048768455
118	0xbc3b48c9	-0.011430928
119	0x3dcf5316	0.10123269
120	0xbcd18563	-0.025576299
121	0x3bddabbc	0.006764857
122	0x3dff4249	0.12463815
123	0x3dac5731	0.08415068
124	0xbdbd771b	-0.09251233
125	0xbd2b27f8	-0.041786164
126	0x3c0b5dd4	0.008506257
127	0xbc69ee28	-0.014277972
128	0x3c827989	0.015927093
129	0xbb24304e	-0.0025053206
130	0x3e10a93a	0.14127055
131	0x3c981a85	0.018567333
132	0x3c280498	0.0102550015
133	0x3da9b3c3	0.0828624
134	0xbda623a6	-0.08112268
135	0xbc7520f9	-0.014961475
136	0xbdd899db	-0.105762206
137	0x3d6757de	0.05648028
138	0xbd845d47	-0.06463104
139	0xbd57e42a	-0.05270783
140	0x3d1bc00c	0.038024947
141	0x3d6cd236	0.05781766
142	0xbdd41e8f	-0.10357391
143	0xbd3667a6	-0.04453244
144	0xbdc4347a	-0.095803216
145	0xbbbe5bc1	-0.0058092778
146	0x3ab1a4b3	0.0013553113
147	0xbe2aff38	-0.1669892
148	0x3d880bed	0.066429
149	0xbd7c2bf5	-0.06156536
150	0x3dbaf6df	0.09129118
151	0x3e24123b	0.1602258
152	0x3d8d4fc2	0.06899978
153	0xbc147dbc	-0.009063181
154	0x3d890eea	0.06692298
155	0xbd55ca75	-0.05219503
156	0x3d294e25	0.04133429
157	0x3df731af	0.12070023
158	0xbd82f15c	-0.06393692
159	0x3d589361	0.052874926
160	0x3d5cdc44	0.053921
161	0x3b09ad9b	0.0021008018
162	0xbd69ec6d	-0.05711024
163	0x3d4c8943	0.04993559
164	0x3d3d8f5c	0.046279296
165	0x3d634adc	0.055491313
166	0xbd823f9c	-0.06359789
167	0x3dc1c53a	0.09461446
168	0xbc92bb7d	-0.017911667
169	0xbd9c0eae	-0.076199874
170	0x3caa508f	0.020790366
171	0x3c93337c	0.017968886
172	0xbd2376f1	-0.039908353
173	0x3c566875	0.013086428
174	0x3cf36637	0.029711826
175	0xbc2926ef	-0.010324224
176	0x3d257898	0.04039821
177	0x3b8c5614	0.0042827222
178	0xbdc3762e	-0.09544025
179	0xbd56a8d6	-0.05240711
180	0xbd72533b	-0.059161406
181	0x3c69669d	0.014245656
182	0x3d26509e	0.040604226
183	0xbd25237a	-0.040317036
184	0x3d399e45	0.045316953
185	0x3d8f2deb	0.0699118
186	0xbd4d7d29	-0.05016819
187	0x3b54c36f	0.003246512
188	0x3e37fcd6	0.17967543
189	0x3d736dd9	0.05943093
190	0x3c9a3230	0.01882276
191	0x3d84acba	0.064782575
192	0xbd7e381a	-0.06206522
193	0x3cf09619	0.029368447
194	0x3dcf1382	0.10111143
195	0xbdb7e742	-0.08979656
196	0x3d6e3483	0.058155548
197	0xbd12dc3d	-0.035854567
198	0xbd8269bb	-0.06367823
199	0xbd546e14	-0.05186279
200	0xbc9abfae	-0.018890228
201	0x3c8a72fb	0.01690053
202	0x3decbb62	0.11559178
203	0xbd026b31	-0.031840507
204	0xbd774d02	-0.060376175
205	0x3d2e8700	0.042609215
206	0xbe0a1b6b	-0.13487022
207	0x3d844cbf	0.06459951
208	0x3d9de9b1	0.07710589
209	0xbd68ee2c	-0.056867763
210	0x3c26b39e	0.01017466
211	0xbda7cff0	-0.08193958
212	0xbd888d0b	-0.06667527
213	0xbd137ce8	-0.03600779
214	0xbdc6b1ef	-0.09701907
215	0xbe1ba12f	-0.15198205
216	0x3d4cfbdc	0.05004488
217	0xbd13d678	-0.036093205
218	0x3ded2b62	0.1158054
219	0xbd75020b	-0.0598164
220	0xbd6fd79b	-0.058555227
221	0xbd83b482	-0.064309135
222	0x3d0884ea	0.03332988
223	0x3da88790	0.082289815
224	0xbe205979	-0.15659131
225	0x3d6bfa28	0.057611614
226	0xbd4d87fb	-0.05017851
227	0xbd7f0905	-0.06226446
228	0x3d107206	0.03526499
229	0x3ddb9096	0.10720937
230	0xbbd9c2b8	-0.0066455267
231	0x3dab54b6	0.08365767
232	0xbb7a8b0f	-0.0038229858
233	0x3dc28c90	0.094994664
234	0x3cf87da4	0.030333348
235	0xbe4a9887	-0.19784747
236	0xbe15d60f	-0.14632438
237	0x3dc5bfe2	0.09655739
238	0x3cf4793b	0.029842963
239	0xbbff315b	-0.007787866
240	0x3dbb32eb	0.09140571
241	0xbca94ae3	-0.020665592
242	0xbd664851	-0.05622131
243	0x3db24f03	0.087064765
244	0x3d5cc97f	0.0539031
245	0x3d520c8b	0.051281493
246	0x3d612a45	0.054971952
247	0x3bca96a1	0.006182507
248	0xbdae983e	-0.08525132
249	0x3b71996f	0.0036865135
250	0x3b4d8666	0.0031360625
251	0x3dcca9e7	0.09993344
252	0xbdade367	-0.08490639
253	0x3d52a819	0.05142984
254	0x3d7b63e4	0.06137456
255	0x3daf9cd1	0.08574832

fc2.bias f4 [84]
0	0xbb57d0ec	-0.0032930924
1	0x3e25bb3c	0.16184705
2	0xbdcd1a5d	-0.10014794
3	0xbd10f2be	-0.035387747
4	0x3e2b1a64	0.16709286
5	0x3c5c5096	0.013446948
6	0xbb93908e	-0.0045033162
7	0x3dda6e4c	0.10665569
8	0x3dcd93ae	0.10037933
9	0x3e64b697	0.22335277
10	0xbd31c549	-0.043401036
11	0xbd82e778	-0.063918054
12	0x3e8d9ecf	0.27660224
13	0xbd543337	-0.051806655
14	0xbd9681da	-0.07348986
15	0xbcff62f7	-0.03117512
16	0xbcd6f381	-0.026239159
17	0x3de20f3e	0.110380635
18	0xbd84e23d	-0.06488464
19	0xbda05bf1	-0.078300364
20	0xbcb559e2	-0.022137586
21	0xbd17d7e5	-0.037071127
22	0x3d6d80a0	0.057983994
23	0xbdedeee7	-0.11617833
24	0x3e3ff2c7	0.18744956
25	0x3e226580	0.15859032
26	0x3e2c1df9	0.16808309
27	0x3d4349e1	0.04767788
28	0x3e1c8ceb	0.15288131
29	0xbc33086c	-0.010927301
30	0x3ac5567b	0.001505568
31	0xbd1031c6	-0.035203718
32	0xbda61f21	-0.08111406
33	0x3e57d6a0	0.21077967
34	0xbe2006cf	-0.15627597
35	0x3dae2b03	0.085042976
36	0x3e99b971	0.30024293
37	0x3dd6fbba	0.10497232
38	0xbbbb259a	-0.0057112696
39	0xbdc5bd53	-0.09655251
40	0xbd821069	-0.06350786
41	0x3dfe7d86	0.124262854
42	0xbd9ff3f3	-0.078102015
43	0xbd4dc15c	-0.05023323
44	0xbd3af6b3	-0.045645427
45	0xbe16cfe2	-0.14727738
46	0xbd8206a2	-0.06348921
47	0xbae44786	-0.0017416335
48	0xbd848ee1	-0.064725645
49	0xbd1e1e32	-0.038603015
50	0x3e0fdbf9	0.14048757
51	0xbd06c159	-0.032899234
52	0xbcf9639e	-0.030443009
53	0x3e21cafc	0.15800089
54	0xbdb39f72	-0.08770646
55	0x3d4a97d4	0.0494612
56	0x3ca8aee2	0.020591203
57	0x3d8eb378	0.06967825
58	0xbbebce8c	-0.007196253
59	0x3c6137fc	0.013746258
60	0x3e7ae0d4	0.24499828
61	0xbd3054d0	-0.043049634
62	0x3a033d06	0.00050063466
63	0x3e27b5cf	0.16377948
64	0xbcfae00d	-0.030624414
65	0x3e958fd0	0.29211283
66	0xbd4e0ea4	-0.05030693
67	0xbe0d3424	-0.13789421
68	0x3e976cb9	0.29575136
69	0x3e72ef8b	0.23724191
70	0xbd257d6f	-0.040402826
71	0x3d933e46	0.07189612
72	0x3e295c4e	0.16539118
73	0xbc6c01ef	-0.014404758
74	0x3c815d87	0.015791668
75	0x3ed68dea	0.41905147
76	0x3e2d7546	0.16939268
77	0xbd282508	-0.04105094
78	0x3c18b613	0.009320754
79	0xbcb7a9a0	-0.02241975
80	0x3c0fa5c5	0.00876755
81	0xbd9814a9	-0.074258156
82	0x3d862b50	0.0655123
83	0xbdba4d03	-0.0909672

fc3.weight f4 [10, 84]
0	0xbd9d44a5	-0.076791085
1	0xbe7b1fa9	-0.24523796
2	0x3c29bce5	0.010359977
3	0x3e259c41	0.16172887
4	0xbdbe3117	-0.09286707
5	0xbd93fed5	-0.0722634
6	0xbe0ef2f6	-0.1395987
7	0xbc586bcc	-0.0132092945
8	0x3d3e64a9	0.046482716
9	0xbe969716	-0.29412144
10	0xba493ef3	-0.00076769217
11	0xbdacad76	-0.084315225
12	0xbe8ddd41	-0.27707866
13	0x3ed833ec	0.42227113
14	0x3e66bffc	0.22534174
15	0xbd01f55d	-0.031728137
16	0x3cd0c944	0.025486596
17	0x3e695d77	0.2278956
18	0x3e9dfeb8	0.30858397
19	0x3d5cb3b0	0.0538823
20	0x3e1b2c23	0.15153556
21	0x3e3b1b5b	0.18272154
22	0x3ea220e9	0.31665733
23	0xbbe89879	-0.0070982543
24	0xbd962fd2	-0.0733334
25	0x3eade7d4	0.33965933
26	0x3e1ffd39	0.1562394
27	0xbdb67a9a	-0.08910103
28	0x3e19b3ae	0.15009949
29	0xbd195737	-0.03743669
30	0x3ea09f8a	0.3137172
31	0x3eab89a5	0.33503452
32	0x3e852639	0.26005724
33	0xbe1f7a52	-0.15574005
34	0xbdf76a6e	-0.12080847
35	0xbdfe1a7e	-0.12407397
36	0xbed1f49c	-0.41006935
37	0xbdbfa5af	-0.093577735
38	0x3da02e43	0.07821324
39	0x3ef46fa1	0.47741416
40	0x3d6cc420	0.057804227
41	0xbe2d267e	-0.16909215
42	0x3ea75c84	0.3268777
43	0xbdb7e5ef	-0.08979403
44	0x3e1f7b8b	0.15574472
45	0x3ea897e0	0.3292837
46	0xbda8d391	-0.08243478
47	0x3dab2ce9	0.08358175
48	0xbb87e9b0	-0.004147731
49	0x3b92db0b	0.0044816784
50	0xbe4c2d38	-0.19939125
51	0x3cc053c0	0.023477435
52	0x3cd4e666	0.025988769
53	0x3da3759b	0.07981416
54	0xbdf7b712	-0.12095465
55	0xbe93c9ad	-0.28864804
56	0xbb9ff047	-0.004880938
57	0x3e4ae2da	0.198131
58	0x3da12ffa	0.07870479
59	0x3b3d4a4e	0.00288834
60	0x3cb0c3c1	0.021577718
61	0x3e7eb725	0.24874552
62	0x3d959ff9	0.07305903
63	0x3e4be966	0.19913253
64	0xbd14be13	-0.03631408
65	0xbd0c8c8d	-0.034313727
66	0x3cc3b8ad	0.023891771
67	0xbdbe6c1f	-0.09297966
68	0xbee30189	-0.4433711
69	0x3e2618b3	0.1622036
70	0x3ea4df53	0.32201633
71	0xbd6c8c1c	-0.057750806
72	0x3da6245c	0.08112404
73	0xbde42874	-0.11140528
74	0x3dfef025	0.12448148
75	0xbe265497	-0.16243206
76	0xbcda4aeb	-0.026647052
77	0xbda405cb	-0.080089174
78	0xbdc8a6d8	-0.09797448
79	0x3e87b3b8	0.26504302
80	0x3dba53f4	0.09098044
81	0xbc67825b	-0.0141302
82	0xbe5f7e70	-0.21825576
83	0xbe096866	-0.13418731
84	0x3dd321b6	0.10309164
85	0xbe19eaa3	-0.15030913
86	0x3e65a223	0.22425131
87	0x3ca53859	0.02016847
88	0xbe756034	-0.2396248
89	0xbe2fb372	-0.17158297
90	0x3b63f6fc	0.0034784665
91	0xbe151a82	-0.14560893
92	0x3d1019fe	0.035181038
93	0x3e8e8161	0.27833083
94	0x3e00bd5d	0.12572236
95	0xbe9791bb	-0.2960337
96	0x3e2a8b67	0.1665474
97	0xbe3cebbf	-0.18449305
98	0xbe3f8869	-0.1870438
99	0x3d57a74d	0.052649785
100	0xbd7a3c16	-0.06109246
101	0xbead37a4	-0.33831513
102	0x3ebd19e9	0.3693383
103	0x3e120420	0.14259386
104	0xbd5bcd90	-0.053662837
105	0xbe95cef1	-0.29259446
106	0xbb054bc5	-0.0020339352
107	0xbe0ab0dc	-0.13544029
108	0x3e0866be	0.13320443
109	0x3d49733f	0.049182173
110	0xbe4a470b	-0.19753663
111	0x3d630fa0	0.055434823
112	0xbe9d281b	-0.3069466
113	0x3c3917ab	0.011297147
114	0xbc929f6e	-0.017898288
115	0xbe1b3764	-0.15157849
116	0xbd19c9d9	-0.037546013
117	0xbe906891	-0.28204778
118	0x3e2f9cbf	0.17149638
119	0xbd8e27e7	-0.069412045
120	0xbe334eff	-0.17510603
121	0xbea39b3d	-0.31954375
122	0xbdd6f434	-0.10495797
123	0x3d1bd4b1	0.038044635
124	0xbe9785d9	-0.29594305
125	0xbe211a78	-0.15732753
126	0x3d3b7426	0.045765065
127	0xbca68cda	-0.020330835
128	0xbcff27f2	-0.031146977
129	0x3e31714d	0.17328377
130	0xbbf7632d	-0.0075496645
131	0x3f041d1f	0.51606935
132	0x3b959f9a	0.004566145
133	0x3e5ca464	0.21547085
134	0xbe090cd7	-0.13383804
135	0xbd2d50aa	-0.042313255
136	0x3e8fc366	0.28078765
137	0xbe66d05f	-0.22540425
138	0xbdc6b825	-0.097030915
139	0xbd7f272e	-0.062293224
140	0x3befbb83	0.0073160543
141	0xbd8c5742	-0.068525806
142	0x3d66459b	0.056218725
143	0xbd833a52	-0.06407608
144	0x3d8547dc	0.06507847
145	0xbdcd0e9b	-0.100125514
146	0xbd282ebd	-0.041060198
147	0xbde6d584	-0.112711936
148	0x3e497e01	0.19676973
149	0xbe9189b1	-0.28425363
150	0xbd9562f8	-0.072942674
151	0x3d8859ad	0.06657729
152	0xbc8ee3fa	-0.017442692
153	0x3dedc52e	0.11609875
154	0x3ee94cba	0.4556635
155	0xbc0cc907	-0.0085928505
156	0x3d23a7a5	0.0399548
157	0x3d072f3d	0.033004034
158	0xbdb83892	-0.08995165
159	0xbe698dee	-0.22808048
160	0x3e6eb6b3	0.23311882
161	0x3d9f1823	0.077682756
162	0x3de07fb6	0.10961859
163	0xbe16cd8c	-0.14726847
164	0x3ee1e23c	0.44117916
165	0xbdf0484c	-0.117325395
166	0x3da138df	0.078721754
167	0x3e3859b0	0.18002963
168	0xbe76a5a8	-0.2408663
169	0x3e6b4a0c	0.22977465
170	0xbc5e7f90	-0.013580218
171	0x3b25450d	0.002521816
172	0xbe4130e8	-0.18866313
173	0xbd9a5102	-0.07534982
174	0xbd6cfe10	-0.05785948
175	0x3d6255f2	0.055257745
176	0xbd60efb1	-0.054916088
177	0xbdfefa10	-0.124500394
178	0xbe4adbfe	-0.19810483
179	0x3eaa9cde	0.33322805
180	0x3da52ac0	0.080647945
181	0xbdf1846b	-0.11792835
182	0x3d2eb70c	0.042655036
183	0x3d916567	0.07099419
184	0x3e209439	0.15681542
185	0x3eb6e881	0.3572426
186	0xbe43a44f	-0.19105648
187	0x3dd76da0	0.10518956
188	0xbd802d2d	-0.062586166
189	0x3cd33172	0.025780413
190	0xbc8bee70	-0.01708147
191	0x3e1e2f03	0.15447621
192	0xbdc21b07	-0.09477811
193	0x3e1c6dd7	0.15276276
194	0xbe28d279	-0.16486539
195	0x3ea2406c	0.31689775
196	0x3cdfddd9	0.027327465
197	0x3eb70d2e	0.35752243
198	0xbc4c050d	-0.012452376
199	0x3e2280a1	0.1586938
200	0x3df82c2e	0.121178016
201	0x3ebe94e0	0.37222958
202	0xbe848812	-0.25885063
203	0xbd80ab2e	-0.0628265
204	0xbd2ffedc	-0.042967662
205	0xbdbd13d8	-0.092323005
206	0xbd76e9e4	-0.06028165
207	0xbe0b618b	-0.13611428
208	0xbb8210c5	-0.0039692842
209	0x3dbe9d6d	0.0930737
210	0x3ea07412	0.31338555
211	0x3e39087f	0.18069647
212	0xbe2e7010	-0.17034936
213	0x3c945ea6	0.018111538
214	0xbe08f6bb	-0.1337537
215	0x3e0db1b9	0.13837327
216	0xbe006825	-0.12539728
217	0x3d66ea05	0.056375522
218	0xbe03b4c5	-0.12861927
219	0x3cb15a81	0.021649601
220	0x3d5ca25c	0.053865775
221	0x3eecddd4	0.4626299
222	0x3e87898e	0.26472133
223	0xbe11323b	-0.14179318
224	0xbd438d0d	-0.04774194
225	0x3df4b390	0.11948311
226	0xbc62294d	-0.013803792
227	0x3d26e17d	0.040742386
228	0x3eb054ba	0.3443964
229	0x3d63b1ba	0.055589415
230	0xbc587fd6	-0.013214072
231	0xbe5620a0	-0.20910883
232	0x3db0e64e	0.08637677
233	0x3e7fa2f7	0.2496451
234	0x3dd3c927	0.10341101
235	0xbc871a65	-0.016492078
236	0x3cdb3a98	0.026761338
237	0x3db5018c	0.08838186
238	0xbe0819ce	-0.13291094
239	0xbecd6128	-0.40113187
240	0xbd9b0654	-0.07569566
241	0x3e560c40	0.2090311
242	0x3d04aaf3	0.032389592
243	0x3ec6fc01	0.3886414
244	0xbdbfd270	-0.0936631
245	0x3ba85aaa	0.005137761
246	0x3d7a0511	0.061039988
247	0x3ddc4df0	0.10757053
248	0x3df21c44	0.118217975
249	0xbe871f77	-0.26391193
250	0x3daede5a	0.08538504
251	0x3d84800d	0.06469736
252	0x3e1571e9	0.14594235
253	0x3e027d67	0.1274315
254	0x3d0343cb	0.032047074
255	0xbc9ad633	-0.018900966

fc3.bias f4 [10]
0	0xbef9fff3	-0.48828086
1	0x3d0dedc3	0.034650575
2	0x3dd88710	0.10572636
3	0x3e967104	0.293831
4	0x3ee65016	0.44982976
5	0xbe476717	-0.1947292
6	0x3e8e9460	0.27847576
7	0xbd595caf	-0.053066906
8	0x3d8afff1	0.06787098
9	0xbe4cc70f	-0.1999781
