models/submodel_3.pth (torch, 251746 bytes, 10 tensors)

conv1.weight f4 [6, 3, 5, 5]
00000000: 9312 0fbe 1b08 8cbd f115 a63c 6f6a 053e
00000010: dc15 743b d9b3 4f3d 6ea8 51bd 5657 a33e
00000020: 1d9b 7b3e c07a 833e 95a3 a23d 6770 8d3e
00000030: 3d0f c13e 4460 cb3e 52cf 063f 759c 9e3e
00000040: 32df fc3e 8b31 c43e 77e7 063f b8a2 123f
00000050: 53b4 a43e ee0b c13e ec27 983e afb8 d93e
00000060: 10ca f03e 06eb ccbd fd65 08be 7351 bfbc
00000070: ce8a f03d d645 193e 600c 3dbe 3f33 a8bd
00000080: da01 0f3e ea33 913d 22fc 5b3e a1c5 9bbd
00000090: dc48 7b3c 2336 ab3d f144 2c3d 8f1b 633e
000000a0: 97ae 30be 1abd ca3c 98cf 70bd fc28 713d
000000b0: e522 523e 88e2 4abd 7e04 453c 8736 b2bd
000000c0: e6b5 293e 9fef f9bc eb8f 31be fa9d 95be
000000d0: 4375 75be 5c73 aa3d 3c76 fdbd f012 83be
000000e0: b87b 93be d001 0dbe 781e efbc 99df a8bd
000000f0: ec12 90be e12c febd 67b1 1abe 1408 81be
00000100: b944 52bb 7159 b8be 659f 85be 0c7d 84be
00000110: 6483 8bbe 350c 3dbe 7ee1 b3be 5c1b 8ebe
00000120: cb7d 9dbe cb8f 2ebe 21cf dabd b0fa a03d
00000130: 4d9c 9abd 86cd fabd 036f 6d3e 6960 183f
00000140: 5805 bd3d 851a f8bd 3e08 cebe 4bf9 ebbe
00000150: 6ba3 7a3d 6797 bd3e e962 c73e ccc3 843b
00000160: 5975 89be 19c2 4ebe 29e6 9c3e 46ee 223f
00000170: ee03 0a3f 4254 993e 9d1c 38be 71af 47be
00000180: 6b5d 523e 10b3 0a3f 53c2 d03e a4c4 6d3e
00000190: 72bf 413d b347 99be 1a85 c3be a9a9 01be
000001a0: 9580 813e ea91 90bd 91ec b6be b823 36bf
000001b0: ac88 11bf e070 11be 1d7f cf3d 092a 2d3e
000001c0: 2da6 6dbe bb5c f7be 0064 25bf 36e8 523e
000001d0: a04b ba3e 9dfe d23e 73af b5bb 5b96 dbbe
000001e0: 08f7 b6be 3c59 a6bd 2302 bf3e ec7f 9d3e
000001f0: a7c3 b9bd bfdb 3f3c 1e7a 83bd f6e2 1cbe
00000200: 7985 8a3d 3790 d63e 4649 6dbd 70fe a9be
00000210: bbfa c6be 77d9 0dbf 2b95 5dbe 534b b03e
00000220: 80d7 913e a436 96bc e6b7 09bf ce97 e0be
00000230: a5ae 8e3e df60 e93e 00cd 0a3f 7fee 013e
00000240: f09f a5be 4f97 01be e569 013e 9cd1 de3e
00000250: f85f c03e aeef 1ebd 9fa3 52bd 3493 a6be
00000260: 399d ee3e a165 d23d 5d4f 2dbe e7de a0be
00000270: 454f 55be 1d66 3b3f fcb7 51bc 9ca3 b4be
00000280: a8cb f5be 6632 06bc 5efe 273f 50cb 01be
00000290: 0a91 c0be 2c93 16be 8a7d 983e fd33 cd3e
000002a0: 7ede 8dbe 785a 9dbe 720b a4bd aaeb b03e
000002b0: 145a 833e e890 80be 12fc 06be 908c 87be
000002c0: 104b 58be 92bd d93e d04e 023e 5a34 1bbe
000002d0: 3836 b3be d0bb febd be68 413f ae04 d0bd
000002e0: 76dc a0be 13c3 dfbe 52e6 2b3e 8e70 413f
000002f0: 94a0 18be ae95 ecbe e880 7fbe 42ae 763e
00000300: a8dc cf3e 2fde 23be b7ef a7be b74e b63d
00000310: 8fc7 903e d09a de3e 20e9 15be a536 083d
00000320: b9e9 82be c241 a1be 09cf 013f 6dfc f63d
00000330: 9fa6 0fbe 6288 c6be fc8b 28be e724 1b3f
00000340: adc7 943d cf04 69be a0fe 96be 403a 483d
00000350: 8fa1 2a3f 0f05 60be 26e4 fdbd aa27 aebe
00000360: 2714 433d 1801 a93e bf70 67bd 2076 c3bd
00000370: c8de 13be b265 663e c482 6f3e 2621 47be
00000380: 0a7b d6bd 7f73 76be 63ad 59be 10fb 62be
00000390: 8a1b 3abe c8ce 39ba f5f0 65be c408 22bd
000003a0: 5f90 15bd 0af8 c4bd 918e 01be 1b95 4fbd
000003b0: c7b1 2f3e e520 7b3d 81b8 043e 514c 4d3d
000003c0: 4717 673e fe2d 453e 2034 743e c45c 603e
000003d0: d699 5c3e fff5 623e 7c13 943e 6d66 3f3e
000003e0: 8cc4 633e 20fc 803e e233 11be d41e a2be
000003f0: e1bb 6fbe d6a0 46bc 1ee3 9bbc b13f 3dbe
-0.13971929 -0.068374835 0.020274134 0.13028882 0.0037244475 0.050708625 -0.051186018 0.3190257
0.2457089 0.25679588 0.07941357 0.2762482 0.37706938 0.39721882 0.52660096 0.30978742
0.49389035 0.38319048 0.5269694 0.5727954 0.32168826 0.37704414 0.29717958 0.42523715
0.4702916 -0.10005765 -0.13320155 -0.023354268 0.11745225 0.14968047 -0.18461752 -0.082128994
0.1396555 0.0708998 0.214829 -0.07606054 0.015337195 0.08359935 0.042057935 0.22178482
-0.172541 0.024748374 -0.058791727 0.058876976 0.20521124 -0.049532443 0.012024997 -0.087018065
0.16573295 -0.030509768 -0.17340057 -0.2922209 -0.23970513 0.08322784 -0.12376067 -0.25600386
-0.28805327 -0.13770223 -0.029189333 -0.08245773 -0.28139436 -0.12410904 -0.15106736 -0.25201476
-0.003208442 -0.36005738 -0.2609817 -0.25876653 -0.2724868 -0.18461688 -0.35132974 -0.2775525
-0.30760035 -0.1704704 -0.10684038 0.07860315 -0.07549343 -0.12246232 0.23186879 0.5952211
0.09229535 -0.12114433 -0.40240663 -0.46088633 0.061191004 0.37029573 0.3894265 0.004051661
-0.26847342 -0.2019123 0.30644348 0.63644826 0.53912246 0.29947096 -0.17979665 -0.1950052
0.20543449 0.5417948 0.40773258 0.23219544 0.047301717 -0.29937515 -0.38187486 -0.12662376
0.25293413 -0.07059081 -0.3572736 -0.7114825 -0.5684917 -0.14203215 0.10131667 0.16910566
-0.23207922 -0.48312935 -0.6460571 0.20596394 0.36385822 0.4120988 -0.005544597 -0.4288815
-0.35735345 -0.08122489 0.37306318 0.3076166 -0.09070521 0.011710106 -0.064197764 -0.15320954
0.06763739 0.41906902 -0.057931207 -0.33201933 -0.38863167 -0.5540995 -0.21638934 0.34432468
0.28484726 -0.018336602 -0.5379623 -0.43865818 0.27867618 0.4558172 0.54219055 0.12688635
-0.32348585 -0.12655376 0.12638052 0.43519294 0.37573218 -0.038802795 -0.051425572 -0.32534182
0.46604326 0.102732904 -0.16924806 -0.3142006 -0.2083102 0.7320269 -0.012800213 -0.35281074
-0.4800694 -0.008190727 0.6562251 -0.12675214 -0.37610656 -0.14704579 0.2978328 0.40078726
-0.2770881 -0.30733085 -0.080099955 0.34554797 0.25654662 -0.25110555 -0.13182095 -0.26474428
-0.21122384 0.42527443 0.12725377 -0.1515669 -0.35002303 -0.12438166 0.7555045 -0.101571426
-0.31418198 -0.43703517 0.16787079 0.7556237 -0.14905006 -0.46207947 -0.24951518 0.24089912
0.40598035 -0.16002725 -0.32800075 0.089017324 0.2827725 0.43477488 -0.14639711 0.033255238
-0.2556894 -0.31495482 0.50706536 0.12059865 -0.14028405 -0.38775927 -0.1645965 0.60603184
0.07264648 -0.2275574 -0.29491138 0.048883677 0.6665277 -0.2187693 -0.123970315 -0.34014636
0.04762664 0.33008647 -0.056504007 -0.09544015 -0.14440453 0.22499731 0.23389727 -0.19446239
-0.104726866 -0.24067496 -0.21257548 -0.22166085 -0.18174568 -0.0007088003 -0.22455199 -0.03955914
-0.036514636 -0.09617622 -0.12652041 -0.050679307 0.1715766 0.061310668 0.12961008 0.05012161
0.22567473 0.19255826 0.23848009 0.21910387 0.21543059 0.22164153 0.28921115 0.18691416
0.22242945 0.25192356 -0.14179948 -0.31664145 -0.23411514 -0.012123307 -0.019029196 -0.18481328

conv1.bias f4 [6]
00000000: 4f63 b8bc 2e31 26bd 5276 063c 67dd ddbe
00000010: 5a37 253b 6d12 41be
-0.022508292 -0.040574245 0.008206921 -0.4333298 0.0025209994 -0.18854685

conv2.weight f4 [16, 6, 5, 5]
00000000: bdd4 17bd ad33 1e3e 757d 3e3e aaab 803e
00000010: d7d0 293e 81b3 253e 5682 803e 7cff aa3e
00000020: 96a5 e23e 48c4 4c3e bef5 383e 513a 9f3e
00000030: 8c6e 883e d29a 3e3e 9fa4 c7bd d8f7 303d
00000040: 7a74 5ebd e6a8 ccbe 9ae8 06bf c2b0 c2be
00000050: 5e89 67be af73 03bf ab72 2dbf 6b60 f1be
00000060: 4b1a 4fbe 836a 1cbe b8e3 12be 7168 33be
00000070: a716 4dbc ec96 06be f50e 68bd d8b8 2cbc
00000080: e0c7 d93d 26ee d13d 157d e73d 6fd5 c83d
00000090: c0e2 123e 93b9 f33d dc75 f13d ac91 853d
000000a0: bd59 d43b 09a4 a8bd 97d1 f4bd b422 50be
000000b0: 9511 29be 914f 6abc 1b2d f7bd 1d6c c1bd
000000c0: 5b50 5dbd 70d2 c53d e915 1fbd 08be 79bd
000000d0: 6fb9 1a3c a790 27bc 4cbf ee3d 9113 16bc
000000e0: ba2a 12bd fac6 273d 1dbf d63d 1d00 783e
000000f0: 089c b5bc e910 393d 3d48 dabc 68a4 873c
00000100: 7469 a83d 7b1a 1fbd 3250 7a3c 192a 14be
00000110: dd94 14be f54c c63b 7e2f 1d3d 6389 eabd
00000120: 83b8 96bc 0148 06bd 923c 8ebd 5c2c b23d
00000130: c0df 07bd c18c 593c 4dad 6cbd 843c 093d
00000140: 3744 29bc 0442 b3bd 9c4c 863d 0b58 0d3e
00000150: d533 283e bb3e 693d 7afb 0d3e bf00 473e
00000160: e156 2f3e 8897 f73d 024b 60bc f961 413d
00000170: 5259 223c b64e c6bd 6deb 60bd 55d3 9bbd
00000180: ec7f 4cbe 3b85 39be 1665 f3bd 24f2 443e
00000190: 0b63 a53d 13ae 88bd c527 12bd 4ee2 b2bd
000001a0: e4b3 e5bd 0c27 c8bd 80e4 eebc 7ba4 3cbd
000001b0: 0505 413d 8498 0c3c 65a7 063e ed13 933e
000001c0: 5b92 693e b5df 8d3e 1746 093e 1187 073e
000001d0: d0cc 863e c260 723e 3727 203e 24e8 e03c
000001e0: 53ed d03c 67a7 b2bc 0aed 4bbd 5ce0 d23c
000001f0: 100b 9c3d 0d35 773e 5e69 ad3d 57f7 39bd
00000200: 4fbb 06be 6ff1 203c 4409 aebd ce1d 5dbe
00000210: 5eda 55be a76e 4cbe 0ca4 79bc 274e c73d
00000220: 83e5 1d3d c022 e63d 44db bc3d a3c1 e43b
00000230: c442 0e3e 3093 083e fe54 473e da98 d13d
00000240: 565d 0abe 8a78 34bd 46e1 2fbe 1ae1 9abe
00000250: a9db 8ebe e14f 303c d10e abbd 6dec 6dbe
00000260: dfee f53c 2397 3d3d 2662 383e 5578 c53d
00000270: db47 59be 9c7d c0bd e163 713d 36fe 493e
00000280: c828 493d c078 30be b86f a1bd ea18 db3c
00000290: d81e d63d 2adf 65bd 9940 f3bd 939e 10be
000002a0: c70b 16bd 4c2f 1e3d 75a6 963e 5dba 843e
000002b0: a920 643e 0374 833d 4707 7a3e 85a1 a6bd
000002c0: 8554 6b3d 3c96 e3bd ad7d 8bbd 086e df3c
000002d0: 7c01 913c 5e77 aabc 42ec 29be 06b1 08be
000002e0: 1663 c3bd 9003 08be fdd9 12be 97ae 01be
000002f0: 9451 81be b6b4 fcbd 29da 17be 28c9 6bbe
00000300: e103 28be f938 32be 943d 9dbe 2c9e 8abd
00000310: 2bec 09be ae28 2dbe e064 6f3b 5a9e 5ebd
00000320: 7740 ab3d 9b5f 643e aadc 853c c79e 1bbb
00000330: 60f0 043e 9369 373d 201b ff3d 523d 9f3d
00000340: a127 d83d 9712 a33c 1a2f 833d 42fe 743e
00000350: 4d8d 27bd 9d26 f73d fb16 49bd 2e97 aa3d
00000360: a234 b03d afd9 173d 908f 353e b8c0 113d
00000370: f0f9 013e 3a3e f23d aaf1 933e e01d 2d3e
00000380: 23de 0d3e f1fb 643c bbb8 babd 5070 04be
00000390: aa61 cfbc 7a27 a1bb 7c34 a63c 8a0a 57be
000003a0: 9a77 93be 6fea 31be 808c 90bd 176d 4ebd
000003b0: 1f71 34be 2e7b a8be e7b9 7dbe db0f 2bbe
000003c0: 5074 a7bd 678b 77be d536 87be e72e 80be
000003d0: 609d 38be 4007 013c e578 99bd 39da e1bd
000003e0: c6f6 17be 2424 06be 9809 ae3d 664a 923c
000003f0: e38c 143e 68a8 253e c7ae 1b3e 4fc4 323e
-0.037068117 0.154494 0.18602546 0.2513097 0.16583572 0.16181757 0.25099438 0.33398044
0.44266957 0.1999675 0.18062493 0.3109918 0.2664684 0.18613747 -0.09748196 0.043205112
-0.0543103 -0.3997261 -0.5269867 -0.3802548 -0.22610995 -0.51348394 -0.67753094 -0.47143874
-0.20224874 -0.15275006 -0.1434468 -0.1752031 -0.012517608 -0.1314351 -0.05665489 -0.010542117
0.10633826 0.10250501 0.113031544 0.09806334 0.14344311 0.1190063 0.11790058 0.06521925
0.006480424 -0.08234412 -0.119540386 -0.20325738 -0.16510613 -0.014301197 -0.1206915 -0.09444449
-0.05403171 0.096592784 -0.038839255 -0.060972244 0.009443625 -0.010227359 0.11657581 -0.009159938
-0.03568528 0.040961243 0.10485671 0.24218793 -0.022169128 0.045182142 -0.026645774 0.016557887
0.082232386 -0.038843613 0.015277909 -0.14469184 -0.14509912 0.0060516545 0.03837537 -0.11451986
-0.018398529 -0.032783512 -0.069451466 0.08699867 -0.03317237 0.013278187 -0.05778246 0.033504978
-0.010331205 -0.08752826 0.06557581 0.13803117 0.16426022 0.05694459 0.13865462 0.19433878
0.17122985 0.12089449 -0.013689758 0.047212575 0.009908991 -0.09682982 -0.05491202 -0.07608668
-0.19970673 -0.1811723 -0.11884515 0.19232994 0.080755316 -0.06673827 -0.03568246 -0.087345704
-0.11215952 -0.097730726 -0.029161692 -0.0460553 0.047123928 0.008581284 0.13149793 0.2872614
0.22809736 0.27709737 0.13405643 0.13235117 0.26328135 0.23669723 0.1563996 0.027454443
0.02550379 -0.02180834 -0.049786605 0.025741749 0.076192975 0.24141331 0.08467363 -0.045401897
-0.1315739 0.009823187 -0.08497861 -0.21593401 -0.20884082 -0.19964086 -0.015236866 0.09731703
0.038548958 0.11237097 0.09221509 0.006981091 0.13892657 0.13337398 0.19466016 0.10234232
-0.13512167 -0.044060268 -0.17175779 -0.30249864 -0.27901962 0.010761232 -0.083524354 -0.2323472
0.03002113 0.046286713 0.1800619 0.09642092 -0.21218817 -0.09398958 0.058933143 0.1972588
0.049111158 -0.17233562 -0.07882637 0.026745278 0.10455102 -0.05612103 -0.118775554 -0.14122991
-0.036632326 0.038619325 0.29423872 0.25923434 0.22278084 0.06418612 0.24416839 -0.08136276
0.05745365 -0.11112639 -0.0681108 0.027274147 0.017700903 -0.020808872 -0.16594031 -0.13348779
-0.095403835 -0.13282609 -0.14340968 -0.12664257 -0.25257552 -0.123391554 -0.14829315 -0.23025954
-0.1640773 -0.17404546 -0.30711043 -0.0676845 -0.13468997 -0.1691005 0.0036528632 -0.054350235
0.08361905 0.22302096 0.016340572 -0.0023745762 0.12982321 0.044778418 0.124563456 0.07775368
0.105544336 0.019906325 0.06405468 0.23925117 -0.04090624 0.12067912 -0.04909418 0.083296165
0.08603789 0.037072834 0.17730546 0.03558418 0.12693 0.11828275 0.28895313 0.16905928
0.1385427 0.013976083 -0.09117266 -0.12933469 -0.025315125 -0.004918036 0.020288698 -0.21000114
-0.28802186 -0.17374586 -0.07058048 -0.050397005 -0.17621277 -0.3290648 -0.24777947 -0.16705267
-0.08176482 -0.24174272 -0.2640902 -0.25035784 -0.18028784 0.007875264 -0.07493762 -0.11027951
-0.1484023 -0.13099724 0.084979236 0.017857742 0.14506869 0.16177523 0.15203391 0.17457698

conv2.bias f4 [16]
00000000: 9199 6a3c b854 4c3e 0072 773e 24dd f2bd
00000010: a819 f7bd 1844 293e ada2 80be 0a2e a93d
00000020: 3ee6 62be 8e78 983d 37d9 463f fe5c 5b3d
00000030: 73b6 a33e 20a2 02be 5e4b 943e 9ea7 c5be
0.01431884 0.19954193 0.24164581 -0.118585855 -0.120654404 0.16529882 -0.25124112 0.082607344
-0.22158143 0.07444869 0.77675194 0.05355548 0.31975135 -0.12757158 0.2896375 -0.38604444

fc1.weight f4 [120, 400]
00000000: afe2 31bd 2135 abbd 83f5 02be e71a ce3b
00000010: 756c a93c e8fa 25bd cc8d 8bbc 063d 9fbc
00000020: a176 1cbd 4965 0dbd e5d9 a7bd 4244 89bd
00000030: 0b36 8c3b 90e9 923c ee6a 02be d001 31bd
00000040: e4cf f73c 3b6e 343d 94c1 d53d ffe4 11be
00000050: b2b6 90bc 53f7 4cbd 6d54 e03c 3b58 a4bc
00000060: 0b58 8fbd 464a 6abd ed9c 7ebc e274 a03c
00000070: cef2 d9bd 496a 7cbd aafe 9bbc 36e9 93bd
00000080: f91c b83c 14fa 503a 9b6d 7abd 7a2b 3d3d
00000090: 657d 74bc 2360 22bd 75b8 69bc 0f75 6b3d
000000a0: 9efc 30bd bbe1 443d 864a 06bd 6323 48bd
000000b0: f1f4 b239 3400 9c3d 59c2 00bc 199b 5cb8
000000c0: 8b4f a93c e9b3 413d cbf2 73bc d5a8 163c
000000d0: c77b 1f3a 6532 263d 93f2 f5bc 035b efbc
000000e0: a03b 14bd 8391 6e3c f9f8 0a3d bff9 62bb
000000f0: 32cc 91bc a938 aaba 3430 f53c 4527 8b3d
00000100: 330d e1bc 9224 9cbc 59f9 f9bb 0d98 efbb
00000110: b868 e8bc 6fdc 85bd 5641 f03d 645c 14bc
00000120: 57ef 93bd 5f02 ebbc a60a 10bc 2a91 ea3c
00000130: e7b0 503d 804d 543d c491 523d d3e3 ff37
00000140: 0856 8a3c 5597 923c a532 933d e5a3 013b
00000150: 5045 0f3b b5c5 f63b e805 cc3c 6213 f43c
00000160: 8894 093d 0ada 3a3a 5d58 ae3b 8dc9 41bc
00000170: 629d ac3c 4915 bd3a 8a80 e23c 714f 6e3c
00000180: 053c 8bbc 6084 96bc aca5 8abd 46f2 26bd
00000190: cff7 d43d f340 503d b027 1ebd fa5b 493d
000001a0: 9fe4 e9bb b0c8 b1bd 2754 55bc 1d76 f93c
000001b0: 3219 113b 8b55 8bbd aee3 133c 64ea 513b
000001c0: db74 253d b528 713b 7b43 253c baed 2cbc
000001d0: 0d0f 56bc 2674 b03c 4499 923d a008 ad3d
000001e0: caf0 b63c d3fd 083d ec9d 093d fb94 d3bc
000001f0: 55b0 653d a83a 27bc 294a 613d 1bf7 663b
00000200: 5962 88bc 9f58 75bd cdb4 c43d 1526 e73c
00000210: edd1 573d 0e74 3bbd 08e2 133d fb2a 453c
00000220: f434 133c 3140 cc3c 48cb 573d 1206 55bd
00000230: 3d66 4a3b c7d0 103d 335a fdbc 5948 6abd
00000240: 158f 673c 9ded 253d bb5b 683d d481 cabc
00000250: 9121 b6bc d5b4 f93a 6369 e9bd c2fc 8fbd
00000260: e2c5 a33d a236 be3c 68c2 533c e5c3 ffbb
00000270: f1ec 3abd 493b 473d 93ad f73c 1205 c73c
00000280: ae55 d1bc 5569 6abd 3d81 513c 91be ff3c
00000290: 4ddc 3bbd 4512 22bc 07df 9ebd a40f c9bb
000002a0: 01aa 82bc 3bb9 5e3d 5f1b f13b 89a0 e53c
000002b0: 4e44 8a38 8cb9 ac3d 1ea5 aabc a533 a03c
000002c0: 85f8 1ebc b476 2ebd dac5 22be 7ac7 babd
000002d0: df5f 103d 6641 503d 7582 da3c 2ca1 93bc
000002e0: ca95 473c 6c3f 5b3c dacc 343d 72ff 88bd
000002f0: 8cf5 143d 3b5d 0bbd e3d9 813d 5e5a 173d
00000300: 58d3 313d 7219 30bd 27a7 19bd ea3f cf3b
00000310: e03b d53c 8686 c73d e6f4 903b f974 1fbc
00000320: a1f7 d0bb 75b7 c8bc 94f4 02bd 8ddf 033d
00000330: 176f 48ba d4c5 a5bb 477a 6b3d d9a0 803d
00000340: 674a 253a 2f35 8c3c 9409 5d3d fc10 313d
00000350: b2a4 a33d e730 583d c9f3 533d f548 99bd
00000360: 5ef4 f0bd 867d c0bc f77b 48bc 8102 dbbb
00000370: 9d50 29be 12b0 20be 1d7d 31be 8fa3 a8bd
00000380: 059f 03be eab1 c1bc 15d7 b7bd d7d5 b9bd
00000390: 4e42 bdbd c11e e0bc d7c7 973c f718 b83d
000003a0: 6d32 5cbc e5b4 1ebd 35f2 7f3c 79b4 253d
000003b0: 6053 3fbc 5858 91bc 2fe0 763c 8806 46bb
000003c0: 32d5 9abb 0fc1 543d 50d9 633c 857e b33c
000003d0: 090d a23d 44ea 273d 7f37 fb3d 8986 283d
000003e0: e0fd e33d 3fc8 b53d 8798 32be 8b5d 36bd
000003f0: d5d2 48bb 83b1 34bc d8fe 90bd ea8b 71bd
-0.043429073 -0.08359743 -0.12788968 0.006289828 0.0206816 -0.040522486 -0.017035387 -0.019438278
-0.03819907 -0.03452042 -0.08195857 -0.06702472 0.0042789034 0.017933637 -0.12736103 -0.04321462
0.030250497 0.044050436 0.10437313 -0.14247511 -0.01766524 -0.050040554 0.027384007 -0.020061603
-0.06999215 -0.05719974 -0.015540344 0.019586984 -0.106420144 -0.0616248 -0.019042332 -0.07222216
0.022474753 0.0007971835 -0.061139684 0.04618404 -0.0149224745 -0.039642464 -0.014265169 0.057484683
-0.043209665 0.048066836 -0.032785915 -0.048861872 0.000341333 0.07617226 -0.007858836 -5.2596533e-05
0.020667812 0.047290716 -0.014889429 0.009195526 0.0006083813 0.040575404 -0.030022895 -0.029218202
-0.036189675 0.01456106 0.033928845 -0.0034633724 -0.017797563 -0.0012986857 0.029930212 0.067945994
-0.027472114 -0.019060407 -0.0076286015 -0.007311827 -0.028370246 -0.06536185 0.11731212 -0.009055231
-0.07223385 -0.028687654 -0.008791601 0.028633673 0.050949957 0.051831722 0.051408544 3.0504458e-05
0.016886726 0.017894426 0.07187394 0.0019781527 0.0021861382 0.0075308927 0.02490516 0.029794399
0.033588916 0.0007127827 0.0053205923 -0.011827839 0.02107114 0.0014425899 0.027649183 0.0145453075
-0.016996393 -0.018373668 -0.06769881 -0.040758394 0.10398828 0.05084319 -0.038612068 0.04915998
-0.0071378495 -0.08680856 -0.013020552 0.030451829 0.0022140262 -0.068034254 0.009026451 0.0032030577
0.040394645 0.0036797945 0.010086889 -0.010554725 -0.013065112 0.021539759 0.07158139 0.08448911
0.022331614 0.03344519 0.03359787 -0.025827875 0.056076366 -0.010206856 0.055002365 0.0035242501
-0.016648458 -0.05989897 0.096047975 0.028216401 0.052690435 -0.045764975 0.036104232 0.012034173
0.008984793 0.024932953 0.0526841 -0.052007742 0.0030883693 0.035355356 -0.0309268 -0.057197902
0.0141332345 0.04050981 0.056728106 -0.02472011 -0.022232803 0.0019051085 -0.11397054 -0.070306316
0.079967275 0.02321941 0.012924768 -0.007805335 -0.04563612 0.048640523 0.030234134 0.02429441
-0.02555355 -0.05722936 0.01278716 0.031218799 -0.045864392 -0.009892051 -0.07757383 -0.0061358977
-0.015950205 0.05437587 0.007357999 0.02803065 6.5930755e-05 0.08433828 -0.020830687 0.019555876
-0.009702806 -0.042593673 -0.15895787 -0.091200784 0.03524768 0.05084362 0.026673535 -0.018021189
0.012181709 0.01338182 0.044140674 -0.06689347 0.036366984 -0.03402446 0.06340387 0.036951415
0.043414444 -0.042993017 -0.037512925 0.006324758 0.026029527 0.09742455 0.0044237254 -0.009732478
-0.006377176 -0.024501542 -0.03197153 0.032195617 -0.0007645948 -0.0050589833 0.05748966 0.06280679
0.00063053373 0.017115204 0.053964213 0.04322909 0.079903975 0.052781012 0.051746164 -0.074846186
-0.11765359 -0.023497354 -0.012236587 -0.006683648 -0.16534658 -0.15692165 -0.17332883 -0.08234321
-0.1285363 -0.023644406 -0.089765705 -0.0907399 -0.09241162 -0.027358415 0.018527908 0.08989137
-0.013439757 -0.038746733 0.0156217115 0.040455315 -0.011677593 -0.01774232 0.015068098 -0.0030216295
-0.004725122 0.051941928 0.013906792 0.021910915 0.079126425 0.040994897 0.122664444 0.041143928
0.11132407 0.088760845 -0.17440997 -0.044522803 -0.0030643244 -0.01102865 -0.070798576 -0.058971323

fc1.bias f4 [120]
00000000: 2116 0c3c 9484 c5bb ce72 de3b 0717 103d
00000010: 7a94 68bd 4584 c3bd b349 6e3e 90d6 6fbc
00000020: a08d fdbd d54c 81bc 5b72 26bd e5e0 ffbd
00000030: 58b2 abbc 32d6 4ebd 935c 473c f22e 3fbd
00000040: e95c 5c3c 2393 0f3a 8afd 81bc f910 813e
00000050: 73c1 993d 42ae 3abd 9dc4 d7bc e13b a4bc
00000060: 8ccb 123a f07a b83c 7368 c73c b10d 82bd
00000070: 7461 a0bd 0af9 a83b 9d25 8b3d 0d01 7cbd
00000080: 74f9 87bb c44f 933d 2d8b 39bd b3fe 833c
00000090: 9c84 64bd 9334 99bb 1aab 163e 04e9 36bd
000000a0: 60f5 b03d 92ef 4e3d 3929 5fbd 6c5c 5cbc
000000b0: cb27 b2bd cb32 183e 6503 713e b6e5 2b3d
000000c0: 2450 313d 431e 72bb 19dc e5bc f383 153d
000000d0: 3a63 213d bef5 e23b 3658 923d 715d 92ba
000000e0: 0f34 a13d 4b53 f83c ff19 6c3b aba3 183d
000000f0: aced 0cbe 9835 1a3e 365e 3dbc 4f60 5b3b
00000100: e2f2 4fbd 3df7 0a3d 28b7 03bb 32a2 ab3c
00000110: f720 1c3d 0453 7b3d 032a bc3d a67e 673d
00000120: 3b57 b6bc 4a3e 163c 6b0f 6c3d 00bb dcbd
00000130: af6b a33e 3db4 2a3d d15a cfbd 49a0 17bd
00000140: e9f7 edbd e6ec 2d3d 6199 0b3d 46ef e03b
00000150: c14c a2bd 2c31 033d 8b93 f63d dc06 263c
00000160: 9d93 aa3d 670b 04bd ab51 143e fa7f 6bba
00000170: 231a f0bc 3c89 b03c d098 633e 84d7 08be
00000180: aeca a63d 9a95 f1bc 817f 20bd 64d6 22bd
00000190: eb3e b3bd 6d45 c83c 97a0 6f3c 4bed 1fbe
000001a0: 7a4b c23b 4ea6 f4bc 5b24 9dbd c91f a23d
000001b0: 7beb 85bd 75db b6b9 797f a6bc 5846 ffbd
000001c0: c4f0 bb3d 3b45 1dbc 6720 de3d ee77 50be
000001d0: f567 c03a 54c0 f83b 2b68 b8bc 422f 36bd
0.008550198 -0.0060277674 0.006788588 0.03517821 -0.056782223 -0.09546713 0.23270302 -0.014638558
-0.123805285 -0.015783707 -0.0406364 -0.12494067 -0.020959064 -0.05049724 0.0121680675 -0.04667563
0.013449886 0.0005476942 -0.015867967 0.25208262 0.07507601 -0.04557634 -0.02633887 -0.020048084
0.0005599789 0.022519559 0.024341797 -0.06350268 -0.07831088 0.005156641 0.067942835 -0.06152444
-0.00414961 0.071929485 -0.045298744 0.016112661 -0.05579053 -0.004675457 0.14713708 -0.044655815
0.086405516 0.05052144 -0.054482672 -0.0134497695 -0.08698996 0.14863126 0.23536451 0.041967116
0.04328932 -0.0036944307 -0.028059052 0.03650279 0.03940127 0.0069262674 0.07145731 -0.0011166764
0.078712575 0.030313155 0.0036026237 0.03726546 -0.1376254 0.15059507 -0.011558106 0.0033474152
-0.05076874 0.03392719 -0.0020098183 0.020951364 0.038117375 0.061358467 0.091877006 0.056517266
-0.022258392 0.009170124 0.05763189 -0.10777855 0.31918094 0.041675795 -0.10124744 -0.037018094
-0.11619551 0.042462252 0.03408182 0.006864461 -0.07924796 0.032029316 0.1203986 0.010133471
0.08328936 -0.032237437 0.14484279 -0.00089836086 -0.029309338 0.021549813 0.22226262 -0.13363463
0.08144127 -0.02949028 -0.039184097 -0.03975524 -0.08752235 0.024447167 0.01462569 -0.15617864
0.0059294077 -0.029864457 -0.0767295 0.07916219 -0.06539055 -0.00034877253 -0.020324456 -0.12464589
0.09176782 -0.009599025 0.10846024 -0.2035825 0.0014679419 0.0075912867 -0.022510609 -0.044478662

fc2.weight f4 [84, 120]
00000000: 2d81 b4bc a603 e93b 4a4b 893d dd05 17bd
00000010: 56d7 843d 26bb 793c 25ff 0abd fb99 ca3d
00000020: 5701 7abd 4bdc 82b9 3f41 adbd e1d2 05be
00000030: 1ac8 debb eea0 bcbd cec5 063c 6317 013d
00000040: a018 eebc e7a0 ddbd 1b07 debc f0be 983d
00000050: f367 4fbd 030a 9f3d e8ac 5d3d da81 08be
00000060: 1568 083e 19ea 99bd 6f63 89bd 38c2 29be
00000070: 874d cdbd 39c4 74bd 2dfb 80bd 6bff 17bd
00000080: 1fb5 613e 8fc6 283e e4ec 7fbd 949e 933d
00000090: 0bc3 0d3c ec13 89bd 49bc 033d 6dcd f13d
000000a0: a9d0 94bd 3f40 ccbc 001c 0e3e 1b8c 9abb
000000b0: 657c 0a3d 5940 683c 9f68 923d 3018 1e3c
000000c0: 988f c4bd 9e80 993c 0c71 39bd c629 dfbd
000000d0: 67af 2d3e ffe0 8dbd c59b c03d 6742 803c
000000e0: ef45 77bc 9337 a1bd a3e9 75bd 0fee 91bb
000000f0: b61a dfbc 0e2f d0bd 8543 1dbb e85b 9b3d
00000100: ff2e 1abe 755e b23d b5d7 453d 4192 383d
00000110: 44e6 803d 1fe9 953c d93e b4bd 4054 9b3c
00000120: 548f acbc 9d8f 2abe ceb9 243e afad 9f3d
00000130: e131 263c dc4c 80bd 8faf f0bb 70a5 23be
00000140: 1593 663d 9bba 803c 1926 07be 9f7c 88bd
00000150: 8f39 043e c301 3e3d 6f0d 6a3c 4226 073d
00000160: 0adc 313d 95a5 f1bd 8b8b 8d3d c8e3 1c3e
00000170: e365 a23d 2e44 22be bdd5 cdbd 78f3 b5bc
00000180: 9189 c53d 21e8 323d e949 c63d bafb 37be
00000190: 0493 95bd d9df 40bd 45f9 debc fdfb 6cbd
000001a0: 28cc 64bc 2160 b1bd 7daf b2bd 12b2 0abe
000001b0: be65 8fbd 8790 f9bd bab1 c23d 8410 18be
000001c0: 6980 2a3d 7e3b eabc 0963 38be 56d2 8dbd
000001d0: ab63 7bbd 37d1 babd c5f2 1c3d 3c68 c83c
000001e0: 9e61 d83c add9 33bd d228 453d 2f2e 44be
000001f0: 5536 7abd b4a6 e83d 4dd3 fd3d 1f9b 4b3d
00000200: 4013 4dbd aa2b a53d 6c31 f53c c241 eabd
00000210: 9133 5f3c 7050 06be c563 cdbd bc9d 9ebc
00000220: c99a 8bbd 3856 06be d3f1 33be 49e3 0b3e
00000230: 1d37 1cbe 5009 dcbd 6fb7 9e3d 037c bc3b
00000240: d0be f73d a109 f13c 096a 213d 20af 65be
00000250: 67b2 ec3d 6bf1 3f3d 69cd 073e 2037 a3bd
00000260: 9910 8a3d 9f78 283d 3403 32bd c04a 913d
00000270: a131 c2bd 614c 893d 484b 773d 6121 9bbc
00000280: 4fd3 3abd 9ce0 ebbd 2937 053e d1d0 b93d
00000290: 784b 82bd 2a6b aa3d f407 b93d c99c 833d
000002a0: c536 adbc 2bac d13d b531 1c3d 5301 30bd
000002b0: 603a e8bc 6610 8ebb 98b9 efbc 21be d33d
000002c0: 0d22 183c 8ccc 9b3d a096 2c3e 77ad a23c
000002d0: f9b9 273d 4b6c e3bc cf76 cb3d a857 4abd
000002e0: 14bf 18be c779 db3c 91fe 88bc 2c60 a3bd
000002f0: c15a 593e 39df 1c3d 0120 0b3e 047e 343d
00000300: 2662 edbd a58a 2ebd 1b9c 9abd bdff 1cbe
00000310: ff70 c33d c97d 813d d50e 32ba bd34 303d
00000320: 1215 a8bb 64d8 043e 8a52 583d 6291 64bd
00000330: dcd7 96bd 58cd 033d 6387 26bd 5e77 0ebb
00000340: 1d39 bcbc 205e 95bd 3141 30bd b4d8 9a3c
00000350: 9265 963b ecb8 82bd 1ee5 673d 3a18 b0bd
00000360: 8f76 a1bd 9bbc f5bc a5af 663d d734 c9bd
00000370: 7832 d1bc a351 9c3d 772d e83c da70 debd
00000380: 7932 abbc 631b a3bc 9bd2 0b3d b832 7e3c
00000390: f6b3 0c3e 4975 bebd 433c 29bc 4a88 923d
000003a0: 7fe8 0e3e a185 29bd bf53 2c3d f104 673b
000003b0: afc3 a8bc 49ac 30bc 4a5a f0bd c3a7 083c
000003c0: fc8e 3ebd 7746 97bd 0902 8a3d c23a 793d
000003d0: 2109 8f3d d28d 8bbc e8ec 413d 7c84 4ebd
000003e0: e479 c93d 6a81 b8bd 0ce0 f1bd 9684 c3bd
000003f0: 9f9e 5dbd e176 a93d e602 b9bc 1f7b 95bc
-0.022034252 0.0071110306 0.067038134 -0.036870826 0.064863846 0.015242374 -0.03393473 0.09892651
-0.061036434 -0.00024959663 -0.0845971 -0.13068725 -0.0067987563 -0.092103824 0.008225871 0.031516444
-0.029064476 -0.10821705 -0.027102998 0.074582934 -0.050636243 0.077655815 0.054119974 -0.13330784
0.13320954 -0.07515354 -0.067084186 -0.16577995 -0.10024553 -0.059757445 -0.06297908 -0.03710882
0.22041748 0.16481994 -0.062481776 0.07207981 0.008652459 -0.06693253 0.032161985 0.1180676
-0.07266361 -0.024932979 0.13877869 -0.004716409 0.033810038 0.014175498 0.07148861 0.009649321
-0.09597701 0.018738087 -0.045273826 -0.108966395 0.16961442 -0.0692768 0.09404711 0.015656663
-0.015092357 -0.07871928 -0.060037266 -0.0044534276 -0.027234416 -0.10165225 -0.0023996544 0.07585889
-0.1505699 0.087094225 0.048301417 0.045061354 0.0629392 0.018299637 -0.0880105 0.018961072
-0.021064438 -0.16656347 0.16086504 0.077967994 0.010143728 -0.0626466 -0.007345147 -0.15981078
0.056292612 0.01571398 -0.13198127 -0.066643946 0.12912582 0.0463884 0.014285429 0.03299547
0.043422736 -0.117991604 0.06911381 0.15321267 0.079295896 -0.15846321 -0.10050533 -0.022210822
0.09645379 0.043678407 0.09682066 -0.1796712 -0.07303432 -0.047088478 -0.02721847 -0.057857502
-0.01396469 -0.08660913 -0.08724878 -0.13544491 -0.07001828 -0.121857695 0.09506555 -0.1485005
0.041626368 -0.028592821 -0.18006529 -0.06924884 -0.061374348 -0.09121936 0.03831746 0.024463765
0.026413735 -0.043908764 0.048134632 -0.19158243 -0.06108697 0.11359921 0.12393818 0.049708482
-0.050067186 0.08064969 0.029930793 -0.114383236 0.013623134 -0.13116622 -0.10028795 -0.019362323
-0.06816632 -0.13118827 -0.17572717 0.13660921 -0.15255399 -0.10743964 0.07749831 0.005752088
0.120969415 0.029423537 0.039407764 -0.22430086 0.11557465 0.046861093 0.13261952 -0.07969499
0.06741447 0.04113066 -0.043460086 0.070943356 -0.09482122 0.06704021 0.06037453 -0.018936815
-0.045611676 -0.1151745 0.13009323 0.09073032 -0.06362051 0.08321221 0.0903472 0.06426389
-0.02114428 0.102379166 0.03813334 -0.042970013 -0.028348148 -0.004335451 -0.029263303 0.103389986
0.009285462 0.076073736 0.16854334 0.019858105 0.04094884 -0.027761599 0.0993477 -0.0494
-0.1491664 0.026791466 -0.01672295 -0.07977328 0.21226026 0.03829882 0.13586427 0.04406549
-0.11590986 -0.04261269 -0.07549306 -0.15331931 0.09543037 0.0632282 -0.0006792371 0.043019045
-0.005129465 0.12973171 0.05281309 -0.05580271 -0.07365391 0.032178253 -0.04065646 -0.002173863
-0.022976452 -0.072933435 -0.04303092 0.01890216 0.004589745 -0.06382927 0.056614988 -0.08598371
-0.078839414 -0.02999716 0.05631985 -0.098245315 -0.02553676 0.076327585 0.028341992 -0.108613685
-0.02089809 -0.01991052 0.034136396 0.015515022 0.13740525 -0.09299714 -0.010329309 0.07154901
0.13955878 -0.041387204 0.042072054 0.0035250748 -0.020601122 -0.0107832635 -0.11735971 0.008340779
-0.04652308 -0.07386487 0.067386694 0.06084705 0.06984163 -0.017035399 0.047345072 -0.050419316
0.09837702 -0.09009059 -0.11810312 -0.09546773 -0.05410635 0.082746275 -0.02258439 -0.018247185

fc2.bias f4 [84]
00000000: f5e9 693d 0de5 663e 3287 dcbc 8990 ccbd
00000010: 617d 4dbc 12f6 c7bd fd45 d4bc e21b da3d
00000020: 4256 983d cd1e 903e 8413 813d afda cc3d
00000030: 240d 873e edc2 af3e 3c37 97bd e553 173d
00000040: 262e 1ebe 0b14 f1bc c676 5fbe cdb1 8a3d
00000050: 4769 52bc 8137 2a3e e75a 373e 6e54 a4be
00000060: dcd3 073d 2f05 183d e1a2 0b3e 61b9 233d
00000070: 344c 783e b150 a7bc 59b2 733e cbf0 413d
00000080: 1c7a e53d 6d6c febd 7837 a73d 029d d4bd
00000090: cbca bc3d 6f2f 973d b113 83be 8307 053e
000000a0: bd1d a63d 8faa ebbc 9301 54bd dff6 093e
000000b0: ba5e 223e c2e1 583e d1c7 6e3e 3e7a 5dbe
000000c0: 2574 46bd 7b74 083f 752e 5ebc 87ce eb3d
000000d0: f623 75bd 1014 c9bd 3b8e ffbd d0c1 92b8
000000e0: a56c 4a3d f299 82bc 5608 713e df9d 9c3e
000000f0: 0465 923d 4786 1b3e b662 1abd 9b9b af3d
00000100: e476 21be 9d44 363e 4a69 b53c 11a7 993d
00000110: f700 06be cee0 ac3c 83cc fcbc c824 843d
00000120: 5089 8e3d c645 c63d f3c5 b8bd 75bd bb3e
00000130: 6171 5e3d a276 7d3c 50b0 683c 1bed a53d
00000140: e030 58bd 010f 65bd 006f d4bd c1d8 4abd
0.057107884 0.22548313 -0.026919935 -0.099885054 -0.0125421 -0.09763731 -0.02591228 0.106498495
0.07438327 0.281485 0.063025504 0.10002648 0.26377213 0.34328404 -0.07383582 0.036945242
-0.15447292 -0.029428503 -0.21822652 0.06772194 -0.012842483 0.16622736 0.1790577 -0.32095665
0.03316103 0.03711432 0.13636352 0.039971713 0.24247819 -0.020424219 0.23798503 0.04734878
0.11204931 -0.12423024 0.08164877 -0.10381509 0.09218367 0.07382094 -0.2560096 0.12991147
0.08111141 -0.028767852 -0.051759314 0.1347308 0.15856448 0.2117987 0.23318411 -0.21628663
-0.048450608 0.53302735 -0.013560881 0.11514001 -0.05984875 -0.0981828 -0.124783 -6.997923e-05
0.049420018 -0.015942547 0.23538336 0.30589196 0.071481735 0.15187941 -0.037691794 0.08574601
-0.1576801 0.17799611 0.022144932 0.075025685 -0.13086306 0.021103289 -0.030859238 0.06452328
0.06959784 0.09681277 -0.09022131 0.36667982 0.054307345 0.015470179 0.014202192 0.08101865
-0.052780986 -0.055922512 -0.10372734 -0.04952312

fc3.weight f4 [10, 84]
00000000: b2e0 1e3e 0488 93be 2573 31be 24bf 4b3e
00000010: 3508 203e 3f0d ae3e 1b3f 213d 3a35 4ebe
00000020: 450b edbd d644 7abd b1dc a53c 8066 12be
00000030: 4272 943e f53b 3a3e 9774 c83c 3c2e 293d
00000040: 63d3 7b3d c258 eb3d aa93 253e 7f16 683c
00000050: 7187 12be e716 343e 6657 c63d ebb6 aa3e
00000060: 3f2f 5d3e 96cf 80be 5a3f 8ebe 3100 ec3d
00000070: e172 bbbd 2039 95bd 5f46 fcbd 7252 0e3e
00000080: d917 8d3e 3b05 1cbd aa4d e0bd 7a64 9ebe
00000090: 0808 2dbe cfa3 b03d a560 acbd 24ea 083e
000000a0: 04f9 c13d 36c6 be3b dac4 54ba 0aac 543e
000000b0: 1860 eebd 322b 57bc 48b2 18be d5d4 2fbd
000000c0: eb9f b73d f276 23be cc5e cc3d d3d4 933d
000000d0: 5254 7d3c 80b1 0f3e dbb4 97bd f556 573e
000000e0: ded4 783d fde7 9bbe 53f7 bdbd 1ce7 8ebc
000000f0: 650f d5bd 4d4a 91be 03db c53e ddc2 dbbd
00000100: f208 a73d 3a4e 97be 80bd b4bd ffc2 99be
00000110: 6923 c0ba 9354 09bd 31f0 7c3d a9ab b33e
00000120: 944f 113d a332 bc3e 0ef7 213e 9fe5 c2be
00000130: 7721 76bc cd0f de3e ec07 70bc 6990 4a3c
00000140: 78ee f13d d967 0f3e e5ab e03d 1bac 933d
00000150: d9f0 2e3d 3174 5e3d 0282 d1bd 3938 8cbd
00000160: fd28 b7bd 0333 8f3d 8c71 b8be cd57 febd
00000170: 5ef9 4a3e a228 e6bd 2431 c13d f5a5 ec3d
00000180: 8a23 90be aca4 ac3d 9f36 013e 4222 c1bd
00000190: 2f37 8abc a2fb af3c 89f7 05be 5b60 283e
000001a0: f7cb f4bd 12d0 c9be c9b2 cd3d 38df ccbd
000001b0: 4d7c 1fbd a6c3 1fbe ff33 87be 6ca9 be3e
000001c0: 3099 a4be b017 d9bd 665e d9be a7bf 943e
000001d0: d18d b1bd de34 45ba a5ac 0c3f e631 553e
000001e0: 032f e1bd c5e3 683e bdf2 983e d4c6 cf3d
000001f0: a5a3 173e c4e5 db3d 7d6e e9bc d449 93be
00000200: 3004 d7bc ea40 54be d23d 16bf ca64 2fbe
00000210: ee2a 233e 8112 04be da0a bf3c e00e 22be
00000220: 63b7 253e 554c f23d d958 17be 3be4 98bc
00000230: ef00 a23e d191 213d 4eb0 0abe a43e 333e
00000240: 060b 9c3d 7fdb 2cbd bd7a a6be 0334 c3bd
00000250: 33b1 463e e8cc df3e 2a26 3dbe 55f4 923d
00000260: 5142 53be a339 11bc 5a55 37bd f07c 893d
00000270: 6bf3 063e 28c0 663b e632 b03d 47ea 2ebe
00000280: def5 58be 85a7 1bbe 09a3 7e3c d9fc 49be
00000290: 5ad9 c03e 30fe 463d af3d 493e e8bf 1abe
000002a0: 6d45 103f 4032 5f3e c489 f43d 0a1c f63c
000002b0: b235 85bd dacb 7b3e d2ea 0fbe dd60 f83d
000002c0: 2d51 323d 1fbb 203c 0ce4 d83d 3abc eabe
000002d0: 619e 9bbd 0ca0 d63a c94d fb3d 54f5 3e3e
000002e0: c18b 723e 0c34 56be f115 e83d 246b 95be
000002f0: 981b 7dbe f34e 723e 7cdc c5bd e488 27be
00000300: a0a2 aabd 69a6 363e a564 1e3e eadf 54be
00000310: 0501 e5bc e6c9 6f3d 872a 593d 54c6 793e
00000320: f545 e53d 5772 9b3e a82f 29bd 9048 9c3d
00000330: 1e9a 19be 2160 c33c 4dbb 8abd ef4e 50bd
00000340: 4777 473c bf84 c93c a1c5 9d3e b60c 9d3e
00000350: 602a 1c3e e4e3 e53d 8b8a 593e c183 043e
00000360: 759e e7ba 3764 c93d 2cbf d13b 61f8 b03e
00000370: e0d5 35be d192 34be 50be 14be e312 9bbe
00000380: 6cb9 163e 7285 723c b371 923d e602 b93e
00000390: 0198 a63e 486b 243e ac7d a93e 09b2 9a3e
000003a0: b219 11be 8984 8bbd c859 a03c ae8d 03be
000003b0: 0244 c5bd c4ab ee3c 4586 81bd 8a83 23be
000003c0: d375 22bc 6789 86bd 4696 80be 0fe7 7bbd
000003d0: a66c d83c b0d4 4a3d 646f 58be d445 aebd
000003e0: 2089 1fbd 5bde 803e cd53 c33d 0903 57bc
000003f0: d7c0 363d 3223 7d3e e5d2 70be 0385 88bb
0.15515402 -0.2881471 -0.1732908 0.19897133 0.1562813 0.3399448 0.039366823 -0.20137492
-0.11574415 -0.061100803 0.020246835 -0.14296913 0.28993422 0.18186934 0.024469657 0.04130386
0.06148089 0.114915386 0.1616961 0.01416552 -0.1430948 0.17586862 0.09684639 0.3334268
0.21600054 -0.25158376 -0.27782708 0.11523474 -0.09152771 -0.07286286 -0.1231811 0.13898638
0.27557257 -0.038090926 -0.10952313 -0.30936033 -0.16897595 0.08624994 -0.08416871 0.13370568
0.09471324 0.0058219684 -0.00081164914 0.20768753 -0.11639422 -0.013132857 -0.14911759 -0.04292758
0.08966049 -0.15963343 0.099790186 0.072183274 0.015461998 0.14032555 -0.07407542 0.21029265
0.06074988 -0.3045043 -0.09275689 -0.017444186 -0.10403327 -0.28377 0.38643655 -0.107305266
0.08156003 -0.2955187 -0.08825207 -0.30031583 -0.001465899 -0.033527922 0.061752502 0.35091904
0.035476282 0.36757383 0.158169 -0.38065812 -0.015022627 0.4337143 -0.014650326 0.012363532
0.118130624 0.14004458 0.10970286 0.07210561 0.04271016 0.054310028 -0.10229875 -0.06846661
-0.08943365 0.069921516 -0.3602413 -0.124190904 0.19821689 -0.11238219 0.09433201 0.11555091
-0.28152114 0.08429846 0.12618493 -0.09430362 -0.016872017 0.021482293 -0.13082708 0.16443007
-0.11952966 -0.39416558 0.10043866 -0.10003513 -0.0389369 -0.15601978 -0.26406857 0.37238634
-0.32148123 -0.10600221 -0.42454833 0.2905247 -0.086696275 -0.00075228314 0.54950935 0.20819816
-0.10995295 0.22743137 0.29872695 0.10145345 0.14808519 0.10737184 -0.028495068 -0.28767264
-0.026247114 -0.20727888 -0.5868808 -0.17128292 0.15934345 -0.12897684 0.023320604 -0.15825987
0.16183238 0.118309654 -0.14779986 -0.018663516 0.31641337 0.039445702 -0.13543817 0.17504364
0.0761929 -0.042201515 -0.32515517 -0.09531405 0.19403534 0.4371102 -0.1847159 0.07175509
-0.20630766 -0.008863839 -0.044759132 0.06713283 0.13178794 0.003520975 0.08603458 -0.17081557
-0.21187541 -0.15200622 0.0155418 -0.1972536 0.37665826 0.048582256 0.19652437 -0.15112269
0.56355935 0.21796513 0.11940339 0.030042667 -0.06504382 0.24589482 -0.1405442 0.1212785
0.043534447 0.009810238 0.105903715 -0.4584673 -0.07598568 0.0016374602 0.12270696 0.18648273
0.23686124 -0.20918292 0.1133231 -0.29183304 -0.24717557 0.23662929 -0.09661195 -0.16360813
-0.083317995 0.17836918 0.1546808 -0.20788541 -0.027954588 0.058542155 0.053019073 0.24392062
0.11194984 0.30360672 -0.041305214 0.07631028 -0.15000197 0.023849549 -0.06774006 -0.050856527
0.012174434 0.024599431 0.3081484 0.3067376 0.1525054 0.11225107 0.21244256 0.12940885
-0.0017671125 0.098335676 0.0064009633 0.34564498 -0.17757368 -0.17634131 -0.14525723 -0.30287847
0.1471917 0.014802324 0.07150593 0.36135024 0.32537845 0.1605655 0.33103693 0.30213955
-0.14169958 -0.068123884 0.019574061 -0.12847015 -0.09632112 0.029134639 -0.06324438 -0.15968147
-0.009915787 -0.06569176 -0.2511465 -0.06149965 0.026418995 0.04951924 -0.21136242 -0.085094124
-0.038949132 0.25169644 0.09537468 -0.013123282 0.0446175 0.24720457 -0.2351795 -0.004166247

fc3.bias f4 [10]
00000000: 8410 b9be dc88 b8bd b748 683c ff62 673e
00000010: 31d6 f53e 9dae b8be 127f cf3e 6406 4dbe
00000020: a693 983d 1d81 90bc
-0.36145413 -0.09010479 0.014177493 0.22596358 0.48014978 -0.3607072 0.40526634 -0.20021969
0.07450037 -0.017639691
