models/submodel_2.pth (torch, 251746 bytes, 10 tensors)

conv1.weight f4 [6, 3, 5, 5]
00000000: b233 a73d 82de cebd 2838 5abd 6702 1139
00000010: 1cdd 0e3d 428e 1b3d 9fa2 8abc 04cd cd3d
00000020: 29e0 e5bb b0e7 2abd 875e d7bd dc2b 493d
00000030: 0252 ab3b 62fc a43d 8cc7 3dbd dee0 61bd
00000040: e877 a4bc 574a 3f3c b63b f3bd d94f ecbd
00000050: 3b57 363d 9841 923d cd5e 9a3d 043d 5fbd
00000060: 6ccd 9cbc aefe c8bd 36e1 9dbd 33da babc
00000070: 4a56 c7bd 77cd afbd f4da ddbd 8072 b73d
00000080: e1ea 9b3d 2d74 88bc 384f 8d3d 40c0 043c
00000090: faf3 b3bd b91d 983d 4290 fe3c 7783 c03c
000000a0: eb82 8abd ac80 cbbc a4c6 073d 438a d33d
000000b0: e89c efbc 42ca c3bd 1a73 71bd 18a0 1abb
000000c0: 4ec6 08bd a68a b8bd 47ad 203d 9cfb 57bd
000000d0: b999 8c3d 99a1 013c 18a3 3c3d 45b1 223c
000000e0: e388 9ebd feda abbd 5942 253d 1746 ab3d
000000f0: 8293 853d fc21 c43d 78c4 b03b 30fd 933c
00000100: 87e0 573d 0a94 15bd fcb9 8bb7 188c d13c
00000110: 6265 553d 1d0f 88bd 95f3 293d 2702 e8bd
00000120: 32a6 963d 8cff efbc 87a0 4b3c cf32 123e
00000130: 0b5b 9a3e 8162 b23e b82b ce3e 65e4 7f3e
00000140: d3ed 9e3e 040d 363f a077 583f b006 2c3f
00000150: 9bc1 013e 4bed eb3d 807c e23e d709 003f
00000160: 2de4 773e 6efa cdbd f0f7 91be 0044 3cbf
00000170: 6420 45bf da37 49bf 4158 90be f7a3 aabe
00000180: 88b7 4abf 8986 55bf 141d 33bf 0a43 11be
00000190: 8095 8c3c a687 9e3c 467c cb3b 28a6 02bc
000001a0: 58d6 42be bc56 963d e661 1f3f 86bf 153f
000001b0: 8d83 cf3e df3c ffba 8c9c 9a3d 628f 1b3e
000001c0: e3c6 bb3e c2e7 2f3c 32c2 81bd a0fe ac3d
000001d0: 871a 1cbf 31a6 40bf 02ab bcbe 812c c03d
000001e0: 3c10 313e 862e b2be 8b43 adbe c412 88be
000001f0: 761a c13e 4a19 b6be 46cf 21be 90e4 18be
00000200: b54a 43be 8ec8 92be 654b 033e 10d9 4b3e
00000210: 84c4 db3e a703 5a3e 225f fbbd f5c0 7f3d
00000220: a5f6 373e e436 783e d8e6 0d3e 72f8 f4bb
00000230: 8147 d73d 75ee 94be 3a8b d1be 86a7 dbbe
00000240: a840 683e fede 903e 44fb 6fbe a93e 5dbe
00000250: c0d5 543c 24c1 9f3e 2d99 d63a a72c 63be
00000260: 2ff3 033e 91bf 813e fab4 4e3e 7bb0 40be
00000270: f948 84be 234c 743e 9e68 a93e 678b 523d
00000280: 2094 c7be 66e2 d1be 43ef b83e 40ef fc3e
00000290: e823 4d3d 3c76 a5be ea4e c1be 6ff1 e43e
000002a0: 2901 b73e 373d 4c3d b131 98be d1df 42be
000002b0: 3c83 9b3e d931 a83e 4b35 053e e12f 66be
000002c0: 6c00 72be 7a03 acbd 85d0 a83d 0a5b cb3d
000002d0: 0c95 dcbe 5e8c 0abf 2f0e 80bc cef4 8d3e
000002e0: 58e5 e5bc 267a 01bf 983f fabe cc38 953e
000002f0: 6506 bf3e a9a9 d1bd 42f9 d7be b6d6 f9be
00000300: 1744 713e 2237 a53e b5f2 54be ac05 7bbe
00000310: 04fe 88be c37c 7d3e 969a 1e3e 0b51 0abe
00000320: 2758 2c3d f9e3 7bbe 502c 0e3e 563e 403e
00000330: 048c c03d 3d5f 4bbd 9f15 bcbe 86be 143e
00000340: da24 c33e 2a82 c8bb c05e 19be 8aab d6be
00000350: 996e 443e 300a cb3e bc65 443d 874e 25be
00000360: feb2 08be d013 cd3e a030 aa3e 2bda c93b
00000370: 34b6 383d 7d1a 2dbe b12e 913e b95b 9d3e
00000380: 340c bbbd 2cb4 8cbe da4e eabd addd b5bd
00000390: e0b3 78bd ba05 42be 2a61 42be 9cef f6bc
000003a0: b4bd 233e a049 7fbc 90a5 8abe 6784 febd
000003b0: 28b0 173d bcc6 a33d 8e5b 0abb 704d 91be
000003c0: 3197 b0bd c6a0 893b 58d3 c4bd 8c9e 9ebd
000003d0: 6e19 81be 38e1 91bc 9bbf 1c3d 3907 6f3b
000003e0: 8635 6abd d004 06bd abf3 a83d a0fe 7d3e
000003f0: 979e 6e3e eb90 ab3e 590d 303c ca98 d33d
0.08164157 -0.10101034 -0.05327621 0.00013829173 0.034878835 0.037977464 -0.016923247 0.10048869
-0.0070152474 -0.04172486 -0.105160765 0.049114093 0.005228282 0.08055951 -0.04633288 -0.05514609
-0.020076707 0.011675439 -0.11876623 -0.11538667 0.044516783 0.07141417 0.07537613 -0.05450155
-0.019140922 -0.09814201 -0.07708971 -0.022809124 -0.09733255 -0.08584111 -0.108327776 0.08957386
0.07613159 -0.01665696 0.068998754 0.008102477 -0.08786769 0.07427544 0.031074647 0.023500187
-0.06763252 -0.024841629 0.033148423 0.10329106 -0.029249623 -0.09560062 -0.05894766 -0.0023593958
-0.033392243 -0.0901082 0.03922775 -0.052730188 0.06865258 0.007912063 0.046053976 0.00992996
-0.07740953 -0.08391379 0.040346477 0.08362978 0.065222755 0.095767945 0.0053945147 0.018065065
0.05270436 -0.036518134 -1.6656697e-05 0.025579497 0.05209864 -0.06643508 0.041492064 -0.113285355
0.07355918 -0.029296659 0.012428409 0.14277194 0.30147585 0.34840778 0.4026773 0.2498947
0.3104082 0.7111361 0.84557533 0.67197704 0.12671511 0.115198694 0.4423561 0.50015014
0.24208136 -0.10057531 -0.28509474 -0.7354126 -0.7700255 -0.7860085 -0.28192332 -0.3332822
-0.79186296 -0.8340841 -0.69966245 -0.1418573 0.01716113 0.019351792 0.006209883 -0.007974185
-0.19027078 0.07340762 0.62258756 0.58495367 0.40530053 -0.0019473097 0.0754939 0.15191415
0.36675176 0.010736408 -0.06335868 0.08447003 -0.6097798 -0.7525359 -0.3684922 0.093834884
0.17291349 -0.3480112 -0.33840594 -0.26576817 0.377155 -0.3556617 -0.15801725 -0.1493094
-0.19071467 -0.28668636 0.1282173 0.19907022 0.42923367 0.21290456 -0.122740045 0.062439878
0.17965181 0.24239689 0.13857591 -0.007475906 0.10511685 -0.29088178 -0.40926534 -0.42901248
0.22680914 0.2829513 -0.23435694 -0.21605934 0.012990415 0.31202042 0.0016372554 -0.22185002
0.12885736 0.25341466 0.20186225 -0.18817322 -0.25836924 0.23857169 0.3308763 0.051402476
-0.38980198 -0.4099304 0.36120042 0.49401283 0.05008307 -0.32316768 -0.3775552 0.4471545
0.35743073 0.049863067 -0.29725412 -0.19030692 0.3037356 0.3285053 0.13008611 -0.22479202
-0.23632973 -0.083991006 0.08242897 0.09929474 -0.43082464 -0.54120433 -0.015631763 0.27725834
-0.028063461 -0.5057701 -0.48876643 0.29144895 0.37309566 -0.10237438 -0.42182356 -0.48796624
0.2356113 0.32268625 -0.2079571 -0.24513882 -0.267563 0.24754624 0.15488657 -0.13507478
0.042076256 -0.24598683 0.13884091 0.1877378 0.09401706 -0.049651373 -0.36735246 0.14525804
0.38114053 -0.0061190324 -0.1497755 -0.4192775 0.19182815 0.3965621 0.047948584 -0.16143237
-0.1334953 0.40054178 0.33240223 0.006160041 0.045095637 -0.16904636 0.28355935 0.3073404
-0.09133187 -0.2748121 -0.11440821 -0.08880172 -0.060718417 -0.18947497 -0.18982378 -0.030143552
0.15990335 -0.015581518 -0.2707944 -0.124275975 0.03703323 0.0799689 -0.00211117 -0.28379393
-0.086225875 0.004200074 -0.09610623 -0.07745084 -0.25214714 -0.017807588 0.038268667 0.003647281
-0.05717995 -0.032719433 0.08249601 0.24804163 0.23302685 0.33509 0.01074537 0.103318766

conv1.bias f4 [6]
00000000: 9a2a b4bd 7e58 0b3e 0e18 6a3d 257b 2cbe
00000010: 7990 983e bd2d 15bf
-0.08797188 0.13607976 0.057151847 -0.16843851 0.29797724 -0.58272916

conv2.weight f4 [16, 6, 5, 5]
00000000: 8dea a4bd aa54 4f3d bb42 08bc d82c 8a3c
00000010: 5634 0abd 16c5 29bd e585 97bd a64d 53bd
00000020: fc4b 803d 3e8d 903d 5ee2 a2bd 734b 44bd
00000030: 3370 883d 416a 453c 78ee 4a3d d9a7 72bb
00000040: e660 23bd 45a9 09bd 24fb 29bd 0d4a bebc
00000050: 3cc9 1a3d 8f66 96bd d83d a63c 6b89 273d
00000060: ee5d 993d 4fba bcbc a6ec eb3d 69ca abbd
00000070: 186d 89bd f484 32bc e404 7ebd 4d95 a53c
00000080: 0c37 a0bd a3a9 463d 8b3c 393c ce5a a438
00000090: 5472 fbbd 794b 6dbe 85dd 22be 9cd2 ddbc
000000a0: 1cc9 c93d e249 d73d cb87 33be 6a22 5cbd
000000b0: 35ff c83d 7ea1 dc3d 4bca 41bd 2113 7bbe
000000c0: 2164 0abe 494f 813d 503e cfbd 9c6e 77bd
000000d0: 7100 df3d 0976 553d c38f 2c3e f59e 053e
000000e0: 5a74 c0bd ff8d 723e 7700 adbd f34e d03d
000000f0: ac9d db3d 73bf 54be e1b7 d73e 7539 18be
00000100: b1b9 0f3e 7bd6 8c3d 5d34 93be 38bf dd3e
00000110: 9607 4abc 2605 133e 5dfb b43d 4dd7 31be
00000120: 4f12 f63e 12a4 2a3b cc96 673e c18c 293e
00000130: b939 923d 213c cdbb 56cc b43d 6ec8 cf3b
00000140: 6364 273e 3dcd bdbd 0f48 c23d 6be1 1a3e
00000150: 9581 29be 4772 9b3e 3573 30be 9f41 833e
00000160: c2be 803e 6780 3dbe 0001 a93e 76d6 44be
00000170: db16 543e 873b 663e a2e1 4abe 966e 393e
00000180: a832 56be 5b2d 643e 47c0 4b3e c768 a7be
00000190: d958 13bc a310 dcbc 4287 b53c f894 81bc
000001a0: fb3a 4b3c 7ab9 8ebd bdae 9abc e237 ffbc
000001b0: 8346 d0bb 91d1 92bd 7096 81bd 524e 343d
000001c0: 0d7a e63c e5fe 4cbc a0c0 f1bc b2b8 c3bd
000001d0: a76e 0abd bb2c 0d3d f820 1abd ae1f 1fbe
000001e0: 41f0 38be 70c8 dcbd 8a99 6b3d 68ea 79bc
000001f0: 7697 0fbe 0ee8 3f3c dcce 43be cde3 17be
00000200: 51dc 99bd 2735 e6bd 9265 723c 0db4 cfbd
00000210: aaff 5ebb a993 c3bd 5f81 2ebe a76d a93d
00000220: 3f72 df3b 619f 1b3e d05e 233d 1cd4 153e
00000230: 4657 1dbe 2818 99be 1ca7 8ebe 6026 64be
00000240: 0547 84be e7e9 89bb 5186 6fbc 4f4e 9dbd
00000250: 5caa f4ba 4c80 6dbb efb0 653d b5a1 423d
00000260: 2e62 e83a 4cdf a6bc 3f38 a93c 6616 9ebc
00000270: d773 3e3d a8e1 0ebc 606d 3cbd 8888 e0bb
00000280: cf45 8dbc 8baf 02bd eb40 803b 2bcd 37bd
00000290: 95ce 1f3b 7dd2 0f3d 27a8 51bd a52e 7e3d
000002a0: 1345 19bb 9eee 05bd b952 23bd 3713 813d
000002b0: 5453 aebc e48f 243d 8762 06bd ff5e 46bd
000002c0: 33aa 51bc e223 d4bd 96f9 a53c 7cd2 463c
000002d0: 0803 053e 06bf 393d a705 d9bd 8f5e 1bbe
000002e0: beff 2abd e562 1f3e b9fe 1b3d 7f27 68bd
000002f0: 5b51 0ebe 4d3a 39be 6e3d 0f3e 7f50 debd
00000300: e727 c0bd cb6e 04be 30aa b3bd 833f 4a3d
00000310: 090e 54be def2 88bd c442 a2bd 0544 efbc
00000320: b2a6 abbd f3b7 b4bd bb08 e1bd e862 79bc
00000330: 1fd4 c03d 36c7 c23a c5ed 99bd 00fb 52bd
00000340: 360f 1f3e dfdd 6f3d b9cb 953d 9761 b43a
00000350: 4e84 473e 25c8 343e 7099 463d 9b1f 1e3d
00000360: fdde 743d ec85 183e 0478 863d 5fb1 42bd
00000370: d335 933c e2ba 013d 4c1d 9c3d 161a bdbd
00000380: f438 d9bd 1fd5 ca3d 25a0 91bd d701 5dbe
00000390: 74ca 09be 744f c53c 7bfe d2bb 8f18 37be
000003a0: 1723 2bbe e03b b5bd 1fad 5d3e 5409 1cbe
000003b0: c815 6cbe 31e4 0ebe 9fbe 273e 1442 603e
000003c0: 3fa4 9abe a7e5 32be d083 9e3d b108 403e
000003d0: 7586 183e c6b4 56be 2548 20bd 9c43 313e
000003e0: ace5 713e e7a9 2abd 07f4 b8bd 95ff 0ebe
000003f0: 46e0 4fbe 16fd 01be 9cdb 08be 0aa1 a13d
-0.080525495 0.05061785 -0.008316691 0.016867086 -0.033741318 -0.04144772 -0.07398585 -0.051587723
0.06264493 0.0705819 -0.07953332 -0.047923516 0.06662025 0.012049259 0.049543828 -0.0037026315
-0.03988733 -0.033608694 -0.041499272 -0.02322867 0.03778957 -0.0734378 0.020293161 0.040902536
0.07488619 -0.023038058 0.115197465 -0.08388216 -0.06710261 -0.010895956 -0.062016383 0.020212794
-0.07822999 0.048501622 0.0113059385 7.837043e-05 -0.12277666 -0.23173322 -0.15904815 -0.027077965
0.09852812 0.10512139 -0.1753227 -0.053743757 0.09814302 0.1077299 -0.047312062 -0.24519016
-0.13514759 0.063139506 -0.10119307 -0.06040822 0.10888756 0.05211452 0.16851716 0.13048919
-0.09397192 0.2368698 -0.08447354 0.10171308 0.10723433 -0.20776157 0.42132476 -0.14865668
0.1403568 0.068768464 -0.28750888 0.4330995 -0.01233091 0.14357433 0.08837006 -0.17367287
0.48060843 0.0026037735 0.22616118 0.165576 0.07139916 -0.0062632714 0.088280365 0.0063410318
0.16346888 -0.09267662 0.094864 0.15125053 -0.16553338 0.30360624 -0.17231448 0.25636002
0.25145537 -0.18506013 0.33008575 -0.19222435 0.20711844 0.22483645 -0.19812635 0.18108591
-0.20917761 0.22282927 0.19897567 -0.32697126 -0.008993351 -0.026863402 0.022159223 -0.015818104
0.012404199 -0.069689706 -0.01888215 -0.031154577 -0.006356062 -0.07168878 -0.06327522 0.044020005
0.02813437 -0.0125119435 -0.029510796 -0.09556712 -0.033796933 0.034466486 -0.037629098 -0.15539429
-0.180604 -0.10780418 0.057519473 -0.015253641 -0.14022622 0.011713041 -0.1912188 -0.14832993
-0.07512725 -0.11240607 0.014794724 -0.10141764 -0.00340269 -0.09549648 -0.17041539 0.08272868
0.006819039 0.15197517 0.039885342 0.14631695 -0.15365323 -0.29901242 -0.2786187 -0.22280264
-0.25835434 -0.0042087915 -0.014619426 -0.07680952 -0.0018666494 -0.00362398 0.05607694 0.047517497
0.0017729455 -0.020370148 0.020656703 -0.01929779 0.046497192 -0.008720793 -0.046002746 -0.0068522133
-0.017245201 -0.031905692 0.003913989 -0.044873398 0.0024384607 0.035112847 -0.051185753 0.062056202
-0.0023387119 -0.032698266 -0.039873812 0.06302493 -0.021279968 0.040176287 -0.032808807 -0.04843044
-0.012796926 -0.103584066 0.020260613 0.012135144 0.12989438 0.04534819 -0.10596781 -0.1517279
-0.0417478 0.15565069 0.03808472 -0.05667829 -0.13898222 -0.18088646 0.13988277 -0.10855197
-0.09382611 -0.12932889 -0.08772695 0.049376976 -0.20708479 -0.06686948 -0.07922891 -0.029207239
-0.08381404 -0.08824148 -0.10987993 -0.015221335 0.09415459 0.0014860395 -0.07516054 -0.051508904
0.15533146 0.058561202 0.07314248 0.0013761994 0.19484064 0.17654474 0.048486173 0.03860436
0.05978297 0.14894837 0.0656586 -0.047532436 0.017970001 0.031672366 0.076227754 -0.09233491
-0.10606566 0.09903931 -0.07110623 -0.21582733 -0.13456136 0.024085738 -0.006439028 -0.17880462
-0.16712604 -0.08849311 0.21648072 -0.15237933 -0.23055184 -0.13954236 0.1638131 0.21900207
-0.30203435 -0.17470418 0.07739985 0.18753316 0.14895041 -0.20967397 -0.039131302 0.17310947
0.23622769 -0.041665938 -0.090309195 -0.13964684 -0.20300397 -0.12694201 -0.13365024 0.07892044

conv2.bias f4 [16]
00000000: 3468 d4be e7fa 5abe 847f d9bd 2349 703f
00000010: b51d 463f 75f4 a8bd 4ff0 83bd 4e35 a8b9
00000020: 2680 06be 5563 5fbe 3eac 03be bcbb a6be
00000030: 27bf 45be 17e1 5d3f fff1 f53c d3f4 f2be
-0.4148575 -0.21384774 -0.10620025 0.938616 0.7738908 -0.082497515 -0.064423196 -0.00032083172
-0.13134822 -0.21815236 -0.12858674 -0.32565105 -0.193112 0.86671585 0.03002262 -0.4745241

fc1.weight f4 [120, 400]
00000000: f796 8abb a937 ca3c 4911 0cbc 9a40 d83c
00000010: 08ce 423c a3ee 533c ab99 043c f113 103d
00000020: 01b0 8d3b 2ff1 50bd d1e7 9fbd 3807 f1ba
00000030: 18ff 81bd ebf8 2dbd 39e9 44bd b9cb 3fbd
00000040: 0428 33bd 6ab2 1ebc 00a8 45bd 686b 493b
00000050: b7bf a73b b728 bd3b eab1 033a 759f 29bc
00000060: 92e1 6a3d f858 55bc dfff ce3c 8520 fc3b
00000070: e21d 433d db1f 823c 764d 1a3d 7a12 36bd
00000080: bef0 e03a 4bb8 cb3c 640b 963d dc28 073e
00000090: 5661 6d3d 8976 88bd 57d7 6abd bd26 42bd
000000a0: 5879 ea3c 8f15 57bc 08f5 2fbd 3b6d 22bd
000000b0: 47a1 14bd 78c6 c2bc b99f c73c fcc4 d5bd
000000c0: ad0c 46bd 66d4 ffbb b1bb da3c 6146 debc
000000d0: 99e0 293c 8663 d7bc 4b13 63bd 7989 81ba
000000e0: 21f4 2d3b f307 82bc f48a 97bc f59e 2f3b
000000f0: 86fc 8dbc dcd4 a4bd 6be1 d73a e886 713d
00000100: d203 cf3c 9630 9ebd 1e2e 4bbd e4e0 d8bc
00000110: fed3 2bbd ae79 35bd 1977 8abc 57c7 833d
00000120: ee48 f8bc dc52 a23c 851c dc3c 7fa8 6b3d
00000130: f3cc c13d 7ecf 343d 209f 803c d84b 203d
00000140: a41c c13b 27d4 203d b344 913d 45f9 503d
00000150: 2261 283d cd78 49bd ab0e 3f3c 5c12 6abc
00000160: 257a 1dbd 4d64 db3c 332a 98bc 7e20 80bc
00000170: cad0 c3bc 4c0c 82bc 323b 163d 0ec1 28bd
00000180: 6daf 00bd 68ff 1d3d c3b2 7f3c 8f68 403c
00000190: 64f2 b9bb 11d6 45bc b092 953c c715 9dbd
000001a0: ab12 18bc 6e7c ad3c 7a8a ae3d 7b18 a43b
000001b0: 015e afbd 1cf7 6cbd 4f91 f43d be8f 083d
000001c0: b6ef a13d e804 48bd 0e13 c2bc 1d6b 4b3c
000001d0: 623a ea3d 95b4 b43d ea97 0cbc e635 d9bc
000001e0: 90b5 d6bd 2d3c bcbc 42cb c3bc b668 bdbc
000001f0: 274e 0bbc 81c5 813d db95 11bd 8150 b0bd
00000200: ac4c 9f3b 1286 aebd 0b11 6fbd e0df 16bd
00000210: aedf b439 e3dc bcbd 43b2 efbc f738 4ebc
00000220: 44a2 653d 9ecc 213d 8c52 51bd e12c 24bd
00000230: 6d5a 90bd 31b8 3e3d 924d b93d d723 d2ba
00000240: 126d 933d 3771 22bd 95bf 993b 3b2f 8d3d
00000250: 50df 023c ea52 d43c 237e 8dbd c463 a33c
00000260: 18fb c1bc 2488 8a3b 7186 793d a92a 813d
00000270: 25d8 613d 8449 f63c 1276 813d 1753 583a
00000280: 09bf 003d ab6d 7b3d 2db9 da3c a8c4 c33d
00000290: c1d2 5f3d f8df 07bc f323 013c 26d9 94bc
000002a0: 5d8a 513d a053 363d 06ca 07bd d6f3 1a3d
000002b0: 2e7f 333d ec42 043c 13b2 0d3d f8e0 c53c
000002c0: 72c3 a53c 2c3c f1bc cedf f93c 0173 f93c
000002d0: a374 4abd ce6d f0bc 5939 df3b 2bdd 5fbd
000002e0: 4e26 8fbc 9fbf f83c de0c c33c 26e9 0dbc
000002f0: ab71 f73c 17ba 1d3c ed20 9d3c 4348 653c
00000300: 409f 813d cae5 e13b 7e58 60bc 894c 0fbd
00000310: 9f5f 0fbd 21ec 3a3d 57bc 6539 d8a4 96bc
00000320: b1bd e73c eb96 acbc 0712 903d 81d5 a53d
00000330: bad7 c03d d234 a0bb 1bb6 9abd 3115 073b
00000340: 8b36 d0bc dfb7 a43d dd1f 14bd db4b 4fbc
00000350: fe90 aebc c1c0 1ebc 9e82 413c e80d f13a
00000360: d5ed 533a 81e8 2b3d 9aab 33bd 6732 2cbc
00000370: 583e a0bc 4f95 183d c807 39bd f7cf 8bbd
00000380: aa77 50bc 4a3a 033d d14e 82bc f5fe 023d
00000390: 9b9d 713d d1a0 a73b 6e04 91bc 84ef b2bc
000003a0: 0278 c1bd e659 50bd 1df8 b2bc c2a7 0b3c
000003b0: 93ff d1bd 0dfc 483d 7357 e4bc 13a7 183c
000003c0: 1cd7 293d 6a3d 703c 8eeb 5dbb 0a71 913b
000003d0: 4241 ec3c ea7b 1cbd 09c5 bdbc 5cd0 20ba
000003e0: de41 073d 60ea 7f3d f28b 52bd 0962 39bd
000003f0: 7cba 6cbc 0fdf 5fbd 3024 183d dc7d f2bd
-0.004229422 0.024684744 -0.008549043 0.026397992 0.011889942 0.012935313 0.008093278 0.035175268
0.00432396 -0.05101126 -0.07807887 -0.0018388992 -0.063474834 -0.042473715 -0.04807398 -0.046825144
-0.043739334 -0.009686092 -0.04825592 0.0030734185 0.0051192897 0.005772676 0.00050237647 -0.010352959
0.057344027 -0.0130217 0.025268493 0.0076943063 0.04763592 0.01588433 0.03767153 -0.044451214
0.001716159 0.024868151 0.07326391 0.1319918 0.057954155 -0.06663234 -0.05733427 -0.047400225
0.028622314 -0.013127699 -0.04295829 -0.03965495 -0.03628662 -0.023776278 0.024368154 -0.104379624
-0.048351932 -0.0078073023 0.026700826 -0.027133169 0.01036849 -0.026292574 -0.05543832 -0.0009882889
0.0026543217 -0.015872931 -0.018498875 0.0026797627 -0.017332327 -0.08048412 0.0016470378 0.058966547
0.025270376 -0.07724111 -0.049604528 -0.026474424 -0.04195022 -0.044305496 -0.016902493 0.064345054
-0.030308213 0.019814901 0.026869068 0.057533737 0.09462919 0.044143192 0.015700877 0.03913483
0.005893307 0.039264824 0.070931815 0.051018972 0.041108258 -0.04918747 0.011661212 -0.014286604
-0.038446564 0.026781226 -0.01857481 -0.015640493 -0.02390327 -0.015875004 0.036677547 -0.041199736
-0.0314173 0.038573653 0.015606585 0.011743679 -0.005674647 -0.012074963 0.018258423 -0.07670169
-0.009281795 0.021177497 0.08522506 0.005007801 -0.08562852 -0.05785285 0.11941778 0.03334021
0.07907049 -0.048832804 -0.023690727 0.0124156745 0.11436917 0.08823506 -0.008581141 -0.026514959
-0.10483849 -0.022977913 -0.023900632 -0.02312122 -0.00850252 0.06336499 -0.035543304 -0.08609105
0.004861435 -0.08521666 -0.058365863 -0.036834598 0.0003449893 -0.09221818 -0.029259806 -0.012586824
0.05606295 0.03950178 -0.051104113 -0.040081862 -0.07048497 0.046562377 0.090479985 -0.001603241
0.07198538 -0.03965875 0.004692028 0.06893774 0.007987812 0.025918443 -0.06908824 0.019945033
-0.023679301 0.004227655 0.06091923 0.06306965 0.055137772 0.030064352 0.06321348 0.00082521274
0.031432185 0.061383884 0.026699627 0.095589936 0.05464435 -0.008293144 0.007882106 -0.01816995
0.051157344 0.044513345 -0.03315165 0.037830196 0.04382246 0.008072596 0.034593653 0.024155125
0.020234797 -0.029447637 0.030502226 0.030450346 -0.04942764 -0.029349234 0.0068122563 -0.05465428
-0.01747432 0.03036481 0.023809846 -0.008661544 0.030205568 0.009626887 0.01918074 0.013994279
0.06329203 0.006893848 -0.013692973 -0.0349851 -0.0350033 0.045635346 0.00021909304 -0.01838915
0.028288694 -0.021068057 0.070346884 0.08097363 0.094161466 -0.004889109 -0.07554265 0.0020611996
-0.025416633 0.08042883 -0.0361632 -0.012652363 -0.021309372 -0.009689511 0.011810927 0.0018390985
0.0008084451 0.04196978 -0.043864824 -0.010510064 -0.019560978 0.037251767 -0.045173436 -0.068267755
-0.012723843 0.03203801 -0.015906723 0.031981427 0.058988195 0.0051156064 -0.017702308 -0.021842726
-0.09446718 -0.050866984 -0.021846825 0.008523883 -0.10253825 0.0490685 -0.02787373 0.009317177
0.04146491 0.01466308 -0.0033862325 0.004438524 0.028839711 -0.03820411 -0.023165243 -0.00061345636
0.0330218 0.062479377 -0.051402994 -0.04525951 -0.014448758 -0.054656085 0.037143886 -0.11840412

fc1.bias f4 [120]
00000000: 96d0 9a3d e381 e5bd d182 c6bd 9452 d1bc
00000010: f142 5a3d fe0a 26bc 60ae 90bd 57d8 0c3d
00000020: 59d1 6f3c 31c1 5d3d a86f 273e ace9 61bd
00000030: 9dd0 6cbe 6688 ccbc c200 e1bd d13f 2fbd
00000040: 0718 1f3d d80c 443d bccb 49bb c0eb a83d
00000050: f74d 1b3e 1373 57bd 9db5 cbbd 13bb eb3c
00000060: b5ee b53d 200d abbd 76c2 343e 4485 193d
00000070: adb0 803d 8fc3 2f3e 2ac1 e3bd f2cf ca3d
00000080: 219e 92bd 4421 a33c 1d17 d6bd aba0 113d
00000090: b1e1 9abb b9c7 d93c a311 d33d a908 0b3e
000000a0: 4e7a ecbc ed52 6ebd 5ba3 ba3d 84af 81bd
000000b0: 3b25 97bc af7c fc3d caa2 b13d f660 3e3d
000000c0: 176b 86bc 3406 c73d 8c99 31bd 81ed a1bd
000000d0: c762 2a3c a25f cd3d 4dc8 723d 29d0 363b
000000e0: b951 413a 26cd 8d3c edb9 9f3c 17c2 02be
000000f0: 705f e8bd 7f59 413e beca 833d f240 2c3e
00000100: 8f30 e73d 6a55 0bbd 175b debd 2c0a 0e3d
00000110: abe0 013d a4d3 1e3e 0e8a 7fbc ad1c 553e
00000120: a1f3 723d 2291 703d 0489 723e cefe e33c
00000130: 23ef 2fbd 1322 b73d 0fe1 d63d 6501 003d
00000140: 78ce c43b e4ab e0bd 25a6 8cbd f49b 32bc
00000150: fc0b 943c 54d6 b7bb b7a0 2f3d ed24 233d
00000160: b4a9 4cbc faaf ea3c 5a62 2e3d 76a4 523e
00000170: 13b0 b9bd 2295 bfbb b445 edbd 4a3b cc3c
00000180: 0265 39bd 0d9a ff3d 1da5 2bbd 5d12 2b3d
00000190: b374 653c 7545 e23d 8abd ba3d 623f 073d
000001a0: 0cae 96bc 2094 403b d72f b4bc a287 743d
000001b0: 6908 8dbd 1c97 01be 66f9 e83a 2c58 ad3d
000001c0: 79bb 98bd 8f5c b7bd eea6 88bb 7e93 8abd
000001d0: 0753 8dbc 770b e2bc 4e3e e1bd f36d 863d
0.07559316 -0.112064146 -0.0969292 -0.025552072 0.053286497 -0.010134457 -0.070645094 0.034386005
0.014637315 0.05413932 0.16351187 -0.055154487 -0.23126455 -0.024967384 -0.10986473 -0.04278547
0.038841274 0.04786381 -0.0030791601 0.08248091 0.1516646 -0.052599978 -0.09946749 0.028775727
0.088834204 -0.08352113 0.17652306 0.037480608 0.06283698 0.17164443 -0.111208275 0.09902944
-0.07159067 0.019913323 -0.10453627 0.035553616 -0.0047266115 0.026584493 0.10306098 0.13577522
-0.028866913 -0.058184553 0.09113189 -0.06332305 -0.01845037 0.12328469 0.08673628 0.046479188
-0.016408486 0.0971798 -0.043359324 -0.079066284 0.010399527 0.10028006 0.059273053 0.002789507
0.00073745433 0.017309736 0.019497836 -0.12769352 -0.11346328 0.18881796 0.064351544 0.1682165
0.11288559 -0.034017004 -0.10857218 0.03467767 0.0317084 0.15510422 -0.01559688 0.2081172
0.059314374 0.05873216 0.2368508 0.027831461 -0.042952668 0.08942046 0.10492145 0.03125133
0.0060060583 -0.109702855 -0.06867627 -0.01090144 0.01807212 -0.0056102667 0.04287788 0.039830137
-0.012491632 0.028648365 0.042574264 0.2057055 -0.090667866 -0.0058466354 -0.115855604 0.024930615
-0.045262344 0.12480555 -0.04190551 0.04176556 0.014004874 0.11048404 0.09118183 0.03301943
-0.018393539 0.0029385164 -0.021995468 0.059699662 -0.0688637 -0.126553 0.0017774522 0.08464083
-0.074576326 -0.08953201 -0.00417029 -0.06766413 -0.017251505 -0.027593357 -0.10998212 0.0656394

fc2.weight f4 [84, 120]
00000000: 8a1a 9a3c 08a1 40be aa9d c23d 7fb9 4e3c
00000010: 7501 42bc 9e44 0bbd dce5 343d 742f cb3d
00000020: ec39 133d cced 873d 6204 0bbe 5e26 6bbd
00000030: aa9a 323d a05f 24bd 9f84 1dbe d71b b03d
00000040: c455 d93d 54a7 11be 2002 a1bd 3065 4b3c
00000050: 02bf 463a db9a 833d f9c0 a7bd 67e0 0a3d
00000060: 8b9c ff3c f34f e93c 8e8a fcbb b92c 333d
00000070: e39b c03c 83f9 adbd 9623 77bd e1bf 34bd
00000080: 87e9 b5bc 8355 60bd 1cc0 583d 7652 98bd
00000090: 7a36 cbbc 65cb 403d 072d 423d adcc 01be
000000a0: 881c 0cbe b1cc a8bd 0625 a0bc 79d0 d33d
000000b0: c89d 023e 7f9d a6bc b17f 583d 0b58 b13d
000000c0: 8d09 62bd 1664 15bd 0fdd 2fbc 9581 0c3d
000000d0: 99b2 38be 6afe 563d 4906 9dbd 3e04 82bd
000000e0: 4c91 373d 29be 8ebd 1ba7 b4bd 3247 373c
000000f0: 176b c03d 4ce7 3f3d 85ee ae3d 4eb5 b33d
00000100: 5410 463e e7d3 043e a71a 91bc eafe ef3d
00000110: 3c62 e0bd f238 57be b84d a4bc e13c ef3d
00000120: 87f6 a1bc 3054 1bbe 3238 92bc 5db1 18be
00000130: 0dac a7ba 8032 02be 090d 5d3e 808c c93d
00000140: f8bd 50be c672 183e 3188 afbd b912 ad3c
00000150: 3cac b23c 03a4 a93d 0b14 2fbe f044 00bd
00000160: 1a2b 06be 8894 a73d 74fd d2bd a1e2 183e
00000170: 646f 4c3d 5f12 8a3e 8702 183c 23e9 1b3d
00000180: 834b a1bd cd0c 0ebb f524 be3c c5b0 da3b
00000190: c01e 823c 61ef 753d 0ca5 7c3d 546b 22bc
000001a0: a3b3 6fbc 7569 dd3d 543f 31bd 7f6a 183e
000001b0: 31e2 633e 621d 3d3e 3ce5 5c3c aa07 bb3d
000001c0: a3c5 ab3d 912c a439 bdfa 273e 2d0e 1fbc
000001d0: 4845 5d3c 2fb2 e2bd 353c 04be 986c cabd
000001e0: 148c f13c c64a 8c3d 8977 08bd 1866 d33c
000001f0: 31ed afbd 9c31 97bc 73d0 b0bd 0253 70bd
00000200: cb5b 0f3d 711d 9dbd 0a19 5ebd bf0d a73d
00000210: 3dc1 46bd 88f0 18bd cf83 303d 167f afbd
00000220: fcb7 47bc c0ac 393b 096c 97bd ffcf 083d
00000230: 59d1 c83c 8807 56bd 473b c23c c45f b0bd
00000240: a8c9 84bd 54d5 82bd c8ce 4c3d 7522 35bb
00000250: a4cf 263c 1b3e 71bd dad6 b73c 2e32 6ebb
00000260: 7251 58bd d142 a43d 8024 79bb f729 293d
00000270: 6eb2 633d a85d f43b 0f69 7bbd 2a18 abbd
00000280: 1c60 7e3d 6549 fabc cc50 403d ef78 9abd
00000290: 3c3c 6abd a8a1 cebc 61ae 3dbd 2c7b 5bbd
000002a0: aebb b53d 2ad7 06bd 65c3 dfbb 92ab bebb
000002b0: 7618 6abd 6081 d7bb 2b89 893d 23ba 82bd
000002c0: a999 ee3b b4ba 8dbc 0c58 453c 129b 733d
000002d0: 56a9 2d3d 45a4 af3d b96a 473d 5a96 c0bd
000002e0: 0e13 05bc 4ea4 0abd ed2a 9cbc bd2b 543d
000002f0: 8b7e 91bc 36a2 74bd 800f 883d 9916 503c
00000300: 8a72 4a3d 399f 29bc 9100 56bd 6dab 563d
00000310: 7d59 a0bd d80a 433d 3370 b33c a5d3 9ebd
00000320: e15e 39bd 501c 7c3d f0c5 e83c d1a0 51bb
00000330: c0fb c0bc adef 62bd 696d 2a3d ad75 16bd
00000340: 3a09 9cbd a862 3a3d 4c9b 183d f185 e53b
00000350: ff6f a2bd 723e 67bd b559 8abd c98c 9b3d
00000360: 93ad 83bd 64e2 a23c c3dc b5bd 8f40 973d
00000370: 801c 6cbd 6cad 63bd f55f ae3d d9aa 17bd
00000380: d62b 30bd ed7b 45bb 6348 a53d b3c4 b2bc
00000390: 141a 883d 08e1 9b3c 96ca 5bbd 4e4c 083c
000003a0: b791 98bd f1fa cfbb 49f8 93bd dda1 e636
000003b0: 1247 e93c 84fb ddbc ec9f c23a 160b 5f3d
000003c0: 0c73 b8bd 51f1 4e3c 66cc c73d 8a59 d2bd
000003d0: 4f26 bebc 68c2 9fbd 7f26 f83d 21ac 253d
000003e0: 98eb 133d 81e0 84bd 8732 f23d f753 003d
000003f0: 482c d83c 0bc5 403d 773b 0d3e 62b4 d93d
0.018811483 -0.18811429 0.09502728 0.012617468 -0.011841168 -0.034000985 0.044164523 0.0992116
0.03594391 0.06637153 -0.1357589 -0.057409637 0.04360453 -0.040130258 -0.15382622 0.0859906
0.106120616 -0.14223987 -0.078617334 0.012414262 0.0007581563 0.06426021 -0.081911035 0.033905413
0.031202575 0.028480506 -0.0077069467 0.043743823 0.023511833 -0.08494856 -0.06033667 -0.044128302
-0.022206081 -0.05476905 0.052917585 -0.07437603 -0.02480625 0.047068972 0.047406223 -0.12675734
-0.13682759 -0.08242167 -0.019548904 0.103424974 0.12755501 -0.020338772 0.05285615 0.08659371
-0.05518489 -0.036472403 -0.010733857 0.034303267 -0.1803688 0.052488722 -0.076672144 -0.063484654
0.0448163 -0.06969864 -0.08820935 0.011186408 0.09395426 0.04685144 0.08541588 0.087748155
0.19342166 0.1297146 -0.017712904 0.11718543 -0.10956237 -0.21017817 -0.02005659 0.116815336
-0.019770874 -0.15168834 -0.017849062 -0.14911409 -0.0012792364 -0.12714577 0.21587004 0.098412514
-0.20384967 0.14887533 -0.08570898 0.021127092 0.021810643 0.08283236 -0.1709749 -0.031315744
-0.1310238 0.08182627 -0.103022486 0.14930202 0.049910918 0.2696714 0.009277946 0.038064133
-0.07875731 -0.002167511 0.023210982 0.0066739046 0.015883803 0.060042743 0.06168084 -0.009913284
-0.014630231 0.1081113 -0.043273285 0.14884375 0.22254254 0.1846824 0.013482388 0.09132321
0.083873056 0.00031313722 0.16404243 -0.00970797 0.0135052875 -0.11069142 -0.12913592 -0.09883994
0.02948574 0.068501994 -0.033317123 0.025805518 -0.085901625 -0.018456273 -0.086335085 -0.058672912
0.03499965 -0.07671631 -0.054223098 0.08156919 -0.04852413 -0.037338763 0.043094452 -0.085691616
-0.012189861 0.0028331727 -0.07393653 0.033401486 0.024513887 -0.052253276 0.023709906 -0.08612016
-0.064837754 -0.06388345 0.05000189 -0.0027638946 0.010181341 -0.05889712 0.022441316 -0.0036345827
-0.052812047 0.08020557 -0.003801614 0.041299786 0.055590086 0.0074574538 -0.06137949 -0.08354218
0.062103376 -0.030552575 0.046952054 -0.075425975 -0.05718635 -0.025223568 -0.04630888 -0.053584263
0.08873688 -0.03292004 -0.0068287128 -0.0058187926 -0.057152234 -0.006576702 0.06715616 -0.06383159
0.0072815013 -0.017300941 0.012044918 0.05947406 0.04239782 0.08576254 0.048685763 -0.09403677
-0.008122219 -0.0338481 -0.019063437 0.051799525 -0.017760536 -0.05972501 0.066435814 0.0127007
0.04942564 -0.010352903 -0.052246634 0.052409578 -0.078295685 0.047617763 0.021904087 -0.07755212
-0.0452565 0.06155044 0.028414696 -0.0031986723 -0.023557544 -0.055404354 0.041608248 -0.036733318
-0.07618947 0.045504242 0.037257478 0.0070044925 -0.07931518 -0.056456037 -0.067553915 0.07595212
-0.06429591 0.019883342 -0.088799976 0.073853604 -0.057644367 -0.05558531 0.08514396 -0.037028167
-0.043010555 -0.003013368 0.08070447 -0.02182231 0.06645599 0.019028202 -0.053659998 0.008318974
-0.07449668 -0.006347053 -0.07225091 6.8733775e-06 0.028476272 -0.027097471 0.0014848686 0.05445393
-0.090063184 0.0126307765 0.09755783 -0.102709845 -0.023211626 -0.07800752 0.121167175 0.040447358
0.03611335 -0.06488133 0.118260436 0.031330075 0.026388302 0.047062915 0.13792215 0.106301084

fc2.bias f4 [84]
00000000: 7f64 963d 3d38 a23c 6c66 e4bd 3879 2fbe
00000010: 2db0 8fbb ddc4 68bc a093 81bd b227 173d
00000020: 25b1 183e 1042 c4bd d5e8 1d3e f9af ce3d
00000030: 8789 963c 2656 cb3d 2e32 21be 0ec9 493a
00000040: 9cf7 edbd a00e e13d 2dc5 6bbd 0169 debb
00000050: 3e2c 9c3e 1d3d 383e e148 f4bd eb1d d2bd
00000060: 80b6 803b de82 73bc 758e 62bd bbaf d33c
00000070: 1bbc 97bd 09a9 83bd c3b3 86bc a056 42bd
00000080: a0dd 473d 6210 d2bd 653d f4bc 1a4a 52bd
00000090: 3b36 e1bd d0fd 51bd b6c0 bfbd f47c 22be
000000a0: 0fe3 553e 9686 87bd af05 a03d f0e7 033d
000000b0: e839 6f3e 0b02 d73e 989e d53d 592e 7cbd
000000c0: fb99 c53e 89d6 d5bd 1417 3b3e e040 3b3d
000000d0: 2571 f43c c614 1fbd 67ad eebb 1d47 1a3e
000000e0: 82fd b1bc 41ec 543b 636c 213e 2880 adbc
000000f0: b00f 993d d4d6 703e 943c b1bd 1c9b b8bd
00000100: a4e8 0fbc bcad 633c 2e02 883b e1c8 623e
00000110: 1fdc 6cbd 5792 eebb 0710 8dbe 2690 80bd
00000120: cdce c1bc c618 82bd 3be6 9b3e 7de7 36bd
00000130: 7076 debd 471f 4f3d e94a 153d 0f58 853d
00000140: 9f8b a43e 4b31 c4bd 7426 973e 0f99 ed3d
0.07343387 0.019802207 -0.11152348 -0.17136085 -0.0043850155 -0.014207092 -0.06326985 0.03690309
0.14911325 -0.09582913 0.1542085 0.10092158 0.018376125 0.09928541 -0.15741798 0.0007697501
-0.11619493 0.109891176 -0.05756109 -0.00678742 0.30502504 0.17992063 -0.11927963 -0.10259613
0.0039280057 -0.014862744 -0.05531164 0.02584063 -0.07408925 -0.06428725 -0.016443139 -0.047445893
0.048795342 -0.10257031 -0.029814431 -0.0513402 -0.10996672 -0.051267445 -0.093629286 -0.15867978
0.20887397 -0.06617467 0.07813584 0.032203615 0.23361933 0.41993746 0.1043064 -0.061567638
0.3859404 -0.1044131 0.18270522 0.045716166 0.029839108 -0.03883817 -0.0072838548 0.1506619
-0.021727327 0.003248945 0.15764003 -0.021179274 0.07473695 0.2351945 -0.086541325 -0.0901396
-0.008783493 0.013896402 0.0041506505 0.22146942 -0.05782711 -0.0072806287 -0.2755129 -0.06277494
-0.02365818 -0.063523814 0.3044909 -0.04465436 -0.10862434 0.050566938 0.036448393 0.065109365
0.32137772 -0.095797144 0.29521525 0.11601459

fc3.weight f4 [10, 84]
00000000: 8ff5 3fbe 9ed2 9e3d a867 c43d 6fe8 4e3e
00000010: 7b64 47be 0146 44be ed5a cabd 4f86 a13d
00000020: 1870 82be ce01 3dbe c6fb 8bbe 2c5f 82be
00000030: 71d1 a93e ea71 d63d a18a 343e 7861 f53d
00000040: 593c d13e ec12 923e 26a3 d2bd 44c6 16be
00000050: 08b0 ebbd 1104 6d3e e915 d93d 5cce 17bd
00000060: 402e 16bc cfa6 573e 9198 afbd af07 3b3e
00000070: ce4c 8f3e a12e 63bc ec8f 303e f4b9 cc3d
00000080: 855f 56be df6b c23e 28e1 f53d 6321 8a3d
00000090: 927d 823e 28bd 1ebe a50b 37be 0051 343e
000000a0: 5ac7 b93d e07c b13e d8c4 cf3d e386 d43d
000000b0: 2eb1 0dbe cf1f 0bbe e8c6 42be f588 983e
000000c0: 5e41 89bd d473 d73d ac33 a53d 60ef 5a3e
000000d0: aa39 56bd f06c f0bd 2f54 d13e 5ee6 b0bd
000000e0: 6aa7 b4bd 14d9 3bbe 1dfa 833d a264 8dbd
000000f0: 1b0b 4dbe e9ce 70be e09d 0d3e 3903 863c
00000100: 3ba1 0f3e 1b99 08be 763a 95bd f903 9bbd
00000110: 4cd7 2abe b2d8 483e c897 543d 3614 583e
00000120: 3af5 343d d3d9 a33d 2b28 63be 96cb 783e
00000130: 5645 173e 1254 51be 6c2d bf3c 3d6f 763d
00000140: 574b 34be 9bd7 133d f1eb 14be 70d8 4c3d
00000150: 6fe9 2b3e b708 89bd 1f1d 59bd 4726 02be
00000160: 08c0 c0bd 077a 633e 184c 7abc 8af7 383e
00000170: f1ca 87be cba6 dd3d c689 08bd 391f 8c3e
00000180: 304d a4bc a62c ef3d 03e7 5f3e b18f 4fbe
00000190: 288c 86be 2b5b e9be 0a57 bdbc aefe 0fbd
000001a0: df11 92bd bace 98be a85a 363c 95dc b33e
000001b0: 3686 063f 3ea4 68bd 1eca 6a3c aa0a 31bd
000001c0: 1c57 8a3e f492 073e 538e 3abe a852 55be
000001d0: 9082 f43d f0f0 f33d 99d6 aa3d dfcb b9bc
000001e0: f412 093e ba22 b13e a0e3 09be 9c70 5abd
000001f0: 0aab 4bbe e50d 043e 9ab2 0ebd 034d 90bd
00000200: c9a2 fdbe e390 18be 2bd0 923d 6e76 2abc
00000210: 9594 163e dbe9 d23d 4b11 213c fe2b b13c
00000220: b2ee c3bc f30a 873d bb49 433e d099 353e
00000230: d76e 1dbd 41b7 8d3e c5f8 f4be 77fc c93d
00000240: aee1 fe3d 13f1 0c3e 6412 b7bd 5597 9bbd
00000250: add5 adba d7dd 38bd dca0 35bb 66d0 8f3c
00000260: 11f2 0dbe 471b e33e c760 89be c1f5 cfbe
00000270: e3f9 c33d fce5 83bd a44a 89bd 3234 8f3d
00000280: e26f e4bd 2a0f 853d de61 70bd ec7f 563e
00000290: 3636 f7be 573f 0a3d c8de 0fbe 8553 ba3c
000002a0: 4533 62be 8de7 af3d ebb6 86be 2290 38bc
000002b0: 430a 363d a7ac 0dbe a3c3 fd3c 37ed bb3d
000002c0: 3a21 a93e 8af8 97be 1076 adbe 945a f9bc
000002d0: d40d 13bc 1e03 873e 3730 223c 297b 983d
000002e0: d6d6 b43e 45b5 613d f712 c0bc 49a6 89bd
000002f0: a50c 103e d488 db3e f316 773e 5d09 f6bd
00000300: 4861 46be 12b8 acbe 189d ac3e cc6e c8bd
00000310: 1d28 db3c e7cf ac3d 07d5 0c3f 99ca 703e
00000320: f54a 343e 3137 f4bd 48ff 933d 01a8 95be
00000330: 0d93 0f3c 2e92 913e a4a8 1e3c dd1b a4bd
00000340: dafc 983d 2161 3abe 268a 063e 5a93 983d
00000350: c53c 96bb 1a2e e33b 3ae7 adbe ae64 ca3d
00000360: 0eb6 b13e 6fab 8a3d f690 53be 4d3a 423e
00000370: 534d a83d 38b1 6dbe 3ac5 4abd 7de4 52be
00000380: 9f7d 43be 5f14 8f3e 77d4 d73d 2626 16be
00000390: 6295 88be 9894 8ebc 1d25 52bd 7d6f 49bd
000003a0: 14e3 dbbd f7c2 10be b749 313e 6257 7c3e
000003b0: c8fa 453c cdf5 04be b913 48be 2341 99bd
000003c0: cd5b 8e3d f3e2 2d3e 917a e6bc 2952 253d
000003d0: 82c3 143e 77a1 fe3a 2e3f 57bd 7e9b 203e
000003e0: 8792 953e 06fc 903e a847 913d e7ae 2a3e
000003f0: d18a 863e 6b86 753d 0ba9 583d 5785 693e
-0.18746017 0.07755016 0.09590083 0.20205854 -0.19471924 -0.1916733 -0.09880624 0.078869455
-0.25476146 -0.1845772 -0.27340525 -0.25463235 0.33167604 0.10470946 0.17631008 0.11981481
0.40866354 0.2853006 -0.10285024 -0.1472407 -0.11508185 0.23146082 0.10599882 -0.037062034
-0.0091663 0.21059726 -0.085740216 0.1826465 0.27988285 -0.013866098 0.17242402 0.09996405
-0.20934875 0.37972924 0.12005836 0.06744649 0.25486428 -0.15501845 -0.17875536 0.17609024
0.090712264 0.34665585 0.10144967 0.1037729 -0.1383712 -0.13586353 -0.19021189 0.2979199
-0.06701921 0.10520139 0.08066496 0.21380377 -0.052301086 -0.11739528 0.4088454 -0.08637689
-0.08820994 -0.18344527 0.0644419 -0.0690396 -0.20023768 -0.2351643 0.13829756 0.016358959
0.14026348 -0.13339655 -0.07286541 -0.07569117 -0.16683692 0.19613913 0.051902562 0.2110146
0.04417918 0.08000531 -0.22183292 0.24296412 0.14772543 -0.20442227 0.023337089 0.06016468
-0.17606865 0.03609429 -0.1454313 0.0500111 0.16788267 -0.06691115 -0.053006288 -0.12709914
-0.09411627 0.22214518 -0.015276931 0.18063179 -0.2652202 0.10822829 -0.033334516 0.2736757
-0.020056337 0.11678438 0.21865468 -0.20269658 -0.26278806 -0.45577368 -0.023112793 -0.03515499
-0.07132315 -0.2984522 0.011130013 0.35129228 0.5254854 -0.05679726 0.014330415 -0.04322306
0.27019584 0.13239652 -0.18218355 -0.20832312 0.11938965 0.119111896 0.083417125 -0.022680221
0.13386136 0.34596807 -0.13465738 -0.05333005 -0.19889465 0.12895925 -0.034838296 -0.07045939
-0.49538258 -0.1489902 0.07168611 -0.010404212 0.14705117 0.10298511 0.009830783 0.021627422
-0.02391753 0.06593885 0.19071095 0.17734456 -0.038435783 0.27678874 -0.47846046 0.09862607
0.12445389 0.13763838 -0.089390546 -0.07597224 -0.0013262533 -0.045133438 -0.0027714288 0.017555427
-0.13861872 0.44356748 -0.26831648 -0.40617183 0.095691465 -0.064403504 -0.0670369 0.06992377
-0.111541525 0.06497033 -0.058687083 0.20947236 -0.48283547 0.03375181 -0.14049828 0.022744903
-0.2208987 0.08589087 -0.2631143 -0.011264833 0.04444338 -0.13835393 0.030977076 0.091761045
0.33033162 -0.29681808 -0.33879137 -0.030438699 -0.008975465 0.26369566 0.009899191 0.07445366
0.35320157 0.055104513 -0.023446543 -0.067211695 0.14067324 0.4287783 0.24129848 -0.12013505
-0.19373047 -0.33734185 0.33713603 -0.09786758 0.026752526 0.08438092 0.55012554 0.23514785
0.17606719 -0.119245894 0.072264254 -0.2922974 0.008763087 0.2843184 0.009683762 -0.08013127
0.074701026 -0.18201114 0.13138637 0.0744998 -0.004584881 0.006932986 -0.33965474 0.098824844
0.3470921 0.067709796 -0.20660767 0.18967552 0.082178734 -0.23212135 -0.049504496 -0.20594974
-0.1909089 0.2794523 0.10538571 -0.1466299 -0.2667647 -0.01740484 -0.051304925 -0.04917859
-0.10736671 -0.14136873 0.17313276 0.24642709 0.012083717 -0.1298439 -0.19538774 -0.07483127
0.06951103 0.16981106 -0.028134616 0.040361557 0.14527705 0.0019426782 -0.052550487 0.15684316
0.29213354 0.2831728 0.070937455 0.16668282 0.26277784 0.059942644 0.052895587 0.22804771

fc3.bias f4 [10]
00000000: fa3d edbe 7896 25be 30a5 2a3d b463 f93d
00000010: f7f8 293f acd2 72be cb9e 7c3e 2599 a6bd
00000020: abf8 b0bd d8fe 2ebe
-0.46336347 -0.1617068 0.04166144 0.1217722 0.66395515 -0.23713177 0.2466995 -0.08134679
-0.0864118 -0.17089403
